<?xml version="1.0"?>
<net name="Model0" version="11">
	<layers>
		<layer id="3" name="input_ids" type="Parameter" version="opset1">
			<data shape="?,?" element_type="i64" />
			<output>
				<port id="0" precision="I64" names="input_ids">
					<dim>-1</dim>
					<dim>-1</dim>
				</port>
			</output>
		</layer>
		<layer id="2" name="attention_mask" type="Parameter" version="opset1">
			<data shape="?,?" element_type="i64" />
			<output>
				<port id="0" precision="I64" names="attention_mask">
					<dim>-1</dim>
					<dim>-1</dim>
				</port>
			</output>
		</layer>
		<layer id="1" name="position_ids" type="Parameter" version="opset1">
			<data shape="?,?" element_type="i64" />
			<output>
				<port id="0" precision="I64" names="position_ids">
					<dim>-1</dim>
					<dim>-1</dim>
				</port>
			</output>
		</layer>
		<layer id="0" name="beam_idx" type="Parameter" version="opset1">
			<data shape="?" element_type="i32" />
			<output>
				<port id="0" precision="I32" names="beam_idx">
					<dim>-1</dim>
				</port>
			</output>
		</layer>
		<layer id="4" name="Constant_77134" type="Const" version="opset1">
			<data element_type="f32" shape="" offset="0" size="4" />
			<output>
				<port id="0" precision="FP32" />
			</output>
		</layer>
		<layer id="5" name="ShapeOf_77120" type="ShapeOf" version="opset3">
			<data output_type="i64" />
			<input>
				<port id="0" precision="I64">
					<dim>-1</dim>
					<dim>-1</dim>
				</port>
			</input>
			<output>
				<port id="1" precision="I64">
					<dim>2</dim>
				</port>
			</output>
		</layer>
		<layer id="6" name="Constant_77122" type="Const" version="opset1">
			<data element_type="i64" shape="1" offset="4" size="8" />
			<output>
				<port id="0" precision="I64">
					<dim>1</dim>
				</port>
			</output>
		</layer>
		<layer id="7" name="Constant_77124" type="Const" version="opset1">
			<data element_type="i64" shape="" offset="4" size="8" />
			<output>
				<port id="0" precision="I64" />
			</output>
		</layer>
		<layer id="8" name="Gather_77125" type="Gather" version="opset8">
			<data batch_dims="0" />
			<input>
				<port id="0" precision="I64">
					<dim>2</dim>
				</port>
				<port id="1" precision="I64">
					<dim>1</dim>
				</port>
				<port id="2" precision="I64" />
			</input>
			<output>
				<port id="3" precision="I64">
					<dim>1</dim>
				</port>
			</output>
		</layer>
		<layer id="9" name="Constant_77127" type="Const" version="opset1">
			<data element_type="i64" shape="1" offset="12" size="8" />
			<output>
				<port id="0" precision="I64">
					<dim>1</dim>
				</port>
			</output>
		</layer>
		<layer id="10" name="Constant_77129" type="Const" version="opset1">
			<data element_type="i64" shape="1" offset="4" size="8" />
			<output>
				<port id="0" precision="I64">
					<dim>1</dim>
				</port>
			</output>
		</layer>
		<layer id="11" name="Constant_77131" type="Const" version="opset1">
			<data element_type="i64" shape="1" offset="20" size="8" />
			<output>
				<port id="0" precision="I64">
					<dim>1</dim>
				</port>
			</output>
		</layer>
		<layer id="12" name="Concat_77132" type="Concat" version="opset1">
			<data axis="0" />
			<input>
				<port id="0" precision="I64">
					<dim>1</dim>
				</port>
				<port id="1" precision="I64">
					<dim>1</dim>
				</port>
				<port id="2" precision="I64">
					<dim>1</dim>
				</port>
				<port id="3" precision="I64">
					<dim>1</dim>
				</port>
			</input>
			<output>
				<port id="4" precision="I64">
					<dim>4</dim>
				</port>
			</output>
		</layer>
		<layer id="13" name="Broadcast_77135" type="Broadcast" version="opset3">
			<data mode="numpy" />
			<input>
				<port id="0" precision="FP32" />
				<port id="1" precision="I64">
					<dim>4</dim>
				</port>
			</input>
			<output>
				<port id="2" precision="FP32">
					<dim>-1</dim>
					<dim>2</dim>
					<dim>0</dim>
					<dim>128</dim>
				</port>
			</output>
		</layer>
		<layer id="14" name="ReadValue_76720" type="ReadValue" version="opset6">
			<data variable_id="past_key_values.9.valuepresent.9.value" variable_type="f32" variable_shape="?,2,?,128" />
			<input>
				<port id="0" precision="FP32">
					<dim>-1</dim>
					<dim>2</dim>
					<dim>0</dim>
					<dim>128</dim>
				</port>
			</input>
			<output>
				<port id="1" precision="FP32" names="past_key_values.9.value">
					<dim>-1</dim>
					<dim>2</dim>
					<dim>-1</dim>
					<dim>128</dim>
				</port>
			</output>
		</layer>
		<layer id="15" name="Constant_76102" type="Const" version="opset1">
			<data element_type="i64" shape="" offset="4" size="8" />
			<output>
				<port id="0" precision="I64" />
			</output>
		</layer>
		<layer id="16" name="Gather_76103" type="Gather" version="opset8">
			<data batch_dims="0" />
			<input>
				<port id="0" precision="FP32">
					<dim>-1</dim>
					<dim>2</dim>
					<dim>-1</dim>
					<dim>128</dim>
				</port>
				<port id="1" precision="I32">
					<dim>-1</dim>
				</port>
				<port id="2" precision="I64" />
			</input>
			<output>
				<port id="3" precision="FP32">
					<dim>-1</dim>
					<dim>2</dim>
					<dim>-1</dim>
					<dim>128</dim>
				</port>
			</output>
		</layer>
		<layer id="17" name="Constant_66266" type="Const" version="opset1">
			<data element_type="f32" shape="1, 1, 1536" offset="28" size="6144" />
			<output>
				<port id="0" precision="FP32">
					<dim>1</dim>
					<dim>1</dim>
					<dim>1536</dim>
				</port>
			</output>
		</layer>
		<layer id="18" name="self.model.embed_tokens.weight" type="Const" version="opset1">
			<data element_type="u8" shape="151936, 1536" offset="6172" size="233373696" />
			<output>
				<port id="0" precision="U8">
					<dim>151936</dim>
					<dim>1536</dim>
				</port>
			</output>
		</layer>
		<layer id="19" name="Convert_92350" type="Convert" version="opset1">
			<data destination_type="f16" />
			<input>
				<port id="0" precision="U8">
					<dim>151936</dim>
					<dim>1536</dim>
				</port>
			</input>
			<output>
				<port id="1" precision="FP16">
					<dim>151936</dim>
					<dim>1536</dim>
				</port>
			</output>
		</layer>
		<layer id="20" name="self.model.embed_tokens.weight/zero_point" type="Const" version="opset1">
			<data element_type="u8" shape="151936, 1" offset="233379868" size="151936" />
			<output>
				<port id="0" precision="U8">
					<dim>151936</dim>
					<dim>1</dim>
				</port>
			</output>
		</layer>
		<layer id="21" name="Convert_92353" type="Convert" version="opset1">
			<data destination_type="f16" />
			<input>
				<port id="0" precision="U8">
					<dim>151936</dim>
					<dim>1</dim>
				</port>
			</input>
			<output>
				<port id="1" precision="FP16">
					<dim>151936</dim>
					<dim>1</dim>
				</port>
			</output>
		</layer>
		<layer id="22" name="self.model.embed_tokens.weight/zero_point/subtract" type="Subtract" version="opset1">
			<data auto_broadcast="numpy" />
			<input>
				<port id="0" precision="FP16">
					<dim>151936</dim>
					<dim>1536</dim>
				</port>
				<port id="1" precision="FP16">
					<dim>151936</dim>
					<dim>1</dim>
				</port>
			</input>
			<output>
				<port id="2" precision="FP16">
					<dim>151936</dim>
					<dim>1536</dim>
				</port>
			</output>
		</layer>
		<layer id="23" name="self.model.embed_tokens.weight/scale" type="Const" version="opset1">
			<data element_type="f16" shape="151936, 1" offset="233531804" size="303872" />
			<output>
				<port id="0" precision="FP16">
					<dim>151936</dim>
					<dim>1</dim>
				</port>
			</output>
		</layer>
		<layer id="24" name="self.model.embed_tokens.weight/fq_weights_0" type="Multiply" version="opset1">
			<data auto_broadcast="numpy" />
			<input>
				<port id="0" precision="FP16">
					<dim>151936</dim>
					<dim>1536</dim>
				</port>
				<port id="1" precision="FP16">
					<dim>151936</dim>
					<dim>1</dim>
				</port>
			</input>
			<output>
				<port id="2" precision="FP16">
					<dim>151936</dim>
					<dim>1536</dim>
				</port>
			</output>
		</layer>
		<layer id="25" name="__module.model.embed_tokens/ov_ext::embedding/Convert" type="Convert" version="opset1">
			<data destination_type="f32" />
			<rt_info>
				<attribute name="decompression" version="0" />
			</rt_info>
			<input>
				<port id="0" precision="FP16">
					<dim>151936</dim>
					<dim>1536</dim>
				</port>
			</input>
			<output>
				<port id="1" precision="FP32">
					<dim>151936</dim>
					<dim>1536</dim>
				</port>
			</output>
		</layer>
		<layer id="26" name="__module.model.embed_tokens/ov_ext::embedding/Convert_1" type="Convert" version="opset1">
			<data destination_type="i32" />
			<input>
				<port id="0" precision="I64">
					<dim>-1</dim>
					<dim>-1</dim>
				</port>
			</input>
			<output>
				<port id="1" precision="I32">
					<dim>-1</dim>
					<dim>-1</dim>
				</port>
			</output>
		</layer>
		<layer id="27" name="__module.model.embed_tokens/ov_ext::embedding/Constant" type="Const" version="opset1">
			<data element_type="i32" shape="" offset="0" size="4" />
			<output>
				<port id="0" precision="I32" />
			</output>
		</layer>
		<layer id="28" name="__module.model.embed_tokens/ov_ext::embedding/Gather" type="Gather" version="opset8">
			<data batch_dims="0" />
			<input>
				<port id="0" precision="FP32">
					<dim>151936</dim>
					<dim>1536</dim>
				</port>
				<port id="1" precision="I32">
					<dim>-1</dim>
					<dim>-1</dim>
				</port>
				<port id="2" precision="I32" />
			</input>
			<output>
				<port id="3" precision="FP32" names="283,364,375,hidden_states.1,inputs_embeds">
					<dim>-1</dim>
					<dim>-1</dim>
					<dim>1536</dim>
				</port>
			</output>
		</layer>
		<layer id="29" name="Constant_66175" type="Const" version="opset1">
			<data element_type="f32" shape="1, 1, 1536" offset="233835676" size="6144" />
			<output>
				<port id="0" precision="FP32">
					<dim>1</dim>
					<dim>1</dim>
					<dim>1536</dim>
				</port>
			</output>
		</layer>
		<layer id="30" name="Constant_66174" type="Const" version="opset1">
			<data element_type="f32" shape="1, 1, 1" offset="233841820" size="4" />
			<output>
				<port id="0" precision="FP32">
					<dim>1</dim>
					<dim>1</dim>
					<dim>1</dim>
				</port>
			</output>
		</layer>
		<layer id="31" name="Constant_66172" type="Const" version="opset1">
			<data element_type="f32" shape="1, 1, 1" offset="233841824" size="4" />
			<output>
				<port id="0" precision="FP32">
					<dim>1</dim>
					<dim>1</dim>
					<dim>1</dim>
				</port>
			</output>
		</layer>
		<layer id="32" name="__module.model.layers.0.input_layernorm/aten::pow/Power" type="Power" version="opset1">
			<data auto_broadcast="numpy" />
			<input>
				<port id="0" precision="FP32">
					<dim>-1</dim>
					<dim>-1</dim>
					<dim>1536</dim>
				</port>
				<port id="1" precision="FP32">
					<dim>1</dim>
					<dim>1</dim>
					<dim>1</dim>
				</port>
			</input>
			<output>
				<port id="2" precision="FP32" names="365">
					<dim>-1</dim>
					<dim>-1</dim>
					<dim>1536</dim>
				</port>
			</output>
		</layer>
		<layer id="33" name="Constant_630" type="Const" version="opset1">
			<data element_type="i64" shape="1" offset="233841828" size="8" />
			<output>
				<port id="0" precision="I64" names="366">
					<dim>1</dim>
				</port>
			</output>
		</layer>
		<layer id="34" name="__module.model.layers.0.input_layernorm/aten::mean/ReduceMean" type="ReduceMean" version="opset1">
			<data keep_dims="true" />
			<input>
				<port id="0" precision="FP32">
					<dim>-1</dim>
					<dim>-1</dim>
					<dim>1536</dim>
				</port>
				<port id="1" precision="I64">
					<dim>1</dim>
				</port>
			</input>
			<output>
				<port id="2" precision="FP32" names="367,variance.1">
					<dim>-1</dim>
					<dim>-1</dim>
					<dim>1</dim>
				</port>
			</output>
		</layer>
		<layer id="35" name="Constant_66173" type="Const" version="opset1">
			<data element_type="f32" shape="1, 1, 1" offset="233841836" size="4" />
			<output>
				<port id="0" precision="FP32">
					<dim>1</dim>
					<dim>1</dim>
					<dim>1</dim>
				</port>
			</output>
		</layer>
		<layer id="36" name="__module.model.layers.0.input_layernorm/aten::add/Add" type="Add" version="opset1">
			<data auto_broadcast="numpy" />
			<input>
				<port id="0" precision="FP32">
					<dim>-1</dim>
					<dim>-1</dim>
					<dim>1</dim>
				</port>
				<port id="1" precision="FP32">
					<dim>1</dim>
					<dim>1</dim>
					<dim>1</dim>
				</port>
			</input>
			<output>
				<port id="2" precision="FP32" names="368">
					<dim>-1</dim>
					<dim>-1</dim>
					<dim>1</dim>
				</port>
			</output>
		</layer>
		<layer id="37" name="__module.model.layers.0.input_layernorm/aten::rsqrt/Sqrt" type="Sqrt" version="opset1">
			<input>
				<port id="0" precision="FP32">
					<dim>-1</dim>
					<dim>-1</dim>
					<dim>1</dim>
				</port>
			</input>
			<output>
				<port id="1" precision="FP32">
					<dim>-1</dim>
					<dim>-1</dim>
					<dim>1</dim>
				</port>
			</output>
		</layer>
		<layer id="38" name="__module.model.layers.0.input_layernorm/aten::rsqrt/Divide" type="Divide" version="opset1">
			<data auto_broadcast="numpy" m_pythondiv="true" />
			<input>
				<port id="0" precision="FP32">
					<dim>1</dim>
					<dim>1</dim>
					<dim>1</dim>
				</port>
				<port id="1" precision="FP32">
					<dim>-1</dim>
					<dim>-1</dim>
					<dim>1</dim>
				</port>
			</input>
			<output>
				<port id="2" precision="FP32" names="369">
					<dim>-1</dim>
					<dim>-1</dim>
					<dim>1</dim>
				</port>
			</output>
		</layer>
		<layer id="39" name="__module.model.layers.0.input_layernorm/aten::mul/Multiply" type="Multiply" version="opset1">
			<data auto_broadcast="numpy" />
			<input>
				<port id="0" precision="FP32">
					<dim>-1</dim>
					<dim>-1</dim>
					<dim>1536</dim>
				</port>
				<port id="1" precision="FP32">
					<dim>-1</dim>
					<dim>-1</dim>
					<dim>1</dim>
				</port>
			</input>
			<output>
				<port id="2" precision="FP32" names="370,371,hidden_states.3,hidden_states.5">
					<dim>-1</dim>
					<dim>-1</dim>
					<dim>1536</dim>
				</port>
			</output>
		</layer>
		<layer id="40" name="__module.model.layers.0.input_layernorm/aten::mul/Multiply_1" type="Multiply" version="opset1">
			<data auto_broadcast="numpy" />
			<input>
				<port id="0" precision="FP32">
					<dim>1</dim>
					<dim>1</dim>
					<dim>1536</dim>
				</port>
				<port id="1" precision="FP32">
					<dim>-1</dim>
					<dim>-1</dim>
					<dim>1536</dim>
				</port>
			</input>
			<output>
				<port id="2" precision="FP32" names="372,374,hidden_states.7">
					<dim>-1</dim>
					<dim>-1</dim>
					<dim>1536</dim>
				</port>
			</output>
		</layer>
		<layer id="41" name="self.model.layers.0.self_attn.q_proj.weight" type="Const" version="opset1">
			<data element_type="i4" shape="1536, 12, 128" offset="233841840" size="1179648" />
			<output>
				<port id="0" precision="I4">
					<dim>1536</dim>
					<dim>12</dim>
					<dim>128</dim>
				</port>
			</output>
		</layer>
		<layer id="42" name="Convert_92957" type="Convert" version="opset1">
			<data destination_type="f16" />
			<input>
				<port id="0" precision="I4">
					<dim>1536</dim>
					<dim>12</dim>
					<dim>128</dim>
				</port>
			</input>
			<output>
				<port id="1" precision="FP16">
					<dim>1536</dim>
					<dim>12</dim>
					<dim>128</dim>
				</port>
			</output>
		</layer>
		<layer id="43" name="self.model.layers.0.self_attn.q_proj.weight/scale" type="Const" version="opset1">
			<data element_type="f16" shape="1536, 12, 1" offset="235021488" size="36864" />
			<output>
				<port id="0" precision="FP16">
					<dim>1536</dim>
					<dim>12</dim>
					<dim>1</dim>
				</port>
			</output>
		</layer>
		<layer id="44" name="self.model.layers.0.self_attn.q_proj.weight/fq_weights_1" type="Multiply" version="opset1">
			<data auto_broadcast="numpy" />
			<input>
				<port id="0" precision="FP16">
					<dim>1536</dim>
					<dim>12</dim>
					<dim>128</dim>
				</port>
				<port id="1" precision="FP16">
					<dim>1536</dim>
					<dim>12</dim>
					<dim>1</dim>
				</port>
			</input>
			<output>
				<port id="2" precision="FP16">
					<dim>1536</dim>
					<dim>12</dim>
					<dim>128</dim>
				</port>
			</output>
		</layer>
		<layer id="45" name="Constant_92961" type="Const" version="opset1">
			<data element_type="i64" shape="2" offset="235058352" size="16" />
			<output>
				<port id="0" precision="I64">
					<dim>2</dim>
				</port>
			</output>
		</layer>
		<layer id="46" name="Reshape_92962" type="Reshape" version="opset1">
			<data special_zero="false" />
			<input>
				<port id="0" precision="FP16">
					<dim>1536</dim>
					<dim>12</dim>
					<dim>128</dim>
				</port>
				<port id="1" precision="I64">
					<dim>2</dim>
				</port>
			</input>
			<output>
				<port id="2" precision="FP16">
					<dim>1536</dim>
					<dim>1536</dim>
				</port>
			</output>
		</layer>
		<layer id="47" name="__module.model.layers.0.self_attn.q_proj/ov_ext::linear/Convert" type="Convert" version="opset1">
			<data destination_type="f32" />
			<rt_info>
				<attribute name="decompression" version="0" />
			</rt_info>
			<input>
				<port id="0" precision="FP16">
					<dim>1536</dim>
					<dim>1536</dim>
				</port>
			</input>
			<output>
				<port id="1" precision="FP32">
					<dim>1536</dim>
					<dim>1536</dim>
				</port>
			</output>
		</layer>
		<layer id="48" name="__module.model.layers.0.self_attn.q_proj/ov_ext::linear/MatMul" type="MatMul" version="opset1">
			<data transpose_a="false" transpose_b="true" />
			<input>
				<port id="0" precision="FP32">
					<dim>-1</dim>
					<dim>-1</dim>
					<dim>1536</dim>
				</port>
				<port id="1" precision="FP32">
					<dim>1536</dim>
					<dim>1536</dim>
				</port>
			</input>
			<output>
				<port id="2" precision="FP32">
					<dim>-1</dim>
					<dim>-1</dim>
					<dim>1536</dim>
				</port>
			</output>
		</layer>
		<layer id="49" name="self.model.layers.0.self_attn.q_proj.bias" type="Const" version="opset1">
			<data element_type="bf16" shape="1536" offset="235058368" size="3072" />
			<output>
				<port id="0" precision="BF16" names="self.model.layers.0.self_attn.q_proj.bias">
					<dim>1536</dim>
				</port>
			</output>
		</layer>
		<layer id="50" name="__module.model.layers.0.self_attn.q_proj/ov_ext::linear/Convert_1" type="Convert" version="opset1">
			<data destination_type="f32" />
			<rt_info>
				<attribute name="decompression" version="0" />
			</rt_info>
			<input>
				<port id="0" precision="BF16">
					<dim>1536</dim>
				</port>
			</input>
			<output>
				<port id="1" precision="FP32">
					<dim>1536</dim>
				</port>
			</output>
		</layer>
		<layer id="51" name="__module.model.layers.0.self_attn.q_proj/ov_ext::linear/Add" type="Add" version="opset1">
			<data auto_broadcast="numpy" />
			<input>
				<port id="0" precision="FP32">
					<dim>-1</dim>
					<dim>-1</dim>
					<dim>1536</dim>
				</port>
				<port id="1" precision="FP32">
					<dim>1536</dim>
				</port>
			</input>
			<output>
				<port id="2" precision="FP32" names="384">
					<dim>-1</dim>
					<dim>-1</dim>
					<dim>1536</dim>
				</port>
			</output>
		</layer>
		<layer id="52" name="Constant_74590" type="Const" version="opset1">
			<data element_type="i64" shape="4" offset="235061440" size="32" />
			<output>
				<port id="0" precision="I64">
					<dim>4</dim>
				</port>
			</output>
		</layer>
		<layer id="53" name="__module.model.layers.0.self_attn/aten::view/Reshape" type="Reshape" version="opset1">
			<data special_zero="true" />
			<input>
				<port id="0" precision="FP32">
					<dim>-1</dim>
					<dim>-1</dim>
					<dim>1536</dim>
				</port>
				<port id="1" precision="I64">
					<dim>4</dim>
				</port>
			</input>
			<output>
				<port id="2" precision="FP32" names="386">
					<dim>-1</dim>
					<dim>-1</dim>
					<dim>12</dim>
					<dim>128</dim>
				</port>
			</output>
		</layer>
		<layer id="54" name="__module.model.layers.0.self_attn/aten::transpose/Constant" type="Const" version="opset1">
			<data element_type="i32" shape="4" offset="235061472" size="16" />
			<output>
				<port id="0" precision="I32">
					<dim>4</dim>
				</port>
			</output>
		</layer>
		<layer id="55" name="__module.model.layers.0.self_attn/aten::transpose/Transpose" type="Transpose" version="opset1">
			<input>
				<port id="0" precision="FP32">
					<dim>-1</dim>
					<dim>-1</dim>
					<dim>12</dim>
					<dim>128</dim>
				</port>
				<port id="1" precision="I32">
					<dim>4</dim>
				</port>
			</input>
			<output>
				<port id="2" precision="FP32" names="387,q.1">
					<dim>-1</dim>
					<dim>12</dim>
					<dim>-1</dim>
					<dim>128</dim>
				</port>
			</output>
		</layer>
		<layer id="56" name="__module.model.rotary_emb/aten::to/Convert" type="Const" version="opset1">
			<data element_type="f32" shape="1, 64, 1" offset="235061488" size="256" />
			<output>
				<port id="0" precision="FP32" names="335">
					<dim>1</dim>
					<dim>64</dim>
					<dim>1</dim>
				</port>
			</output>
		</layer>
		<layer id="57" name="ShapeOf_68018" type="ShapeOf" version="opset3">
			<data output_type="i64" />
			<input>
				<port id="0" precision="FP32">
					<dim>-1</dim>
					<dim>-1</dim>
					<dim>1536</dim>
				</port>
			</input>
			<output>
				<port id="1" precision="I64">
					<dim>3</dim>
				</port>
			</output>
		</layer>
		<layer id="58" name="Constant_68019" type="Const" version="opset1">
			<data element_type="i64" shape="1" offset="4" size="8" />
			<output>
				<port id="0" precision="I64">
					<dim>1</dim>
				</port>
			</output>
		</layer>
		<layer id="59" name="Constant_68020" type="Const" version="opset1">
			<data element_type="i64" shape="" offset="4" size="8" />
			<output>
				<port id="0" precision="I64" />
			</output>
		</layer>
		<layer id="60" name="Gather_68021" type="Gather" version="opset8">
			<data batch_dims="0" />
			<input>
				<port id="0" precision="I64">
					<dim>3</dim>
				</port>
				<port id="1" precision="I64">
					<dim>1</dim>
				</port>
				<port id="2" precision="I64" />
			</input>
			<output>
				<port id="3" precision="I64" names="1085,1101,1246,1262,1407,1423,1568,1584,1729,1745,1890,1906,2051,2067,2212,2228,2373,2389,2534,2550,2695,2711,2856,2872,3017,3033,306,3178,3194,3339,3355,336,3500,3516,3661,3677,3822,3838,3983,3999,4144,4160,4305,4321,441,4466,4482,457,4627,4643,4788,4804,602,618,763,779,924,940">
					<dim>1</dim>
				</port>
			</output>
		</layer>
		<layer id="61" name="Constant_59203" type="Const" version="opset1">
			<data element_type="i64" shape="1" offset="235061744" size="8" />
			<output>
				<port id="0" precision="I64">
					<dim>1</dim>
				</port>
			</output>
		</layer>
		<layer id="62" name="Constant_59205" type="Const" version="opset1">
			<data element_type="i64" shape="1" offset="235061744" size="8" />
			<output>
				<port id="0" precision="I64">
					<dim>1</dim>
				</port>
			</output>
		</layer>
		<layer id="63" name="__module.model.rotary_emb/prim::ListConstruct" type="Concat" version="opset1">
			<data axis="0" />
			<input>
				<port id="0" precision="I64">
					<dim>1</dim>
				</port>
				<port id="1" precision="I64">
					<dim>1</dim>
				</port>
				<port id="2" precision="I64">
					<dim>1</dim>
				</port>
			</input>
			<output>
				<port id="3" precision="I64">
					<dim>3</dim>
				</port>
			</output>
		</layer>
		<layer id="64" name="__module.model.rotary_emb/aten::expand/Broadcast" type="Broadcast" version="opset3">
			<data mode="bidirectional" />
			<input>
				<port id="0" precision="FP32">
					<dim>1</dim>
					<dim>64</dim>
					<dim>1</dim>
				</port>
				<port id="1" precision="I64">
					<dim>3</dim>
				</port>
			</input>
			<output>
				<port id="2" precision="FP32" names="338,339,344,inv_freq_expanded,inv_freq_expanded.1">
					<dim>-1</dim>
					<dim>64</dim>
					<dim>1</dim>
				</port>
			</output>
		</layer>
		<layer id="65" name="221" type="Const" version="opset1">
			<data element_type="i64" shape="" offset="235061744" size="8" />
			<output>
				<port id="0" precision="I64" names="221" />
			</output>
		</layer>
		<layer id="66" name="__module.model.rotary_emb/aten::unsqueeze/Unsqueeze_2" type="Unsqueeze" version="opset1">
			<input>
				<port id="0" precision="I64">
					<dim>-1</dim>
					<dim>-1</dim>
				</port>
				<port id="1" precision="I64" />
			</input>
			<output>
				<port id="2" precision="I64" names="341,342">
					<dim>-1</dim>
					<dim>1</dim>
					<dim>-1</dim>
				</port>
			</output>
		</layer>
		<layer id="67" name="__module.model.rotary_emb/aten::to/Convert_3" type="Convert" version="opset1">
			<data destination_type="f32" />
			<input>
				<port id="0" precision="I64">
					<dim>-1</dim>
					<dim>1</dim>
					<dim>-1</dim>
				</port>
			</input>
			<output>
				<port id="1" precision="FP32" names="343,345,position_ids_expanded,position_ids_expanded.1">
					<dim>-1</dim>
					<dim>1</dim>
					<dim>-1</dim>
				</port>
			</output>
		</layer>
		<layer id="68" name="__module.model.rotary_emb/aten::matmul/MatMul" type="MatMul" version="opset1">
			<data transpose_a="false" transpose_b="false" />
			<input>
				<port id="0" precision="FP32">
					<dim>-1</dim>
					<dim>64</dim>
					<dim>1</dim>
				</port>
				<port id="1" precision="FP32">
					<dim>-1</dim>
					<dim>1</dim>
					<dim>-1</dim>
				</port>
			</input>
			<output>
				<port id="2" precision="FP32" names="346">
					<dim>-1</dim>
					<dim>64</dim>
					<dim>-1</dim>
				</port>
			</output>
		</layer>
		<layer id="69" name="__module.model.rotary_emb/aten::transpose/Constant" type="Const" version="opset1">
			<data element_type="i32" shape="3" offset="235061752" size="12" />
			<output>
				<port id="0" precision="I32">
					<dim>3</dim>
				</port>
			</output>
		</layer>
		<layer id="70" name="__module.model.rotary_emb/aten::transpose/Transpose" type="Transpose" version="opset1">
			<input>
				<port id="0" precision="FP32">
					<dim>-1</dim>
					<dim>64</dim>
					<dim>-1</dim>
				</port>
				<port id="1" precision="I32">
					<dim>3</dim>
				</port>
			</input>
			<output>
				<port id="2" precision="FP32" names="347">
					<dim>-1</dim>
					<dim>-1</dim>
					<dim>64</dim>
				</port>
			</output>
		</layer>
		<layer id="71" name="__module.model.rotary_emb/aten::cat/Concat" type="Concat" version="opset1">
			<data axis="-1" />
			<input>
				<port id="0" precision="FP32">
					<dim>-1</dim>
					<dim>-1</dim>
					<dim>64</dim>
				</port>
				<port id="1" precision="FP32">
					<dim>-1</dim>
					<dim>-1</dim>
					<dim>64</dim>
				</port>
			</input>
			<output>
				<port id="2" precision="FP32" names="349,emb">
					<dim>-1</dim>
					<dim>-1</dim>
					<dim>128</dim>
				</port>
			</output>
		</layer>
		<layer id="72" name="__module.model.rotary_emb/aten::cos/Cos" type="Cos" version="opset1">
			<input>
				<port id="0" precision="FP32">
					<dim>-1</dim>
					<dim>-1</dim>
					<dim>128</dim>
				</port>
			</input>
			<output>
				<port id="1" precision="FP32" names="350,351,354,357,cos.1,cos.3">
					<dim>-1</dim>
					<dim>-1</dim>
					<dim>128</dim>
				</port>
			</output>
		</layer>
		<layer id="73" name="__module.model.layers.0.self_attn/aten::unsqueeze/Unsqueeze" type="Unsqueeze" version="opset1">
			<input>
				<port id="0" precision="FP32">
					<dim>-1</dim>
					<dim>-1</dim>
					<dim>128</dim>
				</port>
				<port id="1" precision="I64" />
			</input>
			<output>
				<port id="2" precision="FP32" names="1047,1208,1369,1530,1691,1852,2013,2174,2335,2496,2657,2818,2979,3140,3301,3462,3623,3784,3945,400,4106,4267,4428,4589,4750,564,725,886,cos,cos.11,cos.13,cos.15,cos.17,cos.19,cos.21,cos.23,cos.25,cos.27,cos.29,cos.31,cos.33,cos.35,cos.37,cos.39,cos.41,cos.43,cos.45,cos.47,cos.49,cos.5,cos.51,cos.53,cos.55,cos.57,cos.7,cos.9">
					<dim>-1</dim>
					<dim>1</dim>
					<dim>-1</dim>
					<dim>128</dim>
				</port>
			</output>
		</layer>
		<layer id="74" name="__module.model.layers.0.self_attn/aten::mul/Multiply" type="Multiply" version="opset1">
			<data auto_broadcast="numpy" />
			<input>
				<port id="0" precision="FP32">
					<dim>-1</dim>
					<dim>12</dim>
					<dim>-1</dim>
					<dim>128</dim>
				</port>
				<port id="1" precision="FP32">
					<dim>-1</dim>
					<dim>1</dim>
					<dim>-1</dim>
					<dim>128</dim>
				</port>
			</input>
			<output>
				<port id="2" precision="FP32" names="402">
					<dim>-1</dim>
					<dim>12</dim>
					<dim>-1</dim>
					<dim>128</dim>
				</port>
			</output>
		</layer>
		<layer id="75" name="Constant_944" type="Const" version="opset1">
			<data element_type="i64" shape="1" offset="235061764" size="8" />
			<output>
				<port id="0" precision="I64">
					<dim>1</dim>
				</port>
			</output>
		</layer>
		<layer id="76" name="Constant_946" type="Const" version="opset1">
			<data element_type="i64" shape="1" offset="235061772" size="8" />
			<output>
				<port id="0" precision="I64">
					<dim>1</dim>
				</port>
			</output>
		</layer>
		<layer id="77" name="Constant_948" type="Const" version="opset1">
			<data element_type="i64" shape="1" offset="235061744" size="8" />
			<output>
				<port id="0" precision="I64">
					<dim>1</dim>
				</port>
			</output>
		</layer>
		<layer id="78" name="Constant_900" type="Const" version="opset1">
			<data element_type="i64" shape="1" offset="235061780" size="8" />
			<output>
				<port id="0" precision="I64">
					<dim>1</dim>
				</port>
			</output>
		</layer>
		<layer id="79" name="__module.model.layers.0.self_attn/aten::slice/Slice" type="Slice" version="opset8">
			<input>
				<port id="0" precision="FP32">
					<dim>-1</dim>
					<dim>12</dim>
					<dim>-1</dim>
					<dim>128</dim>
				</port>
				<port id="1" precision="I64">
					<dim>1</dim>
				</port>
				<port id="2" precision="I64">
					<dim>1</dim>
				</port>
				<port id="3" precision="I64">
					<dim>1</dim>
				</port>
				<port id="4" precision="I64">
					<dim>1</dim>
				</port>
			</input>
			<output>
				<port id="5" precision="FP32" names="412,x2.1">
					<dim>-1</dim>
					<dim>12</dim>
					<dim>-1</dim>
					<dim>64</dim>
				</port>
			</output>
		</layer>
		<layer id="80" name="Constant_66176" type="Const" version="opset1">
			<data element_type="f32" shape="1, 1, 1, 1" offset="235061788" size="4" />
			<output>
				<port id="0" precision="FP32">
					<dim>1</dim>
					<dim>1</dim>
					<dim>1</dim>
					<dim>1</dim>
				</port>
			</output>
		</layer>
		<layer id="81" name="__module.model.layers.0.self_attn/aten::neg/Multiply" type="Multiply" version="opset1">
			<data auto_broadcast="numpy" />
			<input>
				<port id="0" precision="FP32">
					<dim>-1</dim>
					<dim>12</dim>
					<dim>-1</dim>
					<dim>64</dim>
				</port>
				<port id="1" precision="FP32">
					<dim>1</dim>
					<dim>1</dim>
					<dim>1</dim>
					<dim>1</dim>
				</port>
			</input>
			<output>
				<port id="2" precision="FP32" names="413">
					<dim>-1</dim>
					<dim>12</dim>
					<dim>-1</dim>
					<dim>64</dim>
				</port>
			</output>
		</layer>
		<layer id="82" name="Constant_841" type="Const" version="opset1">
			<data element_type="i64" shape="1" offset="4" size="8" />
			<output>
				<port id="0" precision="I64">
					<dim>1</dim>
				</port>
			</output>
		</layer>
		<layer id="83" name="Constant_885" type="Const" version="opset1">
			<data element_type="i64" shape="1" offset="235061764" size="8" />
			<output>
				<port id="0" precision="I64">
					<dim>1</dim>
				</port>
			</output>
		</layer>
		<layer id="84" name="Constant_887" type="Const" version="opset1">
			<data element_type="i64" shape="1" offset="235061744" size="8" />
			<output>
				<port id="0" precision="I64">
					<dim>1</dim>
				</port>
			</output>
		</layer>
		<layer id="85" name="Constant_839" type="Const" version="opset1">
			<data element_type="i64" shape="1" offset="235061780" size="8" />
			<output>
				<port id="0" precision="I64">
					<dim>1</dim>
				</port>
			</output>
		</layer>
		<layer id="86" name="__module.model.layers.0.self_attn/aten::slice/Slice_1" type="Slice" version="opset8">
			<input>
				<port id="0" precision="FP32">
					<dim>-1</dim>
					<dim>12</dim>
					<dim>-1</dim>
					<dim>128</dim>
				</port>
				<port id="1" precision="I64">
					<dim>1</dim>
				</port>
				<port id="2" precision="I64">
					<dim>1</dim>
				</port>
				<port id="3" precision="I64">
					<dim>1</dim>
				</port>
				<port id="4" precision="I64">
					<dim>1</dim>
				</port>
			</input>
			<output>
				<port id="5" precision="FP32" names="407">
					<dim>-1</dim>
					<dim>12</dim>
					<dim>-1</dim>
					<dim>64</dim>
				</port>
			</output>
		</layer>
		<layer id="87" name="__module.model.layers.0.self_attn/aten::cat/Concat" type="Concat" version="opset1">
			<data axis="-1" />
			<input>
				<port id="0" precision="FP32">
					<dim>-1</dim>
					<dim>12</dim>
					<dim>-1</dim>
					<dim>64</dim>
				</port>
				<port id="1" precision="FP32">
					<dim>-1</dim>
					<dim>12</dim>
					<dim>-1</dim>
					<dim>64</dim>
				</port>
			</input>
			<output>
				<port id="2" precision="FP32" names="415">
					<dim>-1</dim>
					<dim>12</dim>
					<dim>-1</dim>
					<dim>128</dim>
				</port>
			</output>
		</layer>
		<layer id="88" name="__module.model.rotary_emb/aten::sin/Sin" type="Sin" version="opset1">
			<input>
				<port id="0" precision="FP32">
					<dim>-1</dim>
					<dim>-1</dim>
					<dim>128</dim>
				</port>
			</input>
			<output>
				<port id="1" precision="FP32" names="352,353,355,358,sin.1,sin.3">
					<dim>-1</dim>
					<dim>-1</dim>
					<dim>128</dim>
				</port>
			</output>
		</layer>
		<layer id="89" name="__module.model.layers.0.self_attn/aten::unsqueeze/Unsqueeze_1" type="Unsqueeze" version="opset1">
			<input>
				<port id="0" precision="FP32">
					<dim>-1</dim>
					<dim>-1</dim>
					<dim>128</dim>
				</port>
				<port id="1" precision="I64" />
			</input>
			<output>
				<port id="2" precision="FP32" names="1048,1209,1370,1531,1692,1853,2014,2175,2336,2497,2658,2819,2980,3141,3302,3463,3624,3785,3946,401,4107,4268,4429,4590,4751,565,726,887,sin,sin.11,sin.13,sin.15,sin.17,sin.19,sin.21,sin.23,sin.25,sin.27,sin.29,sin.31,sin.33,sin.35,sin.37,sin.39,sin.41,sin.43,sin.45,sin.47,sin.49,sin.5,sin.51,sin.53,sin.55,sin.57,sin.7,sin.9">
					<dim>-1</dim>
					<dim>1</dim>
					<dim>-1</dim>
					<dim>128</dim>
				</port>
			</output>
		</layer>
		<layer id="90" name="__module.model.layers.0.self_attn/aten::mul/Multiply_1" type="Multiply" version="opset1">
			<data auto_broadcast="numpy" />
			<input>
				<port id="0" precision="FP32">
					<dim>-1</dim>
					<dim>12</dim>
					<dim>-1</dim>
					<dim>128</dim>
				</port>
				<port id="1" precision="FP32">
					<dim>-1</dim>
					<dim>1</dim>
					<dim>-1</dim>
					<dim>128</dim>
				</port>
			</input>
			<output>
				<port id="2" precision="FP32" names="416">
					<dim>-1</dim>
					<dim>12</dim>
					<dim>-1</dim>
					<dim>128</dim>
				</port>
			</output>
		</layer>
		<layer id="91" name="__module.model.layers.0.self_attn/aten::add/Add" type="Add" version="opset1">
			<data auto_broadcast="numpy" />
			<input>
				<port id="0" precision="FP32">
					<dim>-1</dim>
					<dim>12</dim>
					<dim>-1</dim>
					<dim>128</dim>
				</port>
				<port id="1" precision="FP32">
					<dim>-1</dim>
					<dim>12</dim>
					<dim>-1</dim>
					<dim>128</dim>
				</port>
			</input>
			<output>
				<port id="2" precision="FP32" names="417,query.1">
					<dim>-1</dim>
					<dim>12</dim>
					<dim>-1</dim>
					<dim>128</dim>
				</port>
			</output>
		</layer>
		<layer id="92" name="Constant_77146" type="Const" version="opset1">
			<data element_type="f32" shape="" offset="0" size="4" />
			<output>
				<port id="0" precision="FP32" />
			</output>
		</layer>
		<layer id="93" name="Constant_77139" type="Const" version="opset1">
			<data element_type="i64" shape="1" offset="12" size="8" />
			<output>
				<port id="0" precision="I64">
					<dim>1</dim>
				</port>
			</output>
		</layer>
		<layer id="94" name="Constant_77141" type="Const" version="opset1">
			<data element_type="i64" shape="1" offset="4" size="8" />
			<output>
				<port id="0" precision="I64">
					<dim>1</dim>
				</port>
			</output>
		</layer>
		<layer id="95" name="Constant_77143" type="Const" version="opset1">
			<data element_type="i64" shape="1" offset="20" size="8" />
			<output>
				<port id="0" precision="I64">
					<dim>1</dim>
				</port>
			</output>
		</layer>
		<layer id="96" name="Concat_77144" type="Concat" version="opset1">
			<data axis="0" />
			<input>
				<port id="0" precision="I64">
					<dim>1</dim>
				</port>
				<port id="1" precision="I64">
					<dim>1</dim>
				</port>
				<port id="2" precision="I64">
					<dim>1</dim>
				</port>
				<port id="3" precision="I64">
					<dim>1</dim>
				</port>
			</input>
			<output>
				<port id="4" precision="I64">
					<dim>4</dim>
				</port>
			</output>
		</layer>
		<layer id="97" name="Broadcast_77147" type="Broadcast" version="opset3">
			<data mode="numpy" />
			<input>
				<port id="0" precision="FP32" />
				<port id="1" precision="I64">
					<dim>4</dim>
				</port>
			</input>
			<output>
				<port id="2" precision="FP32">
					<dim>-1</dim>
					<dim>2</dim>
					<dim>0</dim>
					<dim>128</dim>
				</port>
			</output>
		</layer>
		<layer id="98" name="ReadValue_76610" type="ReadValue" version="opset6">
			<data variable_id="past_key_values.0.keypresent.0.key" variable_type="f32" variable_shape="?,2,?,128" />
			<input>
				<port id="0" precision="FP32">
					<dim>-1</dim>
					<dim>2</dim>
					<dim>0</dim>
					<dim>128</dim>
				</port>
			</input>
			<output>
				<port id="1" precision="FP32" names="past_key_values.0.key">
					<dim>-1</dim>
					<dim>2</dim>
					<dim>-1</dim>
					<dim>128</dim>
				</port>
			</output>
		</layer>
		<layer id="99" name="Constant_76045" type="Const" version="opset1">
			<data element_type="i64" shape="" offset="4" size="8" />
			<output>
				<port id="0" precision="I64" />
			</output>
		</layer>
		<layer id="100" name="Gather_76046" type="Gather" version="opset8">
			<data batch_dims="0" />
			<input>
				<port id="0" precision="FP32">
					<dim>-1</dim>
					<dim>2</dim>
					<dim>-1</dim>
					<dim>128</dim>
				</port>
				<port id="1" precision="I32">
					<dim>-1</dim>
				</port>
				<port id="2" precision="I64" />
			</input>
			<output>
				<port id="3" precision="FP32">
					<dim>-1</dim>
					<dim>2</dim>
					<dim>-1</dim>
					<dim>128</dim>
				</port>
			</output>
		</layer>
		<layer id="101" name="self.model.layers.0.self_attn.k_proj.weight" type="Const" version="opset1">
			<data element_type="i4" shape="256, 12, 128" offset="235061792" size="196608" />
			<output>
				<port id="0" precision="I4">
					<dim>256</dim>
					<dim>12</dim>
					<dim>128</dim>
				</port>
			</output>
		</layer>
		<layer id="102" name="Convert_93349" type="Convert" version="opset1">
			<data destination_type="f16" />
			<input>
				<port id="0" precision="I4">
					<dim>256</dim>
					<dim>12</dim>
					<dim>128</dim>
				</port>
			</input>
			<output>
				<port id="1" precision="FP16">
					<dim>256</dim>
					<dim>12</dim>
					<dim>128</dim>
				</port>
			</output>
		</layer>
		<layer id="103" name="self.model.layers.0.self_attn.k_proj.weight/scale" type="Const" version="opset1">
			<data element_type="f16" shape="256, 12, 1" offset="235258400" size="6144" />
			<output>
				<port id="0" precision="FP16">
					<dim>256</dim>
					<dim>12</dim>
					<dim>1</dim>
				</port>
			</output>
		</layer>
		<layer id="104" name="self.model.layers.0.self_attn.k_proj.weight/fq_weights_1" type="Multiply" version="opset1">
			<data auto_broadcast="numpy" />
			<input>
				<port id="0" precision="FP16">
					<dim>256</dim>
					<dim>12</dim>
					<dim>128</dim>
				</port>
				<port id="1" precision="FP16">
					<dim>256</dim>
					<dim>12</dim>
					<dim>1</dim>
				</port>
			</input>
			<output>
				<port id="2" precision="FP16">
					<dim>256</dim>
					<dim>12</dim>
					<dim>128</dim>
				</port>
			</output>
		</layer>
		<layer id="105" name="Constant_93353" type="Const" version="opset1">
			<data element_type="i64" shape="2" offset="235264544" size="16" />
			<output>
				<port id="0" precision="I64">
					<dim>2</dim>
				</port>
			</output>
		</layer>
		<layer id="106" name="Reshape_93354" type="Reshape" version="opset1">
			<data special_zero="false" />
			<input>
				<port id="0" precision="FP16">
					<dim>256</dim>
					<dim>12</dim>
					<dim>128</dim>
				</port>
				<port id="1" precision="I64">
					<dim>2</dim>
				</port>
			</input>
			<output>
				<port id="2" precision="FP16">
					<dim>256</dim>
					<dim>1536</dim>
				</port>
			</output>
		</layer>
		<layer id="107" name="__module.model.layers.0.self_attn.k_proj/ov_ext::linear/Convert" type="Convert" version="opset1">
			<data destination_type="f32" />
			<rt_info>
				<attribute name="decompression" version="0" />
			</rt_info>
			<input>
				<port id="0" precision="FP16">
					<dim>256</dim>
					<dim>1536</dim>
				</port>
			</input>
			<output>
				<port id="1" precision="FP32">
					<dim>256</dim>
					<dim>1536</dim>
				</port>
			</output>
		</layer>
		<layer id="108" name="__module.model.layers.0.self_attn.k_proj/ov_ext::linear/MatMul" type="MatMul" version="opset1">
			<data transpose_a="false" transpose_b="true" />
			<input>
				<port id="0" precision="FP32">
					<dim>-1</dim>
					<dim>-1</dim>
					<dim>1536</dim>
				</port>
				<port id="1" precision="FP32">
					<dim>256</dim>
					<dim>1536</dim>
				</port>
			</input>
			<output>
				<port id="2" precision="FP32">
					<dim>-1</dim>
					<dim>-1</dim>
					<dim>256</dim>
				</port>
			</output>
		</layer>
		<layer id="109" name="self.model.layers.0.self_attn.k_proj.bias" type="Const" version="opset1">
			<data element_type="bf16" shape="256" offset="235264560" size="512" />
			<output>
				<port id="0" precision="BF16" names="self.model.layers.0.self_attn.k_proj.bias">
					<dim>256</dim>
				</port>
			</output>
		</layer>
		<layer id="110" name="__module.model.layers.0.self_attn.k_proj/ov_ext::linear/Convert_1" type="Convert" version="opset1">
			<data destination_type="f32" />
			<rt_info>
				<attribute name="decompression" version="0" />
			</rt_info>
			<input>
				<port id="0" precision="BF16">
					<dim>256</dim>
				</port>
			</input>
			<output>
				<port id="1" precision="FP32">
					<dim>256</dim>
				</port>
			</output>
		</layer>
		<layer id="111" name="__module.model.layers.0.self_attn.k_proj/ov_ext::linear/Add" type="Add" version="opset1">
			<data auto_broadcast="numpy" />
			<input>
				<port id="0" precision="FP32">
					<dim>-1</dim>
					<dim>-1</dim>
					<dim>256</dim>
				</port>
				<port id="1" precision="FP32">
					<dim>256</dim>
				</port>
			</input>
			<output>
				<port id="2" precision="FP32" names="390">
					<dim>-1</dim>
					<dim>-1</dim>
					<dim>256</dim>
				</port>
			</output>
		</layer>
		<layer id="112" name="Constant_74591" type="Const" version="opset1">
			<data element_type="i64" shape="4" offset="235265072" size="32" />
			<output>
				<port id="0" precision="I64">
					<dim>4</dim>
				</port>
			</output>
		</layer>
		<layer id="113" name="__module.model.layers.0.self_attn/aten::view/Reshape_1" type="Reshape" version="opset1">
			<data special_zero="true" />
			<input>
				<port id="0" precision="FP32">
					<dim>-1</dim>
					<dim>-1</dim>
					<dim>256</dim>
				</port>
				<port id="1" precision="I64">
					<dim>4</dim>
				</port>
			</input>
			<output>
				<port id="2" precision="FP32" names="392">
					<dim>-1</dim>
					<dim>-1</dim>
					<dim>2</dim>
					<dim>128</dim>
				</port>
			</output>
		</layer>
		<layer id="114" name="__module.model.layers.0.self_attn/aten::transpose/Constant_1" type="Const" version="opset1">
			<data element_type="i32" shape="4" offset="235061472" size="16" />
			<output>
				<port id="0" precision="I32">
					<dim>4</dim>
				</port>
			</output>
		</layer>
		<layer id="115" name="__module.model.layers.0.self_attn/aten::transpose/Transpose_1" type="Transpose" version="opset1">
			<input>
				<port id="0" precision="FP32">
					<dim>-1</dim>
					<dim>-1</dim>
					<dim>2</dim>
					<dim>128</dim>
				</port>
				<port id="1" precision="I32">
					<dim>4</dim>
				</port>
			</input>
			<output>
				<port id="2" precision="FP32" names="393,k.1">
					<dim>-1</dim>
					<dim>2</dim>
					<dim>-1</dim>
					<dim>128</dim>
				</port>
			</output>
		</layer>
		<layer id="116" name="__module.model.layers.0.self_attn/aten::mul/Multiply_2" type="Multiply" version="opset1">
			<data auto_broadcast="numpy" />
			<input>
				<port id="0" precision="FP32">
					<dim>-1</dim>
					<dim>2</dim>
					<dim>-1</dim>
					<dim>128</dim>
				</port>
				<port id="1" precision="FP32">
					<dim>-1</dim>
					<dim>1</dim>
					<dim>-1</dim>
					<dim>128</dim>
				</port>
			</input>
			<output>
				<port id="2" precision="FP32" names="418">
					<dim>-1</dim>
					<dim>2</dim>
					<dim>-1</dim>
					<dim>128</dim>
				</port>
			</output>
		</layer>
		<layer id="117" name="Constant_1087" type="Const" version="opset1">
			<data element_type="i64" shape="1" offset="235061764" size="8" />
			<output>
				<port id="0" precision="I64">
					<dim>1</dim>
				</port>
			</output>
		</layer>
		<layer id="118" name="Constant_1089" type="Const" version="opset1">
			<data element_type="i64" shape="1" offset="235061772" size="8" />
			<output>
				<port id="0" precision="I64">
					<dim>1</dim>
				</port>
			</output>
		</layer>
		<layer id="119" name="Constant_1091" type="Const" version="opset1">
			<data element_type="i64" shape="1" offset="235061744" size="8" />
			<output>
				<port id="0" precision="I64">
					<dim>1</dim>
				</port>
			</output>
		</layer>
		<layer id="120" name="Constant_1043" type="Const" version="opset1">
			<data element_type="i64" shape="1" offset="235061780" size="8" />
			<output>
				<port id="0" precision="I64">
					<dim>1</dim>
				</port>
			</output>
		</layer>
		<layer id="121" name="__module.model.layers.0.self_attn/aten::slice/Slice_2" type="Slice" version="opset8">
			<input>
				<port id="0" precision="FP32">
					<dim>-1</dim>
					<dim>2</dim>
					<dim>-1</dim>
					<dim>128</dim>
				</port>
				<port id="1" precision="I64">
					<dim>1</dim>
				</port>
				<port id="2" precision="I64">
					<dim>1</dim>
				</port>
				<port id="3" precision="I64">
					<dim>1</dim>
				</port>
				<port id="4" precision="I64">
					<dim>1</dim>
				</port>
			</input>
			<output>
				<port id="5" precision="FP32" names="428,x2.3">
					<dim>-1</dim>
					<dim>2</dim>
					<dim>-1</dim>
					<dim>64</dim>
				</port>
			</output>
		</layer>
		<layer id="122" name="Constant_66177" type="Const" version="opset1">
			<data element_type="f32" shape="1, 1, 1, 1" offset="235061788" size="4" />
			<output>
				<port id="0" precision="FP32">
					<dim>1</dim>
					<dim>1</dim>
					<dim>1</dim>
					<dim>1</dim>
				</port>
			</output>
		</layer>
		<layer id="123" name="__module.model.layers.0.self_attn/aten::neg/Multiply_1" type="Multiply" version="opset1">
			<data auto_broadcast="numpy" />
			<input>
				<port id="0" precision="FP32">
					<dim>-1</dim>
					<dim>2</dim>
					<dim>-1</dim>
					<dim>64</dim>
				</port>
				<port id="1" precision="FP32">
					<dim>1</dim>
					<dim>1</dim>
					<dim>1</dim>
					<dim>1</dim>
				</port>
			</input>
			<output>
				<port id="2" precision="FP32" names="429">
					<dim>-1</dim>
					<dim>2</dim>
					<dim>-1</dim>
					<dim>64</dim>
				</port>
			</output>
		</layer>
		<layer id="124" name="Constant_984" type="Const" version="opset1">
			<data element_type="i64" shape="1" offset="4" size="8" />
			<output>
				<port id="0" precision="I64">
					<dim>1</dim>
				</port>
			</output>
		</layer>
		<layer id="125" name="Constant_1028" type="Const" version="opset1">
			<data element_type="i64" shape="1" offset="235061764" size="8" />
			<output>
				<port id="0" precision="I64">
					<dim>1</dim>
				</port>
			</output>
		</layer>
		<layer id="126" name="Constant_1030" type="Const" version="opset1">
			<data element_type="i64" shape="1" offset="235061744" size="8" />
			<output>
				<port id="0" precision="I64">
					<dim>1</dim>
				</port>
			</output>
		</layer>
		<layer id="127" name="Constant_982" type="Const" version="opset1">
			<data element_type="i64" shape="1" offset="235061780" size="8" />
			<output>
				<port id="0" precision="I64">
					<dim>1</dim>
				</port>
			</output>
		</layer>
		<layer id="128" name="__module.model.layers.0.self_attn/aten::slice/Slice_3" type="Slice" version="opset8">
			<input>
				<port id="0" precision="FP32">
					<dim>-1</dim>
					<dim>2</dim>
					<dim>-1</dim>
					<dim>128</dim>
				</port>
				<port id="1" precision="I64">
					<dim>1</dim>
				</port>
				<port id="2" precision="I64">
					<dim>1</dim>
				</port>
				<port id="3" precision="I64">
					<dim>1</dim>
				</port>
				<port id="4" precision="I64">
					<dim>1</dim>
				</port>
			</input>
			<output>
				<port id="5" precision="FP32" names="423">
					<dim>-1</dim>
					<dim>2</dim>
					<dim>-1</dim>
					<dim>64</dim>
				</port>
			</output>
		</layer>
		<layer id="129" name="__module.model.layers.0.self_attn/aten::cat/Concat_1" type="Concat" version="opset1">
			<data axis="-1" />
			<input>
				<port id="0" precision="FP32">
					<dim>-1</dim>
					<dim>2</dim>
					<dim>-1</dim>
					<dim>64</dim>
				</port>
				<port id="1" precision="FP32">
					<dim>-1</dim>
					<dim>2</dim>
					<dim>-1</dim>
					<dim>64</dim>
				</port>
			</input>
			<output>
				<port id="2" precision="FP32" names="431">
					<dim>-1</dim>
					<dim>2</dim>
					<dim>-1</dim>
					<dim>128</dim>
				</port>
			</output>
		</layer>
		<layer id="130" name="__module.model.layers.0.self_attn/aten::mul/Multiply_3" type="Multiply" version="opset1">
			<data auto_broadcast="numpy" />
			<input>
				<port id="0" precision="FP32">
					<dim>-1</dim>
					<dim>2</dim>
					<dim>-1</dim>
					<dim>128</dim>
				</port>
				<port id="1" precision="FP32">
					<dim>-1</dim>
					<dim>1</dim>
					<dim>-1</dim>
					<dim>128</dim>
				</port>
			</input>
			<output>
				<port id="2" precision="FP32" names="432">
					<dim>-1</dim>
					<dim>2</dim>
					<dim>-1</dim>
					<dim>128</dim>
				</port>
			</output>
		</layer>
		<layer id="131" name="__module.model.layers.0.self_attn/aten::add/Add_1" type="Add" version="opset1">
			<data auto_broadcast="numpy" />
			<input>
				<port id="0" precision="FP32">
					<dim>-1</dim>
					<dim>2</dim>
					<dim>-1</dim>
					<dim>128</dim>
				</port>
				<port id="1" precision="FP32">
					<dim>-1</dim>
					<dim>2</dim>
					<dim>-1</dim>
					<dim>128</dim>
				</port>
			</input>
			<output>
				<port id="2" precision="FP32" names="433,key_states">
					<dim>-1</dim>
					<dim>2</dim>
					<dim>-1</dim>
					<dim>128</dim>
				</port>
			</output>
		</layer>
		<layer id="132" name="__module.model.layers.0.self_attn/aten::cat/Concat_2" type="Concat" version="opset1">
			<data axis="-2" />
			<input>
				<port id="0" precision="FP32">
					<dim>-1</dim>
					<dim>2</dim>
					<dim>-1</dim>
					<dim>128</dim>
				</port>
				<port id="1" precision="FP32">
					<dim>-1</dim>
					<dim>2</dim>
					<dim>-1</dim>
					<dim>128</dim>
				</port>
			</input>
			<output>
				<port id="2" precision="FP32" names="446,447,hidden_states.9">
					<dim>-1</dim>
					<dim>2</dim>
					<dim>-1</dim>
					<dim>128</dim>
				</port>
			</output>
		</layer>
		<layer id="133" name="222" type="Const" version="opset1">
			<data element_type="i64" shape="" offset="12" size="8" />
			<output>
				<port id="0" precision="I64" names="222" />
			</output>
		</layer>
		<layer id="134" name="__module.model.layers.0.self_attn/aten::unsqueeze/Unsqueeze_2" type="Unsqueeze" version="opset1">
			<input>
				<port id="0" precision="FP32">
					<dim>-1</dim>
					<dim>2</dim>
					<dim>-1</dim>
					<dim>128</dim>
				</port>
				<port id="1" precision="I64" />
			</input>
			<output>
				<port id="2" precision="FP32" names="448,449,450">
					<dim>-1</dim>
					<dim>2</dim>
					<dim>1</dim>
					<dim>-1</dim>
					<dim>128</dim>
				</port>
			</output>
		</layer>
		<layer id="135" name="__module.model.layers.0.self_attn/aten::size/ShapeOf_2" type="ShapeOf" version="opset3">
			<data output_type="i64" />
			<input>
				<port id="0" precision="FP32">
					<dim>-1</dim>
					<dim>2</dim>
					<dim>-1</dim>
					<dim>128</dim>
				</port>
			</input>
			<output>
				<port id="1" precision="I64">
					<dim>4</dim>
				</port>
			</output>
		</layer>
		<layer id="136" name="Constant_61217" type="Const" version="opset1">
			<data element_type="i64" shape="2" offset="235265104" size="16" />
			<output>
				<port id="0" precision="I64">
					<dim>2</dim>
				</port>
			</output>
		</layer>
		<layer id="137" name="Constant_61218" type="Const" version="opset1">
			<data element_type="i64" shape="" offset="4" size="8" />
			<output>
				<port id="0" precision="I64" />
			</output>
		</layer>
		<layer id="138" name="Gather_61219" type="Gather" version="opset8">
			<data batch_dims="0" />
			<input>
				<port id="0" precision="I64">
					<dim>4</dim>
				</port>
				<port id="1" precision="I64">
					<dim>2</dim>
				</port>
				<port id="2" precision="I64" />
			</input>
			<output>
				<port id="3" precision="I64">
					<dim>2</dim>
				</port>
			</output>
		</layer>
		<layer id="139" name="Constant_59212" type="Const" version="opset1">
			<data element_type="i64" shape="1" offset="235265120" size="8" />
			<output>
				<port id="0" precision="I64">
					<dim>1</dim>
				</port>
			</output>
		</layer>
		<layer id="140" name="ShapeOf_68060" type="ShapeOf" version="opset3">
			<data output_type="i64" />
			<input>
				<port id="0" precision="FP32">
					<dim>-1</dim>
					<dim>2</dim>
					<dim>-1</dim>
					<dim>128</dim>
				</port>
			</input>
			<output>
				<port id="1" precision="I64">
					<dim>4</dim>
				</port>
			</output>
		</layer>
		<layer id="141" name="Constant_68061" type="Const" version="opset1">
			<data element_type="i64" shape="" offset="12" size="8" />
			<output>
				<port id="0" precision="I64" />
			</output>
		</layer>
		<layer id="142" name="Constant_68062" type="Const" version="opset1">
			<data element_type="i64" shape="" offset="4" size="8" />
			<output>
				<port id="0" precision="I64" />
			</output>
		</layer>
		<layer id="143" name="Gather_68063" type="Gather" version="opset8">
			<data batch_dims="0" />
			<input>
				<port id="0" precision="I64">
					<dim>4</dim>
				</port>
				<port id="1" precision="I64" />
				<port id="2" precision="I64" />
			</input>
			<output>
				<port id="3" precision="I64" names="284" />
			</output>
		</layer>
		<layer id="144" name="Constant_68074" type="Const" version="opset1">
			<data element_type="i64" shape="1" offset="235061744" size="8" />
			<output>
				<port id="0" precision="I64">
					<dim>1</dim>
				</port>
			</output>
		</layer>
		<layer id="145" name="Reshape_68075" type="Reshape" version="opset1">
			<data special_zero="false" />
			<input>
				<port id="0" precision="I64" />
				<port id="1" precision="I64">
					<dim>1</dim>
				</port>
			</input>
			<output>
				<port id="2" precision="I64">
					<dim>1</dim>
				</port>
			</output>
		</layer>
		<layer id="146" name="Constant_68029" type="Const" version="opset1">
			<data element_type="i64" shape="" offset="235061744" size="8" />
			<output>
				<port id="0" precision="I64" />
			</output>
		</layer>
		<layer id="147" name="Constant_68030" type="Const" version="opset1">
			<data element_type="i64" shape="" offset="4" size="8" />
			<output>
				<port id="0" precision="I64" />
			</output>
		</layer>
		<layer id="148" name="Gather_68031" type="Gather" version="opset8">
			<data batch_dims="0" />
			<input>
				<port id="0" precision="I64">
					<dim>3</dim>
				</port>
				<port id="1" precision="I64" />
				<port id="2" precision="I64" />
			</input>
			<output>
				<port id="3" precision="I64" names="286,291" />
			</output>
		</layer>
		<layer id="149" name="Constant_68076" type="Const" version="opset1">
			<data element_type="i64" shape="1" offset="235061744" size="8" />
			<output>
				<port id="0" precision="I64">
					<dim>1</dim>
				</port>
			</output>
		</layer>
		<layer id="150" name="Reshape_68077" type="Reshape" version="opset1">
			<data special_zero="false" />
			<input>
				<port id="0" precision="I64" />
				<port id="1" precision="I64">
					<dim>1</dim>
				</port>
			</input>
			<output>
				<port id="2" precision="I64">
					<dim>1</dim>
				</port>
			</output>
		</layer>
		<layer id="151" name="Add_68078" type="Add" version="opset1">
			<data auto_broadcast="numpy" />
			<input>
				<port id="0" precision="I64">
					<dim>1</dim>
				</port>
				<port id="1" precision="I64">
					<dim>1</dim>
				</port>
			</input>
			<output>
				<port id="2" precision="I64" names="1088,1117,1249,1278,1410,1439,1571,1600,1732,1761,1893,1922,2054,2083,2215,2244,2376,2405,2537,2566,2698,2727,2859,2888,3020,3049,3181,3210,3342,3371,3503,3532,3664,3693,3825,3854,3986,4015,4147,4176,4308,4337,444,4469,4498,4630,4659,473,4791,4820,605,634,766,795,927,956">
					<dim>1</dim>
				</port>
			</output>
		</layer>
		<layer id="152" name="Constant_59215" type="Const" version="opset1">
			<data element_type="i64" shape="1" offset="20" size="8" />
			<output>
				<port id="0" precision="I64">
					<dim>1</dim>
				</port>
			</output>
		</layer>
		<layer id="153" name="__module.model.layers.0.self_attn/prim::ListConstruct_2" type="Concat" version="opset1">
			<data axis="0" />
			<input>
				<port id="0" precision="I64">
					<dim>2</dim>
				</port>
				<port id="1" precision="I64">
					<dim>1</dim>
				</port>
				<port id="2" precision="I64">
					<dim>1</dim>
				</port>
				<port id="3" precision="I64">
					<dim>1</dim>
				</port>
			</input>
			<output>
				<port id="4" precision="I64">
					<dim>5</dim>
				</port>
			</output>
		</layer>
		<layer id="154" name="__module.model.layers.0.self_attn/aten::expand/Broadcast" type="Broadcast" version="opset3">
			<data mode="bidirectional" />
			<input>
				<port id="0" precision="FP32">
					<dim>-1</dim>
					<dim>2</dim>
					<dim>1</dim>
					<dim>-1</dim>
					<dim>128</dim>
				</port>
				<port id="1" precision="I64">
					<dim>5</dim>
				</port>
			</input>
			<output>
				<port id="2" precision="FP32" names="452,hidden_states.11">
					<dim>-1</dim>
					<dim>2</dim>
					<dim>6</dim>
					<dim>-1</dim>
					<dim>128</dim>
				</port>
			</output>
		</layer>
		<layer id="155" name="Constant_74592" type="Const" version="opset1">
			<data element_type="i64" shape="4" offset="235265128" size="32" />
			<output>
				<port id="0" precision="I64">
					<dim>4</dim>
				</port>
			</output>
		</layer>
		<layer id="156" name="__module.model.layers.0.self_attn/aten::reshape/Reshape" type="Reshape" version="opset1">
			<data special_zero="true" />
			<input>
				<port id="0" precision="FP32">
					<dim>-1</dim>
					<dim>2</dim>
					<dim>6</dim>
					<dim>-1</dim>
					<dim>128</dim>
				</port>
				<port id="1" precision="I64">
					<dim>4</dim>
				</port>
			</input>
			<output>
				<port id="2" precision="FP32" names="456,key.1">
					<dim>-1</dim>
					<dim>12</dim>
					<dim>-1</dim>
					<dim>128</dim>
				</port>
			</output>
		</layer>
		<layer id="157" name="Constant_77158" type="Const" version="opset1">
			<data element_type="f32" shape="" offset="0" size="4" />
			<output>
				<port id="0" precision="FP32" />
			</output>
		</layer>
		<layer id="158" name="Constant_77151" type="Const" version="opset1">
			<data element_type="i64" shape="1" offset="12" size="8" />
			<output>
				<port id="0" precision="I64">
					<dim>1</dim>
				</port>
			</output>
		</layer>
		<layer id="159" name="Constant_77153" type="Const" version="opset1">
			<data element_type="i64" shape="1" offset="4" size="8" />
			<output>
				<port id="0" precision="I64">
					<dim>1</dim>
				</port>
			</output>
		</layer>
		<layer id="160" name="Constant_77155" type="Const" version="opset1">
			<data element_type="i64" shape="1" offset="20" size="8" />
			<output>
				<port id="0" precision="I64">
					<dim>1</dim>
				</port>
			</output>
		</layer>
		<layer id="161" name="Concat_77156" type="Concat" version="opset1">
			<data axis="0" />
			<input>
				<port id="0" precision="I64">
					<dim>1</dim>
				</port>
				<port id="1" precision="I64">
					<dim>1</dim>
				</port>
				<port id="2" precision="I64">
					<dim>1</dim>
				</port>
				<port id="3" precision="I64">
					<dim>1</dim>
				</port>
			</input>
			<output>
				<port id="4" precision="I64">
					<dim>4</dim>
				</port>
			</output>
		</layer>
		<layer id="162" name="Broadcast_77159" type="Broadcast" version="opset3">
			<data mode="numpy" />
			<input>
				<port id="0" precision="FP32" />
				<port id="1" precision="I64">
					<dim>4</dim>
				</port>
			</input>
			<output>
				<port id="2" precision="FP32">
					<dim>-1</dim>
					<dim>2</dim>
					<dim>0</dim>
					<dim>128</dim>
				</port>
			</output>
		</layer>
		<layer id="163" name="ReadValue_76612" type="ReadValue" version="opset6">
			<data variable_id="past_key_values.0.valuepresent.0.value" variable_type="f32" variable_shape="?,2,?,128" />
			<input>
				<port id="0" precision="FP32">
					<dim>-1</dim>
					<dim>2</dim>
					<dim>0</dim>
					<dim>128</dim>
				</port>
			</input>
			<output>
				<port id="1" precision="FP32" names="past_key_values.0.value">
					<dim>-1</dim>
					<dim>2</dim>
					<dim>-1</dim>
					<dim>128</dim>
				</port>
			</output>
		</layer>
		<layer id="164" name="Constant_76048" type="Const" version="opset1">
			<data element_type="i64" shape="" offset="4" size="8" />
			<output>
				<port id="0" precision="I64" />
			</output>
		</layer>
		<layer id="165" name="Gather_76049" type="Gather" version="opset8">
			<data batch_dims="0" />
			<input>
				<port id="0" precision="FP32">
					<dim>-1</dim>
					<dim>2</dim>
					<dim>-1</dim>
					<dim>128</dim>
				</port>
				<port id="1" precision="I32">
					<dim>-1</dim>
				</port>
				<port id="2" precision="I64" />
			</input>
			<output>
				<port id="3" precision="FP32">
					<dim>-1</dim>
					<dim>2</dim>
					<dim>-1</dim>
					<dim>128</dim>
				</port>
			</output>
		</layer>
		<layer id="166" name="self.model.layers.0.self_attn.v_proj.weight" type="Const" version="opset1">
			<data element_type="i4" shape="256, 12, 128" offset="235265160" size="196608" />
			<output>
				<port id="0" precision="I4">
					<dim>256</dim>
					<dim>12</dim>
					<dim>128</dim>
				</port>
			</output>
		</layer>
		<layer id="167" name="Convert_93356" type="Convert" version="opset1">
			<data destination_type="f16" />
			<input>
				<port id="0" precision="I4">
					<dim>256</dim>
					<dim>12</dim>
					<dim>128</dim>
				</port>
			</input>
			<output>
				<port id="1" precision="FP16">
					<dim>256</dim>
					<dim>12</dim>
					<dim>128</dim>
				</port>
			</output>
		</layer>
		<layer id="168" name="self.model.layers.0.self_attn.v_proj.weight/scale" type="Const" version="opset1">
			<data element_type="f16" shape="256, 12, 1" offset="235461768" size="6144" />
			<output>
				<port id="0" precision="FP16">
					<dim>256</dim>
					<dim>12</dim>
					<dim>1</dim>
				</port>
			</output>
		</layer>
		<layer id="169" name="self.model.layers.0.self_attn.v_proj.weight/fq_weights_1" type="Multiply" version="opset1">
			<data auto_broadcast="numpy" />
			<input>
				<port id="0" precision="FP16">
					<dim>256</dim>
					<dim>12</dim>
					<dim>128</dim>
				</port>
				<port id="1" precision="FP16">
					<dim>256</dim>
					<dim>12</dim>
					<dim>1</dim>
				</port>
			</input>
			<output>
				<port id="2" precision="FP16">
					<dim>256</dim>
					<dim>12</dim>
					<dim>128</dim>
				</port>
			</output>
		</layer>
		<layer id="170" name="Constant_93360" type="Const" version="opset1">
			<data element_type="i64" shape="2" offset="235264544" size="16" />
			<output>
				<port id="0" precision="I64">
					<dim>2</dim>
				</port>
			</output>
		</layer>
		<layer id="171" name="Reshape_93361" type="Reshape" version="opset1">
			<data special_zero="false" />
			<input>
				<port id="0" precision="FP16">
					<dim>256</dim>
					<dim>12</dim>
					<dim>128</dim>
				</port>
				<port id="1" precision="I64">
					<dim>2</dim>
				</port>
			</input>
			<output>
				<port id="2" precision="FP16">
					<dim>256</dim>
					<dim>1536</dim>
				</port>
			</output>
		</layer>
		<layer id="172" name="__module.model.layers.0.self_attn.v_proj/ov_ext::linear/Convert" type="Convert" version="opset1">
			<data destination_type="f32" />
			<rt_info>
				<attribute name="decompression" version="0" />
			</rt_info>
			<input>
				<port id="0" precision="FP16">
					<dim>256</dim>
					<dim>1536</dim>
				</port>
			</input>
			<output>
				<port id="1" precision="FP32">
					<dim>256</dim>
					<dim>1536</dim>
				</port>
			</output>
		</layer>
		<layer id="173" name="__module.model.layers.0.self_attn.v_proj/ov_ext::linear/MatMul" type="MatMul" version="opset1">
			<data transpose_a="false" transpose_b="true" />
			<input>
				<port id="0" precision="FP32">
					<dim>-1</dim>
					<dim>-1</dim>
					<dim>1536</dim>
				</port>
				<port id="1" precision="FP32">
					<dim>256</dim>
					<dim>1536</dim>
				</port>
			</input>
			<output>
				<port id="2" precision="FP32">
					<dim>-1</dim>
					<dim>-1</dim>
					<dim>256</dim>
				</port>
			</output>
		</layer>
		<layer id="174" name="self.model.layers.0.self_attn.v_proj.bias" type="Const" version="opset1">
			<data element_type="bf16" shape="256" offset="235467912" size="512" />
			<output>
				<port id="0" precision="BF16" names="self.model.layers.0.self_attn.v_proj.bias">
					<dim>256</dim>
				</port>
			</output>
		</layer>
		<layer id="175" name="__module.model.layers.0.self_attn.v_proj/ov_ext::linear/Convert_1" type="Convert" version="opset1">
			<data destination_type="f32" />
			<rt_info>
				<attribute name="decompression" version="0" />
			</rt_info>
			<input>
				<port id="0" precision="BF16">
					<dim>256</dim>
				</port>
			</input>
			<output>
				<port id="1" precision="FP32">
					<dim>256</dim>
				</port>
			</output>
		</layer>
		<layer id="176" name="__module.model.layers.0.self_attn.v_proj/ov_ext::linear/Add" type="Add" version="opset1">
			<data auto_broadcast="numpy" />
			<input>
				<port id="0" precision="FP32">
					<dim>-1</dim>
					<dim>-1</dim>
					<dim>256</dim>
				</port>
				<port id="1" precision="FP32">
					<dim>256</dim>
				</port>
			</input>
			<output>
				<port id="2" precision="FP32" names="396">
					<dim>-1</dim>
					<dim>-1</dim>
					<dim>256</dim>
				</port>
			</output>
		</layer>
		<layer id="177" name="Constant_74593" type="Const" version="opset1">
			<data element_type="i64" shape="4" offset="235265072" size="32" />
			<output>
				<port id="0" precision="I64">
					<dim>4</dim>
				</port>
			</output>
		</layer>
		<layer id="178" name="__module.model.layers.0.self_attn/aten::view/Reshape_2" type="Reshape" version="opset1">
			<data special_zero="true" />
			<input>
				<port id="0" precision="FP32">
					<dim>-1</dim>
					<dim>-1</dim>
					<dim>256</dim>
				</port>
				<port id="1" precision="I64">
					<dim>4</dim>
				</port>
			</input>
			<output>
				<port id="2" precision="FP32" names="398">
					<dim>-1</dim>
					<dim>-1</dim>
					<dim>2</dim>
					<dim>128</dim>
				</port>
			</output>
		</layer>
		<layer id="179" name="__module.model.layers.0.self_attn/aten::transpose/Constant_2" type="Const" version="opset1">
			<data element_type="i32" shape="4" offset="235061472" size="16" />
			<output>
				<port id="0" precision="I32">
					<dim>4</dim>
				</port>
			</output>
		</layer>
		<layer id="180" name="__module.model.layers.0.self_attn/aten::transpose/Transpose_2" type="Transpose" version="opset1">
			<input>
				<port id="0" precision="FP32">
					<dim>-1</dim>
					<dim>-1</dim>
					<dim>2</dim>
					<dim>128</dim>
				</port>
				<port id="1" precision="I32">
					<dim>4</dim>
				</port>
			</input>
			<output>
				<port id="2" precision="FP32" names="399">
					<dim>-1</dim>
					<dim>2</dim>
					<dim>-1</dim>
					<dim>128</dim>
				</port>
			</output>
		</layer>
		<layer id="181" name="__module.model.layers.0.self_attn/aten::cat/Concat_3" type="Concat" version="opset1">
			<data axis="-2" />
			<input>
				<port id="0" precision="FP32">
					<dim>-1</dim>
					<dim>2</dim>
					<dim>-1</dim>
					<dim>128</dim>
				</port>
				<port id="1" precision="FP32">
					<dim>-1</dim>
					<dim>2</dim>
					<dim>-1</dim>
					<dim>128</dim>
				</port>
			</input>
			<output>
				<port id="2" precision="FP32" names="462,463,hidden_states.13">
					<dim>-1</dim>
					<dim>2</dim>
					<dim>-1</dim>
					<dim>128</dim>
				</port>
			</output>
		</layer>
		<layer id="182" name="__module.model.layers.0.self_attn/aten::unsqueeze/Unsqueeze_3" type="Unsqueeze" version="opset1">
			<input>
				<port id="0" precision="FP32">
					<dim>-1</dim>
					<dim>2</dim>
					<dim>-1</dim>
					<dim>128</dim>
				</port>
				<port id="1" precision="I64" />
			</input>
			<output>
				<port id="2" precision="FP32" names="464,465,466">
					<dim>-1</dim>
					<dim>2</dim>
					<dim>1</dim>
					<dim>-1</dim>
					<dim>128</dim>
				</port>
			</output>
		</layer>
		<layer id="183" name="__module.model.layers.0.self_attn/aten::expand/Broadcast_1" type="Broadcast" version="opset3">
			<data mode="bidirectional" />
			<input>
				<port id="0" precision="FP32">
					<dim>-1</dim>
					<dim>2</dim>
					<dim>1</dim>
					<dim>-1</dim>
					<dim>128</dim>
				</port>
				<port id="1" precision="I64">
					<dim>5</dim>
				</port>
			</input>
			<output>
				<port id="2" precision="FP32" names="468,hidden_states.15">
					<dim>-1</dim>
					<dim>2</dim>
					<dim>6</dim>
					<dim>-1</dim>
					<dim>128</dim>
				</port>
			</output>
		</layer>
		<layer id="184" name="Constant_74594" type="Const" version="opset1">
			<data element_type="i64" shape="4" offset="235265128" size="32" />
			<output>
				<port id="0" precision="I64">
					<dim>4</dim>
				</port>
			</output>
		</layer>
		<layer id="185" name="__module.model.layers.0.self_attn/aten::reshape/Reshape_1" type="Reshape" version="opset1">
			<data special_zero="true" />
			<input>
				<port id="0" precision="FP32">
					<dim>-1</dim>
					<dim>2</dim>
					<dim>6</dim>
					<dim>-1</dim>
					<dim>128</dim>
				</port>
				<port id="1" precision="I64">
					<dim>4</dim>
				</port>
			</input>
			<output>
				<port id="2" precision="FP32" names="472,value.1">
					<dim>-1</dim>
					<dim>12</dim>
					<dim>-1</dim>
					<dim>128</dim>
				</port>
			</output>
		</layer>
		<layer id="186" name="__module.model/aten::triu/Constant" type="Const" version="opset1">
			<data element_type="i32" shape="" offset="0" size="4" />
			<output>
				<port id="0" precision="I32" />
			</output>
		</layer>
		<layer id="187" name="Multiply_62069" type="Const" version="opset1">
			<data element_type="f32" shape="" offset="235468424" size="4" />
			<output>
				<port id="0" precision="FP32" />
			</output>
		</layer>
		<layer id="188" name="Constant_62074" type="Const" version="opset1">
			<data element_type="i64" shape="2" offset="235468428" size="16" />
			<output>
				<port id="0" precision="I64">
					<dim>2</dim>
				</port>
			</output>
		</layer>
		<layer id="189" name="ShapeOf_68036" type="ShapeOf" version="opset3">
			<data output_type="i64" />
			<input>
				<port id="0" precision="I64">
					<dim>-1</dim>
					<dim>-1</dim>
				</port>
			</input>
			<output>
				<port id="1" precision="I64">
					<dim>2</dim>
				</port>
			</output>
		</layer>
		<layer id="190" name="Constant_68037" type="Const" version="opset1">
			<data element_type="i64" shape="" offset="235061744" size="8" />
			<output>
				<port id="0" precision="I64" />
			</output>
		</layer>
		<layer id="191" name="Constant_68038" type="Const" version="opset1">
			<data element_type="i64" shape="" offset="4" size="8" />
			<output>
				<port id="0" precision="I64" />
			</output>
		</layer>
		<layer id="192" name="Gather_68039" type="Gather" version="opset8">
			<data batch_dims="0" />
			<input>
				<port id="0" precision="I64">
					<dim>2</dim>
				</port>
				<port id="1" precision="I64" />
				<port id="2" precision="I64" />
			</input>
			<output>
				<port id="3" precision="I64" names="292,310" />
			</output>
		</layer>
		<layer id="193" name="Constant_68040" type="Const" version="opset1">
			<data element_type="i64" shape="1" offset="235061744" size="8" />
			<output>
				<port id="0" precision="I64">
					<dim>1</dim>
				</port>
			</output>
		</layer>
		<layer id="194" name="Reshape_68041" type="Reshape" version="opset1">
			<data special_zero="false" />
			<input>
				<port id="0" precision="I64" />
				<port id="1" precision="I64">
					<dim>1</dim>
				</port>
			</input>
			<output>
				<port id="2" precision="I64">
					<dim>1</dim>
				</port>
			</output>
		</layer>
		<layer id="195" name="__module.model/prim::ListConstruct" type="Concat" version="opset1">
			<data axis="0" />
			<input>
				<port id="0" precision="I64">
					<dim>1</dim>
				</port>
				<port id="1" precision="I64">
					<dim>1</dim>
				</port>
			</input>
			<output>
				<port id="2" precision="I64">
					<dim>2</dim>
				</port>
			</output>
		</layer>
		<layer id="196" name="Maximum_62075" type="Maximum" version="opset1">
			<data auto_broadcast="numpy" />
			<input>
				<port id="0" precision="I64">
					<dim>2</dim>
				</port>
				<port id="1" precision="I64">
					<dim>2</dim>
				</port>
			</input>
			<output>
				<port id="2" precision="I64">
					<dim>2</dim>
				</port>
			</output>
		</layer>
		<layer id="197" name="__module.model/aten::mul/Multiply" type="Broadcast" version="opset3">
			<data mode="numpy" />
			<input>
				<port id="0" precision="FP32" />
				<port id="1" precision="I64">
					<dim>2</dim>
				</port>
			</input>
			<output>
				<port id="2" precision="FP32" names="295">
					<dim>-1</dim>
					<dim>-1</dim>
				</port>
			</output>
		</layer>
		<layer id="198" name="ShapeOf_68046" type="ShapeOf" version="opset3">
			<data output_type="i32" />
			<input>
				<port id="0" precision="FP32">
					<dim>-1</dim>
					<dim>-1</dim>
				</port>
			</input>
			<output>
				<port id="1" precision="I32">
					<dim>2</dim>
				</port>
			</output>
		</layer>
		<layer id="199" name="Constant_68047" type="Const" version="opset1">
			<data element_type="i64" shape="" offset="235061744" size="8" />
			<output>
				<port id="0" precision="I64" />
			</output>
		</layer>
		<layer id="200" name="Constant_68048" type="Const" version="opset1">
			<data element_type="i64" shape="" offset="4" size="8" />
			<output>
				<port id="0" precision="I64" />
			</output>
		</layer>
		<layer id="201" name="Gather_68049" type="Gather" version="opset8">
			<data batch_dims="0" />
			<input>
				<port id="0" precision="I32">
					<dim>2</dim>
				</port>
				<port id="1" precision="I64" />
				<port id="2" precision="I64" />
			</input>
			<output>
				<port id="3" precision="I32" />
			</output>
		</layer>
		<layer id="202" name="__module.model/aten::triu/Constant_2" type="Const" version="opset1">
			<data element_type="i32" shape="" offset="235468444" size="4" />
			<output>
				<port id="0" precision="I32" />
			</output>
		</layer>
		<layer id="203" name="__module.model/aten::triu/Range" type="Range" version="opset4">
			<data output_type="i32" />
			<input>
				<port id="0" precision="I32" />
				<port id="1" precision="I32" />
				<port id="2" precision="I32" />
			</input>
			<output>
				<port id="3" precision="I32">
					<dim>-1</dim>
				</port>
			</output>
		</layer>
		<layer id="204" name="__module.model/aten::triu/Unsqueeze" type="Unsqueeze" version="opset1">
			<input>
				<port id="0" precision="I32">
					<dim>-1</dim>
				</port>
				<port id="1" precision="I32" />
			</input>
			<output>
				<port id="2" precision="I32">
					<dim>1</dim>
					<dim>-1</dim>
				</port>
			</output>
		</layer>
		<layer id="205" name="__module.model/aten::triu/Convert" type="Const" version="opset1">
			<data element_type="i32" shape="" offset="235468444" size="4" />
			<output>
				<port id="0" precision="I32" />
			</output>
		</layer>
		<layer id="206" name="Constant_68053" type="Const" version="opset1">
			<data element_type="i64" shape="" offset="4" size="8" />
			<output>
				<port id="0" precision="I64" />
			</output>
		</layer>
		<layer id="207" name="Constant_68054" type="Const" version="opset1">
			<data element_type="i64" shape="" offset="4" size="8" />
			<output>
				<port id="0" precision="I64" />
			</output>
		</layer>
		<layer id="208" name="Gather_68055" type="Gather" version="opset8">
			<data batch_dims="0" />
			<input>
				<port id="0" precision="I32">
					<dim>2</dim>
				</port>
				<port id="1" precision="I64" />
				<port id="2" precision="I64" />
			</input>
			<output>
				<port id="3" precision="I32" />
			</output>
		</layer>
		<layer id="209" name="__module.model/aten::triu/Add" type="Add" version="opset1">
			<data auto_broadcast="numpy" />
			<input>
				<port id="0" precision="I32" />
				<port id="1" precision="I32" />
			</input>
			<output>
				<port id="2" precision="I32" />
			</output>
		</layer>
		<layer id="210" name="__module.model/aten::triu/Range_1" type="Range" version="opset4">
			<data output_type="i32" />
			<input>
				<port id="0" precision="I32" />
				<port id="1" precision="I32" />
				<port id="2" precision="I32" />
			</input>
			<output>
				<port id="3" precision="I32">
					<dim>-1</dim>
				</port>
			</output>
		</layer>
		<layer id="211" name="__module.model/aten::triu/Unsqueeze_1" type="Unsqueeze" version="opset1">
			<input>
				<port id="0" precision="I32">
					<dim>-1</dim>
				</port>
				<port id="1" precision="I32" />
			</input>
			<output>
				<port id="2" precision="I32">
					<dim>-1</dim>
					<dim>1</dim>
				</port>
			</output>
		</layer>
		<layer id="212" name="__module.model/aten::triu/GreaterEqual" type="GreaterEqual" version="opset1">
			<data auto_broadcast="numpy" />
			<input>
				<port id="0" precision="I32">
					<dim>1</dim>
					<dim>-1</dim>
				</port>
				<port id="1" precision="I32">
					<dim>-1</dim>
					<dim>1</dim>
				</port>
			</input>
			<output>
				<port id="2" precision="BOOL">
					<dim>-1</dim>
					<dim>-1</dim>
				</port>
			</output>
		</layer>
		<layer id="213" name="__module.model/aten::triu/ConvertLike" type="Const" version="opset1">
			<data element_type="f32" shape="" offset="0" size="4" />
			<output>
				<port id="0" precision="FP32" />
			</output>
		</layer>
		<layer id="214" name="__module.model/aten::triu/Select" type="Select" version="opset1">
			<data auto_broadcast="numpy" />
			<input>
				<port id="0" precision="BOOL">
					<dim>-1</dim>
					<dim>-1</dim>
				</port>
				<port id="1" precision="FP32">
					<dim>-1</dim>
					<dim>-1</dim>
				</port>
				<port id="2" precision="FP32" />
			</input>
			<output>
				<port id="3" precision="FP32" names="296_1">
					<dim>-1</dim>
					<dim>-1</dim>
				</port>
			</output>
		</layer>
		<layer id="215" name="__module.model/aten::arange/Constant" type="Const" version="opset1">
			<data element_type="i32" shape="" offset="0" size="4" />
			<output>
				<port id="0" precision="I32" />
			</output>
		</layer>
		<layer id="216" name="__module.model/aten::arange/Constant_1" type="Const" version="opset1">
			<data element_type="i32" shape="" offset="235468444" size="4" />
			<output>
				<port id="0" precision="I32" />
			</output>
		</layer>
		<layer id="217" name="__module.model/aten::arange/Range" type="Range" version="opset4">
			<data output_type="f32" />
			<input>
				<port id="0" precision="I32" />
				<port id="1" precision="I64" />
				<port id="2" precision="I32" />
			</input>
			<output>
				<port id="3" precision="FP32">
					<dim>-1</dim>
				</port>
			</output>
		</layer>
		<layer id="218" name="__module.model/aten::arange/ConvertLike" type="Convert" version="opset1">
			<data destination_type="i64" />
			<input>
				<port id="0" precision="FP32">
					<dim>-1</dim>
				</port>
			</input>
			<output>
				<port id="1" precision="I64" names="297">
					<dim>-1</dim>
				</port>
			</output>
		</layer>
		<layer id="219" name="__module.model/aten::gt/Convert" type="Convert" version="opset1">
			<data destination_type="f32" />
			<input>
				<port id="0" precision="I64">
					<dim>-1</dim>
				</port>
			</input>
			<output>
				<port id="1" precision="FP32">
					<dim>-1</dim>
				</port>
			</output>
		</layer>
		<layer id="220" name="__module.model/aten::add/Add" type="Add" version="opset1">
			<data auto_broadcast="numpy" />
			<input>
				<port id="0" precision="I64" />
				<port id="1" precision="I64" />
			</input>
			<output>
				<port id="2" precision="I64" names="288" />
			</output>
		</layer>
		<layer id="221" name="__module.model/aten::arange/Constant_2" type="Const" version="opset1">
			<data element_type="i32" shape="" offset="235468444" size="4" />
			<output>
				<port id="0" precision="I32" />
			</output>
		</layer>
		<layer id="222" name="__module.model/aten::arange/Range_1" type="Range" version="opset4">
			<data output_type="f32" />
			<input>
				<port id="0" precision="I64" />
				<port id="1" precision="I64" />
				<port id="2" precision="I32" />
			</input>
			<output>
				<port id="3" precision="FP32" names="290,cache_position">
					<dim>-1</dim>
				</port>
			</output>
		</layer>
		<layer id="223" name="Constant_269" type="Const" version="opset1">
			<data element_type="i64" shape="2" offset="235468448" size="16" />
			<output>
				<port id="0" precision="I64" names="298">
					<dim>2</dim>
				</port>
			</output>
		</layer>
		<layer id="224" name="__module.model/aten::reshape/Reshape" type="Reshape" version="opset1">
			<data special_zero="false" />
			<input>
				<port id="0" precision="FP32">
					<dim>-1</dim>
				</port>
				<port id="1" precision="I64">
					<dim>2</dim>
				</port>
			</input>
			<output>
				<port id="2" precision="FP32" names="299">
					<dim>-1</dim>
					<dim>1</dim>
				</port>
			</output>
		</layer>
		<layer id="225" name="__module.model/aten::gt/Greater" type="Greater" version="opset1">
			<data auto_broadcast="numpy" />
			<input>
				<port id="0" precision="FP32">
					<dim>-1</dim>
				</port>
				<port id="1" precision="FP32">
					<dim>-1</dim>
					<dim>1</dim>
				</port>
			</input>
			<output>
				<port id="2" precision="BOOL" names="300">
					<dim>-1</dim>
					<dim>-1</dim>
				</port>
			</output>
		</layer>
		<layer id="226" name="__module.model/aten::mul_/ConvertLike" type="Convert" version="opset1">
			<data destination_type="f32" />
			<input>
				<port id="0" precision="BOOL">
					<dim>-1</dim>
					<dim>-1</dim>
				</port>
			</input>
			<output>
				<port id="1" precision="FP32">
					<dim>-1</dim>
					<dim>-1</dim>
				</port>
			</output>
		</layer>
		<layer id="227" name="__module.model/aten::mul_/Multiply" type="Multiply" version="opset1">
			<data auto_broadcast="numpy" />
			<input>
				<port id="0" precision="FP32">
					<dim>-1</dim>
					<dim>-1</dim>
				</port>
				<port id="1" precision="FP32">
					<dim>-1</dim>
					<dim>-1</dim>
				</port>
			</input>
			<output>
				<port id="2" precision="FP32" names="296,causal_mask.1">
					<dim>-1</dim>
					<dim>-1</dim>
				</port>
			</output>
		</layer>
		<layer id="228" name="214" type="Const" version="opset1">
			<data element_type="i64" shape="" offset="4" size="8" />
			<output>
				<port id="0" precision="I64" names="214" />
			</output>
		</layer>
		<layer id="229" name="__module.model/aten::unsqueeze/Unsqueeze" type="Unsqueeze" version="opset1">
			<input>
				<port id="0" precision="FP32">
					<dim>-1</dim>
					<dim>-1</dim>
				</port>
				<port id="1" precision="I64" />
			</input>
			<output>
				<port id="2" precision="FP32" names="302">
					<dim>1</dim>
					<dim>-1</dim>
					<dim>-1</dim>
				</port>
			</output>
		</layer>
		<layer id="230" name="__module.model/aten::unsqueeze/Unsqueeze_1" type="Unsqueeze" version="opset1">
			<input>
				<port id="0" precision="FP32">
					<dim>1</dim>
					<dim>-1</dim>
					<dim>-1</dim>
				</port>
				<port id="1" precision="I64" />
			</input>
			<output>
				<port id="2" precision="FP32" names="303,304,305">
					<dim>1</dim>
					<dim>1</dim>
					<dim>-1</dim>
					<dim>-1</dim>
				</port>
			</output>
		</layer>
		<layer id="231" name="Constant_59243" type="Const" version="opset1">
			<data element_type="i64" shape="1" offset="235061744" size="8" />
			<output>
				<port id="0" precision="I64">
					<dim>1</dim>
				</port>
			</output>
		</layer>
		<layer id="232" name="Constant_59245" type="Const" version="opset1">
			<data element_type="i64" shape="1" offset="235061744" size="8" />
			<output>
				<port id="0" precision="I64">
					<dim>1</dim>
				</port>
			</output>
		</layer>
		<layer id="233" name="Constant_59247" type="Const" version="opset1">
			<data element_type="i64" shape="1" offset="235061744" size="8" />
			<output>
				<port id="0" precision="I64">
					<dim>1</dim>
				</port>
			</output>
		</layer>
		<layer id="234" name="__module.model/prim::ListConstruct_1" type="Concat" version="opset1">
			<data axis="0" />
			<input>
				<port id="0" precision="I64">
					<dim>1</dim>
				</port>
				<port id="1" precision="I64">
					<dim>1</dim>
				</port>
				<port id="2" precision="I64">
					<dim>1</dim>
				</port>
				<port id="3" precision="I64">
					<dim>1</dim>
				</port>
			</input>
			<output>
				<port id="4" precision="I64">
					<dim>4</dim>
				</port>
			</output>
		</layer>
		<layer id="235" name="__module.model/aten::expand/Broadcast" type="Broadcast" version="opset3">
			<data mode="bidirectional" />
			<input>
				<port id="0" precision="FP32">
					<dim>1</dim>
					<dim>1</dim>
					<dim>-1</dim>
					<dim>-1</dim>
				</port>
				<port id="1" precision="I64">
					<dim>4</dim>
				</port>
			</input>
			<output>
				<port id="2" precision="FP32" names="308,311,312,313,321,322,323,326_1,327_1,328_1,causal_mask.5">
					<dim>-1</dim>
					<dim>1</dim>
					<dim>-1</dim>
					<dim>-1</dim>
				</port>
			</output>
		</layer>
		<layer id="236" name="Constant_49306" type="Const" version="opset1">
			<data element_type="i64" shape="1" offset="233841828" size="8" />
			<output>
				<port id="0" precision="I64">
					<dim>1</dim>
				</port>
			</output>
		</layer>
		<layer id="237" name="SliceAssign_486/Reshape_3" type="Reshape" version="opset1">
			<data special_zero="false" />
			<input>
				<port id="0" precision="FP32">
					<dim>-1</dim>
					<dim>1</dim>
					<dim>-1</dim>
					<dim>-1</dim>
				</port>
				<port id="1" precision="I64">
					<dim>1</dim>
				</port>
			</input>
			<output>
				<port id="2" precision="FP32">
					<dim>-1</dim>
				</port>
			</output>
		</layer>
		<layer id="238" name="Constant_32107" type="Const" version="opset1">
			<data element_type="i64" shape="" offset="4" size="8" />
			<output>
				<port id="0" precision="I64" />
			</output>
		</layer>
		<layer id="239" name="SliceAssign_486/ShapeOf" type="ShapeOf" version="opset3">
			<data output_type="i64" />
			<input>
				<port id="0" precision="FP32">
					<dim>-1</dim>
					<dim>1</dim>
					<dim>-1</dim>
					<dim>-1</dim>
				</port>
			</input>
			<output>
				<port id="1" precision="I64">
					<dim>4</dim>
				</port>
			</output>
		</layer>
		<layer id="240" name="SliceAssign_486/ReduceProd" type="ReduceProd" version="opset1">
			<data keep_dims="false" />
			<input>
				<port id="0" precision="I64">
					<dim>4</dim>
				</port>
				<port id="1" precision="I64" />
			</input>
			<output>
				<port id="2" precision="I64" />
			</output>
		</layer>
		<layer id="241" name="Constant_32108" type="Const" version="opset1">
			<data element_type="i64" shape="" offset="235061744" size="8" />
			<output>
				<port id="0" precision="I64" />
			</output>
		</layer>
		<layer id="242" name="SliceAssign_486/Range" type="Range" version="opset4">
			<data output_type="i64" />
			<input>
				<port id="0" precision="I64" />
				<port id="1" precision="I64" />
				<port id="2" precision="I64" />
			</input>
			<output>
				<port id="3" precision="I64">
					<dim>-1</dim>
				</port>
			</output>
		</layer>
		<layer id="243" name="SliceAssign_486/Reshape" type="Reshape" version="opset1">
			<data special_zero="false" />
			<input>
				<port id="0" precision="I64">
					<dim>-1</dim>
				</port>
				<port id="1" precision="I64">
					<dim>4</dim>
				</port>
			</input>
			<output>
				<port id="2" precision="I64">
					<dim>-1</dim>
					<dim>1</dim>
					<dim>-1</dim>
					<dim>-1</dim>
				</port>
			</output>
		</layer>
		<layer id="244" name="Constant_476" type="Const" version="opset1">
			<data element_type="i64" shape="1" offset="4" size="8" />
			<output>
				<port id="0" precision="I64">
					<dim>1</dim>
				</port>
			</output>
		</layer>
		<layer id="245" name="Constant_479" type="Const" version="opset1">
			<data element_type="i64" shape="1" offset="235061744" size="8" />
			<output>
				<port id="0" precision="I64">
					<dim>1</dim>
				</port>
			</output>
		</layer>
		<layer id="246" name="Constant_474" type="Const" version="opset1">
			<data element_type="i64" shape="1" offset="235061780" size="8" />
			<output>
				<port id="0" precision="I64">
					<dim>1</dim>
				</port>
			</output>
		</layer>
		<layer id="247" name="SliceAssign_486/Slice_2" type="Slice" version="opset8">
			<input>
				<port id="0" precision="I64">
					<dim>-1</dim>
					<dim>1</dim>
					<dim>-1</dim>
					<dim>-1</dim>
				</port>
				<port id="1" precision="I64">
					<dim>1</dim>
				</port>
				<port id="2" precision="I64">
					<dim>1</dim>
				</port>
				<port id="3" precision="I64">
					<dim>1</dim>
				</port>
				<port id="4" precision="I64">
					<dim>1</dim>
				</port>
			</input>
			<output>
				<port id="5" precision="I64">
					<dim>-1</dim>
					<dim>1</dim>
					<dim>-1</dim>
					<dim>-1</dim>
				</port>
			</output>
		</layer>
		<layer id="248" name="Constant_32110" type="Const" version="opset1">
			<data element_type="i64" shape="2" offset="235468448" size="16" />
			<output>
				<port id="0" precision="I64">
					<dim>2</dim>
				</port>
			</output>
		</layer>
		<layer id="249" name="SliceAssign_486/Reshape_4" type="Reshape" version="opset1">
			<data special_zero="false" />
			<input>
				<port id="0" precision="I64">
					<dim>-1</dim>
					<dim>1</dim>
					<dim>-1</dim>
					<dim>-1</dim>
				</port>
				<port id="1" precision="I64">
					<dim>2</dim>
				</port>
			</input>
			<output>
				<port id="2" precision="I64">
					<dim>-1</dim>
					<dim>1</dim>
				</port>
			</output>
		</layer>
		<layer id="250" name="Constant_359" type="Const" version="opset1">
			<data element_type="i64" shape="1" offset="4" size="8" />
			<output>
				<port id="0" precision="I64">
					<dim>1</dim>
				</port>
			</output>
		</layer>
		<layer id="251" name="Constant_362" type="Const" version="opset1">
			<data element_type="i64" shape="1" offset="235061744" size="8" />
			<output>
				<port id="0" precision="I64">
					<dim>1</dim>
				</port>
			</output>
		</layer>
		<layer id="252" name="Constant_357" type="Const" version="opset1">
			<data element_type="i64" shape="1" offset="235061780" size="8" />
			<output>
				<port id="0" precision="I64">
					<dim>1</dim>
				</port>
			</output>
		</layer>
		<layer id="253" name="__module.model/aten::slice/Slice_5" type="Slice" version="opset8">
			<input>
				<port id="0" precision="FP32">
					<dim>-1</dim>
					<dim>1</dim>
					<dim>-1</dim>
					<dim>-1</dim>
				</port>
				<port id="1" precision="I64">
					<dim>1</dim>
				</port>
				<port id="2" precision="I64">
					<dim>1</dim>
				</port>
				<port id="3" precision="I64">
					<dim>1</dim>
				</port>
				<port id="4" precision="I64">
					<dim>1</dim>
				</port>
			</input>
			<output>
				<port id="5" precision="FP32" names="314,324,329_1">
					<dim>-1</dim>
					<dim>1</dim>
					<dim>-1</dim>
					<dim>-1</dim>
				</port>
			</output>
		</layer>
		<layer id="254" name="__module.model/aten::unsqueeze/Unsqueeze_2" type="Unsqueeze" version="opset1">
			<input>
				<port id="0" precision="I64">
					<dim>-1</dim>
					<dim>-1</dim>
				</port>
				<port id="1" precision="I64" />
			</input>
			<output>
				<port id="2" precision="I64" names="316">
					<dim>-1</dim>
					<dim>1</dim>
					<dim>-1</dim>
				</port>
			</output>
		</layer>
		<layer id="255" name="__module.model/aten::unsqueeze/Unsqueeze_3" type="Unsqueeze" version="opset1">
			<input>
				<port id="0" precision="I64">
					<dim>-1</dim>
					<dim>1</dim>
					<dim>-1</dim>
				</port>
				<port id="1" precision="I64" />
			</input>
			<output>
				<port id="2" precision="I64" names="317,318">
					<dim>-1</dim>
					<dim>1</dim>
					<dim>1</dim>
					<dim>-1</dim>
				</port>
			</output>
		</layer>
		<layer id="256" name="__module.model/aten::add/Convert" type="Convert" version="opset1">
			<data destination_type="f32" />
			<input>
				<port id="0" precision="I64">
					<dim>-1</dim>
					<dim>1</dim>
					<dim>1</dim>
					<dim>-1</dim>
				</port>
			</input>
			<output>
				<port id="1" precision="FP32">
					<dim>-1</dim>
					<dim>1</dim>
					<dim>1</dim>
					<dim>-1</dim>
				</port>
			</output>
		</layer>
		<layer id="257" name="__module.model/aten::add/Add_1" type="Add" version="opset1">
			<data auto_broadcast="numpy" />
			<input>
				<port id="0" precision="FP32">
					<dim>-1</dim>
					<dim>1</dim>
					<dim>-1</dim>
					<dim>-1</dim>
				</port>
				<port id="1" precision="FP32">
					<dim>-1</dim>
					<dim>1</dim>
					<dim>1</dim>
					<dim>-1</dim>
				</port>
			</input>
			<output>
				<port id="2" precision="FP32" names="319,padding_mask.1">
					<dim>-1</dim>
					<dim>1</dim>
					<dim>-1</dim>
					<dim>-1</dim>
				</port>
			</output>
		</layer>
		<layer id="258" name="Constant_66178" type="Const" version="opset1">
			<data element_type="f32" shape="1, 1, 1, 1" offset="0" size="4" />
			<output>
				<port id="0" precision="FP32">
					<dim>1</dim>
					<dim>1</dim>
					<dim>1</dim>
					<dim>1</dim>
				</port>
			</output>
		</layer>
		<layer id="259" name="__module.model/aten::eq/Equal" type="Equal" version="opset1">
			<data auto_broadcast="numpy" />
			<input>
				<port id="0" precision="FP32">
					<dim>-1</dim>
					<dim>1</dim>
					<dim>-1</dim>
					<dim>-1</dim>
				</port>
				<port id="1" precision="FP32">
					<dim>1</dim>
					<dim>1</dim>
					<dim>1</dim>
					<dim>1</dim>
				</port>
			</input>
			<output>
				<port id="2" precision="BOOL" names="320,padding_mask">
					<dim>-1</dim>
					<dim>1</dim>
					<dim>-1</dim>
					<dim>-1</dim>
				</port>
			</output>
		</layer>
		<layer id="260" name="__module.model/aten::masked_fill/ConvertLike" type="Const" version="opset1">
			<data element_type="f32" shape="" offset="235468424" size="4" />
			<output>
				<port id="0" precision="FP32" />
			</output>
		</layer>
		<layer id="261" name="__module.model/aten::masked_fill/Select" type="Select" version="opset1">
			<data auto_broadcast="numpy" />
			<input>
				<port id="0" precision="BOOL">
					<dim>-1</dim>
					<dim>1</dim>
					<dim>-1</dim>
					<dim>-1</dim>
				</port>
				<port id="1" precision="FP32" />
				<port id="2" precision="FP32">
					<dim>-1</dim>
					<dim>1</dim>
					<dim>-1</dim>
					<dim>-1</dim>
				</port>
			</input>
			<output>
				<port id="3" precision="FP32" names="325">
					<dim>-1</dim>
					<dim>1</dim>
					<dim>-1</dim>
					<dim>-1</dim>
				</port>
			</output>
		</layer>
		<layer id="262" name="__module.model/aten::copy_/ShapeOf" type="ShapeOf" version="opset3">
			<data output_type="i64" />
			<input>
				<port id="0" precision="FP32">
					<dim>-1</dim>
					<dim>1</dim>
					<dim>-1</dim>
					<dim>-1</dim>
				</port>
			</input>
			<output>
				<port id="1" precision="I64">
					<dim>4</dim>
				</port>
			</output>
		</layer>
		<layer id="263" name="__module.model/aten::copy_/Broadcast" type="Broadcast" version="opset3">
			<data mode="numpy" />
			<input>
				<port id="0" precision="FP32">
					<dim>-1</dim>
					<dim>1</dim>
					<dim>-1</dim>
					<dim>-1</dim>
				</port>
				<port id="1" precision="I64">
					<dim>4</dim>
				</port>
			</input>
			<output>
				<port id="2" precision="FP32" names="329">
					<dim>-1</dim>
					<dim>1</dim>
					<dim>-1</dim>
					<dim>-1</dim>
				</port>
			</output>
		</layer>
		<layer id="264" name="Constant_49308" type="Const" version="opset1">
			<data element_type="i64" shape="1" offset="233841828" size="8" />
			<output>
				<port id="0" precision="I64">
					<dim>1</dim>
				</port>
			</output>
		</layer>
		<layer id="265" name="SliceAssign_486/Reshape_5" type="Reshape" version="opset1">
			<data special_zero="false" />
			<input>
				<port id="0" precision="FP32">
					<dim>-1</dim>
					<dim>1</dim>
					<dim>-1</dim>
					<dim>-1</dim>
				</port>
				<port id="1" precision="I64">
					<dim>1</dim>
				</port>
			</input>
			<output>
				<port id="2" precision="FP32">
					<dim>-1</dim>
				</port>
			</output>
		</layer>
		<layer id="266" name="SliceAssign_486/ScatterNDUpdate" type="ScatterNDUpdate" version="opset4">
			<input>
				<port id="0" precision="FP32">
					<dim>-1</dim>
				</port>
				<port id="1" precision="I64">
					<dim>-1</dim>
					<dim>1</dim>
				</port>
				<port id="2" precision="FP32">
					<dim>-1</dim>
				</port>
			</input>
			<output>
				<port id="3" precision="FP32">
					<dim>-1</dim>
				</port>
			</output>
		</layer>
		<layer id="267" name="SliceAssign_486/Reshape_6" type="Reshape" version="opset1">
			<data special_zero="false" />
			<input>
				<port id="0" precision="FP32">
					<dim>-1</dim>
				</port>
				<port id="1" precision="I64">
					<dim>4</dim>
				</port>
			</input>
			<output>
				<port id="2" precision="FP32" names="1118,1119,1120,1279,1280,1281,1440,1441,1442,1601,1602,1603,1762,1763,1764,1923,1924,1925,2084,2085,2086,2245,2246,2247,2406,2407,2408,2567,2568,2569,2728,2729,2730,2889,2890,2891,3050,3051,3052,309,3211,3212,3213,3372,3373,3374,3533,3534,3535,3694,3695,3696,3855,3856,3857,4016,4017,4018,4177,4178,4179,4338,4339,4340,4499,4500,4501,4660,4661,4662,474,475,476,4821,4822,4823,635,636,637,796,797,798,957,958,959">
					<dim>-1</dim>
					<dim>1</dim>
					<dim>-1</dim>
					<dim>-1</dim>
				</port>
			</output>
		</layer>
		<layer id="268" name="Constant_1591" type="Const" version="opset1">
			<data element_type="i64" shape="1" offset="4" size="8" />
			<output>
				<port id="0" precision="I64">
					<dim>1</dim>
				</port>
			</output>
		</layer>
		<layer id="269" name="Constant_1594" type="Const" version="opset1">
			<data element_type="i64" shape="1" offset="235061744" size="8" />
			<output>
				<port id="0" precision="I64">
					<dim>1</dim>
				</port>
			</output>
		</layer>
		<layer id="270" name="Constant_1589" type="Const" version="opset1">
			<data element_type="i64" shape="1" offset="235061780" size="8" />
			<output>
				<port id="0" precision="I64">
					<dim>1</dim>
				</port>
			</output>
		</layer>
		<layer id="271" name="__module.model.layers.0.self_attn/aten::slice/Slice_15" type="Slice" version="opset8">
			<input>
				<port id="0" precision="FP32">
					<dim>-1</dim>
					<dim>1</dim>
					<dim>-1</dim>
					<dim>-1</dim>
				</port>
				<port id="1" precision="I64">
					<dim>1</dim>
				</port>
				<port id="2" precision="I64">
					<dim>1</dim>
				</port>
				<port id="3" precision="I64">
					<dim>1</dim>
				</port>
				<port id="4" precision="I64">
					<dim>1</dim>
				</port>
			</input>
			<output>
				<port id="5" precision="FP32" names="1121,1282,1443,1604,1765,1926,2087,2248,2409,2570,2731,2892,3053,3214,3375,3536,3697,3858,4019,4180,4341,4502,4663,477,4824,638,799,960">
					<dim>-1</dim>
					<dim>1</dim>
					<dim>-1</dim>
					<dim>-1</dim>
				</port>
			</output>
		</layer>
		<layer id="272" name="__module.model.layers.0.self_attn/aten::scaled_dot_product_attention/ConvertLike" type="Const" version="opset1">
			<data element_type="f32" shape="" offset="235468464" size="4" />
			<output>
				<port id="0" precision="FP32" />
			</output>
		</layer>
		<layer id="273" name="__module.model.layers.0.self_attn/aten::scaled_dot_product_attention/ScaledDotProductAttention" type="ScaledDotProductAttention" version="opset13">
			<data causal="false" />
			<input>
				<port id="0" precision="FP32">
					<dim>-1</dim>
					<dim>12</dim>
					<dim>-1</dim>
					<dim>128</dim>
				</port>
				<port id="1" precision="FP32">
					<dim>-1</dim>
					<dim>12</dim>
					<dim>-1</dim>
					<dim>128</dim>
				</port>
				<port id="2" precision="FP32">
					<dim>-1</dim>
					<dim>12</dim>
					<dim>-1</dim>
					<dim>128</dim>
				</port>
				<port id="3" precision="FP32">
					<dim>-1</dim>
					<dim>1</dim>
					<dim>-1</dim>
					<dim>-1</dim>
				</port>
				<port id="4" precision="FP32" />
			</input>
			<output>
				<port id="5" precision="FP32" names="481,attn_output.1">
					<dim>-1</dim>
					<dim>12</dim>
					<dim>-1</dim>
					<dim>128</dim>
				</port>
			</output>
		</layer>
		<layer id="274" name="__module.model.layers.0.self_attn/aten::transpose/Constant_3" type="Const" version="opset1">
			<data element_type="i32" shape="4" offset="235061472" size="16" />
			<output>
				<port id="0" precision="I32">
					<dim>4</dim>
				</port>
			</output>
		</layer>
		<layer id="275" name="__module.model.layers.0.self_attn/aten::transpose/Transpose_3" type="Transpose" version="opset1">
			<input>
				<port id="0" precision="FP32">
					<dim>-1</dim>
					<dim>12</dim>
					<dim>-1</dim>
					<dim>128</dim>
				</port>
				<port id="1" precision="I32">
					<dim>4</dim>
				</port>
			</input>
			<output>
				<port id="2" precision="FP32" names="482">
					<dim>-1</dim>
					<dim>-1</dim>
					<dim>12</dim>
					<dim>128</dim>
				</port>
			</output>
		</layer>
		<layer id="276" name="Constant_61212" type="Const" version="opset1">
			<data element_type="i64" shape="2" offset="235265104" size="16" />
			<output>
				<port id="0" precision="I64">
					<dim>2</dim>
				</port>
			</output>
		</layer>
		<layer id="277" name="Constant_61213" type="Const" version="opset1">
			<data element_type="i64" shape="" offset="4" size="8" />
			<output>
				<port id="0" precision="I64" />
			</output>
		</layer>
		<layer id="278" name="Gather_61214" type="Gather" version="opset8">
			<data batch_dims="0" />
			<input>
				<port id="0" precision="I64">
					<dim>3</dim>
				</port>
				<port id="1" precision="I64">
					<dim>2</dim>
				</port>
				<port id="2" precision="I64" />
			</input>
			<output>
				<port id="3" precision="I64">
					<dim>2</dim>
				</port>
			</output>
		</layer>
		<layer id="279" name="Constant_1636" type="Const" version="opset1">
			<data element_type="i64" shape="1" offset="233841828" size="8" />
			<output>
				<port id="0" precision="I64">
					<dim>1</dim>
				</port>
			</output>
		</layer>
		<layer id="280" name="__module.model.layers.0.self_attn/prim::ListConstruct_7" type="Concat" version="opset1">
			<data axis="0" />
			<input>
				<port id="0" precision="I64">
					<dim>2</dim>
				</port>
				<port id="1" precision="I64">
					<dim>1</dim>
				</port>
			</input>
			<output>
				<port id="2" precision="I64">
					<dim>3</dim>
				</port>
			</output>
		</layer>
		<layer id="281" name="__module.model.layers.0.self_attn/aten::reshape/Reshape_2" type="Reshape" version="opset1">
			<data special_zero="false" />
			<input>
				<port id="0" precision="FP32">
					<dim>-1</dim>
					<dim>-1</dim>
					<dim>12</dim>
					<dim>128</dim>
				</port>
				<port id="1" precision="I64">
					<dim>3</dim>
				</port>
			</input>
			<output>
				<port id="2" precision="FP32" names="485">
					<dim>-1</dim>
					<dim>-1</dim>
					<dim>-1</dim>
				</port>
			</output>
		</layer>
		<layer id="282" name="self.model.layers.0.self_attn.o_proj.weight" type="Const" version="opset1">
			<data element_type="i4" shape="1536, 12, 128" offset="235468468" size="1179648" />
			<output>
				<port id="0" precision="I4">
					<dim>1536</dim>
					<dim>12</dim>
					<dim>128</dim>
				</port>
			</output>
		</layer>
		<layer id="283" name="Convert_92964" type="Convert" version="opset1">
			<data destination_type="f16" />
			<input>
				<port id="0" precision="I4">
					<dim>1536</dim>
					<dim>12</dim>
					<dim>128</dim>
				</port>
			</input>
			<output>
				<port id="1" precision="FP16">
					<dim>1536</dim>
					<dim>12</dim>
					<dim>128</dim>
				</port>
			</output>
		</layer>
		<layer id="284" name="self.model.layers.0.self_attn.o_proj.weight/scale" type="Const" version="opset1">
			<data element_type="f16" shape="1536, 12, 1" offset="236648116" size="36864" />
			<output>
				<port id="0" precision="FP16">
					<dim>1536</dim>
					<dim>12</dim>
					<dim>1</dim>
				</port>
			</output>
		</layer>
		<layer id="285" name="self.model.layers.0.self_attn.o_proj.weight/fq_weights_1" type="Multiply" version="opset1">
			<data auto_broadcast="numpy" />
			<input>
				<port id="0" precision="FP16">
					<dim>1536</dim>
					<dim>12</dim>
					<dim>128</dim>
				</port>
				<port id="1" precision="FP16">
					<dim>1536</dim>
					<dim>12</dim>
					<dim>1</dim>
				</port>
			</input>
			<output>
				<port id="2" precision="FP16">
					<dim>1536</dim>
					<dim>12</dim>
					<dim>128</dim>
				</port>
			</output>
		</layer>
		<layer id="286" name="Constant_92968" type="Const" version="opset1">
			<data element_type="i64" shape="2" offset="235058352" size="16" />
			<output>
				<port id="0" precision="I64">
					<dim>2</dim>
				</port>
			</output>
		</layer>
		<layer id="287" name="Reshape_92969" type="Reshape" version="opset1">
			<data special_zero="false" />
			<input>
				<port id="0" precision="FP16">
					<dim>1536</dim>
					<dim>12</dim>
					<dim>128</dim>
				</port>
				<port id="1" precision="I64">
					<dim>2</dim>
				</port>
			</input>
			<output>
				<port id="2" precision="FP16">
					<dim>1536</dim>
					<dim>1536</dim>
				</port>
			</output>
		</layer>
		<layer id="288" name="__module.model.layers.0.self_attn.o_proj/ov_ext::linear/Convert" type="Convert" version="opset1">
			<data destination_type="f32" />
			<rt_info>
				<attribute name="decompression" version="0" />
			</rt_info>
			<input>
				<port id="0" precision="FP16">
					<dim>1536</dim>
					<dim>1536</dim>
				</port>
			</input>
			<output>
				<port id="1" precision="FP32">
					<dim>1536</dim>
					<dim>1536</dim>
				</port>
			</output>
		</layer>
		<layer id="289" name="__module.model.layers.0.self_attn.o_proj/ov_ext::linear/MatMul" type="MatMul" version="opset1">
			<data transpose_a="false" transpose_b="true" />
			<input>
				<port id="0" precision="FP32">
					<dim>-1</dim>
					<dim>-1</dim>
					<dim>-1</dim>
				</port>
				<port id="1" precision="FP32">
					<dim>1536</dim>
					<dim>1536</dim>
				</port>
			</input>
			<output>
				<port id="2" precision="FP32" names="488,490,hidden_states.17">
					<dim>-1</dim>
					<dim>-1</dim>
					<dim>1536</dim>
				</port>
			</output>
		</layer>
		<layer id="290" name="__module.model.layers.0/aten::add/Add" type="Add" version="opset1">
			<data auto_broadcast="numpy" />
			<input>
				<port id="0" precision="FP32">
					<dim>-1</dim>
					<dim>-1</dim>
					<dim>1536</dim>
				</port>
				<port id="1" precision="FP32">
					<dim>-1</dim>
					<dim>-1</dim>
					<dim>1536</dim>
				</port>
			</input>
			<output>
				<port id="2" precision="FP32" names="493,495,506,hidden_states.19,hidden_states.21">
					<dim>-1</dim>
					<dim>-1</dim>
					<dim>1536</dim>
				</port>
			</output>
		</layer>
		<layer id="291" name="Constant_66182" type="Const" version="opset1">
			<data element_type="f32" shape="1, 1, 1536" offset="236684980" size="6144" />
			<output>
				<port id="0" precision="FP32">
					<dim>1</dim>
					<dim>1</dim>
					<dim>1536</dim>
				</port>
			</output>
		</layer>
		<layer id="292" name="Constant_66181" type="Const" version="opset1">
			<data element_type="f32" shape="1, 1, 1" offset="233841820" size="4" />
			<output>
				<port id="0" precision="FP32">
					<dim>1</dim>
					<dim>1</dim>
					<dim>1</dim>
				</port>
			</output>
		</layer>
		<layer id="293" name="Constant_66179" type="Const" version="opset1">
			<data element_type="f32" shape="1, 1, 1" offset="233841824" size="4" />
			<output>
				<port id="0" precision="FP32">
					<dim>1</dim>
					<dim>1</dim>
					<dim>1</dim>
				</port>
			</output>
		</layer>
		<layer id="294" name="__module.model.layers.0.post_attention_layernorm/aten::pow/Power" type="Power" version="opset1">
			<data auto_broadcast="numpy" />
			<input>
				<port id="0" precision="FP32">
					<dim>-1</dim>
					<dim>-1</dim>
					<dim>1536</dim>
				</port>
				<port id="1" precision="FP32">
					<dim>1</dim>
					<dim>1</dim>
					<dim>1</dim>
				</port>
			</input>
			<output>
				<port id="2" precision="FP32" names="496">
					<dim>-1</dim>
					<dim>-1</dim>
					<dim>1536</dim>
				</port>
			</output>
		</layer>
		<layer id="295" name="Constant_1664" type="Const" version="opset1">
			<data element_type="i64" shape="1" offset="233841828" size="8" />
			<output>
				<port id="0" precision="I64" names="497">
					<dim>1</dim>
				</port>
			</output>
		</layer>
		<layer id="296" name="__module.model.layers.0.post_attention_layernorm/aten::mean/ReduceMean" type="ReduceMean" version="opset1">
			<data keep_dims="true" />
			<input>
				<port id="0" precision="FP32">
					<dim>-1</dim>
					<dim>-1</dim>
					<dim>1536</dim>
				</port>
				<port id="1" precision="I64">
					<dim>1</dim>
				</port>
			</input>
			<output>
				<port id="2" precision="FP32" names="498,variance.3">
					<dim>-1</dim>
					<dim>-1</dim>
					<dim>1</dim>
				</port>
			</output>
		</layer>
		<layer id="297" name="Constant_66180" type="Const" version="opset1">
			<data element_type="f32" shape="1, 1, 1" offset="233841836" size="4" />
			<output>
				<port id="0" precision="FP32">
					<dim>1</dim>
					<dim>1</dim>
					<dim>1</dim>
				</port>
			</output>
		</layer>
		<layer id="298" name="__module.model.layers.0.post_attention_layernorm/aten::add/Add" type="Add" version="opset1">
			<data auto_broadcast="numpy" />
			<input>
				<port id="0" precision="FP32">
					<dim>-1</dim>
					<dim>-1</dim>
					<dim>1</dim>
				</port>
				<port id="1" precision="FP32">
					<dim>1</dim>
					<dim>1</dim>
					<dim>1</dim>
				</port>
			</input>
			<output>
				<port id="2" precision="FP32" names="499">
					<dim>-1</dim>
					<dim>-1</dim>
					<dim>1</dim>
				</port>
			</output>
		</layer>
		<layer id="299" name="__module.model.layers.0.post_attention_layernorm/aten::rsqrt/Sqrt" type="Sqrt" version="opset1">
			<input>
				<port id="0" precision="FP32">
					<dim>-1</dim>
					<dim>-1</dim>
					<dim>1</dim>
				</port>
			</input>
			<output>
				<port id="1" precision="FP32">
					<dim>-1</dim>
					<dim>-1</dim>
					<dim>1</dim>
				</port>
			</output>
		</layer>
		<layer id="300" name="__module.model.layers.0.post_attention_layernorm/aten::rsqrt/Divide" type="Divide" version="opset1">
			<data auto_broadcast="numpy" m_pythondiv="true" />
			<input>
				<port id="0" precision="FP32">
					<dim>1</dim>
					<dim>1</dim>
					<dim>1</dim>
				</port>
				<port id="1" precision="FP32">
					<dim>-1</dim>
					<dim>-1</dim>
					<dim>1</dim>
				</port>
			</input>
			<output>
				<port id="2" precision="FP32" names="500">
					<dim>-1</dim>
					<dim>-1</dim>
					<dim>1</dim>
				</port>
			</output>
		</layer>
		<layer id="301" name="__module.model.layers.0.post_attention_layernorm/aten::mul/Multiply" type="Multiply" version="opset1">
			<data auto_broadcast="numpy" />
			<input>
				<port id="0" precision="FP32">
					<dim>-1</dim>
					<dim>-1</dim>
					<dim>1536</dim>
				</port>
				<port id="1" precision="FP32">
					<dim>-1</dim>
					<dim>-1</dim>
					<dim>1</dim>
				</port>
			</input>
			<output>
				<port id="2" precision="FP32" names="501,502,hidden_states.23,hidden_states.25">
					<dim>-1</dim>
					<dim>-1</dim>
					<dim>1536</dim>
				</port>
			</output>
		</layer>
		<layer id="302" name="__module.model.layers.0.post_attention_layernorm/aten::mul/Multiply_1" type="Multiply" version="opset1">
			<data auto_broadcast="numpy" />
			<input>
				<port id="0" precision="FP32">
					<dim>1</dim>
					<dim>1</dim>
					<dim>1536</dim>
				</port>
				<port id="1" precision="FP32">
					<dim>-1</dim>
					<dim>-1</dim>
					<dim>1536</dim>
				</port>
			</input>
			<output>
				<port id="2" precision="FP32" names="503,505">
					<dim>-1</dim>
					<dim>-1</dim>
					<dim>1536</dim>
				</port>
			</output>
		</layer>
		<layer id="303" name="self.model.layers.0.mlp.gate_proj.weight" type="Const" version="opset1">
			<data element_type="i4" shape="8960, 12, 128" offset="236691124" size="6881280" />
			<output>
				<port id="0" precision="I4">
					<dim>8960</dim>
					<dim>12</dim>
					<dim>128</dim>
				</port>
			</output>
		</layer>
		<layer id="304" name="Convert_92376" type="Convert" version="opset1">
			<data destination_type="f16" />
			<input>
				<port id="0" precision="I4">
					<dim>8960</dim>
					<dim>12</dim>
					<dim>128</dim>
				</port>
			</input>
			<output>
				<port id="1" precision="FP16">
					<dim>8960</dim>
					<dim>12</dim>
					<dim>128</dim>
				</port>
			</output>
		</layer>
		<layer id="305" name="self.model.layers.0.mlp.gate_proj.weight/scale" type="Const" version="opset1">
			<data element_type="f16" shape="8960, 12, 1" offset="243572404" size="215040" />
			<output>
				<port id="0" precision="FP16">
					<dim>8960</dim>
					<dim>12</dim>
					<dim>1</dim>
				</port>
			</output>
		</layer>
		<layer id="306" name="self.model.layers.0.mlp.gate_proj.weight/fq_weights_1" type="Multiply" version="opset1">
			<data auto_broadcast="numpy" />
			<input>
				<port id="0" precision="FP16">
					<dim>8960</dim>
					<dim>12</dim>
					<dim>128</dim>
				</port>
				<port id="1" precision="FP16">
					<dim>8960</dim>
					<dim>12</dim>
					<dim>1</dim>
				</port>
			</input>
			<output>
				<port id="2" precision="FP16">
					<dim>8960</dim>
					<dim>12</dim>
					<dim>128</dim>
				</port>
			</output>
		</layer>
		<layer id="307" name="Constant_92380" type="Const" version="opset1">
			<data element_type="i64" shape="2" offset="243787444" size="16" />
			<output>
				<port id="0" precision="I64">
					<dim>2</dim>
				</port>
			</output>
		</layer>
		<layer id="308" name="Reshape_92381" type="Reshape" version="opset1">
			<data special_zero="false" />
			<input>
				<port id="0" precision="FP16">
					<dim>8960</dim>
					<dim>12</dim>
					<dim>128</dim>
				</port>
				<port id="1" precision="I64">
					<dim>2</dim>
				</port>
			</input>
			<output>
				<port id="2" precision="FP16">
					<dim>8960</dim>
					<dim>1536</dim>
				</port>
			</output>
		</layer>
		<layer id="309" name="__module.model.layers.0.mlp.gate_proj/ov_ext::linear/Convert" type="Convert" version="opset1">
			<data destination_type="f32" />
			<rt_info>
				<attribute name="decompression" version="0" />
			</rt_info>
			<input>
				<port id="0" precision="FP16">
					<dim>8960</dim>
					<dim>1536</dim>
				</port>
			</input>
			<output>
				<port id="1" precision="FP32">
					<dim>8960</dim>
					<dim>1536</dim>
				</port>
			</output>
		</layer>
		<layer id="310" name="__module.model.layers.0.mlp.gate_proj/ov_ext::linear/MatMul" type="MatMul" version="opset1">
			<data transpose_a="false" transpose_b="true" />
			<input>
				<port id="0" precision="FP32">
					<dim>-1</dim>
					<dim>-1</dim>
					<dim>1536</dim>
				</port>
				<port id="1" precision="FP32">
					<dim>8960</dim>
					<dim>1536</dim>
				</port>
			</input>
			<output>
				<port id="2" precision="FP32" names="511,input.1">
					<dim>-1</dim>
					<dim>-1</dim>
					<dim>8960</dim>
				</port>
			</output>
		</layer>
		<layer id="311" name="__module.model.layers.0.mlp.act_fn/aten::silu/Swish" type="Swish" version="opset4">
			<input>
				<port id="0" precision="FP32">
					<dim>-1</dim>
					<dim>-1</dim>
					<dim>8960</dim>
				</port>
			</input>
			<output>
				<port id="1" precision="FP32" names="512">
					<dim>-1</dim>
					<dim>-1</dim>
					<dim>8960</dim>
				</port>
			</output>
		</layer>
		<layer id="312" name="self.model.layers.0.mlp.up_proj.weight" type="Const" version="opset1">
			<data element_type="i4" shape="8960, 12, 128" offset="243787460" size="6881280" />
			<output>
				<port id="0" precision="I4">
					<dim>8960</dim>
					<dim>12</dim>
					<dim>128</dim>
				</port>
			</output>
		</layer>
		<layer id="313" name="Convert_92369" type="Convert" version="opset1">
			<data destination_type="f16" />
			<input>
				<port id="0" precision="I4">
					<dim>8960</dim>
					<dim>12</dim>
					<dim>128</dim>
				</port>
			</input>
			<output>
				<port id="1" precision="FP16">
					<dim>8960</dim>
					<dim>12</dim>
					<dim>128</dim>
				</port>
			</output>
		</layer>
		<layer id="314" name="self.model.layers.0.mlp.up_proj.weight/scale" type="Const" version="opset1">
			<data element_type="f16" shape="8960, 12, 1" offset="250668740" size="215040" />
			<output>
				<port id="0" precision="FP16">
					<dim>8960</dim>
					<dim>12</dim>
					<dim>1</dim>
				</port>
			</output>
		</layer>
		<layer id="315" name="self.model.layers.0.mlp.up_proj.weight/fq_weights_1" type="Multiply" version="opset1">
			<data auto_broadcast="numpy" />
			<input>
				<port id="0" precision="FP16">
					<dim>8960</dim>
					<dim>12</dim>
					<dim>128</dim>
				</port>
				<port id="1" precision="FP16">
					<dim>8960</dim>
					<dim>12</dim>
					<dim>1</dim>
				</port>
			</input>
			<output>
				<port id="2" precision="FP16">
					<dim>8960</dim>
					<dim>12</dim>
					<dim>128</dim>
				</port>
			</output>
		</layer>
		<layer id="316" name="Constant_92373" type="Const" version="opset1">
			<data element_type="i64" shape="2" offset="243787444" size="16" />
			<output>
				<port id="0" precision="I64">
					<dim>2</dim>
				</port>
			</output>
		</layer>
		<layer id="317" name="Reshape_92374" type="Reshape" version="opset1">
			<data special_zero="false" />
			<input>
				<port id="0" precision="FP16">
					<dim>8960</dim>
					<dim>12</dim>
					<dim>128</dim>
				</port>
				<port id="1" precision="I64">
					<dim>2</dim>
				</port>
			</input>
			<output>
				<port id="2" precision="FP16">
					<dim>8960</dim>
					<dim>1536</dim>
				</port>
			</output>
		</layer>
		<layer id="318" name="__module.model.layers.0.mlp.up_proj/ov_ext::linear/Convert" type="Convert" version="opset1">
			<data destination_type="f32" />
			<rt_info>
				<attribute name="decompression" version="0" />
			</rt_info>
			<input>
				<port id="0" precision="FP16">
					<dim>8960</dim>
					<dim>1536</dim>
				</port>
			</input>
			<output>
				<port id="1" precision="FP32">
					<dim>8960</dim>
					<dim>1536</dim>
				</port>
			</output>
		</layer>
		<layer id="319" name="__module.model.layers.0.mlp.up_proj/ov_ext::linear/MatMul" type="MatMul" version="opset1">
			<data transpose_a="false" transpose_b="true" />
			<input>
				<port id="0" precision="FP32">
					<dim>-1</dim>
					<dim>-1</dim>
					<dim>1536</dim>
				</port>
				<port id="1" precision="FP32">
					<dim>8960</dim>
					<dim>1536</dim>
				</port>
			</input>
			<output>
				<port id="2" precision="FP32" names="514">
					<dim>-1</dim>
					<dim>-1</dim>
					<dim>8960</dim>
				</port>
			</output>
		</layer>
		<layer id="320" name="__module.model.layers.0.mlp/aten::mul/Multiply" type="Multiply" version="opset1">
			<data auto_broadcast="numpy" />
			<input>
				<port id="0" precision="FP32">
					<dim>-1</dim>
					<dim>-1</dim>
					<dim>8960</dim>
				</port>
				<port id="1" precision="FP32">
					<dim>-1</dim>
					<dim>-1</dim>
					<dim>8960</dim>
				</port>
			</input>
			<output>
				<port id="2" precision="FP32" names="515">
					<dim>-1</dim>
					<dim>-1</dim>
					<dim>8960</dim>
				</port>
			</output>
		</layer>
		<layer id="321" name="self.model.layers.0.mlp.down_proj.weight" type="Const" version="opset1">
			<data element_type="i4" shape="1536, 70, 128" offset="250883780" size="6881280" />
			<output>
				<port id="0" precision="I4">
					<dim>1536</dim>
					<dim>70</dim>
					<dim>128</dim>
				</port>
			</output>
		</layer>
		<layer id="322" name="Convert_92383" type="Convert" version="opset1">
			<data destination_type="f16" />
			<input>
				<port id="0" precision="I4">
					<dim>1536</dim>
					<dim>70</dim>
					<dim>128</dim>
				</port>
			</input>
			<output>
				<port id="1" precision="FP16">
					<dim>1536</dim>
					<dim>70</dim>
					<dim>128</dim>
				</port>
			</output>
		</layer>
		<layer id="323" name="self.model.layers.0.mlp.down_proj.weight/scale" type="Const" version="opset1">
			<data element_type="f16" shape="1536, 70, 1" offset="257765060" size="215040" />
			<output>
				<port id="0" precision="FP16">
					<dim>1536</dim>
					<dim>70</dim>
					<dim>1</dim>
				</port>
			</output>
		</layer>
		<layer id="324" name="self.model.layers.0.mlp.down_proj.weight/fq_weights_1" type="Multiply" version="opset1">
			<data auto_broadcast="numpy" />
			<input>
				<port id="0" precision="FP16">
					<dim>1536</dim>
					<dim>70</dim>
					<dim>128</dim>
				</port>
				<port id="1" precision="FP16">
					<dim>1536</dim>
					<dim>70</dim>
					<dim>1</dim>
				</port>
			</input>
			<output>
				<port id="2" precision="FP16">
					<dim>1536</dim>
					<dim>70</dim>
					<dim>128</dim>
				</port>
			</output>
		</layer>
		<layer id="325" name="Constant_92387" type="Const" version="opset1">
			<data element_type="i64" shape="2" offset="257980100" size="16" />
			<output>
				<port id="0" precision="I64">
					<dim>2</dim>
				</port>
			</output>
		</layer>
		<layer id="326" name="Reshape_92388" type="Reshape" version="opset1">
			<data special_zero="false" />
			<input>
				<port id="0" precision="FP16">
					<dim>1536</dim>
					<dim>70</dim>
					<dim>128</dim>
				</port>
				<port id="1" precision="I64">
					<dim>2</dim>
				</port>
			</input>
			<output>
				<port id="2" precision="FP16">
					<dim>1536</dim>
					<dim>8960</dim>
				</port>
			</output>
		</layer>
		<layer id="327" name="__module.model.layers.0.mlp.down_proj/ov_ext::linear/Convert" type="Convert" version="opset1">
			<data destination_type="f32" />
			<rt_info>
				<attribute name="decompression" version="0" />
			</rt_info>
			<input>
				<port id="0" precision="FP16">
					<dim>1536</dim>
					<dim>8960</dim>
				</port>
			</input>
			<output>
				<port id="1" precision="FP32">
					<dim>1536</dim>
					<dim>8960</dim>
				</port>
			</output>
		</layer>
		<layer id="328" name="__module.model.layers.0.mlp.down_proj/ov_ext::linear/MatMul" type="MatMul" version="opset1">
			<data transpose_a="false" transpose_b="true" />
			<input>
				<port id="0" precision="FP32">
					<dim>-1</dim>
					<dim>-1</dim>
					<dim>8960</dim>
				</port>
				<port id="1" precision="FP32">
					<dim>1536</dim>
					<dim>8960</dim>
				</port>
			</input>
			<output>
				<port id="2" precision="FP32" names="517,hidden_states.27">
					<dim>-1</dim>
					<dim>-1</dim>
					<dim>1536</dim>
				</port>
			</output>
		</layer>
		<layer id="329" name="__module.model.layers.0/aten::add/Add_1" type="Add" version="opset1">
			<data auto_broadcast="numpy" />
			<input>
				<port id="0" precision="FP32">
					<dim>-1</dim>
					<dim>-1</dim>
					<dim>1536</dim>
				</port>
				<port id="1" precision="FP32">
					<dim>-1</dim>
					<dim>-1</dim>
					<dim>1536</dim>
				</port>
			</input>
			<output>
				<port id="2" precision="FP32" names="518,520,528,539,hidden_states.29,hidden_states.31">
					<dim>-1</dim>
					<dim>-1</dim>
					<dim>1536</dim>
				</port>
			</output>
		</layer>
		<layer id="330" name="Constant_66186" type="Const" version="opset1">
			<data element_type="f32" shape="1, 1, 1536" offset="257980116" size="6144" />
			<output>
				<port id="0" precision="FP32">
					<dim>1</dim>
					<dim>1</dim>
					<dim>1536</dim>
				</port>
			</output>
		</layer>
		<layer id="331" name="Constant_66185" type="Const" version="opset1">
			<data element_type="f32" shape="1, 1, 1" offset="233841820" size="4" />
			<output>
				<port id="0" precision="FP32">
					<dim>1</dim>
					<dim>1</dim>
					<dim>1</dim>
				</port>
			</output>
		</layer>
		<layer id="332" name="Constant_66183" type="Const" version="opset1">
			<data element_type="f32" shape="1, 1, 1" offset="233841824" size="4" />
			<output>
				<port id="0" precision="FP32">
					<dim>1</dim>
					<dim>1</dim>
					<dim>1</dim>
				</port>
			</output>
		</layer>
		<layer id="333" name="__module.model.layers.1.input_layernorm/aten::pow/Power" type="Power" version="opset1">
			<data auto_broadcast="numpy" />
			<input>
				<port id="0" precision="FP32">
					<dim>-1</dim>
					<dim>-1</dim>
					<dim>1536</dim>
				</port>
				<port id="1" precision="FP32">
					<dim>1</dim>
					<dim>1</dim>
					<dim>1</dim>
				</port>
			</input>
			<output>
				<port id="2" precision="FP32" names="529">
					<dim>-1</dim>
					<dim>-1</dim>
					<dim>1536</dim>
				</port>
			</output>
		</layer>
		<layer id="334" name="Constant_1738" type="Const" version="opset1">
			<data element_type="i64" shape="1" offset="233841828" size="8" />
			<output>
				<port id="0" precision="I64" names="530">
					<dim>1</dim>
				</port>
			</output>
		</layer>
		<layer id="335" name="__module.model.layers.1.input_layernorm/aten::mean/ReduceMean" type="ReduceMean" version="opset1">
			<data keep_dims="true" />
			<input>
				<port id="0" precision="FP32">
					<dim>-1</dim>
					<dim>-1</dim>
					<dim>1536</dim>
				</port>
				<port id="1" precision="I64">
					<dim>1</dim>
				</port>
			</input>
			<output>
				<port id="2" precision="FP32" names="531,variance.5">
					<dim>-1</dim>
					<dim>-1</dim>
					<dim>1</dim>
				</port>
			</output>
		</layer>
		<layer id="336" name="Constant_66184" type="Const" version="opset1">
			<data element_type="f32" shape="1, 1, 1" offset="233841836" size="4" />
			<output>
				<port id="0" precision="FP32">
					<dim>1</dim>
					<dim>1</dim>
					<dim>1</dim>
				</port>
			</output>
		</layer>
		<layer id="337" name="__module.model.layers.1.input_layernorm/aten::add/Add" type="Add" version="opset1">
			<data auto_broadcast="numpy" />
			<input>
				<port id="0" precision="FP32">
					<dim>-1</dim>
					<dim>-1</dim>
					<dim>1</dim>
				</port>
				<port id="1" precision="FP32">
					<dim>1</dim>
					<dim>1</dim>
					<dim>1</dim>
				</port>
			</input>
			<output>
				<port id="2" precision="FP32" names="532">
					<dim>-1</dim>
					<dim>-1</dim>
					<dim>1</dim>
				</port>
			</output>
		</layer>
		<layer id="338" name="__module.model.layers.1.input_layernorm/aten::rsqrt/Sqrt" type="Sqrt" version="opset1">
			<input>
				<port id="0" precision="FP32">
					<dim>-1</dim>
					<dim>-1</dim>
					<dim>1</dim>
				</port>
			</input>
			<output>
				<port id="1" precision="FP32">
					<dim>-1</dim>
					<dim>-1</dim>
					<dim>1</dim>
				</port>
			</output>
		</layer>
		<layer id="339" name="__module.model.layers.1.input_layernorm/aten::rsqrt/Divide" type="Divide" version="opset1">
			<data auto_broadcast="numpy" m_pythondiv="true" />
			<input>
				<port id="0" precision="FP32">
					<dim>1</dim>
					<dim>1</dim>
					<dim>1</dim>
				</port>
				<port id="1" precision="FP32">
					<dim>-1</dim>
					<dim>-1</dim>
					<dim>1</dim>
				</port>
			</input>
			<output>
				<port id="2" precision="FP32" names="533">
					<dim>-1</dim>
					<dim>-1</dim>
					<dim>1</dim>
				</port>
			</output>
		</layer>
		<layer id="340" name="__module.model.layers.1.input_layernorm/aten::mul/Multiply" type="Multiply" version="opset1">
			<data auto_broadcast="numpy" />
			<input>
				<port id="0" precision="FP32">
					<dim>-1</dim>
					<dim>-1</dim>
					<dim>1536</dim>
				</port>
				<port id="1" precision="FP32">
					<dim>-1</dim>
					<dim>-1</dim>
					<dim>1</dim>
				</port>
			</input>
			<output>
				<port id="2" precision="FP32" names="534,535,hidden_states.33,hidden_states.35">
					<dim>-1</dim>
					<dim>-1</dim>
					<dim>1536</dim>
				</port>
			</output>
		</layer>
		<layer id="341" name="__module.model.layers.1.input_layernorm/aten::mul/Multiply_1" type="Multiply" version="opset1">
			<data auto_broadcast="numpy" />
			<input>
				<port id="0" precision="FP32">
					<dim>1</dim>
					<dim>1</dim>
					<dim>1536</dim>
				</port>
				<port id="1" precision="FP32">
					<dim>-1</dim>
					<dim>-1</dim>
					<dim>1536</dim>
				</port>
			</input>
			<output>
				<port id="2" precision="FP32" names="536,538,hidden_states.37">
					<dim>-1</dim>
					<dim>-1</dim>
					<dim>1536</dim>
				</port>
			</output>
		</layer>
		<layer id="342" name="self.model.layers.1.self_attn.q_proj.weight" type="Const" version="opset1">
			<data element_type="i4" shape="1536, 12, 128" offset="257986260" size="1179648" />
			<output>
				<port id="0" precision="I4">
					<dim>1536</dim>
					<dim>12</dim>
					<dim>128</dim>
				</port>
			</output>
		</layer>
		<layer id="343" name="Convert_92971" type="Convert" version="opset1">
			<data destination_type="f16" />
			<input>
				<port id="0" precision="I4">
					<dim>1536</dim>
					<dim>12</dim>
					<dim>128</dim>
				</port>
			</input>
			<output>
				<port id="1" precision="FP16">
					<dim>1536</dim>
					<dim>12</dim>
					<dim>128</dim>
				</port>
			</output>
		</layer>
		<layer id="344" name="self.model.layers.1.self_attn.q_proj.weight/scale" type="Const" version="opset1">
			<data element_type="f16" shape="1536, 12, 1" offset="259165908" size="36864" />
			<output>
				<port id="0" precision="FP16">
					<dim>1536</dim>
					<dim>12</dim>
					<dim>1</dim>
				</port>
			</output>
		</layer>
		<layer id="345" name="self.model.layers.1.self_attn.q_proj.weight/fq_weights_1" type="Multiply" version="opset1">
			<data auto_broadcast="numpy" />
			<input>
				<port id="0" precision="FP16">
					<dim>1536</dim>
					<dim>12</dim>
					<dim>128</dim>
				</port>
				<port id="1" precision="FP16">
					<dim>1536</dim>
					<dim>12</dim>
					<dim>1</dim>
				</port>
			</input>
			<output>
				<port id="2" precision="FP16">
					<dim>1536</dim>
					<dim>12</dim>
					<dim>128</dim>
				</port>
			</output>
		</layer>
		<layer id="346" name="Constant_92975" type="Const" version="opset1">
			<data element_type="i64" shape="2" offset="235058352" size="16" />
			<output>
				<port id="0" precision="I64">
					<dim>2</dim>
				</port>
			</output>
		</layer>
		<layer id="347" name="Reshape_92976" type="Reshape" version="opset1">
			<data special_zero="false" />
			<input>
				<port id="0" precision="FP16">
					<dim>1536</dim>
					<dim>12</dim>
					<dim>128</dim>
				</port>
				<port id="1" precision="I64">
					<dim>2</dim>
				</port>
			</input>
			<output>
				<port id="2" precision="FP16">
					<dim>1536</dim>
					<dim>1536</dim>
				</port>
			</output>
		</layer>
		<layer id="348" name="__module.model.layers.1.self_attn.q_proj/ov_ext::linear/Convert" type="Convert" version="opset1">
			<data destination_type="f32" />
			<rt_info>
				<attribute name="decompression" version="0" />
			</rt_info>
			<input>
				<port id="0" precision="FP16">
					<dim>1536</dim>
					<dim>1536</dim>
				</port>
			</input>
			<output>
				<port id="1" precision="FP32">
					<dim>1536</dim>
					<dim>1536</dim>
				</port>
			</output>
		</layer>
		<layer id="349" name="__module.model.layers.1.self_attn.q_proj/ov_ext::linear/MatMul" type="MatMul" version="opset1">
			<data transpose_a="false" transpose_b="true" />
			<input>
				<port id="0" precision="FP32">
					<dim>-1</dim>
					<dim>-1</dim>
					<dim>1536</dim>
				</port>
				<port id="1" precision="FP32">
					<dim>1536</dim>
					<dim>1536</dim>
				</port>
			</input>
			<output>
				<port id="2" precision="FP32">
					<dim>-1</dim>
					<dim>-1</dim>
					<dim>1536</dim>
				</port>
			</output>
		</layer>
		<layer id="350" name="self.model.layers.1.self_attn.q_proj.bias" type="Const" version="opset1">
			<data element_type="bf16" shape="1536" offset="259202772" size="3072" />
			<output>
				<port id="0" precision="BF16" names="self.model.layers.1.self_attn.q_proj.bias">
					<dim>1536</dim>
				</port>
			</output>
		</layer>
		<layer id="351" name="__module.model.layers.1.self_attn.q_proj/ov_ext::linear/Convert_1" type="Convert" version="opset1">
			<data destination_type="f32" />
			<rt_info>
				<attribute name="decompression" version="0" />
			</rt_info>
			<input>
				<port id="0" precision="BF16">
					<dim>1536</dim>
				</port>
			</input>
			<output>
				<port id="1" precision="FP32">
					<dim>1536</dim>
				</port>
			</output>
		</layer>
		<layer id="352" name="__module.model.layers.1.self_attn.q_proj/ov_ext::linear/Add" type="Add" version="opset1">
			<data auto_broadcast="numpy" />
			<input>
				<port id="0" precision="FP32">
					<dim>-1</dim>
					<dim>-1</dim>
					<dim>1536</dim>
				</port>
				<port id="1" precision="FP32">
					<dim>1536</dim>
				</port>
			</input>
			<output>
				<port id="2" precision="FP32" names="548">
					<dim>-1</dim>
					<dim>-1</dim>
					<dim>1536</dim>
				</port>
			</output>
		</layer>
		<layer id="353" name="Constant_74595" type="Const" version="opset1">
			<data element_type="i64" shape="4" offset="235061440" size="32" />
			<output>
				<port id="0" precision="I64">
					<dim>4</dim>
				</port>
			</output>
		</layer>
		<layer id="354" name="__module.model.layers.1.self_attn/aten::view/Reshape" type="Reshape" version="opset1">
			<data special_zero="true" />
			<input>
				<port id="0" precision="FP32">
					<dim>-1</dim>
					<dim>-1</dim>
					<dim>1536</dim>
				</port>
				<port id="1" precision="I64">
					<dim>4</dim>
				</port>
			</input>
			<output>
				<port id="2" precision="FP32" names="550">
					<dim>-1</dim>
					<dim>-1</dim>
					<dim>12</dim>
					<dim>128</dim>
				</port>
			</output>
		</layer>
		<layer id="355" name="__module.model.layers.1.self_attn/aten::transpose/Constant" type="Const" version="opset1">
			<data element_type="i32" shape="4" offset="235061472" size="16" />
			<output>
				<port id="0" precision="I32">
					<dim>4</dim>
				</port>
			</output>
		</layer>
		<layer id="356" name="__module.model.layers.1.self_attn/aten::transpose/Transpose" type="Transpose" version="opset1">
			<input>
				<port id="0" precision="FP32">
					<dim>-1</dim>
					<dim>-1</dim>
					<dim>12</dim>
					<dim>128</dim>
				</port>
				<port id="1" precision="I32">
					<dim>4</dim>
				</port>
			</input>
			<output>
				<port id="2" precision="FP32" names="551,q.3">
					<dim>-1</dim>
					<dim>12</dim>
					<dim>-1</dim>
					<dim>128</dim>
				</port>
			</output>
		</layer>
		<layer id="357" name="__module.model.layers.1.self_attn/aten::mul/Multiply" type="Multiply" version="opset1">
			<data auto_broadcast="numpy" />
			<input>
				<port id="0" precision="FP32">
					<dim>-1</dim>
					<dim>12</dim>
					<dim>-1</dim>
					<dim>128</dim>
				</port>
				<port id="1" precision="FP32">
					<dim>-1</dim>
					<dim>1</dim>
					<dim>-1</dim>
					<dim>128</dim>
				</port>
			</input>
			<output>
				<port id="2" precision="FP32" names="566">
					<dim>-1</dim>
					<dim>12</dim>
					<dim>-1</dim>
					<dim>128</dim>
				</port>
			</output>
		</layer>
		<layer id="358" name="Constant_2052" type="Const" version="opset1">
			<data element_type="i64" shape="1" offset="235061764" size="8" />
			<output>
				<port id="0" precision="I64">
					<dim>1</dim>
				</port>
			</output>
		</layer>
		<layer id="359" name="Constant_2054" type="Const" version="opset1">
			<data element_type="i64" shape="1" offset="235061772" size="8" />
			<output>
				<port id="0" precision="I64">
					<dim>1</dim>
				</port>
			</output>
		</layer>
		<layer id="360" name="Constant_2056" type="Const" version="opset1">
			<data element_type="i64" shape="1" offset="235061744" size="8" />
			<output>
				<port id="0" precision="I64">
					<dim>1</dim>
				</port>
			</output>
		</layer>
		<layer id="361" name="Constant_2008" type="Const" version="opset1">
			<data element_type="i64" shape="1" offset="235061780" size="8" />
			<output>
				<port id="0" precision="I64">
					<dim>1</dim>
				</port>
			</output>
		</layer>
		<layer id="362" name="__module.model.layers.1.self_attn/aten::slice/Slice" type="Slice" version="opset8">
			<input>
				<port id="0" precision="FP32">
					<dim>-1</dim>
					<dim>12</dim>
					<dim>-1</dim>
					<dim>128</dim>
				</port>
				<port id="1" precision="I64">
					<dim>1</dim>
				</port>
				<port id="2" precision="I64">
					<dim>1</dim>
				</port>
				<port id="3" precision="I64">
					<dim>1</dim>
				</port>
				<port id="4" precision="I64">
					<dim>1</dim>
				</port>
			</input>
			<output>
				<port id="5" precision="FP32" names="576,x2.5">
					<dim>-1</dim>
					<dim>12</dim>
					<dim>-1</dim>
					<dim>64</dim>
				</port>
			</output>
		</layer>
		<layer id="363" name="Constant_66187" type="Const" version="opset1">
			<data element_type="f32" shape="1, 1, 1, 1" offset="235061788" size="4" />
			<output>
				<port id="0" precision="FP32">
					<dim>1</dim>
					<dim>1</dim>
					<dim>1</dim>
					<dim>1</dim>
				</port>
			</output>
		</layer>
		<layer id="364" name="__module.model.layers.1.self_attn/aten::neg/Multiply" type="Multiply" version="opset1">
			<data auto_broadcast="numpy" />
			<input>
				<port id="0" precision="FP32">
					<dim>-1</dim>
					<dim>12</dim>
					<dim>-1</dim>
					<dim>64</dim>
				</port>
				<port id="1" precision="FP32">
					<dim>1</dim>
					<dim>1</dim>
					<dim>1</dim>
					<dim>1</dim>
				</port>
			</input>
			<output>
				<port id="2" precision="FP32" names="577">
					<dim>-1</dim>
					<dim>12</dim>
					<dim>-1</dim>
					<dim>64</dim>
				</port>
			</output>
		</layer>
		<layer id="365" name="Constant_1949" type="Const" version="opset1">
			<data element_type="i64" shape="1" offset="4" size="8" />
			<output>
				<port id="0" precision="I64">
					<dim>1</dim>
				</port>
			</output>
		</layer>
		<layer id="366" name="Constant_1993" type="Const" version="opset1">
			<data element_type="i64" shape="1" offset="235061764" size="8" />
			<output>
				<port id="0" precision="I64">
					<dim>1</dim>
				</port>
			</output>
		</layer>
		<layer id="367" name="Constant_1995" type="Const" version="opset1">
			<data element_type="i64" shape="1" offset="235061744" size="8" />
			<output>
				<port id="0" precision="I64">
					<dim>1</dim>
				</port>
			</output>
		</layer>
		<layer id="368" name="Constant_1947" type="Const" version="opset1">
			<data element_type="i64" shape="1" offset="235061780" size="8" />
			<output>
				<port id="0" precision="I64">
					<dim>1</dim>
				</port>
			</output>
		</layer>
		<layer id="369" name="__module.model.layers.1.self_attn/aten::slice/Slice_1" type="Slice" version="opset8">
			<input>
				<port id="0" precision="FP32">
					<dim>-1</dim>
					<dim>12</dim>
					<dim>-1</dim>
					<dim>128</dim>
				</port>
				<port id="1" precision="I64">
					<dim>1</dim>
				</port>
				<port id="2" precision="I64">
					<dim>1</dim>
				</port>
				<port id="3" precision="I64">
					<dim>1</dim>
				</port>
				<port id="4" precision="I64">
					<dim>1</dim>
				</port>
			</input>
			<output>
				<port id="5" precision="FP32" names="571">
					<dim>-1</dim>
					<dim>12</dim>
					<dim>-1</dim>
					<dim>64</dim>
				</port>
			</output>
		</layer>
		<layer id="370" name="__module.model.layers.1.self_attn/aten::cat/Concat" type="Concat" version="opset1">
			<data axis="-1" />
			<input>
				<port id="0" precision="FP32">
					<dim>-1</dim>
					<dim>12</dim>
					<dim>-1</dim>
					<dim>64</dim>
				</port>
				<port id="1" precision="FP32">
					<dim>-1</dim>
					<dim>12</dim>
					<dim>-1</dim>
					<dim>64</dim>
				</port>
			</input>
			<output>
				<port id="2" precision="FP32" names="579">
					<dim>-1</dim>
					<dim>12</dim>
					<dim>-1</dim>
					<dim>128</dim>
				</port>
			</output>
		</layer>
		<layer id="371" name="__module.model.layers.1.self_attn/aten::mul/Multiply_1" type="Multiply" version="opset1">
			<data auto_broadcast="numpy" />
			<input>
				<port id="0" precision="FP32">
					<dim>-1</dim>
					<dim>12</dim>
					<dim>-1</dim>
					<dim>128</dim>
				</port>
				<port id="1" precision="FP32">
					<dim>-1</dim>
					<dim>1</dim>
					<dim>-1</dim>
					<dim>128</dim>
				</port>
			</input>
			<output>
				<port id="2" precision="FP32" names="580">
					<dim>-1</dim>
					<dim>12</dim>
					<dim>-1</dim>
					<dim>128</dim>
				</port>
			</output>
		</layer>
		<layer id="372" name="__module.model.layers.1.self_attn/aten::add/Add" type="Add" version="opset1">
			<data auto_broadcast="numpy" />
			<input>
				<port id="0" precision="FP32">
					<dim>-1</dim>
					<dim>12</dim>
					<dim>-1</dim>
					<dim>128</dim>
				</port>
				<port id="1" precision="FP32">
					<dim>-1</dim>
					<dim>12</dim>
					<dim>-1</dim>
					<dim>128</dim>
				</port>
			</input>
			<output>
				<port id="2" precision="FP32" names="581,query.5">
					<dim>-1</dim>
					<dim>12</dim>
					<dim>-1</dim>
					<dim>128</dim>
				</port>
			</output>
		</layer>
		<layer id="373" name="Constant_77182" type="Const" version="opset1">
			<data element_type="f32" shape="" offset="0" size="4" />
			<output>
				<port id="0" precision="FP32" />
			</output>
		</layer>
		<layer id="374" name="Constant_77175" type="Const" version="opset1">
			<data element_type="i64" shape="1" offset="12" size="8" />
			<output>
				<port id="0" precision="I64">
					<dim>1</dim>
				</port>
			</output>
		</layer>
		<layer id="375" name="Constant_77177" type="Const" version="opset1">
			<data element_type="i64" shape="1" offset="4" size="8" />
			<output>
				<port id="0" precision="I64">
					<dim>1</dim>
				</port>
			</output>
		</layer>
		<layer id="376" name="Constant_77179" type="Const" version="opset1">
			<data element_type="i64" shape="1" offset="20" size="8" />
			<output>
				<port id="0" precision="I64">
					<dim>1</dim>
				</port>
			</output>
		</layer>
		<layer id="377" name="Concat_77180" type="Concat" version="opset1">
			<data axis="0" />
			<input>
				<port id="0" precision="I64">
					<dim>1</dim>
				</port>
				<port id="1" precision="I64">
					<dim>1</dim>
				</port>
				<port id="2" precision="I64">
					<dim>1</dim>
				</port>
				<port id="3" precision="I64">
					<dim>1</dim>
				</port>
			</input>
			<output>
				<port id="4" precision="I64">
					<dim>4</dim>
				</port>
			</output>
		</layer>
		<layer id="378" name="Broadcast_77183" type="Broadcast" version="opset3">
			<data mode="numpy" />
			<input>
				<port id="0" precision="FP32" />
				<port id="1" precision="I64">
					<dim>4</dim>
				</port>
			</input>
			<output>
				<port id="2" precision="FP32">
					<dim>-1</dim>
					<dim>2</dim>
					<dim>0</dim>
					<dim>128</dim>
				</port>
			</output>
		</layer>
		<layer id="379" name="ReadValue_76614" type="ReadValue" version="opset6">
			<data variable_id="past_key_values.1.keypresent.1.key" variable_type="f32" variable_shape="?,2,?,128" />
			<input>
				<port id="0" precision="FP32">
					<dim>-1</dim>
					<dim>2</dim>
					<dim>0</dim>
					<dim>128</dim>
				</port>
			</input>
			<output>
				<port id="1" precision="FP32" names="past_key_values.1.key">
					<dim>-1</dim>
					<dim>2</dim>
					<dim>-1</dim>
					<dim>128</dim>
				</port>
			</output>
		</layer>
		<layer id="380" name="Constant_76051" type="Const" version="opset1">
			<data element_type="i64" shape="" offset="4" size="8" />
			<output>
				<port id="0" precision="I64" />
			</output>
		</layer>
		<layer id="381" name="Gather_76052" type="Gather" version="opset8">
			<data batch_dims="0" />
			<input>
				<port id="0" precision="FP32">
					<dim>-1</dim>
					<dim>2</dim>
					<dim>-1</dim>
					<dim>128</dim>
				</port>
				<port id="1" precision="I32">
					<dim>-1</dim>
				</port>
				<port id="2" precision="I64" />
			</input>
			<output>
				<port id="3" precision="FP32">
					<dim>-1</dim>
					<dim>2</dim>
					<dim>-1</dim>
					<dim>128</dim>
				</port>
			</output>
		</layer>
		<layer id="382" name="self.model.layers.1.self_attn.k_proj.weight" type="Const" version="opset1">
			<data element_type="i4" shape="256, 12, 128" offset="259205844" size="196608" />
			<output>
				<port id="0" precision="I4">
					<dim>256</dim>
					<dim>12</dim>
					<dim>128</dim>
				</port>
			</output>
		</layer>
		<layer id="383" name="Convert_93370" type="Convert" version="opset1">
			<data destination_type="f16" />
			<input>
				<port id="0" precision="I4">
					<dim>256</dim>
					<dim>12</dim>
					<dim>128</dim>
				</port>
			</input>
			<output>
				<port id="1" precision="FP16">
					<dim>256</dim>
					<dim>12</dim>
					<dim>128</dim>
				</port>
			</output>
		</layer>
		<layer id="384" name="self.model.layers.1.self_attn.k_proj.weight/scale" type="Const" version="opset1">
			<data element_type="f16" shape="256, 12, 1" offset="259402452" size="6144" />
			<output>
				<port id="0" precision="FP16">
					<dim>256</dim>
					<dim>12</dim>
					<dim>1</dim>
				</port>
			</output>
		</layer>
		<layer id="385" name="self.model.layers.1.self_attn.k_proj.weight/fq_weights_1" type="Multiply" version="opset1">
			<data auto_broadcast="numpy" />
			<input>
				<port id="0" precision="FP16">
					<dim>256</dim>
					<dim>12</dim>
					<dim>128</dim>
				</port>
				<port id="1" precision="FP16">
					<dim>256</dim>
					<dim>12</dim>
					<dim>1</dim>
				</port>
			</input>
			<output>
				<port id="2" precision="FP16">
					<dim>256</dim>
					<dim>12</dim>
					<dim>128</dim>
				</port>
			</output>
		</layer>
		<layer id="386" name="Constant_93374" type="Const" version="opset1">
			<data element_type="i64" shape="2" offset="235264544" size="16" />
			<output>
				<port id="0" precision="I64">
					<dim>2</dim>
				</port>
			</output>
		</layer>
		<layer id="387" name="Reshape_93375" type="Reshape" version="opset1">
			<data special_zero="false" />
			<input>
				<port id="0" precision="FP16">
					<dim>256</dim>
					<dim>12</dim>
					<dim>128</dim>
				</port>
				<port id="1" precision="I64">
					<dim>2</dim>
				</port>
			</input>
			<output>
				<port id="2" precision="FP16">
					<dim>256</dim>
					<dim>1536</dim>
				</port>
			</output>
		</layer>
		<layer id="388" name="__module.model.layers.1.self_attn.k_proj/ov_ext::linear/Convert" type="Convert" version="opset1">
			<data destination_type="f32" />
			<rt_info>
				<attribute name="decompression" version="0" />
			</rt_info>
			<input>
				<port id="0" precision="FP16">
					<dim>256</dim>
					<dim>1536</dim>
				</port>
			</input>
			<output>
				<port id="1" precision="FP32">
					<dim>256</dim>
					<dim>1536</dim>
				</port>
			</output>
		</layer>
		<layer id="389" name="__module.model.layers.1.self_attn.k_proj/ov_ext::linear/MatMul" type="MatMul" version="opset1">
			<data transpose_a="false" transpose_b="true" />
			<input>
				<port id="0" precision="FP32">
					<dim>-1</dim>
					<dim>-1</dim>
					<dim>1536</dim>
				</port>
				<port id="1" precision="FP32">
					<dim>256</dim>
					<dim>1536</dim>
				</port>
			</input>
			<output>
				<port id="2" precision="FP32">
					<dim>-1</dim>
					<dim>-1</dim>
					<dim>256</dim>
				</port>
			</output>
		</layer>
		<layer id="390" name="self.model.layers.1.self_attn.k_proj.bias" type="Const" version="opset1">
			<data element_type="bf16" shape="256" offset="259408596" size="512" />
			<output>
				<port id="0" precision="BF16" names="self.model.layers.1.self_attn.k_proj.bias">
					<dim>256</dim>
				</port>
			</output>
		</layer>
		<layer id="391" name="__module.model.layers.1.self_attn.k_proj/ov_ext::linear/Convert_1" type="Convert" version="opset1">
			<data destination_type="f32" />
			<rt_info>
				<attribute name="decompression" version="0" />
			</rt_info>
			<input>
				<port id="0" precision="BF16">
					<dim>256</dim>
				</port>
			</input>
			<output>
				<port id="1" precision="FP32">
					<dim>256</dim>
				</port>
			</output>
		</layer>
		<layer id="392" name="__module.model.layers.1.self_attn.k_proj/ov_ext::linear/Add" type="Add" version="opset1">
			<data auto_broadcast="numpy" />
			<input>
				<port id="0" precision="FP32">
					<dim>-1</dim>
					<dim>-1</dim>
					<dim>256</dim>
				</port>
				<port id="1" precision="FP32">
					<dim>256</dim>
				</port>
			</input>
			<output>
				<port id="2" precision="FP32" names="554">
					<dim>-1</dim>
					<dim>-1</dim>
					<dim>256</dim>
				</port>
			</output>
		</layer>
		<layer id="393" name="Constant_74596" type="Const" version="opset1">
			<data element_type="i64" shape="4" offset="235265072" size="32" />
			<output>
				<port id="0" precision="I64">
					<dim>4</dim>
				</port>
			</output>
		</layer>
		<layer id="394" name="__module.model.layers.1.self_attn/aten::view/Reshape_1" type="Reshape" version="opset1">
			<data special_zero="true" />
			<input>
				<port id="0" precision="FP32">
					<dim>-1</dim>
					<dim>-1</dim>
					<dim>256</dim>
				</port>
				<port id="1" precision="I64">
					<dim>4</dim>
				</port>
			</input>
			<output>
…
		<edge from-layer="4282" from-port="3" to-layer="4314" to-port="0" />
		<edge from-layer="4283" from-port="0" to-layer="4284" to-port="0" />
		<edge from-layer="4284" from-port="1" to-layer="4286" to-port="0" />
		<edge from-layer="4285" from-port="0" to-layer="4286" to-port="1" />
		<edge from-layer="4286" from-port="2" to-layer="4288" to-port="0" />
		<edge from-layer="4287" from-port="0" to-layer="4288" to-port="1" />
		<edge from-layer="4288" from-port="2" to-layer="4289" to-port="0" />
		<edge from-layer="4289" from-port="1" to-layer="4290" to-port="1" />
		<edge from-layer="4290" from-port="2" to-layer="4293" to-port="0" />
		<edge from-layer="4291" from-port="0" to-layer="4292" to-port="0" />
		<edge from-layer="4292" from-port="1" to-layer="4293" to-port="1" />
		<edge from-layer="4293" from-port="2" to-layer="4295" to-port="0" />
		<edge from-layer="4294" from-port="0" to-layer="4295" to-port="1" />
		<edge from-layer="4295" from-port="2" to-layer="4297" to-port="0" />
		<edge from-layer="4296" from-port="0" to-layer="4297" to-port="1" />
		<edge from-layer="4297" from-port="2" to-layer="4298" to-port="0" />
		<edge from-layer="4297" from-port="2" to-layer="4303" to-port="0" />
		<edge from-layer="4297" from-port="2" to-layer="4310" to-port="0" />
		<edge from-layer="4298" from-port="2" to-layer="4313" to-port="0" />
		<edge from-layer="4299" from-port="0" to-layer="4303" to-port="1" />
		<edge from-layer="4300" from-port="0" to-layer="4303" to-port="2" />
		<edge from-layer="4301" from-port="0" to-layer="4303" to-port="3" />
		<edge from-layer="4302" from-port="0" to-layer="4303" to-port="4" />
		<edge from-layer="4303" from-port="5" to-layer="4305" to-port="0" />
		<edge from-layer="4304" from-port="0" to-layer="4305" to-port="1" />
		<edge from-layer="4305" from-port="2" to-layer="4311" to-port="0" />
		<edge from-layer="4306" from-port="0" to-layer="4310" to-port="1" />
		<edge from-layer="4307" from-port="0" to-layer="4310" to-port="2" />
		<edge from-layer="4308" from-port="0" to-layer="4310" to-port="3" />
		<edge from-layer="4309" from-port="0" to-layer="4310" to-port="4" />
		<edge from-layer="4310" from-port="5" to-layer="4311" to-port="1" />
		<edge from-layer="4311" from-port="2" to-layer="4312" to-port="0" />
		<edge from-layer="4312" from-port="2" to-layer="4313" to-port="1" />
		<edge from-layer="4313" from-port="2" to-layer="4314" to-port="1" />
		<edge from-layer="4314" from-port="2" to-layer="4813" to-port="0" />
		<edge from-layer="4314" from-port="2" to-layer="4315" to-port="0" />
		<edge from-layer="4315" from-port="2" to-layer="4316" to-port="0" />
		<edge from-layer="4316" from-port="2" to-layer="4318" to-port="0" />
		<edge from-layer="4317" from-port="0" to-layer="4318" to-port="1" />
		<edge from-layer="4318" from-port="2" to-layer="4348" to-port="1" />
		<edge from-layer="4319" from-port="0" to-layer="4324" to-port="0" />
		<edge from-layer="4320" from-port="0" to-layer="4323" to-port="1" />
		<edge from-layer="4321" from-port="0" to-layer="4323" to-port="2" />
		<edge from-layer="4322" from-port="0" to-layer="4323" to-port="3" />
		<edge from-layer="4323" from-port="4" to-layer="4324" to-port="1" />
		<edge from-layer="4324" from-port="2" to-layer="4325" to-port="0" />
		<edge from-layer="4325" from-port="1" to-layer="4327" to-port="0" />
		<edge from-layer="4326" from-port="0" to-layer="4327" to-port="2" />
		<edge from-layer="4327" from-port="3" to-layer="4343" to-port="0" />
		<edge from-layer="4328" from-port="0" to-layer="4329" to-port="0" />
		<edge from-layer="4329" from-port="1" to-layer="4331" to-port="0" />
		<edge from-layer="4330" from-port="0" to-layer="4331" to-port="1" />
		<edge from-layer="4331" from-port="2" to-layer="4333" to-port="0" />
		<edge from-layer="4332" from-port="0" to-layer="4333" to-port="1" />
		<edge from-layer="4333" from-port="2" to-layer="4334" to-port="0" />
		<edge from-layer="4334" from-port="1" to-layer="4335" to-port="1" />
		<edge from-layer="4335" from-port="2" to-layer="4338" to-port="0" />
		<edge from-layer="4336" from-port="0" to-layer="4337" to-port="0" />
		<edge from-layer="4337" from-port="1" to-layer="4338" to-port="1" />
		<edge from-layer="4338" from-port="2" to-layer="4340" to-port="0" />
		<edge from-layer="4339" from-port="0" to-layer="4340" to-port="1" />
		<edge from-layer="4340" from-port="2" to-layer="4342" to-port="0" />
		<edge from-layer="4341" from-port="0" to-layer="4342" to-port="1" />
		<edge from-layer="4342" from-port="2" to-layer="4343" to-port="1" />
		<edge from-layer="4343" from-port="2" to-layer="4344" to-port="0" />
		<edge from-layer="4343" from-port="2" to-layer="4812" to-port="0" />
		<edge from-layer="4344" from-port="2" to-layer="4345" to-port="0" />
		<edge from-layer="4345" from-port="2" to-layer="4347" to-port="0" />
		<edge from-layer="4346" from-port="0" to-layer="4347" to-port="1" />
		<edge from-layer="4347" from-port="2" to-layer="4348" to-port="2" />
		<edge from-layer="4348" from-port="5" to-layer="4350" to-port="0" />
		<edge from-layer="4349" from-port="0" to-layer="4350" to-port="1" />
		<edge from-layer="4350" from-port="2" to-layer="4351" to-port="0" />
		<edge from-layer="4351" from-port="2" to-layer="4359" to-port="0" />
		<edge from-layer="4352" from-port="0" to-layer="4353" to-port="0" />
		<edge from-layer="4353" from-port="1" to-layer="4355" to-port="0" />
		<edge from-layer="4354" from-port="0" to-layer="4355" to-port="1" />
		<edge from-layer="4355" from-port="2" to-layer="4357" to-port="0" />
		<edge from-layer="4356" from-port="0" to-layer="4357" to-port="1" />
		<edge from-layer="4357" from-port="2" to-layer="4358" to-port="0" />
		<edge from-layer="4358" from-port="1" to-layer="4359" to-port="1" />
		<edge from-layer="4359" from-port="2" to-layer="4360" to-port="1" />
		<edge from-layer="4360" from-port="2" to-layer="4399" to-port="0" />
		<edge from-layer="4360" from-port="2" to-layer="4364" to-port="0" />
		<edge from-layer="4360" from-port="2" to-layer="4371" to-port="0" />
		<edge from-layer="4361" from-port="0" to-layer="4372" to-port="0" />
		<edge from-layer="4362" from-port="0" to-layer="4370" to-port="0" />
		<edge from-layer="4363" from-port="0" to-layer="4364" to-port="1" />
		<edge from-layer="4364" from-port="2" to-layer="4366" to-port="0" />
		<edge from-layer="4365" from-port="0" to-layer="4366" to-port="1" />
		<edge from-layer="4366" from-port="2" to-layer="4368" to-port="0" />
		<edge from-layer="4367" from-port="0" to-layer="4368" to-port="1" />
		<edge from-layer="4368" from-port="2" to-layer="4369" to-port="0" />
		<edge from-layer="4369" from-port="1" to-layer="4370" to-port="1" />
		<edge from-layer="4370" from-port="2" to-layer="4371" to-port="1" />
		<edge from-layer="4371" from-port="2" to-layer="4372" to-port="1" />
		<edge from-layer="4372" from-port="2" to-layer="4389" to-port="0" />
		<edge from-layer="4372" from-port="2" to-layer="4380" to-port="0" />
		<edge from-layer="4373" from-port="0" to-layer="4374" to-port="0" />
		<edge from-layer="4374" from-port="1" to-layer="4376" to-port="0" />
		<edge from-layer="4375" from-port="0" to-layer="4376" to-port="1" />
		<edge from-layer="4376" from-port="2" to-layer="4378" to-port="0" />
		<edge from-layer="4377" from-port="0" to-layer="4378" to-port="1" />
		<edge from-layer="4378" from-port="2" to-layer="4379" to-port="0" />
		<edge from-layer="4379" from-port="1" to-layer="4380" to-port="1" />
		<edge from-layer="4380" from-port="2" to-layer="4381" to-port="0" />
		<edge from-layer="4381" from-port="1" to-layer="4390" to-port="0" />
		<edge from-layer="4382" from-port="0" to-layer="4383" to-port="0" />
		<edge from-layer="4383" from-port="1" to-layer="4385" to-port="0" />
		<edge from-layer="4384" from-port="0" to-layer="4385" to-port="1" />
		<edge from-layer="4385" from-port="2" to-layer="4387" to-port="0" />
		<edge from-layer="4386" from-port="0" to-layer="4387" to-port="1" />
		<edge from-layer="4387" from-port="2" to-layer="4388" to-port="0" />
		<edge from-layer="4388" from-port="1" to-layer="4389" to-port="1" />
		<edge from-layer="4389" from-port="2" to-layer="4390" to-port="1" />
		<edge from-layer="4390" from-port="2" to-layer="4398" to-port="0" />
		<edge from-layer="4391" from-port="0" to-layer="4392" to-port="0" />
		<edge from-layer="4392" from-port="1" to-layer="4394" to-port="0" />
		<edge from-layer="4393" from-port="0" to-layer="4394" to-port="1" />
		<edge from-layer="4394" from-port="2" to-layer="4396" to-port="0" />
		<edge from-layer="4395" from-port="0" to-layer="4396" to-port="1" />
		<edge from-layer="4396" from-port="2" to-layer="4397" to-port="0" />
		<edge from-layer="4397" from-port="1" to-layer="4398" to-port="1" />
		<edge from-layer="4398" from-port="2" to-layer="4399" to-port="1" />
		<edge from-layer="4399" from-port="2" to-layer="4403" to-port="0" />
		<edge from-layer="4399" from-port="2" to-layer="4529" to-port="0" />
		<edge from-layer="4399" from-port="2" to-layer="4410" to-port="0" />
		<edge from-layer="4400" from-port="0" to-layer="4411" to-port="0" />
		<edge from-layer="4401" from-port="0" to-layer="4409" to-port="0" />
		<edge from-layer="4402" from-port="0" to-layer="4403" to-port="1" />
		<edge from-layer="4403" from-port="2" to-layer="4405" to-port="0" />
		<edge from-layer="4404" from-port="0" to-layer="4405" to-port="1" />
		<edge from-layer="4405" from-port="2" to-layer="4407" to-port="0" />
		<edge from-layer="4406" from-port="0" to-layer="4407" to-port="1" />
		<edge from-layer="4407" from-port="2" to-layer="4408" to-port="0" />
		<edge from-layer="4408" from-port="1" to-layer="4409" to-port="1" />
		<edge from-layer="4409" from-port="2" to-layer="4410" to-port="1" />
		<edge from-layer="4410" from-port="2" to-layer="4411" to-port="1" />
		<edge from-layer="4411" from-port="2" to-layer="4459" to-port="0" />
		<edge from-layer="4411" from-port="2" to-layer="4419" to-port="0" />
		<edge from-layer="4411" from-port="2" to-layer="4504" to-port="0" />
		<edge from-layer="4412" from-port="0" to-layer="4413" to-port="0" />
		<edge from-layer="4413" from-port="1" to-layer="4415" to-port="0" />
		<edge from-layer="4414" from-port="0" to-layer="4415" to-port="1" />
		<edge from-layer="4415" from-port="2" to-layer="4417" to-port="0" />
		<edge from-layer="4416" from-port="0" to-layer="4417" to-port="1" />
		<edge from-layer="4417" from-port="2" to-layer="4418" to-port="0" />
		<edge from-layer="4418" from-port="1" to-layer="4419" to-port="1" />
		<edge from-layer="4419" from-port="2" to-layer="4422" to-port="0" />
		<edge from-layer="4420" from-port="0" to-layer="4421" to-port="0" />
		<edge from-layer="4421" from-port="1" to-layer="4422" to-port="1" />
		<edge from-layer="4422" from-port="2" to-layer="4424" to-port="0" />
		<edge from-layer="4423" from-port="0" to-layer="4424" to-port="1" />
		<edge from-layer="4424" from-port="2" to-layer="4426" to-port="0" />
		<edge from-layer="4425" from-port="0" to-layer="4426" to-port="1" />
		<edge from-layer="4426" from-port="2" to-layer="4427" to-port="0" />
		<edge from-layer="4426" from-port="2" to-layer="4432" to-port="0" />
		<edge from-layer="4426" from-port="2" to-layer="4439" to-port="0" />
		<edge from-layer="4427" from-port="2" to-layer="4442" to-port="0" />
		<edge from-layer="4428" from-port="0" to-layer="4432" to-port="1" />
		<edge from-layer="4429" from-port="0" to-layer="4432" to-port="2" />
		<edge from-layer="4430" from-port="0" to-layer="4432" to-port="3" />
		<edge from-layer="4431" from-port="0" to-layer="4432" to-port="4" />
		<edge from-layer="4432" from-port="5" to-layer="4434" to-port="0" />
		<edge from-layer="4433" from-port="0" to-layer="4434" to-port="1" />
		<edge from-layer="4434" from-port="2" to-layer="4440" to-port="0" />
		<edge from-layer="4435" from-port="0" to-layer="4439" to-port="1" />
		<edge from-layer="4436" from-port="0" to-layer="4439" to-port="2" />
		<edge from-layer="4437" from-port="0" to-layer="4439" to-port="3" />
		<edge from-layer="4438" from-port="0" to-layer="4439" to-port="4" />
		<edge from-layer="4439" from-port="5" to-layer="4440" to-port="1" />
		<edge from-layer="4440" from-port="2" to-layer="4441" to-port="0" />
		<edge from-layer="4441" from-port="2" to-layer="4442" to-port="1" />
		<edge from-layer="4442" from-port="2" to-layer="4517" to-port="0" />
		<edge from-layer="4443" from-port="0" to-layer="4448" to-port="0" />
		<edge from-layer="4444" from-port="0" to-layer="4447" to-port="1" />
		<edge from-layer="4445" from-port="0" to-layer="4447" to-port="2" />
		<edge from-layer="4446" from-port="0" to-layer="4447" to-port="3" />
		<edge from-layer="4447" from-port="4" to-layer="4448" to-port="1" />
		<edge from-layer="4448" from-port="2" to-layer="4449" to-port="0" />
		<edge from-layer="4449" from-port="1" to-layer="4451" to-port="0" />
		<edge from-layer="4450" from-port="0" to-layer="4451" to-port="2" />
		<edge from-layer="4451" from-port="3" to-layer="4483" to-port="0" />
		<edge from-layer="4452" from-port="0" to-layer="4453" to-port="0" />
		<edge from-layer="4453" from-port="1" to-layer="4455" to-port="0" />
		<edge from-layer="4454" from-port="0" to-layer="4455" to-port="1" />
		<edge from-layer="4455" from-port="2" to-layer="4457" to-port="0" />
		<edge from-layer="4456" from-port="0" to-layer="4457" to-port="1" />
		<edge from-layer="4457" from-port="2" to-layer="4458" to-port="0" />
		<edge from-layer="4458" from-port="1" to-layer="4459" to-port="1" />
		<edge from-layer="4459" from-port="2" to-layer="4462" to-port="0" />
		<edge from-layer="4460" from-port="0" to-layer="4461" to-port="0" />
		<edge from-layer="4461" from-port="1" to-layer="4462" to-port="1" />
		<edge from-layer="4462" from-port="2" to-layer="4464" to-port="0" />
		<edge from-layer="4463" from-port="0" to-layer="4464" to-port="1" />
		<edge from-layer="4464" from-port="2" to-layer="4466" to-port="0" />
		<edge from-layer="4465" from-port="0" to-layer="4466" to-port="1" />
		<edge from-layer="4466" from-port="2" to-layer="4467" to-port="0" />
		<edge from-layer="4466" from-port="2" to-layer="4472" to-port="0" />
		<edge from-layer="4466" from-port="2" to-layer="4479" to-port="0" />
		<edge from-layer="4467" from-port="2" to-layer="4482" to-port="0" />
		<edge from-layer="4468" from-port="0" to-layer="4472" to-port="1" />
		<edge from-layer="4469" from-port="0" to-layer="4472" to-port="2" />
		<edge from-layer="4470" from-port="0" to-layer="4472" to-port="3" />
		<edge from-layer="4471" from-port="0" to-layer="4472" to-port="4" />
		<edge from-layer="4472" from-port="5" to-layer="4474" to-port="0" />
		<edge from-layer="4473" from-port="0" to-layer="4474" to-port="1" />
		<edge from-layer="4474" from-port="2" to-layer="4480" to-port="0" />
		<edge from-layer="4475" from-port="0" to-layer="4479" to-port="1" />
		<edge from-layer="4476" from-port="0" to-layer="4479" to-port="2" />
		<edge from-layer="4477" from-port="0" to-layer="4479" to-port="3" />
		<edge from-layer="4478" from-port="0" to-layer="4479" to-port="4" />
		<edge from-layer="4479" from-port="5" to-layer="4480" to-port="1" />
		<edge from-layer="4480" from-port="2" to-layer="4481" to-port="0" />
		<edge from-layer="4481" from-port="2" to-layer="4482" to-port="1" />
		<edge from-layer="4482" from-port="2" to-layer="4483" to-port="1" />
		<edge from-layer="4483" from-port="2" to-layer="4484" to-port="0" />
		<edge from-layer="4483" from-port="2" to-layer="4811" to-port="0" />
		<edge from-layer="4484" from-port="2" to-layer="4485" to-port="0" />
		<edge from-layer="4485" from-port="2" to-layer="4487" to-port="0" />
		<edge from-layer="4486" from-port="0" to-layer="4487" to-port="1" />
		<edge from-layer="4487" from-port="2" to-layer="4517" to-port="1" />
		<edge from-layer="4488" from-port="0" to-layer="4493" to-port="0" />
		<edge from-layer="4489" from-port="0" to-layer="4492" to-port="1" />
		<edge from-layer="4490" from-port="0" to-layer="4492" to-port="2" />
		<edge from-layer="4491" from-port="0" to-layer="4492" to-port="3" />
		<edge from-layer="4492" from-port="4" to-layer="4493" to-port="1" />
		<edge from-layer="4493" from-port="2" to-layer="4494" to-port="0" />
		<edge from-layer="4494" from-port="1" to-layer="4496" to-port="0" />
		<edge from-layer="4495" from-port="0" to-layer="4496" to-port="2" />
		<edge from-layer="4496" from-port="3" to-layer="4512" to-port="0" />
		<edge from-layer="4497" from-port="0" to-layer="4498" to-port="0" />
		<edge from-layer="4498" from-port="1" to-layer="4500" to-port="0" />
		<edge from-layer="4499" from-port="0" to-layer="4500" to-port="1" />
		<edge from-layer="4500" from-port="2" to-layer="4502" to-port="0" />
		<edge from-layer="4501" from-port="0" to-layer="4502" to-port="1" />
		<edge from-layer="4502" from-port="2" to-layer="4503" to-port="0" />
		<edge from-layer="4503" from-port="1" to-layer="4504" to-port="1" />
		<edge from-layer="4504" from-port="2" to-layer="4507" to-port="0" />
		<edge from-layer="4505" from-port="0" to-layer="4506" to-port="0" />
		<edge from-layer="4506" from-port="1" to-layer="4507" to-port="1" />
		<edge from-layer="4507" from-port="2" to-layer="4509" to-port="0" />
		<edge from-layer="4508" from-port="0" to-layer="4509" to-port="1" />
		<edge from-layer="4509" from-port="2" to-layer="4511" to-port="0" />
		<edge from-layer="4510" from-port="0" to-layer="4511" to-port="1" />
		<edge from-layer="4511" from-port="2" to-layer="4512" to-port="1" />
		<edge from-layer="4512" from-port="2" to-layer="4513" to-port="0" />
		<edge from-layer="4512" from-port="2" to-layer="4810" to-port="0" />
		<edge from-layer="4513" from-port="2" to-layer="4514" to-port="0" />
		<edge from-layer="4514" from-port="2" to-layer="4516" to-port="0" />
		<edge from-layer="4515" from-port="0" to-layer="4516" to-port="1" />
		<edge from-layer="4516" from-port="2" to-layer="4517" to-port="2" />
		<edge from-layer="4517" from-port="5" to-layer="4519" to-port="0" />
		<edge from-layer="4518" from-port="0" to-layer="4519" to-port="1" />
		<edge from-layer="4519" from-port="2" to-layer="4520" to-port="0" />
		<edge from-layer="4520" from-port="2" to-layer="4528" to-port="0" />
		<edge from-layer="4521" from-port="0" to-layer="4522" to-port="0" />
		<edge from-layer="4522" from-port="1" to-layer="4524" to-port="0" />
		<edge from-layer="4523" from-port="0" to-layer="4524" to-port="1" />
		<edge from-layer="4524" from-port="2" to-layer="4526" to-port="0" />
		<edge from-layer="4525" from-port="0" to-layer="4526" to-port="1" />
		<edge from-layer="4526" from-port="2" to-layer="4527" to-port="0" />
		<edge from-layer="4527" from-port="1" to-layer="4528" to-port="1" />
		<edge from-layer="4528" from-port="2" to-layer="4529" to-port="1" />
		<edge from-layer="4529" from-port="2" to-layer="4568" to-port="0" />
		<edge from-layer="4529" from-port="2" to-layer="4533" to-port="0" />
		<edge from-layer="4529" from-port="2" to-layer="4540" to-port="0" />
		<edge from-layer="4530" from-port="0" to-layer="4541" to-port="0" />
		<edge from-layer="4531" from-port="0" to-layer="4539" to-port="0" />
		<edge from-layer="4532" from-port="0" to-layer="4533" to-port="1" />
		<edge from-layer="4533" from-port="2" to-layer="4535" to-port="0" />
		<edge from-layer="4534" from-port="0" to-layer="4535" to-port="1" />
		<edge from-layer="4535" from-port="2" to-layer="4537" to-port="0" />
		<edge from-layer="4536" from-port="0" to-layer="4537" to-port="1" />
		<edge from-layer="4537" from-port="2" to-layer="4538" to-port="0" />
		<edge from-layer="4538" from-port="1" to-layer="4539" to-port="1" />
		<edge from-layer="4539" from-port="2" to-layer="4540" to-port="1" />
		<edge from-layer="4540" from-port="2" to-layer="4541" to-port="1" />
		<edge from-layer="4541" from-port="2" to-layer="4558" to-port="0" />
		<edge from-layer="4541" from-port="2" to-layer="4549" to-port="0" />
		<edge from-layer="4542" from-port="0" to-layer="4543" to-port="0" />
		<edge from-layer="4543" from-port="1" to-layer="4545" to-port="0" />
		<edge from-layer="4544" from-port="0" to-layer="4545" to-port="1" />
		<edge from-layer="4545" from-port="2" to-layer="4547" to-port="0" />
		<edge from-layer="4546" from-port="0" to-layer="4547" to-port="1" />
		<edge from-layer="4547" from-port="2" to-layer="4548" to-port="0" />
		<edge from-layer="4548" from-port="1" to-layer="4549" to-port="1" />
		<edge from-layer="4549" from-port="2" to-layer="4550" to-port="0" />
		<edge from-layer="4550" from-port="1" to-layer="4559" to-port="0" />
		<edge from-layer="4551" from-port="0" to-layer="4552" to-port="0" />
		<edge from-layer="4552" from-port="1" to-layer="4554" to-port="0" />
		<edge from-layer="4553" from-port="0" to-layer="4554" to-port="1" />
		<edge from-layer="4554" from-port="2" to-layer="4556" to-port="0" />
		<edge from-layer="4555" from-port="0" to-layer="4556" to-port="1" />
		<edge from-layer="4556" from-port="2" to-layer="4557" to-port="0" />
		<edge from-layer="4557" from-port="1" to-layer="4558" to-port="1" />
		<edge from-layer="4558" from-port="2" to-layer="4559" to-port="1" />
		<edge from-layer="4559" from-port="2" to-layer="4567" to-port="0" />
		<edge from-layer="4560" from-port="0" to-layer="4561" to-port="0" />
		<edge from-layer="4561" from-port="1" to-layer="4563" to-port="0" />
		<edge from-layer="4562" from-port="0" to-layer="4563" to-port="1" />
		<edge from-layer="4563" from-port="2" to-layer="4565" to-port="0" />
		<edge from-layer="4564" from-port="0" to-layer="4565" to-port="1" />
		<edge from-layer="4565" from-port="2" to-layer="4566" to-port="0" />
		<edge from-layer="4566" from-port="1" to-layer="4567" to-port="1" />
		<edge from-layer="4567" from-port="2" to-layer="4568" to-port="1" />
		<edge from-layer="4568" from-port="2" to-layer="4698" to-port="0" />
		<edge from-layer="4568" from-port="2" to-layer="4579" to-port="0" />
		<edge from-layer="4568" from-port="2" to-layer="4572" to-port="0" />
		<edge from-layer="4569" from-port="0" to-layer="4580" to-port="0" />
		<edge from-layer="4570" from-port="0" to-layer="4578" to-port="0" />
		<edge from-layer="4571" from-port="0" to-layer="4572" to-port="1" />
		<edge from-layer="4572" from-port="2" to-layer="4574" to-port="0" />
		<edge from-layer="4573" from-port="0" to-layer="4574" to-port="1" />
		<edge from-layer="4574" from-port="2" to-layer="4576" to-port="0" />
		<edge from-layer="4575" from-port="0" to-layer="4576" to-port="1" />
		<edge from-layer="4576" from-port="2" to-layer="4577" to-port="0" />
		<edge from-layer="4577" from-port="1" to-layer="4578" to-port="1" />
		<edge from-layer="4578" from-port="2" to-layer="4579" to-port="1" />
		<edge from-layer="4579" from-port="2" to-layer="4580" to-port="1" />
		<edge from-layer="4580" from-port="2" to-layer="4588" to-port="0" />
		<edge from-layer="4580" from-port="2" to-layer="4673" to-port="0" />
		<edge from-layer="4580" from-port="2" to-layer="4628" to-port="0" />
		<edge from-layer="4581" from-port="0" to-layer="4582" to-port="0" />
		<edge from-layer="4582" from-port="1" to-layer="4584" to-port="0" />
		<edge from-layer="4583" from-port="0" to-layer="4584" to-port="1" />
		<edge from-layer="4584" from-port="2" to-layer="4586" to-port="0" />
		<edge from-layer="4585" from-port="0" to-layer="4586" to-port="1" />
		<edge from-layer="4586" from-port="2" to-layer="4587" to-port="0" />
		<edge from-layer="4587" from-port="1" to-layer="4588" to-port="1" />
		<edge from-layer="4588" from-port="2" to-layer="4591" to-port="0" />
		<edge from-layer="4589" from-port="0" to-layer="4590" to-port="0" />
		<edge from-layer="4590" from-port="1" to-layer="4591" to-port="1" />
		<edge from-layer="4591" from-port="2" to-layer="4593" to-port="0" />
		<edge from-layer="4592" from-port="0" to-layer="4593" to-port="1" />
		<edge from-layer="4593" from-port="2" to-layer="4595" to-port="0" />
		<edge from-layer="4594" from-port="0" to-layer="4595" to-port="1" />
		<edge from-layer="4595" from-port="2" to-layer="4608" to-port="0" />
		<edge from-layer="4595" from-port="2" to-layer="4596" to-port="0" />
		<edge from-layer="4595" from-port="2" to-layer="4601" to-port="0" />
		<edge from-layer="4596" from-port="2" to-layer="4611" to-port="0" />
		<edge from-layer="4597" from-port="0" to-layer="4601" to-port="1" />
		<edge from-layer="4598" from-port="0" to-layer="4601" to-port="2" />
		<edge from-layer="4599" from-port="0" to-layer="4601" to-port="3" />
		<edge from-layer="4600" from-port="0" to-layer="4601" to-port="4" />
		<edge from-layer="4601" from-port="5" to-layer="4603" to-port="0" />
		<edge from-layer="4602" from-port="0" to-layer="4603" to-port="1" />
		<edge from-layer="4603" from-port="2" to-layer="4609" to-port="0" />
		<edge from-layer="4604" from-port="0" to-layer="4608" to-port="1" />
		<edge from-layer="4605" from-port="0" to-layer="4608" to-port="2" />
		<edge from-layer="4606" from-port="0" to-layer="4608" to-port="3" />
		<edge from-layer="4607" from-port="0" to-layer="4608" to-port="4" />
		<edge from-layer="4608" from-port="5" to-layer="4609" to-port="1" />
		<edge from-layer="4609" from-port="2" to-layer="4610" to-port="0" />
		<edge from-layer="4610" from-port="2" to-layer="4611" to-port="1" />
		<edge from-layer="4611" from-port="2" to-layer="4686" to-port="0" />
		<edge from-layer="4612" from-port="0" to-layer="4617" to-port="0" />
		<edge from-layer="4613" from-port="0" to-layer="4616" to-port="1" />
		<edge from-layer="4614" from-port="0" to-layer="4616" to-port="2" />
		<edge from-layer="4615" from-port="0" to-layer="4616" to-port="3" />
		<edge from-layer="4616" from-port="4" to-layer="4617" to-port="1" />
		<edge from-layer="4617" from-port="2" to-layer="4618" to-port="0" />
		<edge from-layer="4618" from-port="1" to-layer="4620" to-port="0" />
		<edge from-layer="4619" from-port="0" to-layer="4620" to-port="2" />
		<edge from-layer="4620" from-port="3" to-layer="4652" to-port="0" />
		<edge from-layer="4621" from-port="0" to-layer="4622" to-port="0" />
		<edge from-layer="4622" from-port="1" to-layer="4624" to-port="0" />
		<edge from-layer="4623" from-port="0" to-layer="4624" to-port="1" />
		<edge from-layer="4624" from-port="2" to-layer="4626" to-port="0" />
		<edge from-layer="4625" from-port="0" to-layer="4626" to-port="1" />
		<edge from-layer="4626" from-port="2" to-layer="4627" to-port="0" />
		<edge from-layer="4627" from-port="1" to-layer="4628" to-port="1" />
		<edge from-layer="4628" from-port="2" to-layer="4631" to-port="0" />
		<edge from-layer="4629" from-port="0" to-layer="4630" to-port="0" />
		<edge from-layer="4630" from-port="1" to-layer="4631" to-port="1" />
		<edge from-layer="4631" from-port="2" to-layer="4633" to-port="0" />
		<edge from-layer="4632" from-port="0" to-layer="4633" to-port="1" />
		<edge from-layer="4633" from-port="2" to-layer="4635" to-port="0" />
		<edge from-layer="4634" from-port="0" to-layer="4635" to-port="1" />
		<edge from-layer="4635" from-port="2" to-layer="4641" to-port="0" />
		<edge from-layer="4635" from-port="2" to-layer="4636" to-port="0" />
		<edge from-layer="4635" from-port="2" to-layer="4648" to-port="0" />
		<edge from-layer="4636" from-port="2" to-layer="4651" to-port="0" />
		<edge from-layer="4637" from-port="0" to-layer="4641" to-port="1" />
		<edge from-layer="4638" from-port="0" to-layer="4641" to-port="2" />
		<edge from-layer="4639" from-port="0" to-layer="4641" to-port="3" />
		<edge from-layer="4640" from-port="0" to-layer="4641" to-port="4" />
		<edge from-layer="4641" from-port="5" to-layer="4643" to-port="0" />
		<edge from-layer="4642" from-port="0" to-layer="4643" to-port="1" />
		<edge from-layer="4643" from-port="2" to-layer="4649" to-port="0" />
		<edge from-layer="4644" from-port="0" to-layer="4648" to-port="1" />
		<edge from-layer="4645" from-port="0" to-layer="4648" to-port="2" />
		<edge from-layer="4646" from-port="0" to-layer="4648" to-port="3" />
		<edge from-layer="4647" from-port="0" to-layer="4648" to-port="4" />
		<edge from-layer="4648" from-port="5" to-layer="4649" to-port="1" />
		<edge from-layer="4649" from-port="2" to-layer="4650" to-port="0" />
		<edge from-layer="4650" from-port="2" to-layer="4651" to-port="1" />
		<edge from-layer="4651" from-port="2" to-layer="4652" to-port="1" />
		<edge from-layer="4652" from-port="2" to-layer="4653" to-port="0" />
		<edge from-layer="4652" from-port="2" to-layer="4809" to-port="0" />
		<edge from-layer="4653" from-port="2" to-layer="4654" to-port="0" />
		<edge from-layer="4654" from-port="2" to-layer="4656" to-port="0" />
		<edge from-layer="4655" from-port="0" to-layer="4656" to-port="1" />
		<edge from-layer="4656" from-port="2" to-layer="4686" to-port="1" />
		<edge from-layer="4657" from-port="0" to-layer="4662" to-port="0" />
		<edge from-layer="4658" from-port="0" to-layer="4661" to-port="1" />
		<edge from-layer="4659" from-port="0" to-layer="4661" to-port="2" />
		<edge from-layer="4660" from-port="0" to-layer="4661" to-port="3" />
		<edge from-layer="4661" from-port="4" to-layer="4662" to-port="1" />
		<edge from-layer="4662" from-port="2" to-layer="4663" to-port="0" />
		<edge from-layer="4663" from-port="1" to-layer="4665" to-port="0" />
		<edge from-layer="4664" from-port="0" to-layer="4665" to-port="2" />
		<edge from-layer="4665" from-port="3" to-layer="4681" to-port="0" />
		<edge from-layer="4666" from-port="0" to-layer="4667" to-port="0" />
		<edge from-layer="4667" from-port="1" to-layer="4669" to-port="0" />
		<edge from-layer="4668" from-port="0" to-layer="4669" to-port="1" />
		<edge from-layer="4669" from-port="2" to-layer="4671" to-port="0" />
		<edge from-layer="4670" from-port="0" to-layer="4671" to-port="1" />
		<edge from-layer="4671" from-port="2" to-layer="4672" to-port="0" />
		<edge from-layer="4672" from-port="1" to-layer="4673" to-port="1" />
		<edge from-layer="4673" from-port="2" to-layer="4676" to-port="0" />
		<edge from-layer="4674" from-port="0" to-layer="4675" to-port="0" />
		<edge from-layer="4675" from-port="1" to-layer="4676" to-port="1" />
		<edge from-layer="4676" from-port="2" to-layer="4678" to-port="0" />
		<edge from-layer="4677" from-port="0" to-layer="4678" to-port="1" />
		<edge from-layer="4678" from-port="2" to-layer="4680" to-port="0" />
		<edge from-layer="4679" from-port="0" to-layer="4680" to-port="1" />
		<edge from-layer="4680" from-port="2" to-layer="4681" to-port="1" />
		<edge from-layer="4681" from-port="2" to-layer="4808" to-port="0" />
		<edge from-layer="4681" from-port="2" to-layer="4682" to-port="0" />
		<edge from-layer="4682" from-port="2" to-layer="4683" to-port="0" />
		<edge from-layer="4683" from-port="2" to-layer="4685" to-port="0" />
		<edge from-layer="4684" from-port="0" to-layer="4685" to-port="1" />
		<edge from-layer="4685" from-port="2" to-layer="4686" to-port="2" />
		<edge from-layer="4686" from-port="5" to-layer="4688" to-port="0" />
		<edge from-layer="4687" from-port="0" to-layer="4688" to-port="1" />
		<edge from-layer="4688" from-port="2" to-layer="4689" to-port="0" />
		<edge from-layer="4689" from-port="2" to-layer="4697" to-port="0" />
		<edge from-layer="4690" from-port="0" to-layer="4691" to-port="0" />
		<edge from-layer="4691" from-port="1" to-layer="4693" to-port="0" />
		<edge from-layer="4692" from-port="0" to-layer="4693" to-port="1" />
		<edge from-layer="4693" from-port="2" to-layer="4695" to-port="0" />
		<edge from-layer="4694" from-port="0" to-layer="4695" to-port="1" />
		<edge from-layer="4695" from-port="2" to-layer="4696" to-port="0" />
		<edge from-layer="4696" from-port="1" to-layer="4697" to-port="1" />
		<edge from-layer="4697" from-port="2" to-layer="4698" to-port="1" />
		<edge from-layer="4698" from-port="2" to-layer="4702" to-port="0" />
		<edge from-layer="4698" from-port="2" to-layer="4737" to-port="0" />
		<edge from-layer="4698" from-port="2" to-layer="4709" to-port="0" />
		<edge from-layer="4699" from-port="0" to-layer="4710" to-port="0" />
		<edge from-layer="4700" from-port="0" to-layer="4708" to-port="0" />
		<edge from-layer="4701" from-port="0" to-layer="4702" to-port="1" />
		<edge from-layer="4702" from-port="2" to-layer="4704" to-port="0" />
		<edge from-layer="4703" from-port="0" to-layer="4704" to-port="1" />
		<edge from-layer="4704" from-port="2" to-layer="4706" to-port="0" />
		<edge from-layer="4705" from-port="0" to-layer="4706" to-port="1" />
		<edge from-layer="4706" from-port="2" to-layer="4707" to-port="0" />
		<edge from-layer="4707" from-port="1" to-layer="4708" to-port="1" />
		<edge from-layer="4708" from-port="2" to-layer="4709" to-port="1" />
		<edge from-layer="4709" from-port="2" to-layer="4710" to-port="1" />
		<edge from-layer="4710" from-port="2" to-layer="4727" to-port="0" />
		<edge from-layer="4710" from-port="2" to-layer="4718" to-port="0" />
		<edge from-layer="4711" from-port="0" to-layer="4712" to-port="0" />
		<edge from-layer="4712" from-port="1" to-layer="4714" to-port="0" />
		<edge from-layer="4713" from-port="0" to-layer="4714" to-port="1" />
		<edge from-layer="4714" from-port="2" to-layer="4716" to-port="0" />
		<edge from-layer="4715" from-port="0" to-layer="4716" to-port="1" />
		<edge from-layer="4716" from-port="2" to-layer="4717" to-port="0" />
		<edge from-layer="4717" from-port="1" to-layer="4718" to-port="1" />
		<edge from-layer="4718" from-port="2" to-layer="4719" to-port="0" />
		<edge from-layer="4719" from-port="1" to-layer="4728" to-port="0" />
		<edge from-layer="4720" from-port="0" to-layer="4721" to-port="0" />
		<edge from-layer="4721" from-port="1" to-layer="4723" to-port="0" />
		<edge from-layer="4722" from-port="0" to-layer="4723" to-port="1" />
		<edge from-layer="4723" from-port="2" to-layer="4725" to-port="0" />
		<edge from-layer="4724" from-port="0" to-layer="4725" to-port="1" />
		<edge from-layer="4725" from-port="2" to-layer="4726" to-port="0" />
		<edge from-layer="4726" from-port="1" to-layer="4727" to-port="1" />
		<edge from-layer="4727" from-port="2" to-layer="4728" to-port="1" />
		<edge from-layer="4728" from-port="2" to-layer="4736" to-port="0" />
		<edge from-layer="4729" from-port="0" to-layer="4730" to-port="0" />
		<edge from-layer="4730" from-port="1" to-layer="4732" to-port="0" />
		<edge from-layer="4731" from-port="0" to-layer="4732" to-port="1" />
		<edge from-layer="4732" from-port="2" to-layer="4734" to-port="0" />
		<edge from-layer="4733" from-port="0" to-layer="4734" to-port="1" />
		<edge from-layer="4734" from-port="2" to-layer="4735" to-port="0" />
		<edge from-layer="4735" from-port="1" to-layer="4736" to-port="1" />
		<edge from-layer="4736" from-port="2" to-layer="4737" to-port="1" />
		<edge from-layer="4737" from-port="2" to-layer="4740" to-port="0" />
		<edge from-layer="4737" from-port="2" to-layer="4747" to-port="0" />
		<edge from-layer="4737" from-port="2" to-layer="4900" to-port="0" />
		<edge from-layer="4738" from-port="0" to-layer="4746" to-port="0" />
		<edge from-layer="4739" from-port="0" to-layer="4740" to-port="1" />
		<edge from-layer="4740" from-port="2" to-layer="4742" to-port="0" />
		<edge from-layer="4741" from-port="0" to-layer="4742" to-port="1" />
		<edge from-layer="4742" from-port="2" to-layer="4744" to-port="0" />
		<edge from-layer="4743" from-port="0" to-layer="4744" to-port="1" />
		<edge from-layer="4744" from-port="2" to-layer="4745" to-port="0" />
		<edge from-layer="4745" from-port="1" to-layer="4746" to-port="1" />
		<edge from-layer="4746" from-port="2" to-layer="4747" to-port="1" />
		<edge from-layer="4747" from-port="2" to-layer="4748" to-port="1" />
		<edge from-layer="4748" from-port="2" to-layer="4782" to-port="0" />
		<edge from-layer="4748" from-port="2" to-layer="4856" to-port="0" />
		<edge from-layer="4748" from-port="2" to-layer="4756" to-port="0" />
		<edge from-layer="4749" from-port="0" to-layer="4750" to-port="0" />
		<edge from-layer="4750" from-port="1" to-layer="4752" to-port="0" />
		<edge from-layer="4751" from-port="0" to-layer="4752" to-port="1" />
		<edge from-layer="4752" from-port="2" to-layer="4754" to-port="0" />
		<edge from-layer="4753" from-port="0" to-layer="4754" to-port="1" />
		<edge from-layer="4754" from-port="2" to-layer="4755" to-port="0" />
		<edge from-layer="4755" from-port="1" to-layer="4756" to-port="1" />
		<edge from-layer="4756" from-port="2" to-layer="4759" to-port="0" />
		<edge from-layer="4757" from-port="0" to-layer="4758" to-port="0" />
		<edge from-layer="4758" from-port="1" to-layer="4759" to-port="1" />
		<edge from-layer="4759" from-port="2" to-layer="4761" to-port="0" />
		<edge from-layer="4760" from-port="0" to-layer="4761" to-port="1" />
		<edge from-layer="4761" from-port="2" to-layer="4763" to-port="0" />
		<edge from-layer="4762" from-port="0" to-layer="4763" to-port="1" />
		<edge from-layer="4763" from-port="2" to-layer="4764" to-port="1" />
		<edge from-layer="4764" from-port="2" to-layer="4765" to-port="0" />
		<edge from-layer="4764" from-port="2" to-layer="4884" to-port="0" />
		<edge from-layer="4766" from-port="0" to-layer="4771" to-port="0" />
		<edge from-layer="4767" from-port="0" to-layer="4770" to-port="1" />
		<edge from-layer="4768" from-port="0" to-layer="4770" to-port="2" />
		<edge from-layer="4769" from-port="0" to-layer="4770" to-port="3" />
		<edge from-layer="4770" from-port="4" to-layer="4771" to-port="1" />
		<edge from-layer="4771" from-port="2" to-layer="4772" to-port="0" />
		<edge from-layer="4772" from-port="1" to-layer="4774" to-port="0" />
		<edge from-layer="4773" from-port="0" to-layer="4774" to-port="2" />
		<edge from-layer="4774" from-port="3" to-layer="4806" to-port="0" />
		<edge from-layer="4775" from-port="0" to-layer="4776" to-port="0" />
		<edge from-layer="4776" from-port="1" to-layer="4778" to-port="0" />
		<edge from-layer="4777" from-port="0" to-layer="4778" to-port="1" />
		<edge from-layer="4778" from-port="2" to-layer="4780" to-port="0" />
		<edge from-layer="4779" from-port="0" to-layer="4780" to-port="1" />
		<edge from-layer="4780" from-port="2" to-layer="4781" to-port="0" />
		<edge from-layer="4781" from-port="1" to-layer="4782" to-port="1" />
		<edge from-layer="4782" from-port="2" to-layer="4785" to-port="0" />
		<edge from-layer="4783" from-port="0" to-layer="4784" to-port="0" />
		<edge from-layer="4784" from-port="1" to-layer="4785" to-port="1" />
		<edge from-layer="4785" from-port="2" to-layer="4787" to-port="0" />
		<edge from-layer="4786" from-port="0" to-layer="4787" to-port="1" />
		<edge from-layer="4787" from-port="2" to-layer="4789" to-port="0" />
		<edge from-layer="4788" from-port="0" to-layer="4789" to-port="1" />
		<edge from-layer="4789" from-port="2" to-layer="4790" to-port="0" />
		<edge from-layer="4789" from-port="2" to-layer="4795" to-port="0" />
		<edge from-layer="4789" from-port="2" to-layer="4802" to-port="0" />
		<edge from-layer="4790" from-port="2" to-layer="4805" to-port="0" />
		<edge from-layer="4791" from-port="0" to-layer="4795" to-port="1" />
		<edge from-layer="4792" from-port="0" to-layer="4795" to-port="2" />
		<edge from-layer="4793" from-port="0" to-layer="4795" to-port="3" />
		<edge from-layer="4794" from-port="0" to-layer="4795" to-port="4" />
		<edge from-layer="4795" from-port="5" to-layer="4797" to-port="0" />
		<edge from-layer="4796" from-port="0" to-layer="4797" to-port="1" />
		<edge from-layer="4797" from-port="2" to-layer="4803" to-port="0" />
		<edge from-layer="4798" from-port="0" to-layer="4802" to-port="1" />
		<edge from-layer="4799" from-port="0" to-layer="4802" to-port="2" />
		<edge from-layer="4800" from-port="0" to-layer="4802" to-port="3" />
		<edge from-layer="4801" from-port="0" to-layer="4802" to-port="4" />
		<edge from-layer="4802" from-port="5" to-layer="4803" to-port="1" />
		<edge from-layer="4803" from-port="2" to-layer="4804" to-port="0" />
		<edge from-layer="4804" from-port="2" to-layer="4805" to-port="1" />
		<edge from-layer="4805" from-port="2" to-layer="4806" to-port="1" />
		<edge from-layer="4806" from-port="2" to-layer="4807" to-port="0" />
		<edge from-layer="4806" from-port="2" to-layer="4880" to-port="0" />
		<edge from-layer="4848" from-port="0" to-layer="4950" to-port="0" />
		<edge from-layer="4849" from-port="0" to-layer="4850" to-port="0" />
		<edge from-layer="4850" from-port="1" to-layer="4852" to-port="0" />
		<edge from-layer="4851" from-port="0" to-layer="4852" to-port="1" />
		<edge from-layer="4852" from-port="2" to-layer="4854" to-port="0" />
		<edge from-layer="4853" from-port="0" to-layer="4854" to-port="1" />
		<edge from-layer="4854" from-port="2" to-layer="4855" to-port="0" />
		<edge from-layer="4855" from-port="1" to-layer="4856" to-port="1" />
		<edge from-layer="4856" from-port="2" to-layer="4859" to-port="0" />
		<edge from-layer="4857" from-port="0" to-layer="4858" to-port="0" />
		<edge from-layer="4858" from-port="1" to-layer="4859" to-port="1" />
		<edge from-layer="4859" from-port="2" to-layer="4861" to-port="0" />
		<edge from-layer="4860" from-port="0" to-layer="4861" to-port="1" />
		<edge from-layer="4861" from-port="2" to-layer="4863" to-port="0" />
		<edge from-layer="4862" from-port="0" to-layer="4863" to-port="1" />
		<edge from-layer="4863" from-port="2" to-layer="4869" to-port="0" />
		<edge from-layer="4863" from-port="2" to-layer="4876" to-port="0" />
		<edge from-layer="4863" from-port="2" to-layer="4864" to-port="0" />
		<edge from-layer="4864" from-port="2" to-layer="4879" to-port="0" />
		<edge from-layer="4865" from-port="0" to-layer="4869" to-port="1" />
		<edge from-layer="4866" from-port="0" to-layer="4869" to-port="2" />
		<edge from-layer="4867" from-port="0" to-layer="4869" to-port="3" />
		<edge from-layer="4868" from-port="0" to-layer="4869" to-port="4" />
		<edge from-layer="4869" from-port="5" to-layer="4871" to-port="0" />
		<edge from-layer="4870" from-port="0" to-layer="4871" to-port="1" />
		<edge from-layer="4871" from-port="2" to-layer="4877" to-port="0" />
		<edge from-layer="4872" from-port="0" to-layer="4876" to-port="1" />
		<edge from-layer="4873" from-port="0" to-layer="4876" to-port="2" />
		<edge from-layer="4874" from-port="0" to-layer="4876" to-port="3" />
		<edge from-layer="4875" from-port="0" to-layer="4876" to-port="4" />
		<edge from-layer="4876" from-port="5" to-layer="4877" to-port="1" />
		<edge from-layer="4877" from-port="2" to-layer="4878" to-port="0" />
		<edge from-layer="4878" from-port="2" to-layer="4879" to-port="1" />
		<edge from-layer="4879" from-port="2" to-layer="4888" to-port="0" />
		<edge from-layer="4880" from-port="2" to-layer="4881" to-port="0" />
		<edge from-layer="4881" from-port="2" to-layer="4883" to-port="0" />
		<edge from-layer="4882" from-port="0" to-layer="4883" to-port="1" />
		<edge from-layer="4883" from-port="2" to-layer="4888" to-port="1" />
		<edge from-layer="4884" from-port="2" to-layer="4885" to-port="0" />
		<edge from-layer="4885" from-port="2" to-layer="4887" to-port="0" />
		<edge from-layer="4886" from-port="0" to-layer="4887" to-port="1" />
		<edge from-layer="4887" from-port="2" to-layer="4888" to-port="2" />
		<edge from-layer="4888" from-port="5" to-layer="4890" to-port="0" />
		<edge from-layer="4889" from-port="0" to-layer="4890" to-port="1" />
		<edge from-layer="4890" from-port="2" to-layer="4891" to-port="0" />
		<edge from-layer="4891" from-port="2" to-layer="4899" to-port="0" />
		<edge from-layer="4892" from-port="0" to-layer="4893" to-port="0" />
		<edge from-layer="4893" from-port="1" to-layer="4895" to-port="0" />
		<edge from-layer="4894" from-port="0" to-layer="4895" to-port="1" />
		<edge from-layer="4895" from-port="2" to-layer="4897" to-port="0" />
		<edge from-layer="4896" from-port="0" to-layer="4897" to-port="1" />
		<edge from-layer="4897" from-port="2" to-layer="4898" to-port="0" />
		<edge from-layer="4898" from-port="1" to-layer="4899" to-port="1" />
		<edge from-layer="4899" from-port="2" to-layer="4900" to-port="1" />
		<edge from-layer="4900" from-port="2" to-layer="4904" to-port="0" />
		<edge from-layer="4900" from-port="2" to-layer="4911" to-port="0" />
		<edge from-layer="4900" from-port="2" to-layer="4939" to-port="0" />
		<edge from-layer="4901" from-port="0" to-layer="4912" to-port="0" />
		<edge from-layer="4902" from-port="0" to-layer="4910" to-port="0" />
		<edge from-layer="4903" from-port="0" to-layer="4904" to-port="1" />
		<edge from-layer="4904" from-port="2" to-layer="4906" to-port="0" />
		<edge from-layer="4905" from-port="0" to-layer="4906" to-port="1" />
		<edge from-layer="4906" from-port="2" to-layer="4908" to-port="0" />
		<edge from-layer="4907" from-port="0" to-layer="4908" to-port="1" />
		<edge from-layer="4908" from-port="2" to-layer="4909" to-port="0" />
		<edge from-layer="4909" from-port="1" to-layer="4910" to-port="1" />
		<edge from-layer="4910" from-port="2" to-layer="4911" to-port="1" />
		<edge from-layer="4911" from-port="2" to-layer="4912" to-port="1" />
		<edge from-layer="4912" from-port="2" to-layer="4920" to-port="0" />
		<edge from-layer="4912" from-port="2" to-layer="4929" to-port="0" />
		<edge from-layer="4913" from-port="0" to-layer="4914" to-port="0" />
		<edge from-layer="4914" from-port="1" to-layer="4916" to-port="0" />
		<edge from-layer="4915" from-port="0" to-layer="4916" to-port="1" />
		<edge from-layer="4916" from-port="2" to-layer="4918" to-port="0" />
		<edge from-layer="4917" from-port="0" to-layer="4918" to-port="1" />
		<edge from-layer="4918" from-port="2" to-layer="4919" to-port="0" />
		<edge from-layer="4919" from-port="1" to-layer="4920" to-port="1" />
		<edge from-layer="4920" from-port="2" to-layer="4921" to-port="0" />
		<edge from-layer="4921" from-port="1" to-layer="4930" to-port="0" />
		<edge from-layer="4922" from-port="0" to-layer="4923" to-port="0" />
		<edge from-layer="4923" from-port="1" to-layer="4925" to-port="0" />
		<edge from-layer="4924" from-port="0" to-layer="4925" to-port="1" />
		<edge from-layer="4925" from-port="2" to-layer="4927" to-port="0" />
		<edge from-layer="4926" from-port="0" to-layer="4927" to-port="1" />
		<edge from-layer="4927" from-port="2" to-layer="4928" to-port="0" />
		<edge from-layer="4928" from-port="1" to-layer="4929" to-port="1" />
		<edge from-layer="4929" from-port="2" to-layer="4930" to-port="1" />
		<edge from-layer="4930" from-port="2" to-layer="4938" to-port="0" />
		<edge from-layer="4931" from-port="0" to-layer="4932" to-port="0" />
		<edge from-layer="4932" from-port="1" to-layer="4934" to-port="0" />
		<edge from-layer="4933" from-port="0" to-layer="4934" to-port="1" />
		<edge from-layer="4934" from-port="2" to-layer="4936" to-port="0" />
		<edge from-layer="4935" from-port="0" to-layer="4936" to-port="1" />
		<edge from-layer="4936" from-port="2" to-layer="4937" to-port="0" />
		<edge from-layer="4937" from-port="1" to-layer="4938" to-port="1" />
		<edge from-layer="4938" from-port="2" to-layer="4939" to-port="1" />
		<edge from-layer="4939" from-port="2" to-layer="4949" to-port="0" />
		<edge from-layer="4939" from-port="2" to-layer="4942" to-port="0" />
		<edge from-layer="4940" from-port="0" to-layer="4948" to-port="0" />
		<edge from-layer="4941" from-port="0" to-layer="4942" to-port="1" />
		<edge from-layer="4942" from-port="2" to-layer="4944" to-port="0" />
		<edge from-layer="4943" from-port="0" to-layer="4944" to-port="1" />
		<edge from-layer="4944" from-port="2" to-layer="4946" to-port="0" />
		<edge from-layer="4945" from-port="0" to-layer="4946" to-port="1" />
		<edge from-layer="4946" from-port="2" to-layer="4947" to-port="0" />
		<edge from-layer="4947" from-port="1" to-layer="4948" to-port="1" />
		<edge from-layer="4948" from-port="2" to-layer="4949" to-port="1" />
		<edge from-layer="4949" from-port="2" to-layer="4950" to-port="1" />
		<edge from-layer="4950" from-port="2" to-layer="4959" to-port="0" />
		<edge from-layer="4951" from-port="0" to-layer="4952" to-port="0" />
		<edge from-layer="4952" from-port="1" to-layer="4955" to-port="0" />
		<edge from-layer="4953" from-port="0" to-layer="4954" to-port="0" />
		<edge from-layer="4954" from-port="1" to-layer="4955" to-port="1" />
		<edge from-layer="4955" from-port="2" to-layer="4957" to-port="0" />
		<edge from-layer="4956" from-port="0" to-layer="4957" to-port="1" />
		<edge from-layer="4957" from-port="2" to-layer="4958" to-port="0" />
		<edge from-layer="4958" from-port="1" to-layer="4959" to-port="1" />
		<edge from-layer="4959" from-port="2" to-layer="4960" to-port="0" />
	</edges>
	<rt_info>
		<Runtime_version value="2025.1.0-18503-6fec06580ab-releases/2025/1" />
		<conversion_parameters>
			<framework value="pytorch" />
			<is_python_object value="True" />
		</conversion_parameters>
		<nncf>
			<friendly_names_were_updated value="True" />
			<weight_compression>
				<advanced_parameters value="{'statistics_path': None, 'awq_params': {'subset_size': 32, 'percent_to_apply': 0.002, 'alpha_min': 0.0, 'alpha_max': 1.0, 'steps': 100}, 'scale_estimation_params': {'subset_size': 64, 'initial_steps': 5, 'scale_steps': 5, 'weight_penalty': -1.0}, 'gptq_params': {'damp_percent': 0.1, 'block_size': 128, 'subset_size': 128}, 'lora_correction_params': {'adapter_rank': 8, 'num_iterations': 3, 'apply_regularization': True, 'subset_size': 128, 'use_int8_adapters': True}}" />
				<all_layers value="False" />
				<awq value="False" />
				<backup_mode value="int8_asym" />
				<gptq value="False" />
				<group_size value="128" />
				<ignored_scope value="[]" />
				<lora_correction value="False" />
				<mode value="int4_sym" />
				<ratio value="1.0" />
				<scale_estimation value="False" />
				<sensitivity_metric value="weight_quantization_error" />
			</weight_compression>
		</nncf>
		<optimum>
			<nncf_version value="2.14.1" />
			<optimum_intel_version value="1.23.0" />
			<optimum_version value="1.25.3" />
			<pytorch_version value="2.7.0" />
			<transformers_version value="4.51.3" />
		</optimum>
		<runtime_options>
			<ACTIVATIONS_SCALE_FACTOR value="8.0" />
		</runtime_options>
	</rt_info>
</net>
