<?xml version="1.0"?>
<net name="Model0" version="11">
	<layers>
		<layer id="3" name="input_ids" type="Parameter" version="opset1">
			<data shape="?,?" element_type="i64" />
			<output>
				<port id="0" precision="I64" names="input_ids">
					<dim>-1</dim>
					<dim>-1</dim>
				</port>
			</output>
		</layer>
		<layer id="2" name="attention_mask" type="Parameter" version="opset1">
			<data shape="?,?" element_type="i64" />
			<output>
				<port id="0" precision="I64" names="attention_mask">
					<dim>-1</dim>
					<dim>-1</dim>
				</port>
			</output>
		</layer>
		<layer id="1" name="position_ids" type="Parameter" version="opset1">
			<data shape="?,?" element_type="i64" />
			<output>
				<port id="0" precision="I64" names="position_ids">
					<dim>-1</dim>
					<dim>-1</dim>
				</port>
			</output>
		</layer>
		<layer id="0" name="beam_idx" type="Parameter" version="opset1">
			<data shape="?" element_type="i32" />
			<output>
				<port id="0" precision="I32" names="beam_idx">
					<dim>-1</dim>
				</port>
			</output>
		</layer>
		<layer id="4" name="Constant_77134" type="Const" version="opset1">
			<data element_type="f32" shape="" offset="0" size="4" />
			<output>
				<port id="0" precision="FP32" />
			</output>
		</layer>
		<layer id="5" name="ShapeOf_77120" type="ShapeOf" version="opset3">
			<data output_type="i64" />
			<input>
				<port id="0" precision="I64">
					<dim>-1</dim>
					<dim>-1</dim>
				</port>
			</input>
			<output>
				<port id="1" precision="I64">
					<dim>2</dim>
				</port>
			</output>
		</layer>
		<layer id="6" name="Constant_77122" type="Const" version="opset1">
			<data element_type="i64" shape="1" offset="4" size="8" />
			<output>
				<port id="0" precision="I64">
					<dim>1</dim>
				</port>
			</output>
		</layer>
		<layer id="7" name="Constant_77124" type="Const" version="opset1">
			<data element_type="i64" shape="" offset="4" size="8" />
			<output>
				<port id="0" precision="I64" />
			</output>
		</layer>
		<layer id="8" name="Gather_77125" type="Gather" version="opset8">
			<data batch_dims="0" />
			<input>
				<port id="0" precision="I64">
					<dim>2</dim>
				</port>
				<port id="1" precision="I64">
					<dim>1</dim>
				</port>
				<port id="2" precision="I64" />
			</input>
			<output>
				<port id="3" precision="I64">
					<dim>1</dim>
				</port>
			</output>
		</layer>
		<layer id="9" name="Constant_77127" type="Const" version="opset1">
			<data element_type="i64" shape="1" offset="12" size="8" />
			<output>
				<port id="0" precision="I64">
					<dim>1</dim>
				</port>
			</output>
		</layer>
		<layer id="10" name="Constant_77129" type="Const" version="opset1">
			<data element_type="i64" shape="1" offset="4" size="8" />
			<output>
				<port id="0" precision="I64">
					<dim>1</dim>
				</port>
			</output>
		</layer>
		<layer id="11" name="Constant_77131" type="Const" version="opset1">
			<data element_type="i64" shape="1" offset="20" size="8" />
			<output>
				<port id="0" precision="I64">
					<dim>1</dim>
				</port>
			</output>
		</layer>
		<layer id="12" name="Concat_77132" type="Concat" version="opset1">
			<data axis="0" />
			<input>
				<port id="0" precision="I64">
					<dim>1</dim>
				</port>
				<port id="1" precision="I64">
					<dim>1</dim>
				</port>
				<port id="2" precision="I64">
					<dim>1</dim>
				</port>
				<port id="3" precision="I64">
					<dim>1</dim>
				</port>
			</input>
			<output>
				<port id="4" precision="I64">
					<dim>4</dim>
				</port>
			</output>
		</layer>
		<layer id="13" name="Broadcast_77135" type="Broadcast" version="opset3">
			<data mode="numpy" />
			<input>
				<port id="0" precision="FP32" />
				<port id="1" precision="I64">
					<dim>4</dim>
				</port>
			</input>
			<output>
				<port id="2" precision="FP32">
					<dim>-1</dim>
					<dim>2</dim>
					<dim>0</dim>
					<dim>128</dim>
				</port>
			</output>
		</layer>
		<layer id="14" name="ReadValue_76720" type="ReadValue" version="opset6">
			<data variable_id="past_key_values.9.valuepresent.9.value" variable_type="f32" variable_shape="?,2,?,128" />
			<input>
				<port id="0" precision="FP32">
					<dim>-1</dim>
					<dim>2</dim>
					<dim>0</dim>
					<dim>128</dim>
				</port>
			</input>
			<output>
				<port id="1" precision="FP32" names="past_key_values.9.value">
					<dim>-1</dim>
					<dim>2</dim>
					<dim>-1</dim>
					<dim>128</dim>
				</port>
			</output>
		</layer>
		<layer id="15" name="Constant_76102" type="Const" version="opset1">
			<data element_type="i64" shape="" offset="4" size="8" />
			<output>
				<port id="0" precision="I64" />
			</output>
		</layer>
		<layer id="16" name="Gather_76103" type="Gather" version="opset8">
			<data batch_dims="0" />
			<input>
				<port id="0" precision="FP32">
					<dim>-1</dim>
					<dim>2</dim>
					<dim>-1</dim>
					<dim>128</dim>
				</port>
				<port id="1" precision="I32">
					<dim>-1</dim>
				</port>
				<port id="2" precision="I64" />
			</input>
			<output>
				<port id="3" precision="FP32">
					<dim>-1</dim>
					<dim>2</dim>
					<dim>-1</dim>
					<dim>128</dim>
				</port>
			</output>
		</layer>
		<layer id="17" name="Constant_66266" type="Const" version="opset1">
			<data element_type="f32" shape="1, 1, 1536" offset="28" size="6144" />
			<output>
				<port id="0" precision="FP32">
					<dim>1</dim>
					<dim>1</dim>
					<dim>1536</dim>
				</port>
			</output>
		</layer>
		<layer id="18" name="self.model.embed_tokens.weight" type="Const" version="opset1">
			<data element_type="i8" shape="151936, 1536" offset="6172" size="233373696" />
			<output>
				<port id="0" precision="I8">
					<dim>151936</dim>
					<dim>1536</dim>
				</port>
			</output>
		</layer>
		<layer id="19" name="Convert_92350" type="Convert" version="opset1">
			<data destination_type="f16" />
			<input>
				<port id="0" precision="I8">
					<dim>151936</dim>
					<dim>1536</dim>
				</port>
			</input>
			<output>
				<port id="1" precision="FP16">
					<dim>151936</dim>
					<dim>1536</dim>
				</port>
			</output>
		</layer>
		<layer id="20" name="self.model.embed_tokens.weight/scale" type="Const" version="opset1">
			<data element_type="f16" shape="151936, 1" offset="233379868" size="303872" />
			<output>
				<port id="0" precision="FP16">
					<dim>151936</dim>
					<dim>1</dim>
				</port>
			</output>
		</layer>
		<layer id="21" name="self.model.embed_tokens.weight/fq_weights_0" type="Multiply" version="opset1">
			<data auto_broadcast="numpy" />
			<input>
				<port id="0" precision="FP16">
					<dim>151936</dim>
					<dim>1536</dim>
				</port>
				<port id="1" precision="FP16">
					<dim>151936</dim>
					<dim>1</dim>
				</port>
			</input>
			<output>
				<port id="2" precision="FP16">
					<dim>151936</dim>
					<dim>1536</dim>
				</port>
			</output>
		</layer>
		<layer id="22" name="__module.model.embed_tokens/ov_ext::embedding/Convert" type="Convert" version="opset1">
			<data destination_type="f32" />
			<rt_info>
				<attribute name="decompression" version="0" />
			</rt_info>
			<input>
				<port id="0" precision="FP16">
					<dim>151936</dim>
					<dim>1536</dim>
				</port>
			</input>
			<output>
				<port id="1" precision="FP32">
					<dim>151936</dim>
					<dim>1536</dim>
				</port>
			</output>
		</layer>
		<layer id="23" name="__module.model.embed_tokens/ov_ext::embedding/Convert_1" type="Convert" version="opset1">
			<data destination_type="i32" />
			<input>
				<port id="0" precision="I64">
					<dim>-1</dim>
					<dim>-1</dim>
				</port>
			</input>
			<output>
				<port id="1" precision="I32">
					<dim>-1</dim>
					<dim>-1</dim>
				</port>
			</output>
		</layer>
		<layer id="24" name="__module.model.embed_tokens/ov_ext::embedding/Constant" type="Const" version="opset1">
			<data element_type="i32" shape="" offset="0" size="4" />
			<output>
				<port id="0" precision="I32" />
			</output>
		</layer>
		<layer id="25" name="__module.model.embed_tokens/ov_ext::embedding/Gather" type="Gather" version="opset8">
			<data batch_dims="0" />
			<input>
				<port id="0" precision="FP32">
					<dim>151936</dim>
					<dim>1536</dim>
				</port>
				<port id="1" precision="I32">
					<dim>-1</dim>
					<dim>-1</dim>
				</port>
				<port id="2" precision="I32" />
			</input>
			<output>
				<port id="3" precision="FP32" names="283,364,375,hidden_states.1,inputs_embeds">
					<dim>-1</dim>
					<dim>-1</dim>
					<dim>1536</dim>
				</port>
			</output>
		</layer>
		<layer id="26" name="Constant_66175" type="Const" version="opset1">
			<data element_type="f32" shape="1, 1, 1536" offset="233683740" size="6144" />
			<output>
				<port id="0" precision="FP32">
					<dim>1</dim>
					<dim>1</dim>
					<dim>1536</dim>
				</port>
			</output>
		</layer>
		<layer id="27" name="Constant_66174" type="Const" version="opset1">
			<data element_type="f32" shape="1, 1, 1" offset="233689884" size="4" />
			<output>
				<port id="0" precision="FP32">
					<dim>1</dim>
					<dim>1</dim>
					<dim>1</dim>
				</port>
			</output>
		</layer>
		<layer id="28" name="Constant_66172" type="Const" version="opset1">
			<data element_type="f32" shape="1, 1, 1" offset="233689888" size="4" />
			<output>
				<port id="0" precision="FP32">
					<dim>1</dim>
					<dim>1</dim>
					<dim>1</dim>
				</port>
			</output>
		</layer>
		<layer id="29" name="__module.model.layers.0.input_layernorm/aten::pow/Power" type="Power" version="opset1">
			<data auto_broadcast="numpy" />
			<input>
				<port id="0" precision="FP32">
					<dim>-1</dim>
					<dim>-1</dim>
					<dim>1536</dim>
				</port>
				<port id="1" precision="FP32">
					<dim>1</dim>
					<dim>1</dim>
					<dim>1</dim>
				</port>
			</input>
			<output>
				<port id="2" precision="FP32" names="365">
					<dim>-1</dim>
					<dim>-1</dim>
					<dim>1536</dim>
				</port>
			</output>
		</layer>
		<layer id="30" name="Constant_630" type="Const" version="opset1">
			<data element_type="i64" shape="1" offset="233689892" size="8" />
			<output>
				<port id="0" precision="I64" names="366">
					<dim>1</dim>
				</port>
			</output>
		</layer>
		<layer id="31" name="__module.model.layers.0.input_layernorm/aten::mean/ReduceMean" type="ReduceMean" version="opset1">
			<data keep_dims="true" />
			<input>
				<port id="0" precision="FP32">
					<dim>-1</dim>
					<dim>-1</dim>
					<dim>1536</dim>
				</port>
				<port id="1" precision="I64">
					<dim>1</dim>
				</port>
			</input>
			<output>
				<port id="2" precision="FP32" names="367,variance.1">
					<dim>-1</dim>
					<dim>-1</dim>
					<dim>1</dim>
				</port>
			</output>
		</layer>
		<layer id="32" name="Constant_66173" type="Const" version="opset1">
			<data element_type="f32" shape="1, 1, 1" offset="233689900" size="4" />
			<output>
				<port id="0" precision="FP32">
					<dim>1</dim>
					<dim>1</dim>
					<dim>1</dim>
				</port>
			</output>
		</layer>
		<layer id="33" name="__module.model.layers.0.input_layernorm/aten::add/Add" type="Add" version="opset1">
			<data auto_broadcast="numpy" />
			<input>
				<port id="0" precision="FP32">
					<dim>-1</dim>
					<dim>-1</dim>
					<dim>1</dim>
				</port>
				<port id="1" precision="FP32">
					<dim>1</dim>
					<dim>1</dim>
					<dim>1</dim>
				</port>
			</input>
			<output>
				<port id="2" precision="FP32" names="368">
					<dim>-1</dim>
					<dim>-1</dim>
					<dim>1</dim>
				</port>
			</output>
		</layer>
		<layer id="34" name="__module.model.layers.0.input_layernorm/aten::rsqrt/Sqrt" type="Sqrt" version="opset1">
			<input>
				<port id="0" precision="FP32">
					<dim>-1</dim>
					<dim>-1</dim>
					<dim>1</dim>
				</port>
			</input>
			<output>
				<port id="1" precision="FP32">
					<dim>-1</dim>
					<dim>-1</dim>
					<dim>1</dim>
				</port>
			</output>
		</layer>
		<layer id="35" name="__module.model.layers.0.input_layernorm/aten::rsqrt/Divide" type="Divide" version="opset1">
			<data auto_broadcast="numpy" m_pythondiv="true" />
			<input>
				<port id="0" precision="FP32">
					<dim>1</dim>
					<dim>1</dim>
					<dim>1</dim>
				</port>
				<port id="1" precision="FP32">
					<dim>-1</dim>
					<dim>-1</dim>
					<dim>1</dim>
				</port>
			</input>
			<output>
				<port id="2" precision="FP32" names="369">
					<dim>-1</dim>
					<dim>-1</dim>
					<dim>1</dim>
				</port>
			</output>
		</layer>
		<layer id="36" name="__module.model.layers.0.input_layernorm/aten::mul/Multiply" type="Multiply" version="opset1">
			<data auto_broadcast="numpy" />
			<input>
				<port id="0" precision="FP32">
					<dim>-1</dim>
					<dim>-1</dim>
					<dim>1536</dim>
				</port>
				<port id="1" precision="FP32">
					<dim>-1</dim>
					<dim>-1</dim>
					<dim>1</dim>
				</port>
			</input>
			<output>
				<port id="2" precision="FP32" names="370,371,hidden_states.3,hidden_states.5">
					<dim>-1</dim>
					<dim>-1</dim>
					<dim>1536</dim>
				</port>
			</output>
		</layer>
		<layer id="37" name="__module.model.layers.0.input_layernorm/aten::mul/Multiply_1" type="Multiply" version="opset1">
			<data auto_broadcast="numpy" />
			<input>
				<port id="0" precision="FP32">
					<dim>1</dim>
					<dim>1</dim>
					<dim>1536</dim>
				</port>
				<port id="1" precision="FP32">
					<dim>-1</dim>
					<dim>-1</dim>
					<dim>1536</dim>
				</port>
			</input>
			<output>
				<port id="2" precision="FP32" names="372,374,hidden_states.7">
					<dim>-1</dim>
					<dim>-1</dim>
					<dim>1536</dim>
				</port>
			</output>
		</layer>
		<layer id="38" name="self.model.layers.0.self_attn.q_proj.weight" type="Const" version="opset1">
			<data element_type="i8" shape="1536, 1536" offset="233689904" size="2359296" />
			<output>
				<port id="0" precision="I8">
					<dim>1536</dim>
					<dim>1536</dim>
				</port>
			</output>
		</layer>
		<layer id="39" name="Convert_92866" type="Convert" version="opset1">
			<data destination_type="f16" />
			<input>
				<port id="0" precision="I8">
					<dim>1536</dim>
					<dim>1536</dim>
				</port>
			</input>
			<output>
				<port id="1" precision="FP16">
					<dim>1536</dim>
					<dim>1536</dim>
				</port>
			</output>
		</layer>
		<layer id="40" name="self.model.layers.0.self_attn.q_proj.weight/scale" type="Const" version="opset1">
			<data element_type="f16" shape="1536, 1" offset="236049200" size="3072" />
			<output>
				<port id="0" precision="FP16">
					<dim>1536</dim>
					<dim>1</dim>
				</port>
			</output>
		</layer>
		<layer id="41" name="self.model.layers.0.self_attn.q_proj.weight/fq_weights_1" type="Multiply" version="opset1">
			<data auto_broadcast="numpy" />
			<input>
				<port id="0" precision="FP16">
					<dim>1536</dim>
					<dim>1536</dim>
				</port>
				<port id="1" precision="FP16">
					<dim>1536</dim>
					<dim>1</dim>
				</port>
			</input>
			<output>
				<port id="2" precision="FP16">
					<dim>1536</dim>
					<dim>1536</dim>
				</port>
			</output>
		</layer>
		<layer id="42" name="__module.model.layers.0.self_attn.q_proj/ov_ext::linear/Convert" type="Convert" version="opset1">
			<data destination_type="f32" />
			<rt_info>
				<attribute name="decompression" version="0" />
			</rt_info>
			<input>
				<port id="0" precision="FP16">
					<dim>1536</dim>
					<dim>1536</dim>
				</port>
			</input>
			<output>
				<port id="1" precision="FP32">
					<dim>1536</dim>
					<dim>1536</dim>
				</port>
			</output>
		</layer>
		<layer id="43" name="__module.model.layers.0.self_attn.q_proj/ov_ext::linear/MatMul" type="MatMul" version="opset1">
			<data transpose_a="false" transpose_b="true" />
			<input>
				<port id="0" precision="FP32">
					<dim>-1</dim>
					<dim>-1</dim>
					<dim>1536</dim>
				</port>
				<port id="1" precision="FP32">
					<dim>1536</dim>
					<dim>1536</dim>
				</port>
			</input>
			<output>
				<port id="2" precision="FP32">
					<dim>-1</dim>
					<dim>-1</dim>
					<dim>1536</dim>
				</port>
			</output>
		</layer>
		<layer id="44" name="self.model.layers.0.self_attn.q_proj.bias" type="Const" version="opset1">
			<data element_type="bf16" shape="1536" offset="236052272" size="3072" />
			<output>
				<port id="0" precision="BF16" names="self.model.layers.0.self_attn.q_proj.bias">
					<dim>1536</dim>
				</port>
			</output>
		</layer>
		<layer id="45" name="__module.model.layers.0.self_attn.q_proj/ov_ext::linear/Convert_1" type="Convert" version="opset1">
			<data destination_type="f32" />
			<rt_info>
				<attribute name="decompression" version="0" />
			</rt_info>
			<input>
				<port id="0" precision="BF16">
					<dim>1536</dim>
				</port>
			</input>
			<output>
				<port id="1" precision="FP32">
					<dim>1536</dim>
				</port>
			</output>
		</layer>
		<layer id="46" name="__module.model.layers.0.self_attn.q_proj/ov_ext::linear/Add" type="Add" version="opset1">
			<data auto_broadcast="numpy" />
			<input>
				<port id="0" precision="FP32">
					<dim>-1</dim>
					<dim>-1</dim>
					<dim>1536</dim>
				</port>
				<port id="1" precision="FP32">
					<dim>1536</dim>
				</port>
			</input>
			<output>
				<port id="2" precision="FP32" names="384">
					<dim>-1</dim>
					<dim>-1</dim>
					<dim>1536</dim>
				</port>
			</output>
		</layer>
		<layer id="47" name="Constant_74590" type="Const" version="opset1">
			<data element_type="i64" shape="4" offset="236055344" size="32" />
			<output>
				<port id="0" precision="I64">
					<dim>4</dim>
				</port>
			</output>
		</layer>
		<layer id="48" name="__module.model.layers.0.self_attn/aten::view/Reshape" type="Reshape" version="opset1">
			<data special_zero="true" />
			<input>
				<port id="0" precision="FP32">
					<dim>-1</dim>
					<dim>-1</dim>
					<dim>1536</dim>
				</port>
				<port id="1" precision="I64">
					<dim>4</dim>
				</port>
			</input>
			<output>
				<port id="2" precision="FP32" names="386">
					<dim>-1</dim>
					<dim>-1</dim>
					<dim>12</dim>
					<dim>128</dim>
				</port>
			</output>
		</layer>
		<layer id="49" name="__module.model.layers.0.self_attn/aten::transpose/Constant" type="Const" version="opset1">
			<data element_type="i32" shape="4" offset="236055376" size="16" />
			<output>
				<port id="0" precision="I32">
					<dim>4</dim>
				</port>
			</output>
		</layer>
		<layer id="50" name="__module.model.layers.0.self_attn/aten::transpose/Transpose" type="Transpose" version="opset1">
			<input>
				<port id="0" precision="FP32">
					<dim>-1</dim>
					<dim>-1</dim>
					<dim>12</dim>
					<dim>128</dim>
				</port>
				<port id="1" precision="I32">
					<dim>4</dim>
				</port>
			</input>
			<output>
				<port id="2" precision="FP32" names="387,q.1">
					<dim>-1</dim>
					<dim>12</dim>
					<dim>-1</dim>
					<dim>128</dim>
				</port>
			</output>
		</layer>
		<layer id="51" name="__module.model.rotary_emb/aten::to/Convert" type="Const" version="opset1">
			<data element_type="f32" shape="1, 64, 1" offset="236055392" size="256" />
			<output>
				<port id="0" precision="FP32" names="335">
					<dim>1</dim>
					<dim>64</dim>
					<dim>1</dim>
				</port>
			</output>
		</layer>
		<layer id="52" name="ShapeOf_68018" type="ShapeOf" version="opset3">
			<data output_type="i64" />
			<input>
				<port id="0" precision="FP32">
					<dim>-1</dim>
					<dim>-1</dim>
					<dim>1536</dim>
				</port>
			</input>
			<output>
				<port id="1" precision="I64">
					<dim>3</dim>
				</port>
			</output>
		</layer>
		<layer id="53" name="Constant_68019" type="Const" version="opset1">
			<data element_type="i64" shape="1" offset="4" size="8" />
			<output>
				<port id="0" precision="I64">
					<dim>1</dim>
				</port>
			</output>
		</layer>
		<layer id="54" name="Constant_68020" type="Const" version="opset1">
			<data element_type="i64" shape="" offset="4" size="8" />
			<output>
				<port id="0" precision="I64" />
			</output>
		</layer>
		<layer id="55" name="Gather_68021" type="Gather" version="opset8">
			<data batch_dims="0" />
			<input>
				<port id="0" precision="I64">
					<dim>3</dim>
				</port>
				<port id="1" precision="I64">
					<dim>1</dim>
				</port>
				<port id="2" precision="I64" />
			</input>
			<output>
				<port id="3" precision="I64" names="1085,1101,1246,1262,1407,1423,1568,1584,1729,1745,1890,1906,2051,2067,2212,2228,2373,2389,2534,2550,2695,2711,2856,2872,3017,3033,306,3178,3194,3339,3355,336,3500,3516,3661,3677,3822,3838,3983,3999,4144,4160,4305,4321,441,4466,4482,457,4627,4643,4788,4804,602,618,763,779,924,940">
					<dim>1</dim>
				</port>
			</output>
		</layer>
		<layer id="56" name="Constant_59203" type="Const" version="opset1">
			<data element_type="i64" shape="1" offset="236055648" size="8" />
			<output>
				<port id="0" precision="I64">
					<dim>1</dim>
				</port>
			</output>
		</layer>
		<layer id="57" name="Constant_59205" type="Const" version="opset1">
			<data element_type="i64" shape="1" offset="236055648" size="8" />
			<output>
				<port id="0" precision="I64">
					<dim>1</dim>
				</port>
			</output>
		</layer>
		<layer id="58" name="__module.model.rotary_emb/prim::ListConstruct" type="Concat" version="opset1">
			<data axis="0" />
			<input>
				<port id="0" precision="I64">
					<dim>1</dim>
				</port>
				<port id="1" precision="I64">
					<dim>1</dim>
				</port>
				<port id="2" precision="I64">
					<dim>1</dim>
				</port>
			</input>
			<output>
				<port id="3" precision="I64">
					<dim>3</dim>
				</port>
			</output>
		</layer>
		<layer id="59" name="__module.model.rotary_emb/aten::expand/Broadcast" type="Broadcast" version="opset3">
			<data mode="bidirectional" />
			<input>
				<port id="0" precision="FP32">
					<dim>1</dim>
					<dim>64</dim>
					<dim>1</dim>
				</port>
				<port id="1" precision="I64">
					<dim>3</dim>
				</port>
			</input>
			<output>
				<port id="2" precision="FP32" names="338,339,344,inv_freq_expanded,inv_freq_expanded.1">
					<dim>-1</dim>
					<dim>64</dim>
					<dim>1</dim>
				</port>
			</output>
		</layer>
		<layer id="60" name="221" type="Const" version="opset1">
			<data element_type="i64" shape="" offset="236055648" size="8" />
			<output>
				<port id="0" precision="I64" names="221" />
			</output>
		</layer>
		<layer id="61" name="__module.model.rotary_emb/aten::unsqueeze/Unsqueeze_2" type="Unsqueeze" version="opset1">
			<input>
				<port id="0" precision="I64">
					<dim>-1</dim>
					<dim>-1</dim>
				</port>
				<port id="1" precision="I64" />
			</input>
			<output>
				<port id="2" precision="I64" names="341,342">
					<dim>-1</dim>
					<dim>1</dim>
					<dim>-1</dim>
				</port>
			</output>
		</layer>
		<layer id="62" name="__module.model.rotary_emb/aten::to/Convert_3" type="Convert" version="opset1">
			<data destination_type="f32" />
			<input>
				<port id="0" precision="I64">
					<dim>-1</dim>
					<dim>1</dim>
					<dim>-1</dim>
				</port>
			</input>
			<output>
				<port id="1" precision="FP32" names="343,345,position_ids_expanded,position_ids_expanded.1">
					<dim>-1</dim>
					<dim>1</dim>
					<dim>-1</dim>
				</port>
			</output>
		</layer>
		<layer id="63" name="__module.model.rotary_emb/aten::matmul/MatMul" type="MatMul" version="opset1">
			<data transpose_a="false" transpose_b="false" />
			<input>
				<port id="0" precision="FP32">
					<dim>-1</dim>
					<dim>64</dim>
					<dim>1</dim>
				</port>
				<port id="1" precision="FP32">
					<dim>-1</dim>
					<dim>1</dim>
					<dim>-1</dim>
				</port>
			</input>
			<output>
				<port id="2" precision="FP32" names="346">
					<dim>-1</dim>
					<dim>64</dim>
					<dim>-1</dim>
				</port>
			</output>
		</layer>
		<layer id="64" name="__module.model.rotary_emb/aten::transpose/Constant" type="Const" version="opset1">
			<data element_type="i32" shape="3" offset="236055656" size="12" />
			<output>
				<port id="0" precision="I32">
					<dim>3</dim>
				</port>
			</output>
		</layer>
		<layer id="65" name="__module.model.rotary_emb/aten::transpose/Transpose" type="Transpose" version="opset1">
			<input>
				<port id="0" precision="FP32">
					<dim>-1</dim>
					<dim>64</dim>
					<dim>-1</dim>
				</port>
				<port id="1" precision="I32">
					<dim>3</dim>
				</port>
			</input>
			<output>
				<port id="2" precision="FP32" names="347">
					<dim>-1</dim>
					<dim>-1</dim>
					<dim>64</dim>
				</port>
			</output>
		</layer>
		<layer id="66" name="__module.model.rotary_emb/aten::cat/Concat" type="Concat" version="opset1">
			<data axis="-1" />
			<input>
				<port id="0" precision="FP32">
					<dim>-1</dim>
					<dim>-1</dim>
					<dim>64</dim>
				</port>
				<port id="1" precision="FP32">
					<dim>-1</dim>
					<dim>-1</dim>
					<dim>64</dim>
				</port>
			</input>
			<output>
				<port id="2" precision="FP32" names="349,emb">
					<dim>-1</dim>
					<dim>-1</dim>
					<dim>128</dim>
				</port>
			</output>
		</layer>
		<layer id="67" name="__module.model.rotary_emb/aten::cos/Cos" type="Cos" version="opset1">
			<input>
				<port id="0" precision="FP32">
					<dim>-1</dim>
					<dim>-1</dim>
					<dim>128</dim>
				</port>
			</input>
			<output>
				<port id="1" precision="FP32" names="350,351,354,357,cos.1,cos.3">
					<dim>-1</dim>
					<dim>-1</dim>
					<dim>128</dim>
				</port>
			</output>
		</layer>
		<layer id="68" name="__module.model.layers.0.self_attn/aten::unsqueeze/Unsqueeze" type="Unsqueeze" version="opset1">
			<input>
				<port id="0" precision="FP32">
					<dim>-1</dim>
					<dim>-1</dim>
					<dim>128</dim>
				</port>
				<port id="1" precision="I64" />
			</input>
			<output>
				<port id="2" precision="FP32" names="1047,1208,1369,1530,1691,1852,2013,2174,2335,2496,2657,2818,2979,3140,3301,3462,3623,3784,3945,400,4106,4267,4428,4589,4750,564,725,886,cos,cos.11,cos.13,cos.15,cos.17,cos.19,cos.21,cos.23,cos.25,cos.27,cos.29,cos.31,cos.33,cos.35,cos.37,cos.39,cos.41,cos.43,cos.45,cos.47,cos.49,cos.5,cos.51,cos.53,cos.55,cos.57,cos.7,cos.9">
					<dim>-1</dim>
					<dim>1</dim>
					<dim>-1</dim>
					<dim>128</dim>
				</port>
			</output>
		</layer>
		<layer id="69" name="__module.model.layers.0.self_attn/aten::mul/Multiply" type="Multiply" version="opset1">
			<data auto_broadcast="numpy" />
			<input>
				<port id="0" precision="FP32">
					<dim>-1</dim>
					<dim>12</dim>
					<dim>-1</dim>
					<dim>128</dim>
				</port>
				<port id="1" precision="FP32">
					<dim>-1</dim>
					<dim>1</dim>
					<dim>-1</dim>
					<dim>128</dim>
				</port>
			</input>
			<output>
				<port id="2" precision="FP32" names="402">
					<dim>-1</dim>
					<dim>12</dim>
					<dim>-1</dim>
					<dim>128</dim>
				</port>
			</output>
		</layer>
		<layer id="70" name="Constant_944" type="Const" version="opset1">
			<data element_type="i64" shape="1" offset="236055668" size="8" />
			<output>
				<port id="0" precision="I64">
					<dim>1</dim>
				</port>
			</output>
		</layer>
		<layer id="71" name="Constant_946" type="Const" version="opset1">
			<data element_type="i64" shape="1" offset="236055676" size="8" />
			<output>
				<port id="0" precision="I64">
					<dim>1</dim>
				</port>
			</output>
		</layer>
		<layer id="72" name="Constant_948" type="Const" version="opset1">
			<data element_type="i64" shape="1" offset="236055648" size="8" />
			<output>
				<port id="0" precision="I64">
					<dim>1</dim>
				</port>
			</output>
		</layer>
		<layer id="73" name="Constant_900" type="Const" version="opset1">
			<data element_type="i64" shape="1" offset="236055684" size="8" />
			<output>
				<port id="0" precision="I64">
					<dim>1</dim>
				</port>
			</output>
		</layer>
		<layer id="74" name="__module.model.layers.0.self_attn/aten::slice/Slice" type="Slice" version="opset8">
			<input>
				<port id="0" precision="FP32">
					<dim>-1</dim>
					<dim>12</dim>
					<dim>-1</dim>
					<dim>128</dim>
				</port>
				<port id="1" precision="I64">
					<dim>1</dim>
				</port>
				<port id="2" precision="I64">
					<dim>1</dim>
				</port>
				<port id="3" precision="I64">
					<dim>1</dim>
				</port>
				<port id="4" precision="I64">
					<dim>1</dim>
				</port>
			</input>
			<output>
				<port id="5" precision="FP32" names="412,x2.1">
					<dim>-1</dim>
					<dim>12</dim>
					<dim>-1</dim>
					<dim>64</dim>
				</port>
			</output>
		</layer>
		<layer id="75" name="Constant_66176" type="Const" version="opset1">
			<data element_type="f32" shape="1, 1, 1, 1" offset="236055692" size="4" />
			<output>
				<port id="0" precision="FP32">
					<dim>1</dim>
					<dim>1</dim>
					<dim>1</dim>
					<dim>1</dim>
				</port>
			</output>
		</layer>
		<layer id="76" name="__module.model.layers.0.self_attn/aten::neg/Multiply" type="Multiply" version="opset1">
			<data auto_broadcast="numpy" />
			<input>
				<port id="0" precision="FP32">
					<dim>-1</dim>
					<dim>12</dim>
					<dim>-1</dim>
					<dim>64</dim>
				</port>
				<port id="1" precision="FP32">
					<dim>1</dim>
					<dim>1</dim>
					<dim>1</dim>
					<dim>1</dim>
				</port>
			</input>
			<output>
				<port id="2" precision="FP32" names="413">
					<dim>-1</dim>
					<dim>12</dim>
					<dim>-1</dim>
					<dim>64</dim>
				</port>
			</output>
		</layer>
		<layer id="77" name="Constant_841" type="Const" version="opset1">
			<data element_type="i64" shape="1" offset="4" size="8" />
			<output>
				<port id="0" precision="I64">
					<dim>1</dim>
				</port>
			</output>
		</layer>
		<layer id="78" name="Constant_885" type="Const" version="opset1">
			<data element_type="i64" shape="1" offset="236055668" size="8" />
			<output>
				<port id="0" precision="I64">
					<dim>1</dim>
				</port>
			</output>
		</layer>
		<layer id="79" name="Constant_887" type="Const" version="opset1">
			<data element_type="i64" shape="1" offset="236055648" size="8" />
			<output>
				<port id="0" precision="I64">
					<dim>1</dim>
				</port>
			</output>
		</layer>
		<layer id="80" name="Constant_839" type="Const" version="opset1">
			<data element_type="i64" shape="1" offset="236055684" size="8" />
			<output>
				<port id="0" precision="I64">
					<dim>1</dim>
				</port>
			</output>
		</layer>
		<layer id="81" name="__module.model.layers.0.self_attn/aten::slice/Slice_1" type="Slice" version="opset8">
			<input>
				<port id="0" precision="FP32">
					<dim>-1</dim>
					<dim>12</dim>
					<dim>-1</dim>
					<dim>128</dim>
				</port>
				<port id="1" precision="I64">
					<dim>1</dim>
				</port>
				<port id="2" precision="I64">
					<dim>1</dim>
				</port>
				<port id="3" precision="I64">
					<dim>1</dim>
				</port>
				<port id="4" precision="I64">
					<dim>1</dim>
				</port>
			</input>
			<output>
				<port id="5" precision="FP32" names="407">
					<dim>-1</dim>
					<dim>12</dim>
					<dim>-1</dim>
					<dim>64</dim>
				</port>
			</output>
		</layer>
		<layer id="82" name="__module.model.layers.0.self_attn/aten::cat/Concat" type="Concat" version="opset1">
			<data axis="-1" />
			<input>
				<port id="0" precision="FP32">
					<dim>-1</dim>
					<dim>12</dim>
					<dim>-1</dim>
					<dim>64</dim>
				</port>
				<port id="1" precision="FP32">
					<dim>-1</dim>
					<dim>12</dim>
					<dim>-1</dim>
					<dim>64</dim>
				</port>
			</input>
			<output>
				<port id="2" precision="FP32" names="415">
					<dim>-1</dim>
					<dim>12</dim>
					<dim>-1</dim>
					<dim>128</dim>
				</port>
			</output>
		</layer>
		<layer id="83" name="__module.model.rotary_emb/aten::sin/Sin" type="Sin" version="opset1">
			<input>
				<port id="0" precision="FP32">
					<dim>-1</dim>
					<dim>-1</dim>
					<dim>128</dim>
				</port>
			</input>
			<output>
				<port id="1" precision="FP32" names="352,353,355,358,sin.1,sin.3">
					<dim>-1</dim>
					<dim>-1</dim>
					<dim>128</dim>
				</port>
			</output>
		</layer>
		<layer id="84" name="__module.model.layers.0.self_attn/aten::unsqueeze/Unsqueeze_1" type="Unsqueeze" version="opset1">
			<input>
				<port id="0" precision="FP32">
					<dim>-1</dim>
					<dim>-1</dim>
					<dim>128</dim>
				</port>
				<port id="1" precision="I64" />
			</input>
			<output>
				<port id="2" precision="FP32" names="1048,1209,1370,1531,1692,1853,2014,2175,2336,2497,2658,2819,2980,3141,3302,3463,3624,3785,3946,401,4107,4268,4429,4590,4751,565,726,887,sin,sin.11,sin.13,sin.15,sin.17,sin.19,sin.21,sin.23,sin.25,sin.27,sin.29,sin.31,sin.33,sin.35,sin.37,sin.39,sin.41,sin.43,sin.45,sin.47,sin.49,sin.5,sin.51,sin.53,sin.55,sin.57,sin.7,sin.9">
					<dim>-1</dim>
					<dim>1</dim>
					<dim>-1</dim>
					<dim>128</dim>
				</port>
			</output>
		</layer>
		<layer id="85" name="__module.model.layers.0.self_attn/aten::mul/Multiply_1" type="Multiply" version="opset1">
			<data auto_broadcast="numpy" />
			<input>
				<port id="0" precision="FP32">
					<dim>-1</dim>
					<dim>12</dim>
					<dim>-1</dim>
					<dim>128</dim>
				</port>
				<port id="1" precision="FP32">
					<dim>-1</dim>
					<dim>1</dim>
					<dim>-1</dim>
					<dim>128</dim>
				</port>
			</input>
			<output>
				<port id="2" precision="FP32" names="416">
					<dim>-1</dim>
					<dim>12</dim>
					<dim>-1</dim>
					<dim>128</dim>
				</port>
			</output>
		</layer>
		<layer id="86" name="__module.model.layers.0.self_attn/aten::add/Add" type="Add" version="opset1">
			<data auto_broadcast="numpy" />
			<input>
				<port id="0" precision="FP32">
					<dim>-1</dim>
					<dim>12</dim>
					<dim>-1</dim>
					<dim>128</dim>
				</port>
				<port id="1" precision="FP32">
					<dim>-1</dim>
					<dim>12</dim>
					<dim>-1</dim>
					<dim>128</dim>
				</port>
			</input>
			<output>
				<port id="2" precision="FP32" names="417,query.1">
					<dim>-1</dim>
					<dim>12</dim>
					<dim>-1</dim>
					<dim>128</dim>
				</port>
			</output>
		</layer>
		<layer id="87" name="Constant_77146" type="Const" version="opset1">
			<data element_type="f32" shape="" offset="0" size="4" />
			<output>
				<port id="0" precision="FP32" />
			</output>
		</layer>
		<layer id="88" name="Constant_77139" type="Const" version="opset1">
			<data element_type="i64" shape="1" offset="12" size="8" />
			<output>
				<port id="0" precision="I64">
					<dim>1</dim>
				</port>
			</output>
		</layer>
		<layer id="89" name="Constant_77141" type="Const" version="opset1">
			<data element_type="i64" shape="1" offset="4" size="8" />
			<output>
				<port id="0" precision="I64">
					<dim>1</dim>
				</port>
			</output>
		</layer>
		<layer id="90" name="Constant_77143" type="Const" version="opset1">
			<data element_type="i64" shape="1" offset="20" size="8" />
			<output>
				<port id="0" precision="I64">
					<dim>1</dim>
				</port>
			</output>
		</layer>
		<layer id="91" name="Concat_77144" type="Concat" version="opset1">
			<data axis="0" />
			<input>
				<port id="0" precision="I64">
					<dim>1</dim>
				</port>
				<port id="1" precision="I64">
					<dim>1</dim>
				</port>
				<port id="2" precision="I64">
					<dim>1</dim>
				</port>
				<port id="3" precision="I64">
					<dim>1</dim>
				</port>
			</input>
			<output>
				<port id="4" precision="I64">
					<dim>4</dim>
				</port>
			</output>
		</layer>
		<layer id="92" name="Broadcast_77147" type="Broadcast" version="opset3">
			<data mode="numpy" />
			<input>
				<port id="0" precision="FP32" />
				<port id="1" precision="I64">
					<dim>4</dim>
				</port>
			</input>
			<output>
				<port id="2" precision="FP32">
					<dim>-1</dim>
					<dim>2</dim>
					<dim>0</dim>
					<dim>128</dim>
				</port>
			</output>
		</layer>
		<layer id="93" name="ReadValue_76610" type="ReadValue" version="opset6">
			<data variable_id="past_key_values.0.keypresent.0.key" variable_type="f32" variable_shape="?,2,?,128" />
			<input>
				<port id="0" precision="FP32">
					<dim>-1</dim>
					<dim>2</dim>
					<dim>0</dim>
					<dim>128</dim>
				</port>
			</input>
			<output>
				<port id="1" precision="FP32" names="past_key_values.0.key">
					<dim>-1</dim>
					<dim>2</dim>
					<dim>-1</dim>
					<dim>128</dim>
				</port>
			</output>
		</layer>
		<layer id="94" name="Constant_76045" type="Const" version="opset1">
			<data element_type="i64" shape="" offset="4" size="8" />
			<output>
				<port id="0" precision="I64" />
			</output>
		</layer>
		<layer id="95" name="Gather_76046" type="Gather" version="opset8">
			<data batch_dims="0" />
			<input>
				<port id="0" precision="FP32">
					<dim>-1</dim>
					<dim>2</dim>
					<dim>-1</dim>
					<dim>128</dim>
				</port>
				<port id="1" precision="I32">
					<dim>-1</dim>
				</port>
				<port id="2" precision="I64" />
			</input>
			<output>
				<port id="3" precision="FP32">
					<dim>-1</dim>
					<dim>2</dim>
					<dim>-1</dim>
					<dim>128</dim>
				</port>
			</output>
		</layer>
		<layer id="96" name="self.model.layers.0.self_attn.k_proj.weight" type="Const" version="opset1">
			<data element_type="i8" shape="256, 1536" offset="236055696" size="393216" />
			<output>
				<port id="0" precision="I8">
					<dim>256</dim>
					<dim>1536</dim>
				</port>
			</output>
		</layer>
		<layer id="97" name="Convert_93202" type="Convert" version="opset1">
			<data destination_type="f16" />
			<input>
				<port id="0" precision="I8">
					<dim>256</dim>
					<dim>1536</dim>
				</port>
			</input>
			<output>
				<port id="1" precision="FP16">
					<dim>256</dim>
					<dim>1536</dim>
				</port>
			</output>
		</layer>
		<layer id="98" name="self.model.layers.0.self_attn.k_proj.weight/scale" type="Const" version="opset1">
			<data element_type="f16" shape="256, 1" offset="236448912" size="512" />
			<output>
				<port id="0" precision="FP16">
					<dim>256</dim>
					<dim>1</dim>
				</port>
			</output>
		</layer>
		<layer id="99" name="self.model.layers.0.self_attn.k_proj.weight/fq_weights_1" type="Multiply" version="opset1">
			<data auto_broadcast="numpy" />
			<input>
				<port id="0" precision="FP16">
					<dim>256</dim>
					<dim>1536</dim>
				</port>
				<port id="1" precision="FP16">
					<dim>256</dim>
					<dim>1</dim>
				</port>
			</input>
			<output>
				<port id="2" precision="FP16">
					<dim>256</dim>
					<dim>1536</dim>
				</port>
			</output>
		</layer>
		<layer id="100" name="__module.model.layers.0.self_attn.k_proj/ov_ext::linear/Convert" type="Convert" version="opset1">
			<data destination_type="f32" />
			<rt_info>
				<attribute name="decompression" version="0" />
			</rt_info>
			<input>
				<port id="0" precision="FP16">
					<dim>256</dim>
					<dim>1536</dim>
				</port>
			</input>
			<output>
				<port id="1" precision="FP32">
					<dim>256</dim>
					<dim>1536</dim>
				</port>
			</output>
		</layer>
		<layer id="101" name="__module.model.layers.0.self_attn.k_proj/ov_ext::linear/MatMul" type="MatMul" version="opset1">
			<data transpose_a="false" transpose_b="true" />
			<input>
				<port id="0" precision="FP32">
					<dim>-1</dim>
					<dim>-1</dim>
					<dim>1536</dim>
				</port>
				<port id="1" precision="FP32">
					<dim>256</dim>
					<dim>1536</dim>
				</port>
			</input>
			<output>
				<port id="2" precision="FP32">
					<dim>-1</dim>
					<dim>-1</dim>
					<dim>256</dim>
				</port>
			</output>
		</layer>
		<layer id="102" name="self.model.layers.0.self_attn.k_proj.bias" type="Const" version="opset1">
			<data element_type="bf16" shape="256" offset="236449424" size="512" />
			<output>
				<port id="0" precision="BF16" names="self.model.layers.0.self_attn.k_proj.bias">
					<dim>256</dim>
				</port>
			</output>
		</layer>
		<layer id="103" name="__module.model.layers.0.self_attn.k_proj/ov_ext::linear/Convert_1" type="Convert" version="opset1">
			<data destination_type="f32" />
			<rt_info>
				<attribute name="decompression" version="0" />
			</rt_info>
			<input>
				<port id="0" precision="BF16">
					<dim>256</dim>
				</port>
			</input>
			<output>
				<port id="1" precision="FP32">
					<dim>256</dim>
				</port>
			</output>
		</layer>
		<layer id="104" name="__module.model.layers.0.self_attn.k_proj/ov_ext::linear/Add" type="Add" version="opset1">
			<data auto_broadcast="numpy" />
			<input>
				<port id="0" precision="FP32">
					<dim>-1</dim>
					<dim>-1</dim>
					<dim>256</dim>
				</port>
				<port id="1" precision="FP32">
					<dim>256</dim>
				</port>
			</input>
			<output>
				<port id="2" precision="FP32" names="390">
					<dim>-1</dim>
					<dim>-1</dim>
					<dim>256</dim>
				</port>
			</output>
		</layer>
		<layer id="105" name="Constant_74591" type="Const" version="opset1">
			<data element_type="i64" shape="4" offset="236449936" size="32" />
			<output>
				<port id="0" precision="I64">
					<dim>4</dim>
				</port>
			</output>
		</layer>
		<layer id="106" name="__module.model.layers.0.self_attn/aten::view/Reshape_1" type="Reshape" version="opset1">
			<data special_zero="true" />
			<input>
				<port id="0" precision="FP32">
					<dim>-1</dim>
					<dim>-1</dim>
					<dim>256</dim>
				</port>
				<port id="1" precision="I64">
					<dim>4</dim>
				</port>
			</input>
			<output>
				<port id="2" precision="FP32" names="392">
					<dim>-1</dim>
					<dim>-1</dim>
					<dim>2</dim>
					<dim>128</dim>
				</port>
			</output>
		</layer>
		<layer id="107" name="__module.model.layers.0.self_attn/aten::transpose/Constant_1" type="Const" version="opset1">
			<data element_type="i32" shape="4" offset="236055376" size="16" />
			<output>
				<port id="0" precision="I32">
					<dim>4</dim>
				</port>
			</output>
		</layer>
		<layer id="108" name="__module.model.layers.0.self_attn/aten::transpose/Transpose_1" type="Transpose" version="opset1">
			<input>
				<port id="0" precision="FP32">
					<dim>-1</dim>
					<dim>-1</dim>
					<dim>2</dim>
					<dim>128</dim>
				</port>
				<port id="1" precision="I32">
					<dim>4</dim>
				</port>
			</input>
			<output>
				<port id="2" precision="FP32" names="393,k.1">
					<dim>-1</dim>
					<dim>2</dim>
					<dim>-1</dim>
					<dim>128</dim>
				</port>
			</output>
		</layer>
		<layer id="109" name="__module.model.layers.0.self_attn/aten::mul/Multiply_2" type="Multiply" version="opset1">
			<data auto_broadcast="numpy" />
			<input>
				<port id="0" precision="FP32">
					<dim>-1</dim>
					<dim>2</dim>
					<dim>-1</dim>
					<dim>128</dim>
				</port>
				<port id="1" precision="FP32">
					<dim>-1</dim>
					<dim>1</dim>
					<dim>-1</dim>
					<dim>128</dim>
				</port>
			</input>
			<output>
				<port id="2" precision="FP32" names="418">
					<dim>-1</dim>
					<dim>2</dim>
					<dim>-1</dim>
					<dim>128</dim>
				</port>
			</output>
		</layer>
		<layer id="110" name="Constant_1087" type="Const" version="opset1">
			<data element_type="i64" shape="1" offset="236055668" size="8" />
			<output>
				<port id="0" precision="I64">
					<dim>1</dim>
				</port>
			</output>
		</layer>
		<layer id="111" name="Constant_1089" type="Const" version="opset1">
			<data element_type="i64" shape="1" offset="236055676" size="8" />
			<output>
				<port id="0" precision="I64">
					<dim>1</dim>
				</port>
			</output>
		</layer>
		<layer id="112" name="Constant_1091" type="Const" version="opset1">
			<data element_type="i64" shape="1" offset="236055648" size="8" />
			<output>
				<port id="0" precision="I64">
					<dim>1</dim>
				</port>
			</output>
		</layer>
		<layer id="113" name="Constant_1043" type="Const" version="opset1">
			<data element_type="i64" shape="1" offset="236055684" size="8" />
			<output>
				<port id="0" precision="I64">
					<dim>1</dim>
				</port>
			</output>
		</layer>
		<layer id="114" name="__module.model.layers.0.self_attn/aten::slice/Slice_2" type="Slice" version="opset8">
			<input>
				<port id="0" precision="FP32">
					<dim>-1</dim>
					<dim>2</dim>
					<dim>-1</dim>
					<dim>128</dim>
				</port>
				<port id="1" precision="I64">
					<dim>1</dim>
				</port>
				<port id="2" precision="I64">
					<dim>1</dim>
				</port>
				<port id="3" precision="I64">
					<dim>1</dim>
				</port>
				<port id="4" precision="I64">
					<dim>1</dim>
				</port>
			</input>
			<output>
				<port id="5" precision="FP32" names="428,x2.3">
					<dim>-1</dim>
					<dim>2</dim>
					<dim>-1</dim>
					<dim>64</dim>
				</port>
			</output>
		</layer>
		<layer id="115" name="Constant_66177" type="Const" version="opset1">
			<data element_type="f32" shape="1, 1, 1, 1" offset="236055692" size="4" />
			<output>
				<port id="0" precision="FP32">
					<dim>1</dim>
					<dim>1</dim>
					<dim>1</dim>
					<dim>1</dim>
				</port>
			</output>
		</layer>
		<layer id="116" name="__module.model.layers.0.self_attn/aten::neg/Multiply_1" type="Multiply" version="opset1">
			<data auto_broadcast="numpy" />
			<input>
				<port id="0" precision="FP32">
					<dim>-1</dim>
					<dim>2</dim>
					<dim>-1</dim>
					<dim>64</dim>
				</port>
				<port id="1" precision="FP32">
					<dim>1</dim>
					<dim>1</dim>
					<dim>1</dim>
					<dim>1</dim>
				</port>
			</input>
			<output>
				<port id="2" precision="FP32" names="429">
					<dim>-1</dim>
					<dim>2</dim>
					<dim>-1</dim>
					<dim>64</dim>
				</port>
			</output>
		</layer>
		<layer id="117" name="Constant_984" type="Const" version="opset1">
			<data element_type="i64" shape="1" offset="4" size="8" />
			<output>
				<port id="0" precision="I64">
					<dim>1</dim>
				</port>
			</output>
		</layer>
		<layer id="118" name="Constant_1028" type="Const" version="opset1">
			<data element_type="i64" shape="1" offset="236055668" size="8" />
			<output>
				<port id="0" precision="I64">
					<dim>1</dim>
				</port>
			</output>
		</layer>
		<layer id="119" name="Constant_1030" type="Const" version="opset1">
			<data element_type="i64" shape="1" offset="236055648" size="8" />
			<output>
				<port id="0" precision="I64">
					<dim>1</dim>
				</port>
			</output>
		</layer>
		<layer id="120" name="Constant_982" type="Const" version="opset1">
			<data element_type="i64" shape="1" offset="236055684" size="8" />
			<output>
				<port id="0" precision="I64">
					<dim>1</dim>
				</port>
			</output>
		</layer>
		<layer id="121" name="__module.model.layers.0.self_attn/aten::slice/Slice_3" type="Slice" version="opset8">
			<input>
				<port id="0" precision="FP32">
					<dim>-1</dim>
					<dim>2</dim>
					<dim>-1</dim>
					<dim>128</dim>
				</port>
				<port id="1" precision="I64">
					<dim>1</dim>
				</port>
				<port id="2" precision="I64">
					<dim>1</dim>
				</port>
				<port id="3" precision="I64">
					<dim>1</dim>
				</port>
				<port id="4" precision="I64">
					<dim>1</dim>
				</port>
			</input>
			<output>
				<port id="5" precision="FP32" names="423">
					<dim>-1</dim>
					<dim>2</dim>
					<dim>-1</dim>
					<dim>64</dim>
				</port>
			</output>
		</layer>
		<layer id="122" name="__module.model.layers.0.self_attn/aten::cat/Concat_1" type="Concat" version="opset1">
			<data axis="-1" />
			<input>
				<port id="0" precision="FP32">
					<dim>-1</dim>
					<dim>2</dim>
					<dim>-1</dim>
					<dim>64</dim>
				</port>
				<port id="1" precision="FP32">
					<dim>-1</dim>
					<dim>2</dim>
					<dim>-1</dim>
					<dim>64</dim>
				</port>
			</input>
			<output>
				<port id="2" precision="FP32" names="431">
					<dim>-1</dim>
					<dim>2</dim>
					<dim>-1</dim>
					<dim>128</dim>
				</port>
			</output>
		</layer>
		<layer id="123" name="__module.model.layers.0.self_attn/aten::mul/Multiply_3" type="Multiply" version="opset1">
			<data auto_broadcast="numpy" />
			<input>
				<port id="0" precision="FP32">
					<dim>-1</dim>
					<dim>2</dim>
					<dim>-1</dim>
					<dim>128</dim>
				</port>
				<port id="1" precision="FP32">
					<dim>-1</dim>
					<dim>1</dim>
					<dim>-1</dim>
					<dim>128</dim>
				</port>
			</input>
			<output>
				<port id="2" precision="FP32" names="432">
					<dim>-1</dim>
					<dim>2</dim>
					<dim>-1</dim>
					<dim>128</dim>
				</port>
			</output>
		</layer>
		<layer id="124" name="__module.model.layers.0.self_attn/aten::add/Add_1" type="Add" version="opset1">
			<data auto_broadcast="numpy" />
			<input>
				<port id="0" precision="FP32">
					<dim>-1</dim>
					<dim>2</dim>
					<dim>-1</dim>
					<dim>128</dim>
				</port>
				<port id="1" precision="FP32">
					<dim>-1</dim>
					<dim>2</dim>
					<dim>-1</dim>
					<dim>128</dim>
				</port>
			</input>
			<output>
				<port id="2" precision="FP32" names="433,key_states">
					<dim>-1</dim>
					<dim>2</dim>
					<dim>-1</dim>
					<dim>128</dim>
				</port>
			</output>
		</layer>
		<layer id="125" name="__module.model.layers.0.self_attn/aten::cat/Concat_2" type="Concat" version="opset1">
			<data axis="-2" />
			<input>
				<port id="0" precision="FP32">
					<dim>-1</dim>
					<dim>2</dim>
					<dim>-1</dim>
					<dim>128</dim>
				</port>
				<port id="1" precision="FP32">
					<dim>-1</dim>
					<dim>2</dim>
					<dim>-1</dim>
					<dim>128</dim>
				</port>
			</input>
			<output>
				<port id="2" precision="FP32" names="446,447,hidden_states.9">
					<dim>-1</dim>
					<dim>2</dim>
					<dim>-1</dim>
					<dim>128</dim>
				</port>
			</output>
		</layer>
		<layer id="126" name="222" type="Const" version="opset1">
			<data element_type="i64" shape="" offset="12" size="8" />
			<output>
				<port id="0" precision="I64" names="222" />
			</output>
		</layer>
		<layer id="127" name="__module.model.layers.0.self_attn/aten::unsqueeze/Unsqueeze_2" type="Unsqueeze" version="opset1">
			<input>
				<port id="0" precision="FP32">
					<dim>-1</dim>
					<dim>2</dim>
					<dim>-1</dim>
					<dim>128</dim>
				</port>
				<port id="1" precision="I64" />
			</input>
			<output>
				<port id="2" precision="FP32" names="448,449,450">
					<dim>-1</dim>
					<dim>2</dim>
					<dim>1</dim>
					<dim>-1</dim>
					<dim>128</dim>
				</port>
			</output>
		</layer>
		<layer id="128" name="__module.model.layers.0.self_attn/aten::size/ShapeOf_2" type="ShapeOf" version="opset3">
			<data output_type="i64" />
			<input>
				<port id="0" precision="FP32">
					<dim>-1</dim>
					<dim>2</dim>
					<dim>-1</dim>
					<dim>128</dim>
				</port>
			</input>
			<output>
				<port id="1" precision="I64">
					<dim>4</dim>
				</port>
			</output>
		</layer>
		<layer id="129" name="Constant_61217" type="Const" version="opset1">
			<data element_type="i64" shape="2" offset="236449968" size="16" />
			<output>
				<port id="0" precision="I64">
					<dim>2</dim>
				</port>
			</output>
		</layer>
		<layer id="130" name="Constant_61218" type="Const" version="opset1">
			<data element_type="i64" shape="" offset="4" size="8" />
			<output>
				<port id="0" precision="I64" />
			</output>
		</layer>
		<layer id="131" name="Gather_61219" type="Gather" version="opset8">
			<data batch_dims="0" />
			<input>
				<port id="0" precision="I64">
					<dim>4</dim>
				</port>
				<port id="1" precision="I64">
					<dim>2</dim>
				</port>
				<port id="2" precision="I64" />
			</input>
			<output>
				<port id="3" precision="I64">
					<dim>2</dim>
				</port>
			</output>
		</layer>
		<layer id="132" name="Constant_59212" type="Const" version="opset1">
			<data element_type="i64" shape="1" offset="236449984" size="8" />
			<output>
				<port id="0" precision="I64">
					<dim>1</dim>
				</port>
			</output>
		</layer>
		<layer id="133" name="ShapeOf_68060" type="ShapeOf" version="opset3">
			<data output_type="i64" />
			<input>
				<port id="0" precision="FP32">
					<dim>-1</dim>
					<dim>2</dim>
					<dim>-1</dim>
					<dim>128</dim>
				</port>
			</input>
			<output>
				<port id="1" precision="I64">
					<dim>4</dim>
				</port>
			</output>
		</layer>
		<layer id="134" name="Constant_68061" type="Const" version="opset1">
			<data element_type="i64" shape="" offset="12" size="8" />
			<output>
				<port id="0" precision="I64" />
			</output>
		</layer>
		<layer id="135" name="Constant_68062" type="Const" version="opset1">
			<data element_type="i64" shape="" offset="4" size="8" />
			<output>
				<port id="0" precision="I64" />
			</output>
		</layer>
		<layer id="136" name="Gather_68063" type="Gather" version="opset8">
			<data batch_dims="0" />
			<input>
				<port id="0" precision="I64">
					<dim>4</dim>
				</port>
				<port id="1" precision="I64" />
				<port id="2" precision="I64" />
			</input>
			<output>
				<port id="3" precision="I64" names="284" />
			</output>
		</layer>
		<layer id="137" name="Constant_68074" type="Const" version="opset1">
			<data element_type="i64" shape="1" offset="236055648" size="8" />
			<output>
				<port id="0" precision="I64">
					<dim>1</dim>
				</port>
			</output>
		</layer>
		<layer id="138" name="Reshape_68075" type="Reshape" version="opset1">
			<data special_zero="false" />
			<input>
				<port id="0" precision="I64" />
				<port id="1" precision="I64">
					<dim>1</dim>
				</port>
			</input>
			<output>
				<port id="2" precision="I64">
					<dim>1</dim>
				</port>
			</output>
		</layer>
		<layer id="139" name="Constant_68029" type="Const" version="opset1">
			<data element_type="i64" shape="" offset="236055648" size="8" />
			<output>
				<port id="0" precision="I64" />
			</output>
		</layer>
		<layer id="140" name="Constant_68030" type="Const" version="opset1">
			<data element_type="i64" shape="" offset="4" size="8" />
			<output>
				<port id="0" precision="I64" />
			</output>
		</layer>
		<layer id="141" name="Gather_68031" type="Gather" version="opset8">
			<data batch_dims="0" />
			<input>
				<port id="0" precision="I64">
					<dim>3</dim>
				</port>
				<port id="1" precision="I64" />
				<port id="2" precision="I64" />
			</input>
			<output>
				<port id="3" precision="I64" names="286,291" />
			</output>
		</layer>
		<layer id="142" name="Constant_68076" type="Const" version="opset1">
			<data element_type="i64" shape="1" offset="236055648" size="8" />
			<output>
				<port id="0" precision="I64">
					<dim>1</dim>
				</port>
			</output>
		</layer>
		<layer id="143" name="Reshape_68077" type="Reshape" version="opset1">
			<data special_zero="false" />
			<input>
				<port id="0" precision="I64" />
				<port id="1" precision="I64">
					<dim>1</dim>
				</port>
			</input>
			<output>
				<port id="2" precision="I64">
					<dim>1</dim>
				</port>
			</output>
		</layer>
		<layer id="144" name="Add_68078" type="Add" version="opset1">
			<data auto_broadcast="numpy" />
			<input>
				<port id="0" precision="I64">
					<dim>1</dim>
				</port>
				<port id="1" precision="I64">
					<dim>1</dim>
				</port>
			</input>
			<output>
				<port id="2" precision="I64" names="1088,1117,1249,1278,1410,1439,1571,1600,1732,1761,1893,1922,2054,2083,2215,2244,2376,2405,2537,2566,2698,2727,2859,2888,3020,3049,3181,3210,3342,3371,3503,3532,3664,3693,3825,3854,3986,4015,4147,4176,4308,4337,444,4469,4498,4630,4659,473,4791,4820,605,634,766,795,927,956">
					<dim>1</dim>
				</port>
			</output>
		</layer>
		<layer id="145" name="Constant_59215" type="Const" version="opset1">
			<data element_type="i64" shape="1" offset="20" size="8" />
			<output>
				<port id="0" precision="I64">
					<dim>1</dim>
				</port>
			</output>
		</layer>
		<layer id="146" name="__module.model.layers.0.self_attn/prim::ListConstruct_2" type="Concat" version="opset1">
			<data axis="0" />
			<input>
				<port id="0" precision="I64">
					<dim>2</dim>
				</port>
				<port id="1" precision="I64">
					<dim>1</dim>
				</port>
				<port id="2" precision="I64">
					<dim>1</dim>
				</port>
				<port id="3" precision="I64">
					<dim>1</dim>
				</port>
			</input>
			<output>
				<port id="4" precision="I64">
					<dim>5</dim>
				</port>
			</output>
		</layer>
		<layer id="147" name="__module.model.layers.0.self_attn/aten::expand/Broadcast" type="Broadcast" version="opset3">
			<data mode="bidirectional" />
			<input>
				<port id="0" precision="FP32">
					<dim>-1</dim>
					<dim>2</dim>
					<dim>1</dim>
					<dim>-1</dim>
					<dim>128</dim>
				</port>
				<port id="1" precision="I64">
					<dim>5</dim>
				</port>
			</input>
			<output>
				<port id="2" precision="FP32" names="452,hidden_states.11">
					<dim>-1</dim>
					<dim>2</dim>
					<dim>6</dim>
					<dim>-1</dim>
					<dim>128</dim>
				</port>
			</output>
		</layer>
		<layer id="148" name="Constant_74592" type="Const" version="opset1">
			<data element_type="i64" shape="4" offset="236449992" size="32" />
			<output>
				<port id="0" precision="I64">
					<dim>4</dim>
				</port>
			</output>
		</layer>
		<layer id="149" name="__module.model.layers.0.self_attn/aten::reshape/Reshape" type="Reshape" version="opset1">
			<data special_zero="true" />
			<input>
				<port id="0" precision="FP32">
					<dim>-1</dim>
					<dim>2</dim>
					<dim>6</dim>
					<dim>-1</dim>
					<dim>128</dim>
				</port>
				<port id="1" precision="I64">
					<dim>4</dim>
				</port>
			</input>
			<output>
				<port id="2" precision="FP32" names="456,key.1">
					<dim>-1</dim>
					<dim>12</dim>
					<dim>-1</dim>
					<dim>128</dim>
				</port>
			</output>
		</layer>
		<layer id="150" name="Constant_77158" type="Const" version="opset1">
			<data element_type="f32" shape="" offset="0" size="4" />
			<output>
				<port id="0" precision="FP32" />
			</output>
		</layer>
		<layer id="151" name="Constant_77151" type="Const" version="opset1">
			<data element_type="i64" shape="1" offset="12" size="8" />
			<output>
				<port id="0" precision="I64">
					<dim>1</dim>
				</port>
			</output>
		</layer>
		<layer id="152" name="Constant_77153" type="Const" version="opset1">
			<data element_type="i64" shape="1" offset="4" size="8" />
			<output>
				<port id="0" precision="I64">
					<dim>1</dim>
				</port>
			</output>
		</layer>
		<layer id="153" name="Constant_77155" type="Const" version="opset1">
			<data element_type="i64" shape="1" offset="20" size="8" />
			<output>
				<port id="0" precision="I64">
					<dim>1</dim>
				</port>
			</output>
		</layer>
		<layer id="154" name="Concat_77156" type="Concat" version="opset1">
			<data axis="0" />
			<input>
				<port id="0" precision="I64">
					<dim>1</dim>
				</port>
				<port id="1" precision="I64">
					<dim>1</dim>
				</port>
				<port id="2" precision="I64">
					<dim>1</dim>
				</port>
				<port id="3" precision="I64">
					<dim>1</dim>
				</port>
			</input>
			<output>
				<port id="4" precision="I64">
					<dim>4</dim>
				</port>
			</output>
		</layer>
		<layer id="155" name="Broadcast_77159" type="Broadcast" version="opset3">
			<data mode="numpy" />
			<input>
				<port id="0" precision="FP32" />
				<port id="1" precision="I64">
					<dim>4</dim>
				</port>
			</input>
			<output>
				<port id="2" precision="FP32">
					<dim>-1</dim>
					<dim>2</dim>
					<dim>0</dim>
					<dim>128</dim>
				</port>
			</output>
		</layer>
		<layer id="156" name="ReadValue_76612" type="ReadValue" version="opset6">
			<data variable_id="past_key_values.0.valuepresent.0.value" variable_type="f32" variable_shape="?,2,?,128" />
			<input>
				<port id="0" precision="FP32">
					<dim>-1</dim>
					<dim>2</dim>
					<dim>0</dim>
					<dim>128</dim>
				</port>
			</input>
			<output>
				<port id="1" precision="FP32" names="past_key_values.0.value">
					<dim>-1</dim>
					<dim>2</dim>
					<dim>-1</dim>
					<dim>128</dim>
				</port>
			</output>
		</layer>
		<layer id="157" name="Constant_76048" type="Const" version="opset1">
			<data element_type="i64" shape="" offset="4" size="8" />
			<output>
				<port id="0" precision="I64" />
			</output>
		</layer>
		<layer id="158" name="Gather_76049" type="Gather" version="opset8">
			<data batch_dims="0" />
			<input>
				<port id="0" precision="FP32">
					<dim>-1</dim>
					<dim>2</dim>
					<dim>-1</dim>
					<dim>128</dim>
				</port>
				<port id="1" precision="I32">
					<dim>-1</dim>
				</port>
				<port id="2" precision="I64" />
			</input>
			<output>
				<port id="3" precision="FP32">
					<dim>-1</dim>
					<dim>2</dim>
					<dim>-1</dim>
					<dim>128</dim>
				</port>
			</output>
		</layer>
		<layer id="159" name="self.model.layers.0.self_attn.v_proj.weight" type="Const" version="opset1">
			<data element_type="i8" shape="256, 1536" offset="236450024" size="393216" />
			<output>
				<port id="0" precision="I8">
					<dim>256</dim>
					<dim>1536</dim>
				</port>
			</output>
		</layer>
		<layer id="160" name="Convert_93208" type="Convert" version="opset1">
			<data destination_type="f16" />
			<input>
				<port id="0" precision="I8">
					<dim>256</dim>
					<dim>1536</dim>
				</port>
			</input>
			<output>
				<port id="1" precision="FP16">
					<dim>256</dim>
					<dim>1536</dim>
				</port>
			</output>
		</layer>
		<layer id="161" name="self.model.layers.0.self_attn.v_proj.weight/scale" type="Const" version="opset1">
			<data element_type="f16" shape="256, 1" offset="236843240" size="512" />
			<output>
				<port id="0" precision="FP16">
					<dim>256</dim>
					<dim>1</dim>
				</port>
			</output>
		</layer>
		<layer id="162" name="self.model.layers.0.self_attn.v_proj.weight/fq_weights_1" type="Multiply" version="opset1">
			<data auto_broadcast="numpy" />
			<input>
				<port id="0" precision="FP16">
					<dim>256</dim>
					<dim>1536</dim>
				</port>
				<port id="1" precision="FP16">
					<dim>256</dim>
					<dim>1</dim>
				</port>
			</input>
			<output>
				<port id="2" precision="FP16">
					<dim>256</dim>
					<dim>1536</dim>
				</port>
			</output>
		</layer>
		<layer id="163" name="__module.model.layers.0.self_attn.v_proj/ov_ext::linear/Convert" type="Convert" version="opset1">
			<data destination_type="f32" />
			<rt_info>
				<attribute name="decompression" version="0" />
			</rt_info>
			<input>
				<port id="0" precision="FP16">
					<dim>256</dim>
					<dim>1536</dim>
				</port>
			</input>
			<output>
				<port id="1" precision="FP32">
					<dim>256</dim>
					<dim>1536</dim>
				</port>
			</output>
		</layer>
		<layer id="164" name="__module.model.layers.0.self_attn.v_proj/ov_ext::linear/MatMul" type="MatMul" version="opset1">
			<data transpose_a="false" transpose_b="true" />
			<input>
				<port id="0" precision="FP32">
					<dim>-1</dim>
					<dim>-1</dim>
					<dim>1536</dim>
				</port>
				<port id="1" precision="FP32">
					<dim>256</dim>
					<dim>1536</dim>
				</port>
			</input>
			<output>
				<port id="2" precision="FP32">
					<dim>-1</dim>
					<dim>-1</dim>
					<dim>256</dim>
				</port>
			</output>
		</layer>
		<layer id="165" name="self.model.layers.0.self_attn.v_proj.bias" type="Const" version="opset1">
			<data element_type="bf16" shape="256" offset="236843752" size="512" />
			<output>
				<port id="0" precision="BF16" names="self.model.layers.0.self_attn.v_proj.bias">
					<dim>256</dim>
				</port>
			</output>
		</layer>
		<layer id="166" name="__module.model.layers.0.self_attn.v_proj/ov_ext::linear/Convert_1" type="Convert" version="opset1">
			<data destination_type="f32" />
			<rt_info>
				<attribute name="decompression" version="0" />
			</rt_info>
			<input>
				<port id="0" precision="BF16">
					<dim>256</dim>
				</port>
			</input>
			<output>
				<port id="1" precision="FP32">
					<dim>256</dim>
				</port>
			</output>
		</layer>
		<layer id="167" name="__module.model.layers.0.self_attn.v_proj/ov_ext::linear/Add" type="Add" version="opset1">
			<data auto_broadcast="numpy" />
			<input>
				<port id="0" precision="FP32">
					<dim>-1</dim>
					<dim>-1</dim>
					<dim>256</dim>
				</port>
				<port id="1" precision="FP32">
					<dim>256</dim>
				</port>
			</input>
			<output>
				<port id="2" precision="FP32" names="396">
					<dim>-1</dim>
					<dim>-1</dim>
					<dim>256</dim>
				</port>
			</output>
		</layer>
		<layer id="168" name="Constant_74593" type="Const" version="opset1">
			<data element_type="i64" shape="4" offset="236449936" size="32" />
			<output>
				<port id="0" precision="I64">
					<dim>4</dim>
				</port>
			</output>
		</layer>
		<layer id="169" name="__module.model.layers.0.self_attn/aten::view/Reshape_2" type="Reshape" version="opset1">
			<data special_zero="true" />
			<input>
				<port id="0" precision="FP32">
					<dim>-1</dim>
					<dim>-1</dim>
					<dim>256</dim>
				</port>
				<port id="1" precision="I64">
					<dim>4</dim>
				</port>
			</input>
			<output>
				<port id="2" precision="FP32" names="398">
					<dim>-1</dim>
					<dim>-1</dim>
					<dim>2</dim>
					<dim>128</dim>
				</port>
			</output>
		</layer>
		<layer id="170" name="__module.model.layers.0.self_attn/aten::transpose/Constant_2" type="Const" version="opset1">
			<data element_type="i32" shape="4" offset="236055376" size="16" />
			<output>
				<port id="0" precision="I32">
					<dim>4</dim>
				</port>
			</output>
		</layer>
		<layer id="171" name="__module.model.layers.0.self_attn/aten::transpose/Transpose_2" type="Transpose" version="opset1">
			<input>
				<port id="0" precision="FP32">
					<dim>-1</dim>
					<dim>-1</dim>
					<dim>2</dim>
					<dim>128</dim>
				</port>
				<port id="1" precision="I32">
					<dim>4</dim>
				</port>
			</input>
			<output>
				<port id="2" precision="FP32" names="399">
					<dim>-1</dim>
					<dim>2</dim>
					<dim>-1</dim>
					<dim>128</dim>
				</port>
			</output>
		</layer>
		<layer id="172" name="__module.model.layers.0.self_attn/aten::cat/Concat_3" type="Concat" version="opset1">
			<data axis="-2" />
			<input>
				<port id="0" precision="FP32">
					<dim>-1</dim>
					<dim>2</dim>
					<dim>-1</dim>
					<dim>128</dim>
				</port>
				<port id="1" precision="FP32">
					<dim>-1</dim>
					<dim>2</dim>
					<dim>-1</dim>
					<dim>128</dim>
				</port>
			</input>
			<output>
				<port id="2" precision="FP32" names="462,463,hidden_states.13">
					<dim>-1</dim>
					<dim>2</dim>
					<dim>-1</dim>
					<dim>128</dim>
				</port>
			</output>
		</layer>
		<layer id="173" name="__module.model.layers.0.self_attn/aten::unsqueeze/Unsqueeze_3" type="Unsqueeze" version="opset1">
			<input>
				<port id="0" precision="FP32">
					<dim>-1</dim>
					<dim>2</dim>
					<dim>-1</dim>
					<dim>128</dim>
				</port>
				<port id="1" precision="I64" />
			</input>
			<output>
				<port id="2" precision="FP32" names="464,465,466">
					<dim>-1</dim>
					<dim>2</dim>
					<dim>1</dim>
					<dim>-1</dim>
					<dim>128</dim>
				</port>
			</output>
		</layer>
		<layer id="174" name="__module.model.layers.0.self_attn/aten::expand/Broadcast_1" type="Broadcast" version="opset3">
			<data mode="bidirectional" />
			<input>
				<port id="0" precision="FP32">
					<dim>-1</dim>
					<dim>2</dim>
					<dim>1</dim>
					<dim>-1</dim>
					<dim>128</dim>
				</port>
				<port id="1" precision="I64">
					<dim>5</dim>
				</port>
			</input>
			<output>
				<port id="2" precision="FP32" names="468,hidden_states.15">
					<dim>-1</dim>
					<dim>2</dim>
					<dim>6</dim>
					<dim>-1</dim>
					<dim>128</dim>
				</port>
			</output>
		</layer>
		<layer id="175" name="Constant_74594" type="Const" version="opset1">
			<data element_type="i64" shape="4" offset="236449992" size="32" />
			<output>
				<port id="0" precision="I64">
					<dim>4</dim>
				</port>
			</output>
		</layer>
		<layer id="176" name="__module.model.layers.0.self_attn/aten::reshape/Reshape_1" type="Reshape" version="opset1">
			<data special_zero="true" />
			<input>
				<port id="0" precision="FP32">
					<dim>-1</dim>
					<dim>2</dim>
					<dim>6</dim>
					<dim>-1</dim>
					<dim>128</dim>
				</port>
				<port id="1" precision="I64">
					<dim>4</dim>
				</port>
			</input>
			<output>
				<port id="2" precision="FP32" names="472,value.1">
					<dim>-1</dim>
					<dim>12</dim>
					<dim>-1</dim>
					<dim>128</dim>
				</port>
			</output>
		</layer>
		<layer id="177" name="__module.model/aten::triu/Constant" type="Const" version="opset1">
			<data element_type="i32" shape="" offset="0" size="4" />
			<output>
				<port id="0" precision="I32" />
			</output>
		</layer>
		<layer id="178" name="Multiply_62069" type="Const" version="opset1">
			<data element_type="f32" shape="" offset="236844264" size="4" />
			<output>
				<port id="0" precision="FP32" />
			</output>
		</layer>
		<layer id="179" name="Constant_62074" type="Const" version="opset1">
			<data element_type="i64" shape="2" offset="236844268" size="16" />
			<output>
				<port id="0" precision="I64">
					<dim>2</dim>
				</port>
			</output>
		</layer>
		<layer id="180" name="ShapeOf_68036" type="ShapeOf" version="opset3">
			<data output_type="i64" />
			<input>
				<port id="0" precision="I64">
					<dim>-1</dim>
					<dim>-1</dim>
				</port>
			</input>
			<output>
				<port id="1" precision="I64">
					<dim>2</dim>
				</port>
			</output>
		</layer>
		<layer id="181" name="Constant_68037" type="Const" version="opset1">
			<data element_type="i64" shape="" offset="236055648" size="8" />
			<output>
				<port id="0" precision="I64" />
			</output>
		</layer>
		<layer id="182" name="Constant_68038" type="Const" version="opset1">
			<data element_type="i64" shape="" offset="4" size="8" />
			<output>
				<port id="0" precision="I64" />
			</output>
		</layer>
		<layer id="183" name="Gather_68039" type="Gather" version="opset8">
			<data batch_dims="0" />
			<input>
				<port id="0" precision="I64">
					<dim>2</dim>
				</port>
				<port id="1" precision="I64" />
				<port id="2" precision="I64" />
			</input>
			<output>
				<port id="3" precision="I64" names="292,310" />
			</output>
		</layer>
		<layer id="184" name="Constant_68040" type="Const" version="opset1">
			<data element_type="i64" shape="1" offset="236055648" size="8" />
			<output>
				<port id="0" precision="I64">
					<dim>1</dim>
				</port>
			</output>
		</layer>
		<layer id="185" name="Reshape_68041" type="Reshape" version="opset1">
			<data special_zero="false" />
			<input>
				<port id="0" precision="I64" />
				<port id="1" precision="I64">
					<dim>1</dim>
				</port>
			</input>
			<output>
				<port id="2" precision="I64">
					<dim>1</dim>
				</port>
			</output>
		</layer>
		<layer id="186" name="__module.model/prim::ListConstruct" type="Concat" version="opset1">
			<data axis="0" />
			<input>
				<port id="0" precision="I64">
					<dim>1</dim>
				</port>
				<port id="1" precision="I64">
					<dim>1</dim>
				</port>
			</input>
			<output>
				<port id="2" precision="I64">
					<dim>2</dim>
				</port>
			</output>
		</layer>
		<layer id="187" name="Maximum_62075" type="Maximum" version="opset1">
			<data auto_broadcast="numpy" />
			<input>
				<port id="0" precision="I64">
					<dim>2</dim>
				</port>
				<port id="1" precision="I64">
					<dim>2</dim>
				</port>
			</input>
			<output>
				<port id="2" precision="I64">
					<dim>2</dim>
				</port>
			</output>
		</layer>
		<layer id="188" name="__module.model/aten::mul/Multiply" type="Broadcast" version="opset3">
			<data mode="numpy" />
			<input>
				<port id="0" precision="FP32" />
				<port id="1" precision="I64">
					<dim>2</dim>
				</port>
			</input>
			<output>
				<port id="2" precision="FP32" names="295">
					<dim>-1</dim>
					<dim>-1</dim>
				</port>
			</output>
		</layer>
		<layer id="189" name="ShapeOf_68046" type="ShapeOf" version="opset3">
			<data output_type="i32" />
			<input>
				<port id="0" precision="FP32">
					<dim>-1</dim>
					<dim>-1</dim>
				</port>
			</input>
			<output>
				<port id="1" precision="I32">
					<dim>2</dim>
				</port>
			</output>
		</layer>
		<layer id="190" name="Constant_68047" type="Const" version="opset1">
			<data element_type="i64" shape="" offset="236055648" size="8" />
			<output>
				<port id="0" precision="I64" />
			</output>
		</layer>
		<layer id="191" name="Constant_68048" type="Const" version="opset1">
			<data element_type="i64" shape="" offset="4" size="8" />
			<output>
				<port id="0" precision="I64" />
			</output>
		</layer>
		<layer id="192" name="Gather_68049" type="Gather" version="opset8">
			<data batch_dims="0" />
			<input>
				<port id="0" precision="I32">
					<dim>2</dim>
				</port>
				<port id="1" precision="I64" />
				<port id="2" precision="I64" />
			</input>
			<output>
				<port id="3" precision="I32" />
			</output>
		</layer>
		<layer id="193" name="__module.model/aten::triu/Constant_2" type="Const" version="opset1">
			<data element_type="i32" shape="" offset="236844284" size="4" />
			<output>
				<port id="0" precision="I32" />
			</output>
		</layer>
		<layer id="194" name="__module.model/aten::triu/Range" type="Range" version="opset4">
			<data output_type="i32" />
			<input>
				<port id="0" precision="I32" />
				<port id="1" precision="I32" />
				<port id="2" precision="I32" />
			</input>
			<output>
				<port id="3" precision="I32">
					<dim>-1</dim>
				</port>
			</output>
		</layer>
		<layer id="195" name="__module.model/aten::triu/Unsqueeze" type="Unsqueeze" version="opset1">
			<input>
				<port id="0" precision="I32">
					<dim>-1</dim>
				</port>
				<port id="1" precision="I32" />
			</input>
			<output>
				<port id="2" precision="I32">
					<dim>1</dim>
					<dim>-1</dim>
				</port>
			</output>
		</layer>
		<layer id="196" name="__module.model/aten::triu/Convert" type="Const" version="opset1">
			<data element_type="i32" shape="" offset="236844284" size="4" />
			<output>
				<port id="0" precision="I32" />
			</output>
		</layer>
		<layer id="197" name="Constant_68053" type="Const" version="opset1">
			<data element_type="i64" shape="" offset="4" size="8" />
			<output>
				<port id="0" precision="I64" />
			</output>
		</layer>
		<layer id="198" name="Constant_68054" type="Const" version="opset1">
			<data element_type="i64" shape="" offset="4" size="8" />
			<output>
				<port id="0" precision="I64" />
			</output>
		</layer>
		<layer id="199" name="Gather_68055" type="Gather" version="opset8">
			<data batch_dims="0" />
			<input>
				<port id="0" precision="I32">
					<dim>2</dim>
				</port>
				<port id="1" precision="I64" />
				<port id="2" precision="I64" />
			</input>
			<output>
				<port id="3" precision="I32" />
			</output>
		</layer>
		<layer id="200" name="__module.model/aten::triu/Add" type="Add" version="opset1">
			<data auto_broadcast="numpy" />
			<input>
				<port id="0" precision="I32" />
				<port id="1" precision="I32" />
			</input>
			<output>
				<port id="2" precision="I32" />
			</output>
		</layer>
		<layer id="201" name="__module.model/aten::triu/Range_1" type="Range" version="opset4">
			<data output_type="i32" />
			<input>
				<port id="0" precision="I32" />
				<port id="1" precision="I32" />
				<port id="2" precision="I32" />
			</input>
			<output>
				<port id="3" precision="I32">
					<dim>-1</dim>
				</port>
			</output>
		</layer>
		<layer id="202" name="__module.model/aten::triu/Unsqueeze_1" type="Unsqueeze" version="opset1">
			<input>
				<port id="0" precision="I32">
					<dim>-1</dim>
				</port>
				<port id="1" precision="I32" />
			</input>
			<output>
				<port id="2" precision="I32">
					<dim>-1</dim>
					<dim>1</dim>
				</port>
			</output>
		</layer>
		<layer id="203" name="__module.model/aten::triu/GreaterEqual" type="GreaterEqual" version="opset1">
			<data auto_broadcast="numpy" />
			<input>
				<port id="0" precision="I32">
					<dim>1</dim>
					<dim>-1</dim>
				</port>
				<port id="1" precision="I32">
					<dim>-1</dim>
					<dim>1</dim>
				</port>
			</input>
			<output>
				<port id="2" precision="BOOL">
					<dim>-1</dim>
					<dim>-1</dim>
				</port>
			</output>
		</layer>
		<layer id="204" name="__module.model/aten::triu/ConvertLike" type="Const" version="opset1">
			<data element_type="f32" shape="" offset="0" size="4" />
			<output>
				<port id="0" precision="FP32" />
			</output>
		</layer>
		<layer id="205" name="__module.model/aten::triu/Select" type="Select" version="opset1">
			<data auto_broadcast="numpy" />
			<input>
				<port id="0" precision="BOOL">
					<dim>-1</dim>
					<dim>-1</dim>
				</port>
				<port id="1" precision="FP32">
					<dim>-1</dim>
					<dim>-1</dim>
				</port>
				<port id="2" precision="FP32" />
			</input>
			<output>
				<port id="3" precision="FP32" names="296_1">
					<dim>-1</dim>
					<dim>-1</dim>
				</port>
			</output>
		</layer>
		<layer id="206" name="__module.model/aten::arange/Constant" type="Const" version="opset1">
			<data element_type="i32" shape="" offset="0" size="4" />
			<output>
				<port id="0" precision="I32" />
			</output>
		</layer>
		<layer id="207" name="__module.model/aten::arange/Constant_1" type="Const" version="opset1">
			<data element_type="i32" shape="" offset="236844284" size="4" />
			<output>
				<port id="0" precision="I32" />
			</output>
		</layer>
		<layer id="208" name="__module.model/aten::arange/Range" type="Range" version="opset4">
			<data output_type="f32" />
			<input>
				<port id="0" precision="I32" />
				<port id="1" precision="I64" />
				<port id="2" precision="I32" />
			</input>
			<output>
				<port id="3" precision="FP32">
					<dim>-1</dim>
				</port>
			</output>
		</layer>
		<layer id="209" name="__module.model/aten::arange/ConvertLike" type="Convert" version="opset1">
			<data destination_type="i64" />
			<input>
				<port id="0" precision="FP32">
					<dim>-1</dim>
				</port>
			</input>
			<output>
				<port id="1" precision="I64" names="297">
					<dim>-1</dim>
				</port>
			</output>
		</layer>
		<layer id="210" name="__module.model/aten::gt/Convert" type="Convert" version="opset1">
			<data destination_type="f32" />
			<input>
				<port id="0" precision="I64">
					<dim>-1</dim>
				</port>
			</input>
			<output>
				<port id="1" precision="FP32">
					<dim>-1</dim>
				</port>
			</output>
		</layer>
		<layer id="211" name="__module.model/aten::add/Add" type="Add" version="opset1">
			<data auto_broadcast="numpy" />
			<input>
				<port id="0" precision="I64" />
				<port id="1" precision="I64" />
			</input>
			<output>
				<port id="2" precision="I64" names="288" />
			</output>
		</layer>
		<layer id="212" name="__module.model/aten::arange/Constant_2" type="Const" version="opset1">
			<data element_type="i32" shape="" offset="236844284" size="4" />
			<output>
				<port id="0" precision="I32" />
			</output>
		</layer>
		<layer id="213" name="__module.model/aten::arange/Range_1" type="Range" version="opset4">
			<data output_type="f32" />
			<input>
				<port id="0" precision="I64" />
				<port id="1" precision="I64" />
				<port id="2" precision="I32" />
			</input>
			<output>
				<port id="3" precision="FP32" names="290,cache_position">
					<dim>-1</dim>
				</port>
			</output>
		</layer>
		<layer id="214" name="Constant_269" type="Const" version="opset1">
			<data element_type="i64" shape="2" offset="236844288" size="16" />
			<output>
				<port id="0" precision="I64" names="298">
					<dim>2</dim>
				</port>
			</output>
		</layer>
		<layer id="215" name="__module.model/aten::reshape/Reshape" type="Reshape" version="opset1">
			<data special_zero="false" />
			<input>
				<port id="0" precision="FP32">
					<dim>-1</dim>
				</port>
				<port id="1" precision="I64">
					<dim>2</dim>
				</port>
			</input>
			<output>
				<port id="2" precision="FP32" names="299">
					<dim>-1</dim>
					<dim>1</dim>
				</port>
			</output>
		</layer>
		<layer id="216" name="__module.model/aten::gt/Greater" type="Greater" version="opset1">
			<data auto_broadcast="numpy" />
			<input>
				<port id="0" precision="FP32">
					<dim>-1</dim>
				</port>
				<port id="1" precision="FP32">
					<dim>-1</dim>
					<dim>1</dim>
				</port>
			</input>
			<output>
				<port id="2" precision="BOOL" names="300">
					<dim>-1</dim>
					<dim>-1</dim>
				</port>
			</output>
		</layer>
		<layer id="217" name="__module.model/aten::mul_/ConvertLike" type="Convert" version="opset1">
			<data destination_type="f32" />
			<input>
				<port id="0" precision="BOOL">
					<dim>-1</dim>
					<dim>-1</dim>
				</port>
			</input>
			<output>
				<port id="1" precision="FP32">
					<dim>-1</dim>
					<dim>-1</dim>
				</port>
			</output>
		</layer>
		<layer id="218" name="__module.model/aten::mul_/Multiply" type="Multiply" version="opset1">
			<data auto_broadcast="numpy" />
			<input>
				<port id="0" precision="FP32">
					<dim>-1</dim>
					<dim>-1</dim>
				</port>
				<port id="1" precision="FP32">
					<dim>-1</dim>
					<dim>-1</dim>
				</port>
			</input>
			<output>
				<port id="2" precision="FP32" names="296,causal_mask.1">
					<dim>-1</dim>
					<dim>-1</dim>
				</port>
			</output>
		</layer>
		<layer id="219" name="214" type="Const" version="opset1">
			<data element_type="i64" shape="" offset="4" size="8" />
			<output>
				<port id="0" precision="I64" names="214" />
			</output>
		</layer>
		<layer id="220" name="__module.model/aten::unsqueeze/Unsqueeze" type="Unsqueeze" version="opset1">
			<input>
				<port id="0" precision="FP32">
					<dim>-1</dim>
					<dim>-1</dim>
				</port>
				<port id="1" precision="I64" />
			</input>
			<output>
				<port id="2" precision="FP32" names="302">
					<dim>1</dim>
					<dim>-1</dim>
					<dim>-1</dim>
				</port>
			</output>
		</layer>
		<layer id="221" name="__module.model/aten::unsqueeze/Unsqueeze_1" type="Unsqueeze" version="opset1">
			<input>
				<port id="0" precision="FP32">
					<dim>1</dim>
					<dim>-1</dim>
					<dim>-1</dim>
				</port>
				<port id="1" precision="I64" />
			</input>
			<output>
				<port id="2" precision="FP32" names="303,304,305">
					<dim>1</dim>
					<dim>1</dim>
					<dim>-1</dim>
					<dim>-1</dim>
				</port>
			</output>
		</layer>
		<layer id="222" name="Constant_59243" type="Const" version="opset1">
			<data element_type="i64" shape="1" offset="236055648" size="8" />
			<output>
				<port id="0" precision="I64">
					<dim>1</dim>
				</port>
			</output>
		</layer>
		<layer id="223" name="Constant_59245" type="Const" version="opset1">
			<data element_type="i64" shape="1" offset="236055648" size="8" />
			<output>
				<port id="0" precision="I64">
					<dim>1</dim>
				</port>
			</output>
		</layer>
		<layer id="224" name="Constant_59247" type="Const" version="opset1">
			<data element_type="i64" shape="1" offset="236055648" size="8" />
			<output>
				<port id="0" precision="I64">
					<dim>1</dim>
				</port>
			</output>
		</layer>
		<layer id="225" name="__module.model/prim::ListConstruct_1" type="Concat" version="opset1">
			<data axis="0" />
			<input>
				<port id="0" precision="I64">
					<dim>1</dim>
				</port>
				<port id="1" precision="I64">
					<dim>1</dim>
				</port>
				<port id="2" precision="I64">
					<dim>1</dim>
				</port>
				<port id="3" precision="I64">
					<dim>1</dim>
				</port>
			</input>
			<output>
				<port id="4" precision="I64">
					<dim>4</dim>
				</port>
			</output>
		</layer>
		<layer id="226" name="__module.model/aten::expand/Broadcast" type="Broadcast" version="opset3">
			<data mode="bidirectional" />
			<input>
				<port id="0" precision="FP32">
					<dim>1</dim>
					<dim>1</dim>
					<dim>-1</dim>
					<dim>-1</dim>
				</port>
				<port id="1" precision="I64">
					<dim>4</dim>
				</port>
			</input>
			<output>
				<port id="2" precision="FP32" names="308,311,312,313,321,322,323,326_1,327_1,328_1,causal_mask.5">
					<dim>-1</dim>
					<dim>1</dim>
					<dim>-1</dim>
					<dim>-1</dim>
				</port>
			</output>
		</layer>
		<layer id="227" name="Constant_49306" type="Const" version="opset1">
			<data element_type="i64" shape="1" offset="233689892" size="8" />
			<output>
				<port id="0" precision="I64">
					<dim>1</dim>
				</port>
			</output>
		</layer>
		<layer id="228" name="SliceAssign_486/Reshape_3" type="Reshape" version="opset1">
			<data special_zero="false" />
			<input>
				<port id="0" precision="FP32">
					<dim>-1</dim>
					<dim>1</dim>
					<dim>-1</dim>
					<dim>-1</dim>
				</port>
				<port id="1" precision="I64">
					<dim>1</dim>
				</port>
			</input>
			<output>
				<port id="2" precision="FP32">
					<dim>-1</dim>
				</port>
			</output>
		</layer>
		<layer id="229" name="Constant_32107" type="Const" version="opset1">
			<data element_type="i64" shape="" offset="4" size="8" />
			<output>
				<port id="0" precision="I64" />
			</output>
		</layer>
		<layer id="230" name="SliceAssign_486/ShapeOf" type="ShapeOf" version="opset3">
			<data output_type="i64" />
			<input>
				<port id="0" precision="FP32">
					<dim>-1</dim>
					<dim>1</dim>
					<dim>-1</dim>
					<dim>-1</dim>
				</port>
			</input>
			<output>
				<port id="1" precision="I64">
					<dim>4</dim>
				</port>
			</output>
		</layer>
		<layer id="231" name="SliceAssign_486/ReduceProd" type="ReduceProd" version="opset1">
			<data keep_dims="false" />
			<input>
				<port id="0" precision="I64">
					<dim>4</dim>
				</port>
				<port id="1" precision="I64" />
			</input>
			<output>
				<port id="2" precision="I64" />
			</output>
		</layer>
		<layer id="232" name="Constant_32108" type="Const" version="opset1">
			<data element_type="i64" shape="" offset="236055648" size="8" />
			<output>
				<port id="0" precision="I64" />
			</output>
		</layer>
		<layer id="233" name="SliceAssign_486/Range" type="Range" version="opset4">
			<data output_type="i64" />
			<input>
				<port id="0" precision="I64" />
				<port id="1" precision="I64" />
				<port id="2" precision="I64" />
			</input>
			<output>
				<port id="3" precision="I64">
					<dim>-1</dim>
				</port>
			</output>
		</layer>
		<layer id="234" name="SliceAssign_486/Reshape" type="Reshape" version="opset1">
			<data special_zero="false" />
			<input>
				<port id="0" precision="I64">
					<dim>-1</dim>
				</port>
				<port id="1" precision="I64">
					<dim>4</dim>
				</port>
			</input>
			<output>
				<port id="2" precision="I64">
					<dim>-1</dim>
					<dim>1</dim>
					<dim>-1</dim>
					<dim>-1</dim>
				</port>
			</output>
		</layer>
		<layer id="235" name="Constant_476" type="Const" version="opset1">
			<data element_type="i64" shape="1" offset="4" size="8" />
			<output>
				<port id="0" precision="I64">
					<dim>1</dim>
				</port>
			</output>
		</layer>
		<layer id="236" name="Constant_479" type="Const" version="opset1">
			<data element_type="i64" shape="1" offset="236055648" size="8" />
			<output>
				<port id="0" precision="I64">
					<dim>1</dim>
				</port>
			</output>
		</layer>
		<layer id="237" name="Constant_474" type="Const" version="opset1">
			<data element_type="i64" shape="1" offset="236055684" size="8" />
			<output>
				<port id="0" precision="I64">
					<dim>1</dim>
				</port>
			</output>
		</layer>
		<layer id="238" name="SliceAssign_486/Slice_2" type="Slice" version="opset8">
			<input>
				<port id="0" precision="I64">
					<dim>-1</dim>
					<dim>1</dim>
					<dim>-1</dim>
					<dim>-1</dim>
				</port>
				<port id="1" precision="I64">
					<dim>1</dim>
				</port>
				<port id="2" precision="I64">
					<dim>1</dim>
				</port>
				<port id="3" precision="I64">
					<dim>1</dim>
				</port>
				<port id="4" precision="I64">
					<dim>1</dim>
				</port>
			</input>
			<output>
				<port id="5" precision="I64">
					<dim>-1</dim>
					<dim>1</dim>
					<dim>-1</dim>
					<dim>-1</dim>
				</port>
			</output>
		</layer>
		<layer id="239" name="Constant_32110" type="Const" version="opset1">
			<data element_type="i64" shape="2" offset="236844288" size="16" />
			<output>
				<port id="0" precision="I64">
					<dim>2</dim>
				</port>
			</output>
		</layer>
		<layer id="240" name="SliceAssign_486/Reshape_4" type="Reshape" version="opset1">
			<data special_zero="false" />
			<input>
				<port id="0" precision="I64">
					<dim>-1</dim>
					<dim>1</dim>
					<dim>-1</dim>
					<dim>-1</dim>
				</port>
				<port id="1" precision="I64">
					<dim>2</dim>
				</port>
			</input>
			<output>
				<port id="2" precision="I64">
					<dim>-1</dim>
					<dim>1</dim>
				</port>
			</output>
		</layer>
		<layer id="241" name="Constant_359" type="Const" version="opset1">
			<data element_type="i64" shape="1" offset="4" size="8" />
			<output>
				<port id="0" precision="I64">
					<dim>1</dim>
				</port>
			</output>
		</layer>
		<layer id="242" name="Constant_362" type="Const" version="opset1">
			<data element_type="i64" shape="1" offset="236055648" size="8" />
			<output>
				<port id="0" precision="I64">
					<dim>1</dim>
				</port>
			</output>
		</layer>
		<layer id="243" name="Constant_357" type="Const" version="opset1">
			<data element_type="i64" shape="1" offset="236055684" size="8" />
			<output>
				<port id="0" precision="I64">
					<dim>1</dim>
				</port>
			</output>
		</layer>
		<layer id="244" name="__module.model/aten::slice/Slice_5" type="Slice" version="opset8">
			<input>
				<port id="0" precision="FP32">
					<dim>-1</dim>
					<dim>1</dim>
					<dim>-1</dim>
					<dim>-1</dim>
				</port>
				<port id="1" precision="I64">
					<dim>1</dim>
				</port>
				<port id="2" precision="I64">
					<dim>1</dim>
				</port>
				<port id="3" precision="I64">
					<dim>1</dim>
				</port>
				<port id="4" precision="I64">
					<dim>1</dim>
				</port>
			</input>
			<output>
				<port id="5" precision="FP32" names="314,324,329_1">
					<dim>-1</dim>
					<dim>1</dim>
					<dim>-1</dim>
					<dim>-1</dim>
				</port>
			</output>
		</layer>
		<layer id="245" name="__module.model/aten::unsqueeze/Unsqueeze_2" type="Unsqueeze" version="opset1">
			<input>
				<port id="0" precision="I64">
					<dim>-1</dim>
					<dim>-1</dim>
				</port>
				<port id="1" precision="I64" />
			</input>
			<output>
				<port id="2" precision="I64" names="316">
					<dim>-1</dim>
					<dim>1</dim>
					<dim>-1</dim>
				</port>
			</output>
		</layer>
		<layer id="246" name="__module.model/aten::unsqueeze/Unsqueeze_3" type="Unsqueeze" version="opset1">
			<input>
				<port id="0" precision="I64">
					<dim>-1</dim>
					<dim>1</dim>
					<dim>-1</dim>
				</port>
				<port id="1" precision="I64" />
			</input>
			<output>
				<port id="2" precision="I64" names="317,318">
					<dim>-1</dim>
					<dim>1</dim>
					<dim>1</dim>
					<dim>-1</dim>
				</port>
			</output>
		</layer>
		<layer id="247" name="__module.model/aten::add/Convert" type="Convert" version="opset1">
			<data destination_type="f32" />
			<input>
				<port id="0" precision="I64">
					<dim>-1</dim>
					<dim>1</dim>
					<dim>1</dim>
					<dim>-1</dim>
				</port>
			</input>
			<output>
				<port id="1" precision="FP32">
					<dim>-1</dim>
					<dim>1</dim>
					<dim>1</dim>
					<dim>-1</dim>
				</port>
			</output>
		</layer>
		<layer id="248" name="__module.model/aten::add/Add_1" type="Add" version="opset1">
			<data auto_broadcast="numpy" />
			<input>
				<port id="0" precision="FP32">
					<dim>-1</dim>
					<dim>1</dim>
					<dim>-1</dim>
					<dim>-1</dim>
				</port>
				<port id="1" precision="FP32">
					<dim>-1</dim>
					<dim>1</dim>
					<dim>1</dim>
					<dim>-1</dim>
				</port>
			</input>
			<output>
				<port id="2" precision="FP32" names="319,padding_mask.1">
					<dim>-1</dim>
					<dim>1</dim>
					<dim>-1</dim>
					<dim>-1</dim>
				</port>
			</output>
		</layer>
		<layer id="249" name="Constant_66178" type="Const" version="opset1">
			<data element_type="f32" shape="1, 1, 1, 1" offset="0" size="4" />
			<output>
				<port id="0" precision="FP32">
					<dim>1</dim>
					<dim>1</dim>
					<dim>1</dim>
					<dim>1</dim>
				</port>
			</output>
		</layer>
		<layer id="250" name="__module.model/aten::eq/Equal" type="Equal" version="opset1">
			<data auto_broadcast="numpy" />
			<input>
				<port id="0" precision="FP32">
					<dim>-1</dim>
					<dim>1</dim>
					<dim>-1</dim>
					<dim>-1</dim>
				</port>
				<port id="1" precision="FP32">
					<dim>1</dim>
					<dim>1</dim>
					<dim>1</dim>
					<dim>1</dim>
				</port>
			</input>
			<output>
				<port id="2" precision="BOOL" names="320,padding_mask">
					<dim>-1</dim>
					<dim>1</dim>
					<dim>-1</dim>
					<dim>-1</dim>
				</port>
			</output>
		</layer>
		<layer id="251" name="__module.model/aten::masked_fill/ConvertLike" type="Const" version="opset1">
			<data element_type="f32" shape="" offset="236844264" size="4" />
			<output>
				<port id="0" precision="FP32" />
			</output>
		</layer>
		<layer id="252" name="__module.model/aten::masked_fill/Select" type="Select" version="opset1">
			<data auto_broadcast="numpy" />
			<input>
				<port id="0" precision="BOOL">
					<dim>-1</dim>
					<dim>1</dim>
					<dim>-1</dim>
					<dim>-1</dim>
				</port>
				<port id="1" precision="FP32" />
				<port id="2" precision="FP32">
					<dim>-1</dim>
					<dim>1</dim>
					<dim>-1</dim>
					<dim>-1</dim>
				</port>
			</input>
			<output>
				<port id="3" precision="FP32" names="325">
					<dim>-1</dim>
					<dim>1</dim>
					<dim>-1</dim>
					<dim>-1</dim>
				</port>
			</output>
		</layer>
		<layer id="253" name="__module.model/aten::copy_/ShapeOf" type="ShapeOf" version="opset3">
			<data output_type="i64" />
			<input>
				<port id="0" precision="FP32">
					<dim>-1</dim>
					<dim>1</dim>
					<dim>-1</dim>
					<dim>-1</dim>
				</port>
			</input>
			<output>
				<port id="1" precision="I64">
					<dim>4</dim>
				</port>
			</output>
		</layer>
		<layer id="254" name="__module.model/aten::copy_/Broadcast" type="Broadcast" version="opset3">
			<data mode="numpy" />
			<input>
				<port id="0" precision="FP32">
					<dim>-1</dim>
					<dim>1</dim>
					<dim>-1</dim>
					<dim>-1</dim>
				</port>
				<port id="1" precision="I64">
					<dim>4</dim>
				</port>
			</input>
			<output>
				<port id="2" precision="FP32" names="329">
					<dim>-1</dim>
					<dim>1</dim>
					<dim>-1</dim>
					<dim>-1</dim>
				</port>
			</output>
		</layer>
		<layer id="255" name="Constant_49308" type="Const" version="opset1">
			<data element_type="i64" shape="1" offset="233689892" size="8" />
			<output>
				<port id="0" precision="I64">
					<dim>1</dim>
				</port>
			</output>
		</layer>
		<layer id="256" name="SliceAssign_486/Reshape_5" type="Reshape" version="opset1">
			<data special_zero="false" />
			<input>
				<port id="0" precision="FP32">
					<dim>-1</dim>
					<dim>1</dim>
					<dim>-1</dim>
					<dim>-1</dim>
				</port>
				<port id="1" precision="I64">
					<dim>1</dim>
				</port>
			</input>
			<output>
				<port id="2" precision="FP32">
					<dim>-1</dim>
				</port>
			</output>
		</layer>
		<layer id="257" name="SliceAssign_486/ScatterNDUpdate" type="ScatterNDUpdate" version="opset4">
			<input>
				<port id="0" precision="FP32">
					<dim>-1</dim>
				</port>
				<port id="1" precision="I64">
					<dim>-1</dim>
					<dim>1</dim>
				</port>
				<port id="2" precision="FP32">
					<dim>-1</dim>
				</port>
			</input>
			<output>
				<port id="3" precision="FP32">
					<dim>-1</dim>
				</port>
			</output>
		</layer>
		<layer id="258" name="SliceAssign_486/Reshape_6" type="Reshape" version="opset1">
			<data special_zero="false" />
			<input>
				<port id="0" precision="FP32">
					<dim>-1</dim>
				</port>
				<port id="1" precision="I64">
					<dim>4</dim>
				</port>
			</input>
			<output>
				<port id="2" precision="FP32" names="1118,1119,1120,1279,1280,1281,1440,1441,1442,1601,1602,1603,1762,1763,1764,1923,1924,1925,2084,2085,2086,2245,2246,2247,2406,2407,2408,2567,2568,2569,2728,2729,2730,2889,2890,2891,3050,3051,3052,309,3211,3212,3213,3372,3373,3374,3533,3534,3535,3694,3695,3696,3855,3856,3857,4016,4017,4018,4177,4178,4179,4338,4339,4340,4499,4500,4501,4660,4661,4662,474,475,476,4821,4822,4823,635,636,637,796,797,798,957,958,959">
					<dim>-1</dim>
					<dim>1</dim>
					<dim>-1</dim>
					<dim>-1</dim>
				</port>
			</output>
		</layer>
		<layer id="259" name="Constant_1591" type="Const" version="opset1">
			<data element_type="i64" shape="1" offset="4" size="8" />
			<output>
				<port id="0" precision="I64">
					<dim>1</dim>
				</port>
			</output>
		</layer>
		<layer id="260" name="Constant_1594" type="Const" version="opset1">
			<data element_type="i64" shape="1" offset="236055648" size="8" />
			<output>
				<port id="0" precision="I64">
					<dim>1</dim>
				</port>
			</output>
		</layer>
		<layer id="261" name="Constant_1589" type="Const" version="opset1">
			<data element_type="i64" shape="1" offset="236055684" size="8" />
			<output>
				<port id="0" precision="I64">
					<dim>1</dim>
				</port>
			</output>
		</layer>
		<layer id="262" name="__module.model.layers.0.self_attn/aten::slice/Slice_15" type="Slice" version="opset8">
			<input>
				<port id="0" precision="FP32">
					<dim>-1</dim>
					<dim>1</dim>
					<dim>-1</dim>
					<dim>-1</dim>
				</port>
				<port id="1" precision="I64">
					<dim>1</dim>
				</port>
				<port id="2" precision="I64">
					<dim>1</dim>
				</port>
				<port id="3" precision="I64">
					<dim>1</dim>
				</port>
				<port id="4" precision="I64">
					<dim>1</dim>
				</port>
			</input>
			<output>
				<port id="5" precision="FP32" names="1121,1282,1443,1604,1765,1926,2087,2248,2409,2570,2731,2892,3053,3214,3375,3536,3697,3858,4019,4180,4341,4502,4663,477,4824,638,799,960">
					<dim>-1</dim>
					<dim>1</dim>
					<dim>-1</dim>
					<dim>-1</dim>
				</port>
			</output>
		</layer>
		<layer id="263" name="__module.model.layers.0.self_attn/aten::scaled_dot_product_attention/ConvertLike" type="Const" version="opset1">
			<data element_type="f32" shape="" offset="236844304" size="4" />
			<output>
				<port id="0" precision="FP32" />
			</output>
		</layer>
		<layer id="264" name="__module.model.layers.0.self_attn/aten::scaled_dot_product_attention/ScaledDotProductAttention" type="ScaledDotProductAttention" version="opset13">
			<data causal="false" />
			<input>
				<port id="0" precision="FP32">
					<dim>-1</dim>
					<dim>12</dim>
					<dim>-1</dim>
					<dim>128</dim>
				</port>
				<port id="1" precision="FP32">
					<dim>-1</dim>
					<dim>12</dim>
					<dim>-1</dim>
					<dim>128</dim>
				</port>
				<port id="2" precision="FP32">
					<dim>-1</dim>
					<dim>12</dim>
					<dim>-1</dim>
					<dim>128</dim>
				</port>
				<port id="3" precision="FP32">
					<dim>-1</dim>
					<dim>1</dim>
					<dim>-1</dim>
					<dim>-1</dim>
				</port>
				<port id="4" precision="FP32" />
			</input>
			<output>
				<port id="5" precision="FP32" names="481,attn_output.1">
					<dim>-1</dim>
					<dim>12</dim>
					<dim>-1</dim>
					<dim>128</dim>
				</port>
			</output>
		</layer>
		<layer id="265" name="__module.model.layers.0.self_attn/aten::transpose/Constant_3" type="Const" version="opset1">
			<data element_type="i32" shape="4" offset="236055376" size="16" />
			<output>
				<port id="0" precision="I32">
					<dim>4</dim>
				</port>
			</output>
		</layer>
		<layer id="266" name="__module.model.layers.0.self_attn/aten::transpose/Transpose_3" type="Transpose" version="opset1">
			<input>
				<port id="0" precision="FP32">
					<dim>-1</dim>
					<dim>12</dim>
					<dim>-1</dim>
					<dim>128</dim>
				</port>
				<port id="1" precision="I32">
					<dim>4</dim>
				</port>
			</input>
			<output>
				<port id="2" precision="FP32" names="482">
					<dim>-1</dim>
					<dim>-1</dim>
					<dim>12</dim>
					<dim>128</dim>
				</port>
			</output>
		</layer>
		<layer id="267" name="Constant_61212" type="Const" version="opset1">
			<data element_type="i64" shape="2" offset="236449968" size="16" />
			<output>
				<port id="0" precision="I64">
					<dim>2</dim>
				</port>
			</output>
		</layer>
		<layer id="268" name="Constant_61213" type="Const" version="opset1">
			<data element_type="i64" shape="" offset="4" size="8" />
			<output>
				<port id="0" precision="I64" />
			</output>
		</layer>
		<layer id="269" name="Gather_61214" type="Gather" version="opset8">
			<data batch_dims="0" />
			<input>
				<port id="0" precision="I64">
					<dim>3</dim>
				</port>
				<port id="1" precision="I64">
					<dim>2</dim>
				</port>
				<port id="2" precision="I64" />
			</input>
			<output>
				<port id="3" precision="I64">
					<dim>2</dim>
				</port>
			</output>
		</layer>
		<layer id="270" name="Constant_1636" type="Const" version="opset1">
			<data element_type="i64" shape="1" offset="233689892" size="8" />
			<output>
				<port id="0" precision="I64">
					<dim>1</dim>
				</port>
			</output>
		</layer>
		<layer id="271" name="__module.model.layers.0.self_attn/prim::ListConstruct_7" type="Concat" version="opset1">
			<data axis="0" />
			<input>
				<port id="0" precision="I64">
					<dim>2</dim>
				</port>
				<port id="1" precision="I64">
					<dim>1</dim>
				</port>
			</input>
			<output>
				<port id="2" precision="I64">
					<dim>3</dim>
				</port>
			</output>
		</layer>
		<layer id="272" name="__module.model.layers.0.self_attn/aten::reshape/Reshape_2" type="Reshape" version="opset1">
			<data special_zero="false" />
			<input>
				<port id="0" precision="FP32">
					<dim>-1</dim>
					<dim>-1</dim>
					<dim>12</dim>
					<dim>128</dim>
				</port>
				<port id="1" precision="I64">
					<dim>3</dim>
				</port>
			</input>
			<output>
				<port id="2" precision="FP32" names="485">
					<dim>-1</dim>
					<dim>-1</dim>
					<dim>-1</dim>
				</port>
			</output>
		</layer>
		<layer id="273" name="self.model.layers.0.self_attn.o_proj.weight" type="Const" version="opset1">
			<data element_type="i8" shape="1536, 1536" offset="236844308" size="2359296" />
			<output>
				<port id="0" precision="I8">
					<dim>1536</dim>
					<dim>1536</dim>
				</port>
			</output>
		</layer>
		<layer id="274" name="Convert_92872" type="Convert" version="opset1">
			<data destination_type="f16" />
			<input>
				<port id="0" precision="I8">
					<dim>1536</dim>
					<dim>1536</dim>
				</port>
			</input>
			<output>
				<port id="1" precision="FP16">
					<dim>1536</dim>
					<dim>1536</dim>
				</port>
			</output>
		</layer>
		<layer id="275" name="self.model.layers.0.self_attn.o_proj.weight/scale" type="Const" version="opset1">
			<data element_type="f16" shape="1536, 1" offset="239203604" size="3072" />
			<output>
				<port id="0" precision="FP16">
					<dim>1536</dim>
					<dim>1</dim>
				</port>
			</output>
		</layer>
		<layer id="276" name="self.model.layers.0.self_attn.o_proj.weight/fq_weights_1" type="Multiply" version="opset1">
			<data auto_broadcast="numpy" />
			<input>
				<port id="0" precision="FP16">
					<dim>1536</dim>
					<dim>1536</dim>
				</port>
				<port id="1" precision="FP16">
					<dim>1536</dim>
					<dim>1</dim>
				</port>
			</input>
			<output>
				<port id="2" precision="FP16">
					<dim>1536</dim>
					<dim>1536</dim>
				</port>
			</output>
		</layer>
		<layer id="277" name="__module.model.layers.0.self_attn.o_proj/ov_ext::linear/Convert" type="Convert" version="opset1">
			<data destination_type="f32" />
			<rt_info>
				<attribute name="decompression" version="0" />
			</rt_info>
			<input>
				<port id="0" precision="FP16">
					<dim>1536</dim>
					<dim>1536</dim>
				</port>
			</input>
			<output>
				<port id="1" precision="FP32">
					<dim>1536</dim>
					<dim>1536</dim>
				</port>
			</output>
		</layer>
		<layer id="278" name="__module.model.layers.0.self_attn.o_proj/ov_ext::linear/MatMul" type="MatMul" version="opset1">
			<data transpose_a="false" transpose_b="true" />
			<input>
				<port id="0" precision="FP32">
					<dim>-1</dim>
					<dim>-1</dim>
					<dim>-1</dim>
				</port>
				<port id="1" precision="FP32">
					<dim>1536</dim>
					<dim>1536</dim>
				</port>
			</input>
			<output>
				<port id="2" precision="FP32" names="488,490,hidden_states.17">
					<dim>-1</dim>
					<dim>-1</dim>
					<dim>1536</dim>
				</port>
			</output>
		</layer>
		<layer id="279" name="__module.model.layers.0/aten::add/Add" type="Add" version="opset1">
			<data auto_broadcast="numpy" />
			<input>
				<port id="0" precision="FP32">
					<dim>-1</dim>
					<dim>-1</dim>
					<dim>1536</dim>
				</port>
				<port id="1" precision="FP32">
					<dim>-1</dim>
					<dim>-1</dim>
					<dim>1536</dim>
				</port>
			</input>
			<output>
				<port id="2" precision="FP32" names="493,495,506,hidden_states.19,hidden_states.21">
					<dim>-1</dim>
					<dim>-1</dim>
					<dim>1536</dim>
				</port>
			</output>
		</layer>
		<layer id="280" name="Constant_66182" type="Const" version="opset1">
			<data element_type="f32" shape="1, 1, 1536" offset="239206676" size="6144" />
			<output>
				<port id="0" precision="FP32">
					<dim>1</dim>
					<dim>1</dim>
					<dim>1536</dim>
				</port>
			</output>
		</layer>
		<layer id="281" name="Constant_66181" type="Const" version="opset1">
			<data element_type="f32" shape="1, 1, 1" offset="233689884" size="4" />
			<output>
				<port id="0" precision="FP32">
					<dim>1</dim>
					<dim>1</dim>
					<dim>1</dim>
				</port>
			</output>
		</layer>
		<layer id="282" name="Constant_66179" type="Const" version="opset1">
			<data element_type="f32" shape="1, 1, 1" offset="233689888" size="4" />
			<output>
				<port id="0" precision="FP32">
					<dim>1</dim>
					<dim>1</dim>
					<dim>1</dim>
				</port>
			</output>
		</layer>
		<layer id="283" name="__module.model.layers.0.post_attention_layernorm/aten::pow/Power" type="Power" version="opset1">
			<data auto_broadcast="numpy" />
			<input>
				<port id="0" precision="FP32">
					<dim>-1</dim>
					<dim>-1</dim>
					<dim>1536</dim>
				</port>
				<port id="1" precision="FP32">
					<dim>1</dim>
					<dim>1</dim>
					<dim>1</dim>
				</port>
			</input>
			<output>
				<port id="2" precision="FP32" names="496">
					<dim>-1</dim>
					<dim>-1</dim>
					<dim>1536</dim>
				</port>
			</output>
		</layer>
		<layer id="284" name="Constant_1664" type="Const" version="opset1">
			<data element_type="i64" shape="1" offset="233689892" size="8" />
			<output>
				<port id="0" precision="I64" names="497">
					<dim>1</dim>
				</port>
			</output>
		</layer>
		<layer id="285" name="__module.model.layers.0.post_attention_layernorm/aten::mean/ReduceMean" type="ReduceMean" version="opset1">
			<data keep_dims="true" />
			<input>
				<port id="0" precision="FP32">
					<dim>-1</dim>
					<dim>-1</dim>
					<dim>1536</dim>
				</port>
				<port id="1" precision="I64">
					<dim>1</dim>
				</port>
			</input>
			<output>
				<port id="2" precision="FP32" names="498,variance.3">
					<dim>-1</dim>
					<dim>-1</dim>
					<dim>1</dim>
				</port>
			</output>
		</layer>
		<layer id="286" name="Constant_66180" type="Const" version="opset1">
			<data element_type="f32" shape="1, 1, 1" offset="233689900" size="4" />
			<output>
				<port id="0" precision="FP32">
					<dim>1</dim>
					<dim>1</dim>
					<dim>1</dim>
				</port>
			</output>
		</layer>
		<layer id="287" name="__module.model.layers.0.post_attention_layernorm/aten::add/Add" type="Add" version="opset1">
			<data auto_broadcast="numpy" />
			<input>
				<port id="0" precision="FP32">
					<dim>-1</dim>
					<dim>-1</dim>
					<dim>1</dim>
				</port>
				<port id="1" precision="FP32">
					<dim>1</dim>
					<dim>1</dim>
					<dim>1</dim>
				</port>
			</input>
			<output>
				<port id="2" precision="FP32" names="499">
					<dim>-1</dim>
					<dim>-1</dim>
					<dim>1</dim>
				</port>
			</output>
		</layer>
		<layer id="288" name="__module.model.layers.0.post_attention_layernorm/aten::rsqrt/Sqrt" type="Sqrt" version="opset1">
			<input>
				<port id="0" precision="FP32">
					<dim>-1</dim>
					<dim>-1</dim>
					<dim>1</dim>
				</port>
			</input>
			<output>
				<port id="1" precision="FP32">
					<dim>-1</dim>
					<dim>-1</dim>
					<dim>1</dim>
				</port>
			</output>
		</layer>
		<layer id="289" name="__module.model.layers.0.post_attention_layernorm/aten::rsqrt/Divide" type="Divide" version="opset1">
			<data auto_broadcast="numpy" m_pythondiv="true" />
			<input>
				<port id="0" precision="FP32">
					<dim>1</dim>
					<dim>1</dim>
					<dim>1</dim>
				</port>
				<port id="1" precision="FP32">
					<dim>-1</dim>
					<dim>-1</dim>
					<dim>1</dim>
				</port>
			</input>
			<output>
				<port id="2" precision="FP32" names="500">
					<dim>-1</dim>
					<dim>-1</dim>
					<dim>1</dim>
				</port>
			</output>
		</layer>
		<layer id="290" name="__module.model.layers.0.post_attention_layernorm/aten::mul/Multiply" type="Multiply" version="opset1">
			<data auto_broadcast="numpy" />
			<input>
				<port id="0" precision="FP32">
					<dim>-1</dim>
					<dim>-1</dim>
					<dim>1536</dim>
				</port>
				<port id="1" precision="FP32">
					<dim>-1</dim>
					<dim>-1</dim>
					<dim>1</dim>
				</port>
			</input>
			<output>
				<port id="2" precision="FP32" names="501,502,hidden_states.23,hidden_states.25">
					<dim>-1</dim>
					<dim>-1</dim>
					<dim>1536</dim>
				</port>
			</output>
		</layer>
		<layer id="291" name="__module.model.layers.0.post_attention_layernorm/aten::mul/Multiply_1" type="Multiply" version="opset1">
			<data auto_broadcast="numpy" />
			<input>
				<port id="0" precision="FP32">
					<dim>1</dim>
					<dim>1</dim>
					<dim>1536</dim>
				</port>
				<port id="1" precision="FP32">
					<dim>-1</dim>
					<dim>-1</dim>
					<dim>1536</dim>
				</port>
			</input>
			<output>
				<port id="2" precision="FP32" names="503,505">
					<dim>-1</dim>
					<dim>-1</dim>
					<dim>1536</dim>
				</port>
			</output>
		</layer>
		<layer id="292" name="self.model.layers.0.mlp.gate_proj.weight" type="Const" version="opset1">
			<data element_type="i8" shape="8960, 1536" offset="239212820" size="13762560" />
			<output>
				<port id="0" precision="I8">
					<dim>8960</dim>
					<dim>1536</dim>
				</port>
			</output>
		</layer>
		<layer id="293" name="Convert_92368" type="Convert" version="opset1">
			<data destination_type="f16" />
			<input>
				<port id="0" precision="I8">
					<dim>8960</dim>
					<dim>1536</dim>
				</port>
			</input>
			<output>
				<port id="1" precision="FP16">
					<dim>8960</dim>
					<dim>1536</dim>
				</port>
			</output>
		</layer>
		<layer id="294" name="self.model.layers.0.mlp.gate_proj.weight/scale" type="Const" version="opset1">
			<data element_type="f16" shape="8960, 1" offset="252975380" size="17920" />
			<output>
				<port id="0" precision="FP16">
					<dim>8960</dim>
					<dim>1</dim>
				</port>
			</output>
		</layer>
		<layer id="295" name="self.model.layers.0.mlp.gate_proj.weight/fq_weights_1" type="Multiply" version="opset1">
			<data auto_broadcast="numpy" />
			<input>
				<port id="0" precision="FP16">
					<dim>8960</dim>
					<dim>1536</dim>
				</port>
				<port id="1" precision="FP16">
					<dim>8960</dim>
					<dim>1</dim>
				</port>
			</input>
			<output>
				<port id="2" precision="FP16">
					<dim>8960</dim>
					<dim>1536</dim>
				</port>
			</output>
		</layer>
		<layer id="296" name="__module.model.layers.0.mlp.gate_proj/ov_ext::linear/Convert" type="Convert" version="opset1">
			<data destination_type="f32" />
			<rt_info>
				<attribute name="decompression" version="0" />
			</rt_info>
			<input>
				<port id="0" precision="FP16">
					<dim>8960</dim>
					<dim>1536</dim>
				</port>
			</input>
			<output>
				<port id="1" precision="FP32">
					<dim>8960</dim>
					<dim>1536</dim>
				</port>
			</output>
		</layer>
		<layer id="297" name="__module.model.layers.0.mlp.gate_proj/ov_ext::linear/MatMul" type="MatMul" version="opset1">
			<data transpose_a="false" transpose_b="true" />
			<input>
				<port id="0" precision="FP32">
					<dim>-1</dim>
					<dim>-1</dim>
					<dim>1536</dim>
				</port>
				<port id="1" precision="FP32">
					<dim>8960</dim>
					<dim>1536</dim>
				</port>
			</input>
			<output>
				<port id="2" precision="FP32" names="511,input.1">
					<dim>-1</dim>
					<dim>-1</dim>
					<dim>8960</dim>
				</port>
			</output>
		</layer>
		<layer id="298" name="__module.model.layers.0.mlp.act_fn/aten::silu/Swish" type="Swish" version="opset4">
			<input>
				<port id="0" precision="FP32">
					<dim>-1</dim>
					<dim>-1</dim>
					<dim>8960</dim>
				</port>
			</input>
			<output>
				<port id="1" precision="FP32" names="512">
					<dim>-1</dim>
					<dim>-1</dim>
					<dim>8960</dim>
				</port>
			</output>
		</layer>
		<layer id="299" name="self.model.layers.0.mlp.up_proj.weight" type="Const" version="opset1">
			<data element_type="i8" shape="8960, 1536" offset="252993300" size="13762560" />
			<output>
				<port id="0" precision="I8">
					<dim>8960</dim>
					<dim>1536</dim>
				</port>
			</output>
		</layer>
		<layer id="300" name="Convert_92362" type="Convert" version="opset1">
			<data destination_type="f16" />
			<input>
				<port id="0" precision="I8">
					<dim>8960</dim>
					<dim>1536</dim>
				</port>
			</input>
			<output>
				<port id="1" precision="FP16">
					<dim>8960</dim>
					<dim>1536</dim>
				</port>
			</output>
		</layer>
		<layer id="301" name="self.model.layers.0.mlp.up_proj.weight/scale" type="Const" version="opset1">
			<data element_type="f16" shape="8960, 1" offset="266755860" size="17920" />
			<output>
				<port id="0" precision="FP16">
					<dim>8960</dim>
					<dim>1</dim>
				</port>
			</output>
		</layer>
		<layer id="302" name="self.model.layers.0.mlp.up_proj.weight/fq_weights_1" type="Multiply" version="opset1">
			<data auto_broadcast="numpy" />
			<input>
				<port id="0" precision="FP16">
					<dim>8960</dim>
					<dim>1536</dim>
				</port>
				<port id="1" precision="FP16">
					<dim>8960</dim>
					<dim>1</dim>
				</port>
			</input>
			<output>
				<port id="2" precision="FP16">
					<dim>8960</dim>
					<dim>1536</dim>
				</port>
			</output>
		</layer>
		<layer id="303" name="__module.model.layers.0.mlp.up_proj/ov_ext::linear/Convert" type="Convert" version="opset1">
			<data destination_type="f32" />
			<rt_info>
				<attribute name="decompression" version="0" />
			</rt_info>
			<input>
				<port id="0" precision="FP16">
					<dim>8960</dim>
					<dim>1536</dim>
				</port>
			</input>
			<output>
				<port id="1" precision="FP32">
					<dim>8960</dim>
					<dim>1536</dim>
				</port>
			</output>
		</layer>
		<layer id="304" name="__module.model.layers.0.mlp.up_proj/ov_ext::linear/MatMul" type="MatMul" version="opset1">
			<data transpose_a="false" transpose_b="true" />
			<input>
				<port id="0" precision="FP32">
					<dim>-1</dim>
					<dim>-1</dim>
					<dim>1536</dim>
				</port>
				<port id="1" precision="FP32">
					<dim>8960</dim>
					<dim>1536</dim>
				</port>
			</input>
			<output>
				<port id="2" precision="FP32" names="514">
					<dim>-1</dim>
					<dim>-1</dim>
					<dim>8960</dim>
				</port>
			</output>
		</layer>
		<layer id="305" name="__module.model.layers.0.mlp/aten::mul/Multiply" type="Multiply" version="opset1">
			<data auto_broadcast="numpy" />
			<input>
				<port id="0" precision="FP32">
					<dim>-1</dim>
					<dim>-1</dim>
					<dim>8960</dim>
				</port>
				<port id="1" precision="FP32">
					<dim>-1</dim>
					<dim>-1</dim>
					<dim>8960</dim>
				</port>
			</input>
			<output>
				<port id="2" precision="FP32" names="515">
					<dim>-1</dim>
					<dim>-1</dim>
					<dim>8960</dim>
				</port>
			</output>
		</layer>
		<layer id="306" name="self.model.layers.0.mlp.down_proj.weight" type="Const" version="opset1">
			<data element_type="i8" shape="1536, 8960" offset="266773780" size="13762560" />
			<output>
				<port id="0" precision="I8">
					<dim>1536</dim>
					<dim>8960</dim>
				</port>
			</output>
		</layer>
		<layer id="307" name="Convert_92374" type="Convert" version="opset1">
			<data destination_type="f16" />
			<input>
				<port id="0" precision="I8">
					<dim>1536</dim>
					<dim>8960</dim>
				</port>
			</input>
			<output>
				<port id="1" precision="FP16">
					<dim>1536</dim>
					<dim>8960</dim>
				</port>
			</output>
		</layer>
		<layer id="308" name="self.model.layers.0.mlp.down_proj.weight/scale" type="Const" version="opset1">
			<data element_type="f16" shape="1536, 1" offset="280536340" size="3072" />
			<output>
				<port id="0" precision="FP16">
					<dim>1536</dim>
					<dim>1</dim>
				</port>
			</output>
		</layer>
		<layer id="309" name="self.model.layers.0.mlp.down_proj.weight/fq_weights_1" type="Multiply" version="opset1">
			<data auto_broadcast="numpy" />
			<input>
				<port id="0" precision="FP16">
					<dim>1536</dim>
					<dim>8960</dim>
				</port>
				<port id="1" precision="FP16">
					<dim>1536</dim>
					<dim>1</dim>
				</port>
			</input>
			<output>
				<port id="2" precision="FP16">
					<dim>1536</dim>
					<dim>8960</dim>
				</port>
			</output>
		</layer>
		<layer id="310" name="__module.model.layers.0.mlp.down_proj/ov_ext::linear/Convert" type="Convert" version="opset1">
			<data destination_type="f32" />
			<rt_info>
				<attribute name="decompression" version="0" />
			</rt_info>
			<input>
				<port id="0" precision="FP16">
					<dim>1536</dim>
					<dim>8960</dim>
				</port>
			</input>
			<output>
				<port id="1" precision="FP32">
					<dim>1536</dim>
					<dim>8960</dim>
				</port>
			</output>
		</layer>
		<layer id="311" name="__module.model.layers.0.mlp.down_proj/ov_ext::linear/MatMul" type="MatMul" version="opset1">
			<data transpose_a="false" transpose_b="true" />
			<input>
				<port id="0" precision="FP32">
					<dim>-1</dim>
					<dim>-1</dim>
					<dim>8960</dim>
				</port>
				<port id="1" precision="FP32">
					<dim>1536</dim>
					<dim>8960</dim>
				</port>
			</input>
			<output>
				<port id="2" precision="FP32" names="517,hidden_states.27">
					<dim>-1</dim>
					<dim>-1</dim>
					<dim>1536</dim>
				</port>
			</output>
		</layer>
		<layer id="312" name="__module.model.layers.0/aten::add/Add_1" type="Add" version="opset1">
			<data auto_broadcast="numpy" />
			<input>
				<port id="0" precision="FP32">
					<dim>-1</dim>
					<dim>-1</dim>
					<dim>1536</dim>
				</port>
				<port id="1" precision="FP32">
					<dim>-1</dim>
					<dim>-1</dim>
					<dim>1536</dim>
				</port>
			</input>
			<output>
				<port id="2" precision="FP32" names="518,520,528,539,hidden_states.29,hidden_states.31">
					<dim>-1</dim>
					<dim>-1</dim>
					<dim>1536</dim>
				</port>
			</output>
		</layer>
		<layer id="313" name="Constant_66186" type="Const" version="opset1">
			<data element_type="f32" shape="1, 1, 1536" offset="280539412" size="6144" />
			<output>
				<port id="0" precision="FP32">
					<dim>1</dim>
					<dim>1</dim>
					<dim>1536</dim>
				</port>
			</output>
		</layer>
		<layer id="314" name="Constant_66185" type="Const" version="opset1">
			<data element_type="f32" shape="1, 1, 1" offset="233689884" size="4" />
			<output>
				<port id="0" precision="FP32">
					<dim>1</dim>
					<dim>1</dim>
					<dim>1</dim>
				</port>
			</output>
		</layer>
		<layer id="315" name="Constant_66183" type="Const" version="opset1">
			<data element_type="f32" shape="1, 1, 1" offset="233689888" size="4" />
			<output>
				<port id="0" precision="FP32">
					<dim>1</dim>
					<dim>1</dim>
					<dim>1</dim>
				</port>
			</output>
		</layer>
		<layer id="316" name="__module.model.layers.1.input_layernorm/aten::pow/Power" type="Power" version="opset1">
			<data auto_broadcast="numpy" />
			<input>
				<port id="0" precision="FP32">
					<dim>-1</dim>
					<dim>-1</dim>
					<dim>1536</dim>
				</port>
				<port id="1" precision="FP32">
					<dim>1</dim>
					<dim>1</dim>
					<dim>1</dim>
				</port>
			</input>
			<output>
				<port id="2" precision="FP32" names="529">
					<dim>-1</dim>
					<dim>-1</dim>
					<dim>1536</dim>
				</port>
			</output>
		</layer>
		<layer id="317" name="Constant_1738" type="Const" version="opset1">
			<data element_type="i64" shape="1" offset="233689892" size="8" />
			<output>
				<port id="0" precision="I64" names="530">
					<dim>1</dim>
				</port>
			</output>
		</layer>
		<layer id="318" name="__module.model.layers.1.input_layernorm/aten::mean/ReduceMean" type="ReduceMean" version="opset1">
			<data keep_dims="true" />
			<input>
				<port id="0" precision="FP32">
					<dim>-1</dim>
					<dim>-1</dim>
					<dim>1536</dim>
				</port>
				<port id="1" precision="I64">
					<dim>1</dim>
				</port>
			</input>
			<output>
				<port id="2" precision="FP32" names="531,variance.5">
					<dim>-1</dim>
					<dim>-1</dim>
					<dim>1</dim>
				</port>
			</output>
		</layer>
		<layer id="319" name="Constant_66184" type="Const" version="opset1">
			<data element_type="f32" shape="1, 1, 1" offset="233689900" size="4" />
			<output>
				<port id="0" precision="FP32">
					<dim>1</dim>
					<dim>1</dim>
					<dim>1</dim>
				</port>
			</output>
		</layer>
		<layer id="320" name="__module.model.layers.1.input_layernorm/aten::add/Add" type="Add" version="opset1">
			<data auto_broadcast="numpy" />
			<input>
				<port id="0" precision="FP32">
					<dim>-1</dim>
					<dim>-1</dim>
					<dim>1</dim>
				</port>
				<port id="1" precision="FP32">
					<dim>1</dim>
					<dim>1</dim>
					<dim>1</dim>
				</port>
			</input>
			<output>
				<port id="2" precision="FP32" names="532">
					<dim>-1</dim>
					<dim>-1</dim>
					<dim>1</dim>
				</port>
			</output>
		</layer>
		<layer id="321" name="__module.model.layers.1.input_layernorm/aten::rsqrt/Sqrt" type="Sqrt" version="opset1">
			<input>
				<port id="0" precision="FP32">
					<dim>-1</dim>
					<dim>-1</dim>
					<dim>1</dim>
				</port>
			</input>
			<output>
				<port id="1" precision="FP32">
					<dim>-1</dim>
					<dim>-1</dim>
					<dim>1</dim>
				</port>
			</output>
		</layer>
		<layer id="322" name="__module.model.layers.1.input_layernorm/aten::rsqrt/Divide" type="Divide" version="opset1">
			<data auto_broadcast="numpy" m_pythondiv="true" />
			<input>
				<port id="0" precision="FP32">
					<dim>1</dim>
					<dim>1</dim>
					<dim>1</dim>
				</port>
				<port id="1" precision="FP32">
					<dim>-1</dim>
					<dim>-1</dim>
					<dim>1</dim>
				</port>
			</input>
			<output>
				<port id="2" precision="FP32" names="533">
					<dim>-1</dim>
					<dim>-1</dim>
					<dim>1</dim>
				</port>
			</output>
		</layer>
		<layer id="323" name="__module.model.layers.1.input_layernorm/aten::mul/Multiply" type="Multiply" version="opset1">
			<data auto_broadcast="numpy" />
			<input>
				<port id="0" precision="FP32">
					<dim>-1</dim>
					<dim>-1</dim>
					<dim>1536</dim>
				</port>
				<port id="1" precision="FP32">
					<dim>-1</dim>
					<dim>-1</dim>
					<dim>1</dim>
				</port>
			</input>
			<output>
				<port id="2" precision="FP32" names="534,535,hidden_states.33,hidden_states.35">
					<dim>-1</dim>
					<dim>-1</dim>
					<dim>1536</dim>
				</port>
			</output>
		</layer>
		<layer id="324" name="__module.model.layers.1.input_layernorm/aten::mul/Multiply_1" type="Multiply" version="opset1">
			<data auto_broadcast="numpy" />
			<input>
				<port id="0" precision="FP32">
					<dim>1</dim>
					<dim>1</dim>
					<dim>1536</dim>
				</port>
				<port id="1" precision="FP32">
					<dim>-1</dim>
					<dim>-1</dim>
					<dim>1536</dim>
				</port>
			</input>
			<output>
				<port id="2" precision="FP32" names="536,538,hidden_states.37">
					<dim>-1</dim>
					<dim>-1</dim>
					<dim>1536</dim>
				</port>
			</output>
		</layer>
		<layer id="325" name="self.model.layers.1.self_attn.q_proj.weight" type="Const" version="opset1">
			<data element_type="i8" shape="1536, 1536" offset="280545556" size="2359296" />
			<output>
				<port id="0" precision="I8">
					<dim>1536</dim>
					<dim>1536</dim>
				</port>
			</output>
		</layer>
		<layer id="326" name="Convert_92878" type="Convert" version="opset1">
			<data destination_type="f16" />
			<input>
				<port id="0" precision="I8">
					<dim>1536</dim>
					<dim>1536</dim>
				</port>
			</input>
			<output>
				<port id="1" precision="FP16">
					<dim>1536</dim>
					<dim>1536</dim>
				</port>
			</output>
		</layer>
		<layer id="327" name="self.model.layers.1.self_attn.q_proj.weight/scale" type="Const" version="opset1">
			<data element_type="f16" shape="1536, 1" offset="282904852" size="3072" />
			<output>
				<port id="0" precision="FP16">
					<dim>1536</dim>
					<dim>1</dim>
				</port>
			</output>
		</layer>
		<layer id="328" name="self.model.layers.1.self_attn.q_proj.weight/fq_weights_1" type="Multiply" version="opset1">
			<data auto_broadcast="numpy" />
			<input>
				<port id="0" precision="FP16">
					<dim>1536</dim>
					<dim>1536</dim>
				</port>
				<port id="1" precision="FP16">
					<dim>1536</dim>
					<dim>1</dim>
				</port>
			</input>
			<output>
				<port id="2" precision="FP16">
					<dim>1536</dim>
					<dim>1536</dim>
				</port>
			</output>
		</layer>
		<layer id="329" name="__module.model.layers.1.self_attn.q_proj/ov_ext::linear/Convert" type="Convert" version="opset1">
			<data destination_type="f32" />
			<rt_info>
				<attribute name="decompression" version="0" />
			</rt_info>
			<input>
				<port id="0" precision="FP16">
					<dim>1536</dim>
					<dim>1536</dim>
				</port>
			</input>
			<output>
				<port id="1" precision="FP32">
					<dim>1536</dim>
					<dim>1536</dim>
				</port>
			</output>
		</layer>
		<layer id="330" name="__module.model.layers.1.self_attn.q_proj/ov_ext::linear/MatMul" type="MatMul" version="opset1">
			<data transpose_a="false" transpose_b="true" />
			<input>
				<port id="0" precision="FP32">
					<dim>-1</dim>
					<dim>-1</dim>
					<dim>1536</dim>
				</port>
				<port id="1" precision="FP32">
					<dim>1536</dim>
					<dim>1536</dim>
				</port>
			</input>
			<output>
				<port id="2" precision="FP32">
					<dim>-1</dim>
					<dim>-1</dim>
					<dim>1536</dim>
				</port>
			</output>
		</layer>
		<layer id="331" name="self.model.layers.1.self_attn.q_proj.bias" type="Const" version="opset1">
			<data element_type="bf16" shape="1536" offset="282907924" size="3072" />
			<output>
				<port id="0" precision="BF16" names="self.model.layers.1.self_attn.q_proj.bias">
					<dim>1536</dim>
				</port>
			</output>
		</layer>
		<layer id="332" name="__module.model.layers.1.self_attn.q_proj/ov_ext::linear/Convert_1" type="Convert" version="opset1">
			<data destination_type="f32" />
			<rt_info>
				<attribute name="decompression" version="0" />
			</rt_info>
			<input>
				<port id="0" precision="BF16">
					<dim>1536</dim>
				</port>
			</input>
			<output>
				<port id="1" precision="FP32">
					<dim>1536</dim>
				</port>
			</output>
		</layer>
		<layer id="333" name="__module.model.layers.1.self_attn.q_proj/ov_ext::linear/Add" type="Add" version="opset1">
			<data auto_broadcast="numpy" />
			<input>
				<port id="0" precision="FP32">
					<dim>-1</dim>
					<dim>-1</dim>
					<dim>1536</dim>
				</port>
				<port id="1" precision="FP32">
					<dim>1536</dim>
				</port>
			</input>
			<output>
				<port id="2" precision="FP32" names="548">
					<dim>-1</dim>
					<dim>-1</dim>
					<dim>1536</dim>
				</port>
			</output>
		</layer>
		<layer id="334" name="Constant_74595" type="Const" version="opset1">
			<data element_type="i64" shape="4" offset="236055344" size="32" />
			<output>
				<port id="0" precision="I64">
					<dim>4</dim>
				</port>
			</output>
		</layer>
		<layer id="335" name="__module.model.layers.1.self_attn/aten::view/Reshape" type="Reshape" version="opset1">
			<data special_zero="true" />
			<input>
				<port id="0" precision="FP32">
					<dim>-1</dim>
					<dim>-1</dim>
					<dim>1536</dim>
				</port>
				<port id="1" precision="I64">
					<dim>4</dim>
				</port>
			</input>
			<output>
				<port id="2" precision="FP32" names="550">
					<dim>-1</dim>
					<dim>-1</dim>
					<dim>12</dim>
					<dim>128</dim>
				</port>
			</output>
		</layer>
		<layer id="336" name="__module.model.layers.1.self_attn/aten::transpose/Constant" type="Const" version="opset1">
			<data element_type="i32" shape="4" offset="236055376" size="16" />
			<output>
				<port id="0" precision="I32">
					<dim>4</dim>
				</port>
			</output>
		</layer>
		<layer id="337" name="__module.model.layers.1.self_attn/aten::transpose/Transpose" type="Transpose" version="opset1">
			<input>
				<port id="0" precision="FP32">
					<dim>-1</dim>
					<dim>-1</dim>
					<dim>12</dim>
					<dim>128</dim>
				</port>
				<port id="1" precision="I32">
					<dim>4</dim>
				</port>
			</input>
			<output>
				<port id="2" precision="FP32" names="551,q.3">
					<dim>-1</dim>
					<dim>12</dim>
					<dim>-1</dim>
					<dim>128</dim>
				</port>
			</output>
		</layer>
		<layer id="338" name="__module.model.layers.1.self_attn/aten::mul/Multiply" type="Multiply" version="opset1">
			<data auto_broadcast="numpy" />
			<input>
				<port id="0" precision="FP32">
					<dim>-1</dim>
					<dim>12</dim>
					<dim>-1</dim>
					<dim>128</dim>
				</port>
				<port id="1" precision="FP32">
					<dim>-1</dim>
					<dim>1</dim>
					<dim>-1</dim>
					<dim>128</dim>
				</port>
			</input>
			<output>
				<port id="2" precision="FP32" names="566">
					<dim>-1</dim>
					<dim>12</dim>
					<dim>-1</dim>
					<dim>128</dim>
				</port>
			</output>
		</layer>
		<layer id="339" name="Constant_2052" type="Const" version="opset1">
			<data element_type="i64" shape="1" offset="236055668" size="8" />
			<output>
				<port id="0" precision="I64">
					<dim>1</dim>
				</port>
			</output>
		</layer>
		<layer id="340" name="Constant_2054" type="Const" version="opset1">
			<data element_type="i64" shape="1" offset="236055676" size="8" />
			<output>
				<port id="0" precision="I64">
					<dim>1</dim>
				</port>
			</output>
		</layer>
		<layer id="341" name="Constant_2056" type="Const" version="opset1">
			<data element_type="i64" shape="1" offset="236055648" size="8" />
			<output>
				<port id="0" precision="I64">
					<dim>1</dim>
				</port>
			</output>
		</layer>
		<layer id="342" name="Constant_2008" type="Const" version="opset1">
			<data element_type="i64" shape="1" offset="236055684" size="8" />
			<output>
				<port id="0" precision="I64">
					<dim>1</dim>
				</port>
			</output>
		</layer>
		<layer id="343" name="__module.model.layers.1.self_attn/aten::slice/Slice" type="Slice" version="opset8">
			<input>
				<port id="0" precision="FP32">
					<dim>-1</dim>
					<dim>12</dim>
					<dim>-1</dim>
					<dim>128</dim>
				</port>
				<port id="1" precision="I64">
					<dim>1</dim>
				</port>
				<port id="2" precision="I64">
					<dim>1</dim>
				</port>
				<port id="3" precision="I64">
					<dim>1</dim>
				</port>
				<port id="4" precision="I64">
					<dim>1</dim>
				</port>
			</input>
			<output>
				<port id="5" precision="FP32" names="576,x2.5">
					<dim>-1</dim>
					<dim>12</dim>
					<dim>-1</dim>
					<dim>64</dim>
				</port>
			</output>
		</layer>
		<layer id="344" name="Constant_66187" type="Const" version="opset1">
			<data element_type="f32" shape="1, 1, 1, 1" offset="236055692" size="4" />
			<output>
				<port id="0" precision="FP32">
					<dim>1</dim>
					<dim>1</dim>
					<dim>1</dim>
					<dim>1</dim>
				</port>
			</output>
		</layer>
		<layer id="345" name="__module.model.layers.1.self_attn/aten::neg/Multiply" type="Multiply" version="opset1">
			<data auto_broadcast="numpy" />
			<input>
				<port id="0" precision="FP32">
					<dim>-1</dim>
					<dim>12</dim>
					<dim>-1</dim>
					<dim>64</dim>
				</port>
				<port id="1" precision="FP32">
					<dim>1</dim>
					<dim>1</dim>
					<dim>1</dim>
					<dim>1</dim>
				</port>
			</input>
			<output>
				<port id="2" precision="FP32" names="577">
					<dim>-1</dim>
					<dim>12</dim>
					<dim>-1</dim>
					<dim>64</dim>
				</port>
			</output>
		</layer>
		<layer id="346" name="Constant_1949" type="Const" version="opset1">
			<data element_type="i64" shape="1" offset="4" size="8" />
			<output>
				<port id="0" precision="I64">
					<dim>1</dim>
				</port>
			</output>
		</layer>
		<layer id="347" name="Constant_1993" type="Const" version="opset1">
			<data element_type="i64" shape="1" offset="236055668" size="8" />
			<output>
				<port id="0" precision="I64">
					<dim>1</dim>
				</port>
			</output>
		</layer>
		<layer id="348" name="Constant_1995" type="Const" version="opset1">
			<data element_type="i64" shape="1" offset="236055648" size="8" />
			<output>
				<port id="0" precision="I64">
					<dim>1</dim>
				</port>
			</output>
		</layer>
		<layer id="349" name="Constant_1947" type="Const" version="opset1">
			<data element_type="i64" shape="1" offset="236055684" size="8" />
			<output>
				<port id="0" precision="I64">
					<dim>1</dim>
				</port>
			</output>
		</layer>
		<layer id="350" name="__module.model.layers.1.self_attn/aten::slice/Slice_1" type="Slice" version="opset8">
			<input>
				<port id="0" precision="FP32">
					<dim>-1</dim>
					<dim>12</dim>
					<dim>-1</dim>
					<dim>128</dim>
				</port>
				<port id="1" precision="I64">
					<dim>1</dim>
				</port>
				<port id="2" precision="I64">
					<dim>1</dim>
				</port>
				<port id="3" precision="I64">
					<dim>1</dim>
				</port>
				<port id="4" precision="I64">
					<dim>1</dim>
				</port>
			</input>
			<output>
				<port id="5" precision="FP32" names="571">
					<dim>-1</dim>
					<dim>12</dim>
					<dim>-1</dim>
					<dim>64</dim>
				</port>
			</output>
		</layer>
		<layer id="351" name="__module.model.layers.1.self_attn/aten::cat/Concat" type="Concat" version="opset1">
			<data axis="-1" />
			<input>
				<port id="0" precision="FP32">
					<dim>-1</dim>
					<dim>12</dim>
					<dim>-1</dim>
					<dim>64</dim>
				</port>
				<port id="1" precision="FP32">
					<dim>-1</dim>
					<dim>12</dim>
					<dim>-1</dim>
					<dim>64</dim>
				</port>
			</input>
			<output>
				<port id="2" precision="FP32" names="579">
					<dim>-1</dim>
					<dim>12</dim>
					<dim>-1</dim>
					<dim>128</dim>
				</port>
			</output>
		</layer>
		<layer id="352" name="__module.model.layers.1.self_attn/aten::mul/Multiply_1" type="Multiply" version="opset1">
			<data auto_broadcast="numpy" />
			<input>
				<port id="0" precision="FP32">
					<dim>-1</dim>
					<dim>12</dim>
					<dim>-1</dim>
					<dim>128</dim>
				</port>
				<port id="1" precision="FP32">
					<dim>-1</dim>
					<dim>1</dim>
					<dim>-1</dim>
					<dim>128</dim>
				</port>
			</input>
			<output>
				<port id="2" precision="FP32" names="580">
					<dim>-1</dim>
					<dim>12</dim>
					<dim>-1</dim>
					<dim>128</dim>
				</port>
			</output>
		</layer>
		<layer id="353" name="__module.model.layers.1.self_attn/aten::add/Add" type="Add" version="opset1">
			<data auto_broadcast="numpy" />
			<input>
				<port id="0" precision="FP32">
					<dim>-1</dim>
					<dim>12</dim>
					<dim>-1</dim>
					<dim>128</dim>
				</port>
				<port id="1" precision="FP32">
					<dim>-1</dim>
					<dim>12</dim>
					<dim>-1</dim>
					<dim>128</dim>
				</port>
			</input>
			<output>
				<port id="2" precision="FP32" names="581,query.5">
					<dim>-1</dim>
					<dim>12</dim>
					<dim>-1</dim>
					<dim>128</dim>
				</port>
			</output>
		</layer>
		<layer id="354" name="Constant_77182" type="Const" version="opset1">
			<data element_type="f32" shape="" offset="0" size="4" />
			<output>
				<port id="0" precision="FP32" />
			</output>
		</layer>
		<layer id="355" name="Constant_77175" type="Const" version="opset1">
			<data element_type="i64" shape="1" offset="12" size="8" />
			<output>
				<port id="0" precision="I64">
					<dim>1</dim>
				</port>
			</output>
		</layer>
		<layer id="356" name="Constant_77177" type="Const" version="opset1">
			<data element_type="i64" shape="1" offset="4" size="8" />
			<output>
				<port id="0" precision="I64">
					<dim>1</dim>
				</port>
			</output>
		</layer>
		<layer id="357" name="Constant_77179" type="Const" version="opset1">
			<data element_type="i64" shape="1" offset="20" size="8" />
			<output>
				<port id="0" precision="I64">
					<dim>1</dim>
				</port>
			</output>
		</layer>
		<layer id="358" name="Concat_77180" type="Concat" version="opset1">
			<data axis="0" />
			<input>
				<port id="0" precision="I64">
					<dim>1</dim>
				</port>
				<port id="1" precision="I64">
					<dim>1</dim>
				</port>
				<port id="2" precision="I64">
					<dim>1</dim>
				</port>
				<port id="3" precision="I64">
					<dim>1</dim>
				</port>
			</input>
			<output>
				<port id="4" precision="I64">
					<dim>4</dim>
				</port>
			</output>
		</layer>
		<layer id="359" name="Broadcast_77183" type="Broadcast" version="opset3">
			<data mode="numpy" />
			<input>
				<port id="0" precision="FP32" />
				<port id="1" precision="I64">
					<dim>4</dim>
				</port>
			</input>
			<output>
				<port id="2" precision="FP32">
					<dim>-1</dim>
					<dim>2</dim>
					<dim>0</dim>
					<dim>128</dim>
				</port>
			</output>
		</layer>
		<layer id="360" name="ReadValue_76614" type="ReadValue" version="opset6">
			<data variable_id="past_key_values.1.keypresent.1.key" variable_type="f32" variable_shape="?,2,?,128" />
			<input>
				<port id="0" precision="FP32">
					<dim>-1</dim>
					<dim>2</dim>
					<dim>0</dim>
					<dim>128</dim>
				</port>
			</input>
			<output>
				<port id="1" precision="FP32" names="past_key_values.1.key">
					<dim>-1</dim>
					<dim>2</dim>
					<dim>-1</dim>
					<dim>128</dim>
				</port>
			</output>
		</layer>
		<layer id="361" name="Constant_76051" type="Const" version="opset1">
			<data element_type="i64" shape="" offset="4" size="8" />
			<output>
				<port id="0" precision="I64" />
			</output>
		</layer>
		<layer id="362" name="Gather_76052" type="Gather" version="opset8">
			<data batch_dims="0" />
			<input>
				<port id="0" precision="FP32">
					<dim>-1</dim>
					<dim>2</dim>
					<dim>-1</dim>
					<dim>128</dim>
				</port>
				<port id="1" precision="I32">
					<dim>-1</dim>
				</port>
				<port id="2" precision="I64" />
			</input>
			<output>
				<port id="3" precision="FP32">
					<dim>-1</dim>
					<dim>2</dim>
					<dim>-1</dim>
					<dim>128</dim>
				</port>
			</output>
		</layer>
		<layer id="363" name="self.model.layers.1.self_attn.k_proj.weight" type="Const" version="opset1">
			<data element_type="i8" shape="256, 1536" offset="282910996" size="393216" />
			<output>
				<port id="0" precision="I8">
					<dim>256</dim>
					<dim>1536</dim>
				</port>
			</output>
		</layer>
		<layer id="364" name="Convert_93220" type="Convert" version="opset1">
			<data destination_type="f16" />
			<input>
				<port id="0" precision="I8">
					<dim>256</dim>
					<dim>1536</dim>
				</port>
			</input>
			<output>
				<port id="1" precision="FP16">
					<dim>256</dim>
					<dim>1536</dim>
				</port>
			</output>
		</layer>
		<layer id="365" name="self.model.layers.1.self_attn.k_proj.weight/scale" type="Const" version="opset1">
			<data element_type="f16" shape="256, 1" offset="283304212" size="512" />
			<output>
				<port id="0" precision="FP16">
					<dim>256</dim>
					<dim>1</dim>
				</port>
			</output>
		</layer>
		<layer id="366" name="self.model.layers.1.self_attn.k_proj.weight/fq_weights_1" type="Multiply" version="opset1">
			<data auto_broadcast="numpy" />
			<input>
				<port id="0" precision="FP16">
					<dim>256</dim>
					<dim>1536</dim>
				</port>
				<port id="1" precision="FP16">
					<dim>256</dim>
					<dim>1</dim>
				</port>
			</input>
			<output>
				<port id="2" precision="FP16">
					<dim>256</dim>
					<dim>1536</dim>
				</port>
			</output>
		</layer>
		<layer id="367" name="__module.model.layers.1.self_attn.k_proj/ov_ext::linear/Convert" type="Convert" version="opset1">
			<data destination_type="f32" />
			<rt_info>
				<attribute name="decompression" version="0" />
			</rt_info>
			<input>
				<port id="0" precision="FP16">
					<dim>256</dim>
					<dim>1536</dim>
				</port>
			</input>
			<output>
				<port id="1" precision="FP32">
					<dim>256</dim>
					<dim>1536</dim>
				</port>
			</output>
		</layer>
		<layer id="368" name="__module.model.layers.1.self_attn.k_proj/ov_ext::linear/MatMul" type="MatMul" version="opset1">
			<data transpose_a="false" transpose_b="true" />
			<input>
				<port id="0" precision="FP32">
					<dim>-1</dim>
					<dim>-1</dim>
					<dim>1536</dim>
				</port>
				<port id="1" precision="FP32">
					<dim>256</dim>
					<dim>1536</dim>
				</port>
			</input>
			<output>
				<port id="2" precision="FP32">
					<dim>-1</dim>
					<dim>-1</dim>
					<dim>256</dim>
				</port>
			</output>
		</layer>
		<layer id="369" name="self.model.layers.1.self_attn.k_proj.bias" type="Const" version="opset1">
			<data element_type="bf16" shape="256" offset="283304724" size="512" />
			<output>
				<port id="0" precision="BF16" names="self.model.layers.1.self_attn.k_proj.bias">
					<dim>256</dim>
				</port>
			</output>
		</layer>
		<layer id="370" name="__module.model.layers.1.self_attn.k_proj/ov_ext::linear/Convert_1" type="Convert" version="opset1">
			<data destination_type="f32" />
			<rt_info>
				<attribute name="decompression" version="0" />
			</rt_info>
			<input>
				<port id="0" precision="BF16">
					<dim>256</dim>
				</port>
			</input>
			<output>
				<port id="1" precision="FP32">
					<dim>256</dim>
				</port>
			</output>
		</layer>
		<layer id="371" name="__module.model.layers.1.self_attn.k_proj/ov_ext::linear/Add" type="Add" version="opset1">
			<data auto_broadcast="numpy" />
			<input>
				<port id="0" precision="FP32">
					<dim>-1</dim>
					<dim>-1</dim>
					<dim>256</dim>
				</port>
				<port id="1" precision="FP32">
					<dim>256</dim>
				</port>
			</input>
			<output>
				<port id="2" precision="FP32" names="554">
					<dim>-1</dim>
					<dim>-1</dim>
					<dim>256</dim>
				</port>
			</output>
		</layer>
		<layer id="372" name="Constant_74596" type="Const" version="opset1">
			<data element_type="i64" shape="4" offset="236449936" size="32" />
			<output>
				<port id="0" precision="I64">
					<dim>4</dim>
				</port>
			</output>
		</layer>
		<layer id="373" name="__module.model.layers.1.self_attn/aten::view/Reshape_1" type="Reshape" version="opset1">
			<data special_zero="true" />
			<input>
				<port id="0" precision="FP32">
					<dim>-1</dim>
					<dim>-1</dim>
					<dim>256</dim>
				</port>
				<port id="1" precision="I64">
					<dim>4</dim>
				</port>
			</input>
			<output>
				<port id="2" precision="FP32" names="556">
					<dim>-1</dim>
					<dim>-1</dim>
					<dim>2</dim>
					<dim>128</dim>
				</port>
			</output>
		</layer>
		<layer id="374" name="__module.model.layers.1.self_attn/aten::transpose/Constant_1" type="Const" version="opset1">
			<data element_type="i32" shape="4" offset="236055376" size="16" />
			<output>
				<port id="0" precision="I32">
					<dim>4</dim>
				</port>
			</output>
		</layer>
		<layer id="375" name="__module.model.layers.1.self_attn/aten::transpose/Transpose_1" type="Transpose" version="opset1">
			<input>
				<port id="0" precision="FP32">
					<dim>-1</dim>
					<dim>-1</dim>
					<dim>2</dim>
					<dim>128</dim>
				</port>
				<port id="1" precision="I32">
					<dim>4</dim>
				</port>
			</input>
			<output>
				<port id="2" precision="FP32" names="557,k.3">
					<dim>-1</dim>
					<dim>2</dim>
					<dim>-1</dim>
					<dim>128</dim>
				</port>
			</output>
		</layer>
		<layer id="376" name="__module.model.layers.1.self_attn/aten::mul/Multiply_2" type="Multiply" version="opset1">
			<data auto_broadcast="numpy" />
			<input>
				<port id="0" precision="FP32">
					<dim>-1</dim>
					<dim>2</dim>
					<dim>-1</dim>
					<dim>128</dim>
				</port>
				<port id="1" precision="FP32">
					<dim>-1</dim>
					<dim>1</dim>
					<dim>-1</dim>
					<dim>128</dim>
				</port>
			</input>
			<output>
				<port id="2" precision="FP32" names="582">
					<dim>-1</dim>
					<dim>2</dim>
					<dim>-1</dim>
					<dim>128</dim>
				</port>
			</output>
		</layer>
		<layer id="377" name="Constant_2195" type="Const" version="opset1">
			<data element_type="i64" shape="1" offset="236055668" size="8" />
			<output>
				<port id="0" precision="I64">
					<dim>1</dim>
				</port>
			</output>
		</layer>
		<layer id="378" name="Constant_2197" type="Const" version="opset1">
			<data element_type="i64" shape="1" offset="236055676" size="8" />
			<output>
				<port id="0" precision="I64">
					<dim>1</dim>
				</port>
			</output>
		</layer>
		<layer id="379" name="Constant_2199" type="Const" version="opset1">
			<data element_type="i64" shape="1" offset="236055648" size="8" />
			<output>
				<port id="0" precision="I64">
					<dim>1</dim>
				</port>
			</output>
		</layer>
		<layer id="380" name="Constant_2151" type="Const" version="opset1">
			<data element_type="i64" shape="1" offset="236055684" size="8" />
			<output>
				<port id="0" precision="I64">
					<dim>1</dim>
				</port>
			</output>
		</layer>
		<layer id="381" name="__module.model.layers.1.self_attn/aten::slice/Slice_2" type="Slice" version="opset8">
			<input>
				<port id="0" precision="FP32">
					<dim>-1</dim>
					<dim>2</dim>
					<dim>-1</dim>
					<dim>128</dim>
				</port>
				<port id="1" precision="I64">
					<dim>1</dim>
				</port>
				<port id="2" precision="I64">
					<dim>1</dim>
				</port>
				<port id="3" precision="I64">
					<dim>1</dim>
				</port>
				<port id="4" precision="I64">
					<dim>1</dim>
				</port>
			</input>
			<output>
				<port id="5" precision="FP32" names="592,x2.7">
					<dim>-1</dim>
					<dim>2</dim>
					<dim>-1</dim>
					<dim>64</dim>
				</port>
			</output>
		</layer>
		<layer id="382" name="Constant_66188" type="Const" version="opset1">
			<data element_type="f32" shape="1, 1, 1, 1" offset="236055692" size="4" />
			<output>
				<port id="0" precision="FP32">
					<dim>1</dim>
					<dim>1</dim>
					<dim>1</dim>
					<dim>1</dim>
				</port>
			</output>
		</layer>
		<layer id="383" name="__module.model.layers.1.self_attn/aten::neg/Multiply_1" type="Multiply" version="opset1">
			<data auto_broadcast="numpy" />
			<input>
				<port id="0" precision="FP32">
					<dim>-1</dim>
					<dim>2</dim>
					<dim>-1</dim>
					<dim>64</dim>
				</port>
				<port id="1" precision="FP32">
					<dim>1</dim>
					<dim>1</dim>
					<dim>1</dim>
					<dim>1</dim>
				</port>
			</input>
			<output>
				<port id="2" precision="FP32" names="593">
					<dim>-1</dim>
					<dim>2</dim>
					<dim>-1</dim>
					<dim>64</dim>
				</port>
			</output>
		</layer>
		<layer id="384" name="Constant_2092" type="Const" version="opset1">
			<data element_type="i64" shape="1" offset="4" size="8" />
			<output>
				<port id="0" precision="I64">
					<dim>1</dim>
				</port>
			</output>
		</layer>
		<layer id="385" name="Constant_2136" type="Const" version="opset1">
			<data element_type="i64" shape="1" offset="236055668" size="8" />
			<output>
				<port id="0" precision="I64">
					<dim>1</dim>
				</port>
			</output>
		</layer>
		<layer id="386" name="Constant_2138" type="Const" version="opset1">
			<data element_type="i64" shape="1" offset="236055648" size="8" />
			<output>
				<port id="0" precision="I64">
					<dim>1</dim>
				</port>
			</output>
		</layer>
		<layer id="387" name="Constant_2090" type="Const" version="opset1">
			<data element_type="i64" shape="1" offset="236055684" size="8" />
			<output>
				<port id="0" precision="I64">
					<dim>1</dim>
				</port>
			</output>
		</layer>
		<layer id="388" name="__module.model.layers.1.self_attn/aten::slice/Slice_3" type="Slice" version="opset8">
			<input>
				<port id="0" precision="FP32">
					<dim>-1</dim>
					<dim>2</dim>
					<dim>-1</dim>
					<dim>128</dim>
				</port>
				<port id="1" precision="I64">
					<dim>1</dim>
				</port>
				<port id="2" precision="I64">
					<dim>1</dim>
				</port>
				<port id="3" precision="I64">
					<dim>1</dim>
				</port>
				<port id="4" precision="I64">
					<dim>1</dim>
				</port>
			</input>
			<output>
				<port id="5" precision="FP32" names="587">
					<dim>-1</dim>
					<dim>2</dim>
					<dim>-1</dim>
					<dim>64</dim>
				</port>
			</output>
		</layer>
		<layer id="389" name="__module.model.layers.1.self_attn/aten::cat/Concat_1" type="Concat" version="opset1">
			<data axis="-1" />
			<input>
				<port id="0" precision="FP32">
					<dim>-1</dim>
					<dim>2</dim>
					<dim>-1</dim>
					<dim>64</dim>
				</port>
				<port id="1" precision="FP32">
					<dim>-1</dim>
					<dim>2</dim>
					<dim>-1</dim>
					<dim>64</dim>
				</port>
			</input>
			<output>
				<port id="2" precision="FP32" names="595">
					<dim>-1</dim>
					<dim>2</dim>
					<dim>-1</dim>
					<dim>128</dim>
				</port>
			</output>
		</layer>
		<layer id="390" name="__module.model.layers.1.self_attn/aten::mul/Multiply_3" type="Multiply" version="opset1">
			<data auto_broadcast="numpy" />
			<input>
				<port id="0" precision="FP32">
					<dim>-1</dim>
					<dim>2</dim>
					<dim>-1</dim>
					<dim>128</dim>
				</port>
				<port id="1" precision="FP32">
					<dim>-1</dim>
					<dim>1</dim>
					<dim>-1</dim>
					<dim>128</dim>
				</port>
			</input>
			<output>
				<port id="2" precision="FP32" names="596">
					<dim>-1</dim>
					<dim>2</dim>
					<dim>-1</dim>
					<dim>128</dim>
				</port>
			</output>
		</layer>
		<layer id="391" name="__module.model.layers.1.self_attn/aten::add/Add_1" type="Add" version="opset1">
			<data auto_broadcast="numpy" />
			<input>
				<port id="0" precision="FP32">
					<dim>-1</dim>
					<dim>2</dim>
					<dim>-1</dim>
					<dim>128</dim>
				</port>
				<port id="1" precision="FP32">
					<dim>-1</dim>
					<dim>2</dim>
					<dim>-1</dim>
					<dim>128</dim>
				</port>
			</input>
			<output>
				<port id="2" precision="FP32" names="597">
					<dim>-1</dim>
					<dim>2</dim>
					<dim>-1</dim>
					<dim>128</dim>
				</port>
			</output>
		</layer>
		<layer id="392" name="__module.model.layers.1.self_attn/aten::cat/Concat_2" type="Concat" version="opset1">
			<data axis="-2" />
			<input>
				<port id="0" precision="FP32">
					<dim>-1</dim>
					<dim>2</dim>
					<dim>-1</dim>
					<dim>128</dim>
				</port>
				<port id="1" precision="FP32">
					<dim>-1</dim>
					<dim>2</dim>
					<dim>-1</dim>
					<dim>128</dim>
				</port>
			</input>
			<output>
				<port id="2" precision="FP32" names="607,608,hidden_states.39">
					<dim>-1</dim>
					<dim>2</dim>
					<dim>-1</dim>
					<dim>128</dim>
				</port>
			</output>
		</layer>
		<layer id="393" name="__module.model.layers.1.self_attn/aten::unsqueeze/Unsqueeze_2" type="Unsqueeze" version="opset1">
			<input>
				<port id="0" precision="FP32">
					<dim>-1</dim>
					<dim>2</dim>
					<dim>-1</dim>
					<dim>128</dim>
				</port>
				<port id="1" precision="I64" />
…
		<edge from-layer="3890" from-port="2" to-layer="3891" to-port="1" />
		<edge from-layer="3891" from-port="2" to-layer="4013" to-port="0" />
		<edge from-layer="3891" from-port="2" to-layer="3902" to-port="0" />
		<edge from-layer="3891" from-port="2" to-layer="3895" to-port="0" />
		<edge from-layer="3892" from-port="0" to-layer="3903" to-port="0" />
		<edge from-layer="3893" from-port="0" to-layer="3901" to-port="0" />
		<edge from-layer="3894" from-port="0" to-layer="3895" to-port="1" />
		<edge from-layer="3895" from-port="2" to-layer="3897" to-port="0" />
		<edge from-layer="3896" from-port="0" to-layer="3897" to-port="1" />
		<edge from-layer="3897" from-port="2" to-layer="3899" to-port="0" />
		<edge from-layer="3898" from-port="0" to-layer="3899" to-port="1" />
		<edge from-layer="3899" from-port="2" to-layer="3900" to-port="0" />
		<edge from-layer="3900" from-port="1" to-layer="3901" to-port="1" />
		<edge from-layer="3901" from-port="2" to-layer="3902" to-port="1" />
		<edge from-layer="3902" from-port="2" to-layer="3903" to-port="1" />
		<edge from-layer="3903" from-port="2" to-layer="3909" to-port="0" />
		<edge from-layer="3903" from-port="2" to-layer="3947" to-port="0" />
		<edge from-layer="3903" from-port="2" to-layer="3990" to-port="0" />
		<edge from-layer="3904" from-port="0" to-layer="3905" to-port="0" />
		<edge from-layer="3905" from-port="1" to-layer="3907" to-port="0" />
		<edge from-layer="3906" from-port="0" to-layer="3907" to-port="1" />
		<edge from-layer="3907" from-port="2" to-layer="3908" to-port="0" />
		<edge from-layer="3908" from-port="1" to-layer="3909" to-port="1" />
		<edge from-layer="3909" from-port="2" to-layer="3912" to-port="0" />
		<edge from-layer="3910" from-port="0" to-layer="3911" to-port="0" />
		<edge from-layer="3911" from-port="1" to-layer="3912" to-port="1" />
		<edge from-layer="3912" from-port="2" to-layer="3914" to-port="0" />
		<edge from-layer="3913" from-port="0" to-layer="3914" to-port="1" />
		<edge from-layer="3914" from-port="2" to-layer="3916" to-port="0" />
		<edge from-layer="3915" from-port="0" to-layer="3916" to-port="1" />
		<edge from-layer="3916" from-port="2" to-layer="3917" to-port="0" />
		<edge from-layer="3916" from-port="2" to-layer="3929" to-port="0" />
		<edge from-layer="3916" from-port="2" to-layer="3922" to-port="0" />
		<edge from-layer="3917" from-port="2" to-layer="3932" to-port="0" />
		<edge from-layer="3918" from-port="0" to-layer="3922" to-port="1" />
		<edge from-layer="3919" from-port="0" to-layer="3922" to-port="2" />
		<edge from-layer="3920" from-port="0" to-layer="3922" to-port="3" />
		<edge from-layer="3921" from-port="0" to-layer="3922" to-port="4" />
		<edge from-layer="3922" from-port="5" to-layer="3924" to-port="0" />
		<edge from-layer="3923" from-port="0" to-layer="3924" to-port="1" />
		<edge from-layer="3924" from-port="2" to-layer="3930" to-port="0" />
		<edge from-layer="3925" from-port="0" to-layer="3929" to-port="1" />
		<edge from-layer="3926" from-port="0" to-layer="3929" to-port="2" />
		<edge from-layer="3927" from-port="0" to-layer="3929" to-port="3" />
		<edge from-layer="3928" from-port="0" to-layer="3929" to-port="4" />
		<edge from-layer="3929" from-port="5" to-layer="3930" to-port="1" />
		<edge from-layer="3930" from-port="2" to-layer="3931" to-port="0" />
		<edge from-layer="3931" from-port="2" to-layer="3932" to-port="1" />
		<edge from-layer="3932" from-port="2" to-layer="4003" to-port="0" />
		<edge from-layer="3933" from-port="0" to-layer="3938" to-port="0" />
		<edge from-layer="3934" from-port="0" to-layer="3937" to-port="1" />
		<edge from-layer="3935" from-port="0" to-layer="3937" to-port="2" />
		<edge from-layer="3936" from-port="0" to-layer="3937" to-port="3" />
		<edge from-layer="3937" from-port="4" to-layer="3938" to-port="1" />
		<edge from-layer="3938" from-port="2" to-layer="3939" to-port="0" />
		<edge from-layer="3939" from-port="1" to-layer="3941" to-port="0" />
		<edge from-layer="3940" from-port="0" to-layer="3941" to-port="2" />
		<edge from-layer="3941" from-port="3" to-layer="3971" to-port="0" />
		<edge from-layer="3942" from-port="0" to-layer="3943" to-port="0" />
		<edge from-layer="3943" from-port="1" to-layer="3945" to-port="0" />
		<edge from-layer="3944" from-port="0" to-layer="3945" to-port="1" />
		<edge from-layer="3945" from-port="2" to-layer="3946" to-port="0" />
		<edge from-layer="3946" from-port="1" to-layer="3947" to-port="1" />
		<edge from-layer="3947" from-port="2" to-layer="3950" to-port="0" />
		<edge from-layer="3948" from-port="0" to-layer="3949" to-port="0" />
		<edge from-layer="3949" from-port="1" to-layer="3950" to-port="1" />
		<edge from-layer="3950" from-port="2" to-layer="3952" to-port="0" />
		<edge from-layer="3951" from-port="0" to-layer="3952" to-port="1" />
		<edge from-layer="3952" from-port="2" to-layer="3954" to-port="0" />
		<edge from-layer="3953" from-port="0" to-layer="3954" to-port="1" />
		<edge from-layer="3954" from-port="2" to-layer="3960" to-port="0" />
		<edge from-layer="3954" from-port="2" to-layer="3955" to-port="0" />
		<edge from-layer="3954" from-port="2" to-layer="3967" to-port="0" />
		<edge from-layer="3955" from-port="2" to-layer="3970" to-port="0" />
		<edge from-layer="3956" from-port="0" to-layer="3960" to-port="1" />
		<edge from-layer="3957" from-port="0" to-layer="3960" to-port="2" />
		<edge from-layer="3958" from-port="0" to-layer="3960" to-port="3" />
		<edge from-layer="3959" from-port="0" to-layer="3960" to-port="4" />
		<edge from-layer="3960" from-port="5" to-layer="3962" to-port="0" />
		<edge from-layer="3961" from-port="0" to-layer="3962" to-port="1" />
		<edge from-layer="3962" from-port="2" to-layer="3968" to-port="0" />
		<edge from-layer="3963" from-port="0" to-layer="3967" to-port="1" />
		<edge from-layer="3964" from-port="0" to-layer="3967" to-port="2" />
		<edge from-layer="3965" from-port="0" to-layer="3967" to-port="3" />
		<edge from-layer="3966" from-port="0" to-layer="3967" to-port="4" />
		<edge from-layer="3967" from-port="5" to-layer="3968" to-port="1" />
		<edge from-layer="3968" from-port="2" to-layer="3969" to-port="0" />
		<edge from-layer="3969" from-port="2" to-layer="3970" to-port="1" />
		<edge from-layer="3970" from-port="2" to-layer="3971" to-port="1" />
		<edge from-layer="3971" from-port="2" to-layer="3972" to-port="0" />
		<edge from-layer="3971" from-port="2" to-layer="4428" to-port="0" />
		<edge from-layer="3972" from-port="2" to-layer="3973" to-port="0" />
		<edge from-layer="3973" from-port="2" to-layer="3975" to-port="0" />
		<edge from-layer="3974" from-port="0" to-layer="3975" to-port="1" />
		<edge from-layer="3975" from-port="2" to-layer="4003" to-port="1" />
		<edge from-layer="3976" from-port="0" to-layer="3981" to-port="0" />
		<edge from-layer="3977" from-port="0" to-layer="3980" to-port="1" />
		<edge from-layer="3978" from-port="0" to-layer="3980" to-port="2" />
		<edge from-layer="3979" from-port="0" to-layer="3980" to-port="3" />
		<edge from-layer="3980" from-port="4" to-layer="3981" to-port="1" />
		<edge from-layer="3981" from-port="2" to-layer="3982" to-port="0" />
		<edge from-layer="3982" from-port="1" to-layer="3984" to-port="0" />
		<edge from-layer="3983" from-port="0" to-layer="3984" to-port="2" />
		<edge from-layer="3984" from-port="3" to-layer="3998" to-port="0" />
		<edge from-layer="3985" from-port="0" to-layer="3986" to-port="0" />
		<edge from-layer="3986" from-port="1" to-layer="3988" to-port="0" />
		<edge from-layer="3987" from-port="0" to-layer="3988" to-port="1" />
		<edge from-layer="3988" from-port="2" to-layer="3989" to-port="0" />
		<edge from-layer="3989" from-port="1" to-layer="3990" to-port="1" />
		<edge from-layer="3990" from-port="2" to-layer="3993" to-port="0" />
		<edge from-layer="3991" from-port="0" to-layer="3992" to-port="0" />
		<edge from-layer="3992" from-port="1" to-layer="3993" to-port="1" />
		<edge from-layer="3993" from-port="2" to-layer="3995" to-port="0" />
		<edge from-layer="3994" from-port="0" to-layer="3995" to-port="1" />
		<edge from-layer="3995" from-port="2" to-layer="3997" to-port="0" />
		<edge from-layer="3996" from-port="0" to-layer="3997" to-port="1" />
		<edge from-layer="3997" from-port="2" to-layer="3998" to-port="1" />
		<edge from-layer="3998" from-port="2" to-layer="4427" to-port="0" />
		<edge from-layer="3998" from-port="2" to-layer="3999" to-port="0" />
		<edge from-layer="3999" from-port="2" to-layer="4000" to-port="0" />
		<edge from-layer="4000" from-port="2" to-layer="4002" to-port="0" />
		<edge from-layer="4001" from-port="0" to-layer="4002" to-port="1" />
		<edge from-layer="4002" from-port="2" to-layer="4003" to-port="2" />
		<edge from-layer="4003" from-port="5" to-layer="4005" to-port="0" />
		<edge from-layer="4004" from-port="0" to-layer="4005" to-port="1" />
		<edge from-layer="4005" from-port="2" to-layer="4006" to-port="0" />
		<edge from-layer="4006" from-port="2" to-layer="4012" to-port="0" />
		<edge from-layer="4007" from-port="0" to-layer="4008" to-port="0" />
		<edge from-layer="4008" from-port="1" to-layer="4010" to-port="0" />
		<edge from-layer="4009" from-port="0" to-layer="4010" to-port="1" />
		<edge from-layer="4010" from-port="2" to-layer="4011" to-port="0" />
		<edge from-layer="4011" from-port="1" to-layer="4012" to-port="1" />
		<edge from-layer="4012" from-port="2" to-layer="4013" to-port="1" />
		<edge from-layer="4013" from-port="2" to-layer="4017" to-port="0" />
		<edge from-layer="4013" from-port="2" to-layer="4046" to-port="0" />
		<edge from-layer="4013" from-port="2" to-layer="4024" to-port="0" />
		<edge from-layer="4014" from-port="0" to-layer="4025" to-port="0" />
		<edge from-layer="4015" from-port="0" to-layer="4023" to-port="0" />
		<edge from-layer="4016" from-port="0" to-layer="4017" to-port="1" />
		<edge from-layer="4017" from-port="2" to-layer="4019" to-port="0" />
		<edge from-layer="4018" from-port="0" to-layer="4019" to-port="1" />
		<edge from-layer="4019" from-port="2" to-layer="4021" to-port="0" />
		<edge from-layer="4020" from-port="0" to-layer="4021" to-port="1" />
		<edge from-layer="4021" from-port="2" to-layer="4022" to-port="0" />
		<edge from-layer="4022" from-port="1" to-layer="4023" to-port="1" />
		<edge from-layer="4023" from-port="2" to-layer="4024" to-port="1" />
		<edge from-layer="4024" from-port="2" to-layer="4025" to-port="1" />
		<edge from-layer="4025" from-port="2" to-layer="4031" to-port="0" />
		<edge from-layer="4025" from-port="2" to-layer="4038" to-port="0" />
		<edge from-layer="4026" from-port="0" to-layer="4027" to-port="0" />
		<edge from-layer="4027" from-port="1" to-layer="4029" to-port="0" />
		<edge from-layer="4028" from-port="0" to-layer="4029" to-port="1" />
		<edge from-layer="4029" from-port="2" to-layer="4030" to-port="0" />
		<edge from-layer="4030" from-port="1" to-layer="4031" to-port="1" />
		<edge from-layer="4031" from-port="2" to-layer="4032" to-port="0" />
		<edge from-layer="4032" from-port="1" to-layer="4039" to-port="0" />
		<edge from-layer="4033" from-port="0" to-layer="4034" to-port="0" />
		<edge from-layer="4034" from-port="1" to-layer="4036" to-port="0" />
		<edge from-layer="4035" from-port="0" to-layer="4036" to-port="1" />
		<edge from-layer="4036" from-port="2" to-layer="4037" to-port="0" />
		<edge from-layer="4037" from-port="1" to-layer="4038" to-port="1" />
		<edge from-layer="4038" from-port="2" to-layer="4039" to-port="1" />
		<edge from-layer="4039" from-port="2" to-layer="4045" to-port="0" />
		<edge from-layer="4040" from-port="0" to-layer="4041" to-port="0" />
		<edge from-layer="4041" from-port="1" to-layer="4043" to-port="0" />
		<edge from-layer="4042" from-port="0" to-layer="4043" to-port="1" />
		<edge from-layer="4043" from-port="2" to-layer="4044" to-port="0" />
		<edge from-layer="4044" from-port="1" to-layer="4045" to-port="1" />
		<edge from-layer="4045" from-port="2" to-layer="4046" to-port="1" />
		<edge from-layer="4046" from-port="2" to-layer="4057" to-port="0" />
		<edge from-layer="4046" from-port="2" to-layer="4168" to-port="0" />
		<edge from-layer="4046" from-port="2" to-layer="4050" to-port="0" />
		<edge from-layer="4047" from-port="0" to-layer="4058" to-port="0" />
		<edge from-layer="4048" from-port="0" to-layer="4056" to-port="0" />
		<edge from-layer="4049" from-port="0" to-layer="4050" to-port="1" />
		<edge from-layer="4050" from-port="2" to-layer="4052" to-port="0" />
		<edge from-layer="4051" from-port="0" to-layer="4052" to-port="1" />
		<edge from-layer="4052" from-port="2" to-layer="4054" to-port="0" />
		<edge from-layer="4053" from-port="0" to-layer="4054" to-port="1" />
		<edge from-layer="4054" from-port="2" to-layer="4055" to-port="0" />
		<edge from-layer="4055" from-port="1" to-layer="4056" to-port="1" />
		<edge from-layer="4056" from-port="2" to-layer="4057" to-port="1" />
		<edge from-layer="4057" from-port="2" to-layer="4058" to-port="1" />
		<edge from-layer="4058" from-port="2" to-layer="4102" to-port="0" />
		<edge from-layer="4058" from-port="2" to-layer="4145" to-port="0" />
		<edge from-layer="4058" from-port="2" to-layer="4064" to-port="0" />
		<edge from-layer="4059" from-port="0" to-layer="4060" to-port="0" />
		<edge from-layer="4060" from-port="1" to-layer="4062" to-port="0" />
		<edge from-layer="4061" from-port="0" to-layer="4062" to-port="1" />
		<edge from-layer="4062" from-port="2" to-layer="4063" to-port="0" />
		<edge from-layer="4063" from-port="1" to-layer="4064" to-port="1" />
		<edge from-layer="4064" from-port="2" to-layer="4067" to-port="0" />
		<edge from-layer="4065" from-port="0" to-layer="4066" to-port="0" />
		<edge from-layer="4066" from-port="1" to-layer="4067" to-port="1" />
		<edge from-layer="4067" from-port="2" to-layer="4069" to-port="0" />
		<edge from-layer="4068" from-port="0" to-layer="4069" to-port="1" />
		<edge from-layer="4069" from-port="2" to-layer="4071" to-port="0" />
		<edge from-layer="4070" from-port="0" to-layer="4071" to-port="1" />
		<edge from-layer="4071" from-port="2" to-layer="4077" to-port="0" />
		<edge from-layer="4071" from-port="2" to-layer="4072" to-port="0" />
		<edge from-layer="4071" from-port="2" to-layer="4084" to-port="0" />
		<edge from-layer="4072" from-port="2" to-layer="4087" to-port="0" />
		<edge from-layer="4073" from-port="0" to-layer="4077" to-port="1" />
		<edge from-layer="4074" from-port="0" to-layer="4077" to-port="2" />
		<edge from-layer="4075" from-port="0" to-layer="4077" to-port="3" />
		<edge from-layer="4076" from-port="0" to-layer="4077" to-port="4" />
		<edge from-layer="4077" from-port="5" to-layer="4079" to-port="0" />
		<edge from-layer="4078" from-port="0" to-layer="4079" to-port="1" />
		<edge from-layer="4079" from-port="2" to-layer="4085" to-port="0" />
		<edge from-layer="4080" from-port="0" to-layer="4084" to-port="1" />
		<edge from-layer="4081" from-port="0" to-layer="4084" to-port="2" />
		<edge from-layer="4082" from-port="0" to-layer="4084" to-port="3" />
		<edge from-layer="4083" from-port="0" to-layer="4084" to-port="4" />
		<edge from-layer="4084" from-port="5" to-layer="4085" to-port="1" />
		<edge from-layer="4085" from-port="2" to-layer="4086" to-port="0" />
		<edge from-layer="4086" from-port="2" to-layer="4087" to-port="1" />
		<edge from-layer="4087" from-port="2" to-layer="4158" to-port="0" />
		<edge from-layer="4088" from-port="0" to-layer="4093" to-port="0" />
		<edge from-layer="4089" from-port="0" to-layer="4092" to-port="1" />
		<edge from-layer="4090" from-port="0" to-layer="4092" to-port="2" />
		<edge from-layer="4091" from-port="0" to-layer="4092" to-port="3" />
		<edge from-layer="4092" from-port="4" to-layer="4093" to-port="1" />
		<edge from-layer="4093" from-port="2" to-layer="4094" to-port="0" />
		<edge from-layer="4094" from-port="1" to-layer="4096" to-port="0" />
		<edge from-layer="4095" from-port="0" to-layer="4096" to-port="2" />
		<edge from-layer="4096" from-port="3" to-layer="4126" to-port="0" />
		<edge from-layer="4097" from-port="0" to-layer="4098" to-port="0" />
		<edge from-layer="4098" from-port="1" to-layer="4100" to-port="0" />
		<edge from-layer="4099" from-port="0" to-layer="4100" to-port="1" />
		<edge from-layer="4100" from-port="2" to-layer="4101" to-port="0" />
		<edge from-layer="4101" from-port="1" to-layer="4102" to-port="1" />
		<edge from-layer="4102" from-port="2" to-layer="4105" to-port="0" />
		<edge from-layer="4103" from-port="0" to-layer="4104" to-port="0" />
		<edge from-layer="4104" from-port="1" to-layer="4105" to-port="1" />
		<edge from-layer="4105" from-port="2" to-layer="4107" to-port="0" />
		<edge from-layer="4106" from-port="0" to-layer="4107" to-port="1" />
		<edge from-layer="4107" from-port="2" to-layer="4109" to-port="0" />
		<edge from-layer="4108" from-port="0" to-layer="4109" to-port="1" />
		<edge from-layer="4109" from-port="2" to-layer="4110" to-port="0" />
		<edge from-layer="4109" from-port="2" to-layer="4115" to-port="0" />
		<edge from-layer="4109" from-port="2" to-layer="4122" to-port="0" />
		<edge from-layer="4110" from-port="2" to-layer="4125" to-port="0" />
		<edge from-layer="4111" from-port="0" to-layer="4115" to-port="1" />
		<edge from-layer="4112" from-port="0" to-layer="4115" to-port="2" />
		<edge from-layer="4113" from-port="0" to-layer="4115" to-port="3" />
		<edge from-layer="4114" from-port="0" to-layer="4115" to-port="4" />
		<edge from-layer="4115" from-port="5" to-layer="4117" to-port="0" />
		<edge from-layer="4116" from-port="0" to-layer="4117" to-port="1" />
		<edge from-layer="4117" from-port="2" to-layer="4123" to-port="0" />
		<edge from-layer="4118" from-port="0" to-layer="4122" to-port="1" />
		<edge from-layer="4119" from-port="0" to-layer="4122" to-port="2" />
		<edge from-layer="4120" from-port="0" to-layer="4122" to-port="3" />
		<edge from-layer="4121" from-port="0" to-layer="4122" to-port="4" />
		<edge from-layer="4122" from-port="5" to-layer="4123" to-port="1" />
		<edge from-layer="4123" from-port="2" to-layer="4124" to-port="0" />
		<edge from-layer="4124" from-port="2" to-layer="4125" to-port="1" />
		<edge from-layer="4125" from-port="2" to-layer="4126" to-port="1" />
		<edge from-layer="4126" from-port="2" to-layer="4127" to-port="0" />
		<edge from-layer="4126" from-port="2" to-layer="4426" to-port="0" />
		<edge from-layer="4127" from-port="2" to-layer="4128" to-port="0" />
		<edge from-layer="4128" from-port="2" to-layer="4130" to-port="0" />
		<edge from-layer="4129" from-port="0" to-layer="4130" to-port="1" />
		<edge from-layer="4130" from-port="2" to-layer="4158" to-port="1" />
		<edge from-layer="4131" from-port="0" to-layer="4136" to-port="0" />
		<edge from-layer="4132" from-port="0" to-layer="4135" to-port="1" />
		<edge from-layer="4133" from-port="0" to-layer="4135" to-port="2" />
		<edge from-layer="4134" from-port="0" to-layer="4135" to-port="3" />
		<edge from-layer="4135" from-port="4" to-layer="4136" to-port="1" />
		<edge from-layer="4136" from-port="2" to-layer="4137" to-port="0" />
		<edge from-layer="4137" from-port="1" to-layer="4139" to-port="0" />
		<edge from-layer="4138" from-port="0" to-layer="4139" to-port="2" />
		<edge from-layer="4139" from-port="3" to-layer="4153" to-port="0" />
		<edge from-layer="4140" from-port="0" to-layer="4141" to-port="0" />
		<edge from-layer="4141" from-port="1" to-layer="4143" to-port="0" />
		<edge from-layer="4142" from-port="0" to-layer="4143" to-port="1" />
		<edge from-layer="4143" from-port="2" to-layer="4144" to-port="0" />
		<edge from-layer="4144" from-port="1" to-layer="4145" to-port="1" />
		<edge from-layer="4145" from-port="2" to-layer="4148" to-port="0" />
		<edge from-layer="4146" from-port="0" to-layer="4147" to-port="0" />
		<edge from-layer="4147" from-port="1" to-layer="4148" to-port="1" />
		<edge from-layer="4148" from-port="2" to-layer="4150" to-port="0" />
		<edge from-layer="4149" from-port="0" to-layer="4150" to-port="1" />
		<edge from-layer="4150" from-port="2" to-layer="4152" to-port="0" />
		<edge from-layer="4151" from-port="0" to-layer="4152" to-port="1" />
		<edge from-layer="4152" from-port="2" to-layer="4153" to-port="1" />
		<edge from-layer="4153" from-port="2" to-layer="4154" to-port="0" />
		<edge from-layer="4153" from-port="2" to-layer="4425" to-port="0" />
		<edge from-layer="4154" from-port="2" to-layer="4155" to-port="0" />
		<edge from-layer="4155" from-port="2" to-layer="4157" to-port="0" />
		<edge from-layer="4156" from-port="0" to-layer="4157" to-port="1" />
		<edge from-layer="4157" from-port="2" to-layer="4158" to-port="2" />
		<edge from-layer="4158" from-port="5" to-layer="4160" to-port="0" />
		<edge from-layer="4159" from-port="0" to-layer="4160" to-port="1" />
		<edge from-layer="4160" from-port="2" to-layer="4161" to-port="0" />
		<edge from-layer="4161" from-port="2" to-layer="4167" to-port="0" />
		<edge from-layer="4162" from-port="0" to-layer="4163" to-port="0" />
		<edge from-layer="4163" from-port="1" to-layer="4165" to-port="0" />
		<edge from-layer="4164" from-port="0" to-layer="4165" to-port="1" />
		<edge from-layer="4165" from-port="2" to-layer="4166" to-port="0" />
		<edge from-layer="4166" from-port="1" to-layer="4167" to-port="1" />
		<edge from-layer="4167" from-port="2" to-layer="4168" to-port="1" />
		<edge from-layer="4168" from-port="2" to-layer="4179" to-port="0" />
		<edge from-layer="4168" from-port="2" to-layer="4172" to-port="0" />
		<edge from-layer="4168" from-port="2" to-layer="4201" to-port="0" />
		<edge from-layer="4169" from-port="0" to-layer="4180" to-port="0" />
		<edge from-layer="4170" from-port="0" to-layer="4178" to-port="0" />
		<edge from-layer="4171" from-port="0" to-layer="4172" to-port="1" />
		<edge from-layer="4172" from-port="2" to-layer="4174" to-port="0" />
		<edge from-layer="4173" from-port="0" to-layer="4174" to-port="1" />
		<edge from-layer="4174" from-port="2" to-layer="4176" to-port="0" />
		<edge from-layer="4175" from-port="0" to-layer="4176" to-port="1" />
		<edge from-layer="4176" from-port="2" to-layer="4177" to-port="0" />
		<edge from-layer="4177" from-port="1" to-layer="4178" to-port="1" />
		<edge from-layer="4178" from-port="2" to-layer="4179" to-port="1" />
		<edge from-layer="4179" from-port="2" to-layer="4180" to-port="1" />
		<edge from-layer="4180" from-port="2" to-layer="4186" to-port="0" />
		<edge from-layer="4180" from-port="2" to-layer="4193" to-port="0" />
		<edge from-layer="4181" from-port="0" to-layer="4182" to-port="0" />
		<edge from-layer="4182" from-port="1" to-layer="4184" to-port="0" />
		<edge from-layer="4183" from-port="0" to-layer="4184" to-port="1" />
		<edge from-layer="4184" from-port="2" to-layer="4185" to-port="0" />
		<edge from-layer="4185" from-port="1" to-layer="4186" to-port="1" />
		<edge from-layer="4186" from-port="2" to-layer="4187" to-port="0" />
		<edge from-layer="4187" from-port="1" to-layer="4194" to-port="0" />
		<edge from-layer="4188" from-port="0" to-layer="4189" to-port="0" />
		<edge from-layer="4189" from-port="1" to-layer="4191" to-port="0" />
		<edge from-layer="4190" from-port="0" to-layer="4191" to-port="1" />
		<edge from-layer="4191" from-port="2" to-layer="4192" to-port="0" />
		<edge from-layer="4192" from-port="1" to-layer="4193" to-port="1" />
		<edge from-layer="4193" from-port="2" to-layer="4194" to-port="1" />
		<edge from-layer="4194" from-port="2" to-layer="4200" to-port="0" />
		<edge from-layer="4195" from-port="0" to-layer="4196" to-port="0" />
		<edge from-layer="4196" from-port="1" to-layer="4198" to-port="0" />
		<edge from-layer="4197" from-port="0" to-layer="4198" to-port="1" />
		<edge from-layer="4198" from-port="2" to-layer="4199" to-port="0" />
		<edge from-layer="4199" from-port="1" to-layer="4200" to-port="1" />
		<edge from-layer="4200" from-port="2" to-layer="4201" to-port="1" />
		<edge from-layer="4201" from-port="2" to-layer="4205" to-port="0" />
		<edge from-layer="4201" from-port="2" to-layer="4212" to-port="0" />
		<edge from-layer="4201" from-port="2" to-layer="4323" to-port="0" />
		<edge from-layer="4202" from-port="0" to-layer="4213" to-port="0" />
		<edge from-layer="4203" from-port="0" to-layer="4211" to-port="0" />
		<edge from-layer="4204" from-port="0" to-layer="4205" to-port="1" />
		<edge from-layer="4205" from-port="2" to-layer="4207" to-port="0" />
		<edge from-layer="4206" from-port="0" to-layer="4207" to-port="1" />
		<edge from-layer="4207" from-port="2" to-layer="4209" to-port="0" />
		<edge from-layer="4208" from-port="0" to-layer="4209" to-port="1" />
		<edge from-layer="4209" from-port="2" to-layer="4210" to-port="0" />
		<edge from-layer="4210" from-port="1" to-layer="4211" to-port="1" />
		<edge from-layer="4211" from-port="2" to-layer="4212" to-port="1" />
		<edge from-layer="4212" from-port="2" to-layer="4213" to-port="1" />
		<edge from-layer="4213" from-port="2" to-layer="4219" to-port="0" />
		<edge from-layer="4213" from-port="2" to-layer="4257" to-port="0" />
		<edge from-layer="4213" from-port="2" to-layer="4300" to-port="0" />
		<edge from-layer="4214" from-port="0" to-layer="4215" to-port="0" />
		<edge from-layer="4215" from-port="1" to-layer="4217" to-port="0" />
		<edge from-layer="4216" from-port="0" to-layer="4217" to-port="1" />
		<edge from-layer="4217" from-port="2" to-layer="4218" to-port="0" />
		<edge from-layer="4218" from-port="1" to-layer="4219" to-port="1" />
		<edge from-layer="4219" from-port="2" to-layer="4222" to-port="0" />
		<edge from-layer="4220" from-port="0" to-layer="4221" to-port="0" />
		<edge from-layer="4221" from-port="1" to-layer="4222" to-port="1" />
		<edge from-layer="4222" from-port="2" to-layer="4224" to-port="0" />
		<edge from-layer="4223" from-port="0" to-layer="4224" to-port="1" />
		<edge from-layer="4224" from-port="2" to-layer="4226" to-port="0" />
		<edge from-layer="4225" from-port="0" to-layer="4226" to-port="1" />
		<edge from-layer="4226" from-port="2" to-layer="4227" to-port="0" />
		<edge from-layer="4226" from-port="2" to-layer="4232" to-port="0" />
		<edge from-layer="4226" from-port="2" to-layer="4239" to-port="0" />
		<edge from-layer="4227" from-port="2" to-layer="4242" to-port="0" />
		<edge from-layer="4228" from-port="0" to-layer="4232" to-port="1" />
		<edge from-layer="4229" from-port="0" to-layer="4232" to-port="2" />
		<edge from-layer="4230" from-port="0" to-layer="4232" to-port="3" />
		<edge from-layer="4231" from-port="0" to-layer="4232" to-port="4" />
		<edge from-layer="4232" from-port="5" to-layer="4234" to-port="0" />
		<edge from-layer="4233" from-port="0" to-layer="4234" to-port="1" />
		<edge from-layer="4234" from-port="2" to-layer="4240" to-port="0" />
		<edge from-layer="4235" from-port="0" to-layer="4239" to-port="1" />
		<edge from-layer="4236" from-port="0" to-layer="4239" to-port="2" />
		<edge from-layer="4237" from-port="0" to-layer="4239" to-port="3" />
		<edge from-layer="4238" from-port="0" to-layer="4239" to-port="4" />
		<edge from-layer="4239" from-port="5" to-layer="4240" to-port="1" />
		<edge from-layer="4240" from-port="2" to-layer="4241" to-port="0" />
		<edge from-layer="4241" from-port="2" to-layer="4242" to-port="1" />
		<edge from-layer="4242" from-port="2" to-layer="4313" to-port="0" />
		<edge from-layer="4243" from-port="0" to-layer="4248" to-port="0" />
		<edge from-layer="4244" from-port="0" to-layer="4247" to-port="1" />
		<edge from-layer="4245" from-port="0" to-layer="4247" to-port="2" />
		<edge from-layer="4246" from-port="0" to-layer="4247" to-port="3" />
		<edge from-layer="4247" from-port="4" to-layer="4248" to-port="1" />
		<edge from-layer="4248" from-port="2" to-layer="4249" to-port="0" />
		<edge from-layer="4249" from-port="1" to-layer="4251" to-port="0" />
		<edge from-layer="4250" from-port="0" to-layer="4251" to-port="2" />
		<edge from-layer="4251" from-port="3" to-layer="4281" to-port="0" />
		<edge from-layer="4252" from-port="0" to-layer="4253" to-port="0" />
		<edge from-layer="4253" from-port="1" to-layer="4255" to-port="0" />
		<edge from-layer="4254" from-port="0" to-layer="4255" to-port="1" />
		<edge from-layer="4255" from-port="2" to-layer="4256" to-port="0" />
		<edge from-layer="4256" from-port="1" to-layer="4257" to-port="1" />
		<edge from-layer="4257" from-port="2" to-layer="4260" to-port="0" />
		<edge from-layer="4258" from-port="0" to-layer="4259" to-port="0" />
		<edge from-layer="4259" from-port="1" to-layer="4260" to-port="1" />
		<edge from-layer="4260" from-port="2" to-layer="4262" to-port="0" />
		<edge from-layer="4261" from-port="0" to-layer="4262" to-port="1" />
		<edge from-layer="4262" from-port="2" to-layer="4264" to-port="0" />
		<edge from-layer="4263" from-port="0" to-layer="4264" to-port="1" />
		<edge from-layer="4264" from-port="2" to-layer="4270" to-port="0" />
		<edge from-layer="4264" from-port="2" to-layer="4265" to-port="0" />
		<edge from-layer="4264" from-port="2" to-layer="4277" to-port="0" />
		<edge from-layer="4265" from-port="2" to-layer="4280" to-port="0" />
		<edge from-layer="4266" from-port="0" to-layer="4270" to-port="1" />
		<edge from-layer="4267" from-port="0" to-layer="4270" to-port="2" />
		<edge from-layer="4268" from-port="0" to-layer="4270" to-port="3" />
		<edge from-layer="4269" from-port="0" to-layer="4270" to-port="4" />
		<edge from-layer="4270" from-port="5" to-layer="4272" to-port="0" />
		<edge from-layer="4271" from-port="0" to-layer="4272" to-port="1" />
		<edge from-layer="4272" from-port="2" to-layer="4278" to-port="0" />
		<edge from-layer="4273" from-port="0" to-layer="4277" to-port="1" />
		<edge from-layer="4274" from-port="0" to-layer="4277" to-port="2" />
		<edge from-layer="4275" from-port="0" to-layer="4277" to-port="3" />
		<edge from-layer="4276" from-port="0" to-layer="4277" to-port="4" />
		<edge from-layer="4277" from-port="5" to-layer="4278" to-port="1" />
		<edge from-layer="4278" from-port="2" to-layer="4279" to-port="0" />
		<edge from-layer="4279" from-port="2" to-layer="4280" to-port="1" />
		<edge from-layer="4280" from-port="2" to-layer="4281" to-port="1" />
		<edge from-layer="4281" from-port="2" to-layer="4424" to-port="0" />
		<edge from-layer="4281" from-port="2" to-layer="4282" to-port="0" />
		<edge from-layer="4282" from-port="2" to-layer="4283" to-port="0" />
		<edge from-layer="4283" from-port="2" to-layer="4285" to-port="0" />
		<edge from-layer="4284" from-port="0" to-layer="4285" to-port="1" />
		<edge from-layer="4285" from-port="2" to-layer="4313" to-port="1" />
		<edge from-layer="4286" from-port="0" to-layer="4291" to-port="0" />
		<edge from-layer="4287" from-port="0" to-layer="4290" to-port="1" />
		<edge from-layer="4288" from-port="0" to-layer="4290" to-port="2" />
		<edge from-layer="4289" from-port="0" to-layer="4290" to-port="3" />
		<edge from-layer="4290" from-port="4" to-layer="4291" to-port="1" />
		<edge from-layer="4291" from-port="2" to-layer="4292" to-port="0" />
		<edge from-layer="4292" from-port="1" to-layer="4294" to-port="0" />
		<edge from-layer="4293" from-port="0" to-layer="4294" to-port="2" />
		<edge from-layer="4294" from-port="3" to-layer="4308" to-port="0" />
		<edge from-layer="4295" from-port="0" to-layer="4296" to-port="0" />
		<edge from-layer="4296" from-port="1" to-layer="4298" to-port="0" />
		<edge from-layer="4297" from-port="0" to-layer="4298" to-port="1" />
		<edge from-layer="4298" from-port="2" to-layer="4299" to-port="0" />
		<edge from-layer="4299" from-port="1" to-layer="4300" to-port="1" />
		<edge from-layer="4300" from-port="2" to-layer="4303" to-port="0" />
		<edge from-layer="4301" from-port="0" to-layer="4302" to-port="0" />
		<edge from-layer="4302" from-port="1" to-layer="4303" to-port="1" />
		<edge from-layer="4303" from-port="2" to-layer="4305" to-port="0" />
		<edge from-layer="4304" from-port="0" to-layer="4305" to-port="1" />
		<edge from-layer="4305" from-port="2" to-layer="4307" to-port="0" />
		<edge from-layer="4306" from-port="0" to-layer="4307" to-port="1" />
		<edge from-layer="4307" from-port="2" to-layer="4308" to-port="1" />
		<edge from-layer="4308" from-port="2" to-layer="4423" to-port="0" />
		<edge from-layer="4308" from-port="2" to-layer="4309" to-port="0" />
		<edge from-layer="4309" from-port="2" to-layer="4310" to-port="0" />
		<edge from-layer="4310" from-port="2" to-layer="4312" to-port="0" />
		<edge from-layer="4311" from-port="0" to-layer="4312" to-port="1" />
		<edge from-layer="4312" from-port="2" to-layer="4313" to-port="2" />
		<edge from-layer="4313" from-port="5" to-layer="4315" to-port="0" />
		<edge from-layer="4314" from-port="0" to-layer="4315" to-port="1" />
		<edge from-layer="4315" from-port="2" to-layer="4316" to-port="0" />
		<edge from-layer="4316" from-port="2" to-layer="4322" to-port="0" />
		<edge from-layer="4317" from-port="0" to-layer="4318" to-port="0" />
		<edge from-layer="4318" from-port="1" to-layer="4320" to-port="0" />
		<edge from-layer="4319" from-port="0" to-layer="4320" to-port="1" />
		<edge from-layer="4320" from-port="2" to-layer="4321" to-port="0" />
		<edge from-layer="4321" from-port="1" to-layer="4322" to-port="1" />
		<edge from-layer="4322" from-port="2" to-layer="4323" to-port="1" />
		<edge from-layer="4323" from-port="2" to-layer="4356" to-port="0" />
		<edge from-layer="4323" from-port="2" to-layer="4327" to-port="0" />
		<edge from-layer="4323" from-port="2" to-layer="4334" to-port="0" />
		<edge from-layer="4324" from-port="0" to-layer="4335" to-port="0" />
		<edge from-layer="4325" from-port="0" to-layer="4333" to-port="0" />
		<edge from-layer="4326" from-port="0" to-layer="4327" to-port="1" />
		<edge from-layer="4327" from-port="2" to-layer="4329" to-port="0" />
		<edge from-layer="4328" from-port="0" to-layer="4329" to-port="1" />
		<edge from-layer="4329" from-port="2" to-layer="4331" to-port="0" />
		<edge from-layer="4330" from-port="0" to-layer="4331" to-port="1" />
		<edge from-layer="4331" from-port="2" to-layer="4332" to-port="0" />
		<edge from-layer="4332" from-port="1" to-layer="4333" to-port="1" />
		<edge from-layer="4333" from-port="2" to-layer="4334" to-port="1" />
		<edge from-layer="4334" from-port="2" to-layer="4335" to-port="1" />
		<edge from-layer="4335" from-port="2" to-layer="4341" to-port="0" />
		<edge from-layer="4335" from-port="2" to-layer="4348" to-port="0" />
		<edge from-layer="4336" from-port="0" to-layer="4337" to-port="0" />
		<edge from-layer="4337" from-port="1" to-layer="4339" to-port="0" />
		<edge from-layer="4338" from-port="0" to-layer="4339" to-port="1" />
		<edge from-layer="4339" from-port="2" to-layer="4340" to-port="0" />
		<edge from-layer="4340" from-port="1" to-layer="4341" to-port="1" />
		<edge from-layer="4341" from-port="2" to-layer="4342" to-port="0" />
		<edge from-layer="4342" from-port="1" to-layer="4349" to-port="0" />
		<edge from-layer="4343" from-port="0" to-layer="4344" to-port="0" />
		<edge from-layer="4344" from-port="1" to-layer="4346" to-port="0" />
		<edge from-layer="4345" from-port="0" to-layer="4346" to-port="1" />
		<edge from-layer="4346" from-port="2" to-layer="4347" to-port="0" />
		<edge from-layer="4347" from-port="1" to-layer="4348" to-port="1" />
		<edge from-layer="4348" from-port="2" to-layer="4349" to-port="1" />
		<edge from-layer="4349" from-port="2" to-layer="4355" to-port="0" />
		<edge from-layer="4350" from-port="0" to-layer="4351" to-port="0" />
		<edge from-layer="4351" from-port="1" to-layer="4353" to-port="0" />
		<edge from-layer="4352" from-port="0" to-layer="4353" to-port="1" />
		<edge from-layer="4353" from-port="2" to-layer="4354" to-port="0" />
		<edge from-layer="4354" from-port="1" to-layer="4355" to-port="1" />
		<edge from-layer="4355" from-port="2" to-layer="4356" to-port="1" />
		<edge from-layer="4356" from-port="2" to-layer="4366" to-port="0" />
		<edge from-layer="4356" from-port="2" to-layer="4511" to-port="0" />
		<edge from-layer="4356" from-port="2" to-layer="4359" to-port="0" />
		<edge from-layer="4357" from-port="0" to-layer="4365" to-port="0" />
		<edge from-layer="4358" from-port="0" to-layer="4359" to-port="1" />
		<edge from-layer="4359" from-port="2" to-layer="4361" to-port="0" />
		<edge from-layer="4360" from-port="0" to-layer="4361" to-port="1" />
		<edge from-layer="4361" from-port="2" to-layer="4363" to-port="0" />
		<edge from-layer="4362" from-port="0" to-layer="4363" to-port="1" />
		<edge from-layer="4363" from-port="2" to-layer="4364" to-port="0" />
		<edge from-layer="4364" from-port="1" to-layer="4365" to-port="1" />
		<edge from-layer="4365" from-port="2" to-layer="4366" to-port="1" />
		<edge from-layer="4366" from-port="2" to-layer="4367" to-port="1" />
		<edge from-layer="4367" from-port="2" to-layer="4373" to-port="0" />
		<edge from-layer="4367" from-port="2" to-layer="4397" to-port="0" />
		<edge from-layer="4367" from-port="2" to-layer="4469" to-port="0" />
		<edge from-layer="4368" from-port="0" to-layer="4369" to-port="0" />
		<edge from-layer="4369" from-port="1" to-layer="4371" to-port="0" />
		<edge from-layer="4370" from-port="0" to-layer="4371" to-port="1" />
		<edge from-layer="4371" from-port="2" to-layer="4372" to-port="0" />
		<edge from-layer="4372" from-port="1" to-layer="4373" to-port="1" />
		<edge from-layer="4373" from-port="2" to-layer="4376" to-port="0" />
		<edge from-layer="4374" from-port="0" to-layer="4375" to-port="0" />
		<edge from-layer="4375" from-port="1" to-layer="4376" to-port="1" />
		<edge from-layer="4376" from-port="2" to-layer="4378" to-port="0" />
		<edge from-layer="4377" from-port="0" to-layer="4378" to-port="1" />
		<edge from-layer="4378" from-port="2" to-layer="4380" to-port="0" />
		<edge from-layer="4379" from-port="0" to-layer="4380" to-port="1" />
		<edge from-layer="4380" from-port="2" to-layer="4381" to-port="1" />
		<edge from-layer="4381" from-port="2" to-layer="4382" to-port="0" />
		<edge from-layer="4381" from-port="2" to-layer="4497" to-port="0" />
		<edge from-layer="4383" from-port="0" to-layer="4388" to-port="0" />
		<edge from-layer="4384" from-port="0" to-layer="4387" to-port="1" />
		<edge from-layer="4385" from-port="0" to-layer="4387" to-port="2" />
		<edge from-layer="4386" from-port="0" to-layer="4387" to-port="3" />
		<edge from-layer="4387" from-port="4" to-layer="4388" to-port="1" />
		<edge from-layer="4388" from-port="2" to-layer="4389" to-port="0" />
		<edge from-layer="4389" from-port="1" to-layer="4391" to-port="0" />
		<edge from-layer="4390" from-port="0" to-layer="4391" to-port="2" />
		<edge from-layer="4391" from-port="3" to-layer="4421" to-port="0" />
		<edge from-layer="4392" from-port="0" to-layer="4393" to-port="0" />
		<edge from-layer="4393" from-port="1" to-layer="4395" to-port="0" />
		<edge from-layer="4394" from-port="0" to-layer="4395" to-port="1" />
		<edge from-layer="4395" from-port="2" to-layer="4396" to-port="0" />
		<edge from-layer="4396" from-port="1" to-layer="4397" to-port="1" />
		<edge from-layer="4397" from-port="2" to-layer="4400" to-port="0" />
		<edge from-layer="4398" from-port="0" to-layer="4399" to-port="0" />
		<edge from-layer="4399" from-port="1" to-layer="4400" to-port="1" />
		<edge from-layer="4400" from-port="2" to-layer="4402" to-port="0" />
		<edge from-layer="4401" from-port="0" to-layer="4402" to-port="1" />
		<edge from-layer="4402" from-port="2" to-layer="4404" to-port="0" />
		<edge from-layer="4403" from-port="0" to-layer="4404" to-port="1" />
		<edge from-layer="4404" from-port="2" to-layer="4410" to-port="0" />
		<edge from-layer="4404" from-port="2" to-layer="4417" to-port="0" />
		<edge from-layer="4404" from-port="2" to-layer="4405" to-port="0" />
		<edge from-layer="4405" from-port="2" to-layer="4420" to-port="0" />
		<edge from-layer="4406" from-port="0" to-layer="4410" to-port="1" />
		<edge from-layer="4407" from-port="0" to-layer="4410" to-port="2" />
		<edge from-layer="4408" from-port="0" to-layer="4410" to-port="3" />
		<edge from-layer="4409" from-port="0" to-layer="4410" to-port="4" />
		<edge from-layer="4410" from-port="5" to-layer="4412" to-port="0" />
		<edge from-layer="4411" from-port="0" to-layer="4412" to-port="1" />
		<edge from-layer="4412" from-port="2" to-layer="4418" to-port="0" />
		<edge from-layer="4413" from-port="0" to-layer="4417" to-port="1" />
		<edge from-layer="4414" from-port="0" to-layer="4417" to-port="2" />
		<edge from-layer="4415" from-port="0" to-layer="4417" to-port="3" />
		<edge from-layer="4416" from-port="0" to-layer="4417" to-port="4" />
		<edge from-layer="4417" from-port="5" to-layer="4418" to-port="1" />
		<edge from-layer="4418" from-port="2" to-layer="4419" to-port="0" />
		<edge from-layer="4419" from-port="2" to-layer="4420" to-port="1" />
		<edge from-layer="4420" from-port="2" to-layer="4421" to-port="1" />
		<edge from-layer="4421" from-port="2" to-layer="4422" to-port="0" />
		<edge from-layer="4421" from-port="2" to-layer="4493" to-port="0" />
		<edge from-layer="4463" from-port="0" to-layer="4555" to-port="0" />
		<edge from-layer="4464" from-port="0" to-layer="4465" to-port="0" />
		<edge from-layer="4465" from-port="1" to-layer="4467" to-port="0" />
		<edge from-layer="4466" from-port="0" to-layer="4467" to-port="1" />
		<edge from-layer="4467" from-port="2" to-layer="4468" to-port="0" />
		<edge from-layer="4468" from-port="1" to-layer="4469" to-port="1" />
		<edge from-layer="4469" from-port="2" to-layer="4472" to-port="0" />
		<edge from-layer="4470" from-port="0" to-layer="4471" to-port="0" />
		<edge from-layer="4471" from-port="1" to-layer="4472" to-port="1" />
		<edge from-layer="4472" from-port="2" to-layer="4474" to-port="0" />
		<edge from-layer="4473" from-port="0" to-layer="4474" to-port="1" />
		<edge from-layer="4474" from-port="2" to-layer="4476" to-port="0" />
		<edge from-layer="4475" from-port="0" to-layer="4476" to-port="1" />
		<edge from-layer="4476" from-port="2" to-layer="4477" to-port="0" />
		<edge from-layer="4476" from-port="2" to-layer="4482" to-port="0" />
		<edge from-layer="4476" from-port="2" to-layer="4489" to-port="0" />
		<edge from-layer="4477" from-port="2" to-layer="4492" to-port="0" />
		<edge from-layer="4478" from-port="0" to-layer="4482" to-port="1" />
		<edge from-layer="4479" from-port="0" to-layer="4482" to-port="2" />
		<edge from-layer="4480" from-port="0" to-layer="4482" to-port="3" />
		<edge from-layer="4481" from-port="0" to-layer="4482" to-port="4" />
		<edge from-layer="4482" from-port="5" to-layer="4484" to-port="0" />
		<edge from-layer="4483" from-port="0" to-layer="4484" to-port="1" />
		<edge from-layer="4484" from-port="2" to-layer="4490" to-port="0" />
		<edge from-layer="4485" from-port="0" to-layer="4489" to-port="1" />
		<edge from-layer="4486" from-port="0" to-layer="4489" to-port="2" />
		<edge from-layer="4487" from-port="0" to-layer="4489" to-port="3" />
		<edge from-layer="4488" from-port="0" to-layer="4489" to-port="4" />
		<edge from-layer="4489" from-port="5" to-layer="4490" to-port="1" />
		<edge from-layer="4490" from-port="2" to-layer="4491" to-port="0" />
		<edge from-layer="4491" from-port="2" to-layer="4492" to-port="1" />
		<edge from-layer="4492" from-port="2" to-layer="4501" to-port="0" />
		<edge from-layer="4493" from-port="2" to-layer="4494" to-port="0" />
		<edge from-layer="4494" from-port="2" to-layer="4496" to-port="0" />
		<edge from-layer="4495" from-port="0" to-layer="4496" to-port="1" />
		<edge from-layer="4496" from-port="2" to-layer="4501" to-port="1" />
		<edge from-layer="4497" from-port="2" to-layer="4498" to-port="0" />
		<edge from-layer="4498" from-port="2" to-layer="4500" to-port="0" />
		<edge from-layer="4499" from-port="0" to-layer="4500" to-port="1" />
		<edge from-layer="4500" from-port="2" to-layer="4501" to-port="2" />
		<edge from-layer="4501" from-port="5" to-layer="4503" to-port="0" />
		<edge from-layer="4502" from-port="0" to-layer="4503" to-port="1" />
		<edge from-layer="4503" from-port="2" to-layer="4504" to-port="0" />
		<edge from-layer="4504" from-port="2" to-layer="4510" to-port="0" />
		<edge from-layer="4505" from-port="0" to-layer="4506" to-port="0" />
		<edge from-layer="4506" from-port="1" to-layer="4508" to-port="0" />
		<edge from-layer="4507" from-port="0" to-layer="4508" to-port="1" />
		<edge from-layer="4508" from-port="2" to-layer="4509" to-port="0" />
		<edge from-layer="4509" from-port="1" to-layer="4510" to-port="1" />
		<edge from-layer="4510" from-port="2" to-layer="4511" to-port="1" />
		<edge from-layer="4511" from-port="2" to-layer="4515" to-port="0" />
		<edge from-layer="4511" from-port="2" to-layer="4544" to-port="0" />
		<edge from-layer="4511" from-port="2" to-layer="4522" to-port="0" />
		<edge from-layer="4512" from-port="0" to-layer="4523" to-port="0" />
		<edge from-layer="4513" from-port="0" to-layer="4521" to-port="0" />
		<edge from-layer="4514" from-port="0" to-layer="4515" to-port="1" />
		<edge from-layer="4515" from-port="2" to-layer="4517" to-port="0" />
		<edge from-layer="4516" from-port="0" to-layer="4517" to-port="1" />
		<edge from-layer="4517" from-port="2" to-layer="4519" to-port="0" />
		<edge from-layer="4518" from-port="0" to-layer="4519" to-port="1" />
		<edge from-layer="4519" from-port="2" to-layer="4520" to-port="0" />
		<edge from-layer="4520" from-port="1" to-layer="4521" to-port="1" />
		<edge from-layer="4521" from-port="2" to-layer="4522" to-port="1" />
		<edge from-layer="4522" from-port="2" to-layer="4523" to-port="1" />
		<edge from-layer="4523" from-port="2" to-layer="4529" to-port="0" />
		<edge from-layer="4523" from-port="2" to-layer="4536" to-port="0" />
		<edge from-layer="4524" from-port="0" to-layer="4525" to-port="0" />
		<edge from-layer="4525" from-port="1" to-layer="4527" to-port="0" />
		<edge from-layer="4526" from-port="0" to-layer="4527" to-port="1" />
		<edge from-layer="4527" from-port="2" to-layer="4528" to-port="0" />
		<edge from-layer="4528" from-port="1" to-layer="4529" to-port="1" />
		<edge from-layer="4529" from-port="2" to-layer="4530" to-port="0" />
		<edge from-layer="4530" from-port="1" to-layer="4537" to-port="0" />
		<edge from-layer="4531" from-port="0" to-layer="4532" to-port="0" />
		<edge from-layer="4532" from-port="1" to-layer="4534" to-port="0" />
		<edge from-layer="4533" from-port="0" to-layer="4534" to-port="1" />
		<edge from-layer="4534" from-port="2" to-layer="4535" to-port="0" />
		<edge from-layer="4535" from-port="1" to-layer="4536" to-port="1" />
		<edge from-layer="4536" from-port="2" to-layer="4537" to-port="1" />
		<edge from-layer="4537" from-port="2" to-layer="4543" to-port="0" />
		<edge from-layer="4538" from-port="0" to-layer="4539" to-port="0" />
		<edge from-layer="4539" from-port="1" to-layer="4541" to-port="0" />
		<edge from-layer="4540" from-port="0" to-layer="4541" to-port="1" />
		<edge from-layer="4541" from-port="2" to-layer="4542" to-port="0" />
		<edge from-layer="4542" from-port="1" to-layer="4543" to-port="1" />
		<edge from-layer="4543" from-port="2" to-layer="4544" to-port="1" />
		<edge from-layer="4544" from-port="2" to-layer="4547" to-port="0" />
		<edge from-layer="4544" from-port="2" to-layer="4554" to-port="0" />
		<edge from-layer="4545" from-port="0" to-layer="4553" to-port="0" />
		<edge from-layer="4546" from-port="0" to-layer="4547" to-port="1" />
		<edge from-layer="4547" from-port="2" to-layer="4549" to-port="0" />
		<edge from-layer="4548" from-port="0" to-layer="4549" to-port="1" />
		<edge from-layer="4549" from-port="2" to-layer="4551" to-port="0" />
		<edge from-layer="4550" from-port="0" to-layer="4551" to-port="1" />
		<edge from-layer="4551" from-port="2" to-layer="4552" to-port="0" />
		<edge from-layer="4552" from-port="1" to-layer="4553" to-port="1" />
		<edge from-layer="4553" from-port="2" to-layer="4554" to-port="1" />
		<edge from-layer="4554" from-port="2" to-layer="4555" to-port="1" />
		<edge from-layer="4555" from-port="2" to-layer="4561" to-port="0" />
		<edge from-layer="4556" from-port="0" to-layer="4557" to-port="0" />
		<edge from-layer="4557" from-port="1" to-layer="4559" to-port="0" />
		<edge from-layer="4558" from-port="0" to-layer="4559" to-port="1" />
		<edge from-layer="4559" from-port="2" to-layer="4560" to-port="0" />
		<edge from-layer="4560" from-port="1" to-layer="4561" to-port="1" />
		<edge from-layer="4561" from-port="2" to-layer="4562" to-port="0" />
	</edges>
	<rt_info>
		<Runtime_version value="2025.1.0-18503-6fec06580ab-releases/2025/1" />
		<conversion_parameters>
			<framework value="pytorch" />
			<is_python_object value="True" />
		</conversion_parameters>
		<nncf>
			<friendly_names_were_updated value="True" />
			<weight_compression>
				<advanced_parameters value="{'statistics_path': None, 'awq_params': {'subset_size': 32, 'percent_to_apply': 0.002, 'alpha_min': 0.0, 'alpha_max': 1.0, 'steps': 100}, 'scale_estimation_params': {'subset_size': 64, 'initial_steps': 5, 'scale_steps': 5, 'weight_penalty': -1.0}, 'gptq_params': {'damp_percent': 0.1, 'block_size': 128, 'subset_size': 128}, 'lora_correction_params': {'adapter_rank': 8, 'num_iterations': 3, 'apply_regularization': True, 'subset_size': 128, 'use_int8_adapters': True}}" />
				<all_layers value="False" />
				<awq value="False" />
				<backup_mode value="int8_asym" />
				<gptq value="False" />
				<group_size value="-1" />
				<ignored_scope value="[]" />
				<lora_correction value="False" />
				<mode value="int8_sym" />
				<ratio value="1.0" />
				<scale_estimation value="False" />
				<sensitivity_metric value="weight_quantization_error" />
			</weight_compression>
		</nncf>
		<optimum>
			<nncf_version value="2.14.1" />
			<optimum_intel_version value="1.23.0" />
			<optimum_version value="1.25.3" />
			<pytorch_version value="2.7.0" />
			<transformers_version value="4.51.3" />
		</optimum>
		<runtime_options>
			<ACTIVATIONS_SCALE_FACTOR value="8.0" />
		</runtime_options>
	</rt_info>
</net>
