<?xml version="1.0"?>
<net name="Model0" version="11">
	<layers>
		<layer id="3" name="input_ids" type="Parameter" version="opset1">
			<data shape="?,?" element_type="i64" />
			<output>
				<port id="0" precision="I64" names="input_ids">
					<dim>-1</dim>
					<dim>-1</dim>
				</port>
			</output>
		</layer>
		<layer id="2" name="attention_mask" type="Parameter" version="opset1">
			<data shape="?,?" element_type="i64" />
			<output>
				<port id="0" precision="I64" names="attention_mask">
					<dim>-1</dim>
					<dim>-1</dim>
				</port>
			</output>
		</layer>
		<layer id="1" name="position_ids" type="Parameter" version="opset1">
			<data shape="?,?" element_type="i64" />
			<output>
				<port id="0" precision="I64" names="position_ids">
					<dim>-1</dim>
					<dim>-1</dim>
				</port>
			</output>
		</layer>
		<layer id="0" name="beam_idx" type="Parameter" version="opset1">
			<data shape="?" element_type="i32" />
			<output>
				<port id="0" precision="I32" names="beam_idx">
					<dim>-1</dim>
				</port>
			</output>
		</layer>
		<layer id="4" name="Constant_61750" type="Const" version="opset1">
			<data element_type="f32" shape="" offset="0" size="4" />
			<output>
				<port id="0" precision="FP32" />
			</output>
		</layer>
		<layer id="5" name="ShapeOf_61736" type="ShapeOf" version="opset3">
			<data output_type="i64" />
			<input>
				<port id="0" precision="I64">
					<dim>-1</dim>
					<dim>-1</dim>
				</port>
			</input>
			<output>
				<port id="1" precision="I64">
					<dim>2</dim>
				</port>
			</output>
		</layer>
		<layer id="6" name="Constant_61738" type="Const" version="opset1">
			<data element_type="i64" shape="1" offset="4" size="8" />
			<output>
				<port id="0" precision="I64">
					<dim>1</dim>
				</port>
			</output>
		</layer>
		<layer id="7" name="Constant_61740" type="Const" version="opset1">
			<data element_type="i64" shape="" offset="4" size="8" />
			<output>
				<port id="0" precision="I64" />
			</output>
		</layer>
		<layer id="8" name="Gather_61741" type="Gather" version="opset8">
			<data batch_dims="0" />
			<input>
				<port id="0" precision="I64">
					<dim>2</dim>
				</port>
				<port id="1" precision="I64">
					<dim>1</dim>
				</port>
				<port id="2" precision="I64" />
			</input>
			<output>
				<port id="3" precision="I64">
					<dim>1</dim>
				</port>
			</output>
		</layer>
		<layer id="9" name="Constant_61743" type="Const" version="opset1">
			<data element_type="i64" shape="1" offset="12" size="8" />
			<output>
				<port id="0" precision="I64">
					<dim>1</dim>
				</port>
			</output>
		</layer>
		<layer id="10" name="Constant_61745" type="Const" version="opset1">
			<data element_type="i64" shape="1" offset="4" size="8" />
			<output>
				<port id="0" precision="I64">
					<dim>1</dim>
				</port>
			</output>
		</layer>
		<layer id="11" name="Constant_61747" type="Const" version="opset1">
			<data element_type="i64" shape="1" offset="20" size="8" />
			<output>
				<port id="0" precision="I64">
					<dim>1</dim>
				</port>
			</output>
		</layer>
		<layer id="12" name="Concat_61748" type="Concat" version="opset1">
			<data axis="0" />
			<input>
				<port id="0" precision="I64">
					<dim>1</dim>
				</port>
				<port id="1" precision="I64">
					<dim>1</dim>
				</port>
				<port id="2" precision="I64">
					<dim>1</dim>
				</port>
				<port id="3" precision="I64">
					<dim>1</dim>
				</port>
			</input>
			<output>
				<port id="4" precision="I64">
					<dim>4</dim>
				</port>
			</output>
		</layer>
		<layer id="13" name="Broadcast_61751" type="Broadcast" version="opset3">
			<data mode="numpy" />
			<input>
				<port id="0" precision="FP32" />
				<port id="1" precision="I64">
					<dim>4</dim>
				</port>
			</input>
			<output>
				<port id="2" precision="FP32">
					<dim>-1</dim>
					<dim>4</dim>
					<dim>0</dim>
					<dim>64</dim>
				</port>
			</output>
		</layer>
		<layer id="14" name="ReadValue_61360" type="ReadValue" version="opset6">
			<data variable_id="past_key_values.9.valuepresent.9.value" variable_type="f32" variable_shape="?,4,?,64" />
			<input>
				<port id="0" precision="FP32">
					<dim>-1</dim>
					<dim>4</dim>
					<dim>0</dim>
					<dim>64</dim>
				</port>
			</input>
			<output>
				<port id="1" precision="FP32" names="past_key_values.9.value">
					<dim>-1</dim>
					<dim>4</dim>
					<dim>-1</dim>
					<dim>64</dim>
				</port>
			</output>
		</layer>
		<layer id="15" name="Constant_60826" type="Const" version="opset1">
			<data element_type="i64" shape="" offset="4" size="8" />
			<output>
				<port id="0" precision="I64" />
			</output>
		</layer>
		<layer id="16" name="Gather_60827" type="Gather" version="opset8">
			<data batch_dims="0" />
			<input>
				<port id="0" precision="FP32">
					<dim>-1</dim>
					<dim>4</dim>
					<dim>-1</dim>
					<dim>64</dim>
				</port>
				<port id="1" precision="I32">
					<dim>-1</dim>
				</port>
				<port id="2" precision="I64" />
			</input>
			<output>
				<port id="3" precision="FP32">
					<dim>-1</dim>
					<dim>4</dim>
					<dim>-1</dim>
					<dim>64</dim>
				</port>
			</output>
		</layer>
		<layer id="17" name="Constant_52826" type="Const" version="opset1">
			<data element_type="f32" shape="1, 1, 2048" offset="28" size="8192" />
			<output>
				<port id="0" precision="FP32">
					<dim>1</dim>
					<dim>1</dim>
					<dim>2048</dim>
				</port>
			</output>
		</layer>
		<layer id="18" name="self.model.embed_tokens.weight" type="Const" version="opset1">
			<data element_type="i8" shape="32000, 2048" offset="8220" size="65536000" />
			<output>
				<port id="0" precision="I8">
					<dim>32000</dim>
					<dim>2048</dim>
				</port>
			</output>
		</layer>
		<layer id="19" name="Convert_73561" type="Convert" version="opset1">
			<data destination_type="f16" />
			<input>
				<port id="0" precision="I8">
					<dim>32000</dim>
					<dim>2048</dim>
				</port>
			</input>
			<output>
				<port id="1" precision="FP16">
					<dim>32000</dim>
					<dim>2048</dim>
				</port>
			</output>
		</layer>
		<layer id="20" name="self.model.embed_tokens.weight/scale" type="Const" version="opset1">
			<data element_type="f16" shape="32000, 1" offset="65544220" size="64000" />
			<output>
				<port id="0" precision="FP16">
					<dim>32000</dim>
					<dim>1</dim>
				</port>
			</output>
		</layer>
		<layer id="21" name="self.model.embed_tokens.weight/fq_weights_0" type="Multiply" version="opset1">
			<data auto_broadcast="numpy" />
			<input>
				<port id="0" precision="FP16">
					<dim>32000</dim>
					<dim>2048</dim>
				</port>
				<port id="1" precision="FP16">
					<dim>32000</dim>
					<dim>1</dim>
				</port>
			</input>
			<output>
				<port id="2" precision="FP16">
					<dim>32000</dim>
					<dim>2048</dim>
				</port>
			</output>
		</layer>
		<layer id="22" name="__module.model.embed_tokens/ov_ext::embedding/Convert" type="Convert" version="opset1">
			<data destination_type="f32" />
			<rt_info>
				<attribute name="decompression" version="0" />
			</rt_info>
			<input>
				<port id="0" precision="FP16">
					<dim>32000</dim>
					<dim>2048</dim>
				</port>
			</input>
			<output>
				<port id="1" precision="FP32">
					<dim>32000</dim>
					<dim>2048</dim>
				</port>
			</output>
		</layer>
		<layer id="23" name="__module.model.embed_tokens/ov_ext::embedding/Convert_1" type="Convert" version="opset1">
			<data destination_type="i32" />
			<input>
				<port id="0" precision="I64">
					<dim>-1</dim>
					<dim>-1</dim>
				</port>
			</input>
			<output>
				<port id="1" precision="I32">
					<dim>-1</dim>
					<dim>-1</dim>
				</port>
			</output>
		</layer>
		<layer id="24" name="__module.model.embed_tokens/ov_ext::embedding/Constant" type="Const" version="opset1">
			<data element_type="i32" shape="" offset="0" size="4" />
			<output>
				<port id="0" precision="I32" />
			</output>
		</layer>
		<layer id="25" name="__module.model.embed_tokens/ov_ext::embedding/Gather" type="Gather" version="opset8">
			<data batch_dims="0" />
			<input>
				<port id="0" precision="FP32">
					<dim>32000</dim>
					<dim>2048</dim>
				</port>
				<port id="1" precision="I32">
					<dim>-1</dim>
					<dim>-1</dim>
				</port>
				<port id="2" precision="I32" />
			</input>
			<output>
				<port id="3" precision="FP32" names="236,316,327,hidden_states.1,inputs_embeds">
					<dim>-1</dim>
					<dim>-1</dim>
					<dim>2048</dim>
				</port>
			</output>
		</layer>
		<layer id="26" name="Constant_52735" type="Const" version="opset1">
			<data element_type="f32" shape="1, 1, 2048" offset="65608220" size="8192" />
			<output>
				<port id="0" precision="FP32">
					<dim>1</dim>
					<dim>1</dim>
					<dim>2048</dim>
				</port>
			</output>
		</layer>
		<layer id="27" name="Constant_52734" type="Const" version="opset1">
			<data element_type="f32" shape="1, 1, 1" offset="65616412" size="4" />
			<output>
				<port id="0" precision="FP32">
					<dim>1</dim>
					<dim>1</dim>
					<dim>1</dim>
				</port>
			</output>
		</layer>
		<layer id="28" name="Constant_52732" type="Const" version="opset1">
			<data element_type="f32" shape="1, 1, 1" offset="65616416" size="4" />
			<output>
				<port id="0" precision="FP32">
					<dim>1</dim>
					<dim>1</dim>
					<dim>1</dim>
				</port>
			</output>
		</layer>
		<layer id="29" name="__module.model.layers.0.input_layernorm/aten::pow/Power" type="Power" version="opset1">
			<data auto_broadcast="numpy" />
			<input>
				<port id="0" precision="FP32">
					<dim>-1</dim>
					<dim>-1</dim>
					<dim>2048</dim>
				</port>
				<port id="1" precision="FP32">
					<dim>1</dim>
					<dim>1</dim>
					<dim>1</dim>
				</port>
			</input>
			<output>
				<port id="2" precision="FP32" names="317">
					<dim>-1</dim>
					<dim>-1</dim>
					<dim>2048</dim>
				</port>
			</output>
		</layer>
		<layer id="30" name="Constant_612" type="Const" version="opset1">
			<data element_type="i64" shape="1" offset="65616420" size="8" />
			<output>
				<port id="0" precision="I64" names="318">
					<dim>1</dim>
				</port>
			</output>
		</layer>
		<layer id="31" name="__module.model.layers.0.input_layernorm/aten::mean/ReduceMean" type="ReduceMean" version="opset1">
			<data keep_dims="true" />
			<input>
				<port id="0" precision="FP32">
					<dim>-1</dim>
					<dim>-1</dim>
					<dim>2048</dim>
				</port>
				<port id="1" precision="I64">
					<dim>1</dim>
				</port>
			</input>
			<output>
				<port id="2" precision="FP32" names="319,variance.1">
					<dim>-1</dim>
					<dim>-1</dim>
					<dim>1</dim>
				</port>
			</output>
		</layer>
		<layer id="32" name="Constant_52733" type="Const" version="opset1">
			<data element_type="f32" shape="1, 1, 1" offset="65616428" size="4" />
			<output>
				<port id="0" precision="FP32">
					<dim>1</dim>
					<dim>1</dim>
					<dim>1</dim>
				</port>
			</output>
		</layer>
		<layer id="33" name="__module.model.layers.0.input_layernorm/aten::add/Add" type="Add" version="opset1">
			<data auto_broadcast="numpy" />
			<input>
				<port id="0" precision="FP32">
					<dim>-1</dim>
					<dim>-1</dim>
					<dim>1</dim>
				</port>
				<port id="1" precision="FP32">
					<dim>1</dim>
					<dim>1</dim>
					<dim>1</dim>
				</port>
			</input>
			<output>
				<port id="2" precision="FP32" names="320">
					<dim>-1</dim>
					<dim>-1</dim>
					<dim>1</dim>
				</port>
			</output>
		</layer>
		<layer id="34" name="__module.model.layers.0.input_layernorm/aten::rsqrt/Sqrt" type="Sqrt" version="opset1">
			<input>
				<port id="0" precision="FP32">
					<dim>-1</dim>
					<dim>-1</dim>
					<dim>1</dim>
				</port>
			</input>
			<output>
				<port id="1" precision="FP32">
					<dim>-1</dim>
					<dim>-1</dim>
					<dim>1</dim>
				</port>
			</output>
		</layer>
		<layer id="35" name="__module.model.layers.0.input_layernorm/aten::rsqrt/Divide" type="Divide" version="opset1">
			<data auto_broadcast="numpy" m_pythondiv="true" />
			<input>
				<port id="0" precision="FP32">
					<dim>1</dim>
					<dim>1</dim>
					<dim>1</dim>
				</port>
				<port id="1" precision="FP32">
					<dim>-1</dim>
					<dim>-1</dim>
					<dim>1</dim>
				</port>
			</input>
			<output>
				<port id="2" precision="FP32" names="321">
					<dim>-1</dim>
					<dim>-1</dim>
					<dim>1</dim>
				</port>
			</output>
		</layer>
		<layer id="36" name="__module.model.layers.0.input_layernorm/aten::mul/Multiply" type="Multiply" version="opset1">
			<data auto_broadcast="numpy" />
			<input>
				<port id="0" precision="FP32">
					<dim>-1</dim>
					<dim>-1</dim>
					<dim>2048</dim>
				</port>
				<port id="1" precision="FP32">
					<dim>-1</dim>
					<dim>-1</dim>
					<dim>1</dim>
				</port>
			</input>
			<output>
				<port id="2" precision="FP32" names="322,323,hidden_states.3,hidden_states.5">
					<dim>-1</dim>
					<dim>-1</dim>
					<dim>2048</dim>
				</port>
			</output>
		</layer>
		<layer id="37" name="__module.model.layers.0.input_layernorm/aten::mul/Multiply_1" type="Multiply" version="opset1">
			<data auto_broadcast="numpy" />
			<input>
				<port id="0" precision="FP32">
					<dim>1</dim>
					<dim>1</dim>
					<dim>2048</dim>
				</port>
				<port id="1" precision="FP32">
					<dim>-1</dim>
					<dim>-1</dim>
					<dim>2048</dim>
				</port>
			</input>
			<output>
				<port id="2" precision="FP32" names="324,326,hidden_states.7">
					<dim>-1</dim>
					<dim>-1</dim>
					<dim>2048</dim>
				</port>
			</output>
		</layer>
		<layer id="38" name="self.model.layers.0.self_attn.q_proj.weight" type="Const" version="opset1">
			<data element_type="i8" shape="2048, 2048" offset="65616432" size="4194304" />
			<output>
				<port id="0" precision="I8">
					<dim>2048</dim>
					<dim>2048</dim>
				</port>
			</output>
		</layer>
		<layer id="39" name="Convert_73969" type="Convert" version="opset1">
			<data destination_type="f16" />
			<input>
				<port id="0" precision="I8">
					<dim>2048</dim>
					<dim>2048</dim>
				</port>
			</input>
			<output>
				<port id="1" precision="FP16">
					<dim>2048</dim>
					<dim>2048</dim>
				</port>
			</output>
		</layer>
		<layer id="40" name="self.model.layers.0.self_attn.q_proj.weight/scale" type="Const" version="opset1">
			<data element_type="f16" shape="2048, 1" offset="69810736" size="4096" />
			<output>
				<port id="0" precision="FP16">
					<dim>2048</dim>
					<dim>1</dim>
				</port>
			</output>
		</layer>
		<layer id="41" name="self.model.layers.0.self_attn.q_proj.weight/fq_weights_1" type="Multiply" version="opset1">
			<data auto_broadcast="numpy" />
			<input>
				<port id="0" precision="FP16">
					<dim>2048</dim>
					<dim>2048</dim>
				</port>
				<port id="1" precision="FP16">
					<dim>2048</dim>
					<dim>1</dim>
				</port>
			</input>
			<output>
				<port id="2" precision="FP16">
					<dim>2048</dim>
					<dim>2048</dim>
				</port>
			</output>
		</layer>
		<layer id="42" name="__module.model.layers.0.self_attn.q_proj/ov_ext::linear/Convert" type="Convert" version="opset1">
			<data destination_type="f32" />
			<rt_info>
				<attribute name="decompression" version="0" />
			</rt_info>
			<input>
				<port id="0" precision="FP16">
					<dim>2048</dim>
					<dim>2048</dim>
				</port>
			</input>
			<output>
				<port id="1" precision="FP32">
					<dim>2048</dim>
					<dim>2048</dim>
				</port>
			</output>
		</layer>
		<layer id="43" name="__module.model.layers.0.self_attn.q_proj/ov_ext::linear/MatMul" type="MatMul" version="opset1">
			<data transpose_a="false" transpose_b="true" />
			<input>
				<port id="0" precision="FP32">
					<dim>-1</dim>
					<dim>-1</dim>
					<dim>2048</dim>
				</port>
				<port id="1" precision="FP32">
					<dim>2048</dim>
					<dim>2048</dim>
				</port>
			</input>
			<output>
				<port id="2" precision="FP32" names="335">
					<dim>-1</dim>
					<dim>-1</dim>
					<dim>2048</dim>
				</port>
			</output>
		</layer>
		<layer id="44" name="Constant_59416" type="Const" version="opset1">
			<data element_type="i64" shape="4" offset="69814832" size="32" />
			<output>
				<port id="0" precision="I64">
					<dim>4</dim>
				</port>
			</output>
		</layer>
		<layer id="45" name="__module.model.layers.0.self_attn/aten::view/Reshape" type="Reshape" version="opset1">
			<data special_zero="true" />
			<input>
				<port id="0" precision="FP32">
					<dim>-1</dim>
					<dim>-1</dim>
					<dim>2048</dim>
				</port>
				<port id="1" precision="I64">
					<dim>4</dim>
				</port>
			</input>
			<output>
				<port id="2" precision="FP32" names="337">
					<dim>-1</dim>
					<dim>-1</dim>
					<dim>32</dim>
					<dim>64</dim>
				</port>
			</output>
		</layer>
		<layer id="46" name="__module.model.layers.0.self_attn/aten::transpose/Constant" type="Const" version="opset1">
			<data element_type="i32" shape="4" offset="69814864" size="16" />
			<output>
				<port id="0" precision="I32">
					<dim>4</dim>
				</port>
			</output>
		</layer>
		<layer id="47" name="__module.model.layers.0.self_attn/aten::transpose/Transpose" type="Transpose" version="opset1">
			<input>
				<port id="0" precision="FP32">
					<dim>-1</dim>
					<dim>-1</dim>
					<dim>32</dim>
					<dim>64</dim>
				</port>
				<port id="1" precision="I32">
					<dim>4</dim>
				</port>
			</input>
			<output>
				<port id="2" precision="FP32" names="338,q.1">
					<dim>-1</dim>
					<dim>32</dim>
					<dim>-1</dim>
					<dim>64</dim>
				</port>
			</output>
		</layer>
		<layer id="48" name="__module.model.rotary_emb/aten::to/Convert" type="Const" version="opset1">
			<data element_type="f32" shape="1, 32, 1" offset="69814880" size="128" />
			<output>
				<port id="0" precision="FP32" names="288">
					<dim>1</dim>
					<dim>32</dim>
					<dim>1</dim>
				</port>
			</output>
		</layer>
		<layer id="49" name="ShapeOf_54242" type="ShapeOf" version="opset3">
			<data output_type="i64" />
			<input>
				<port id="0" precision="FP32">
					<dim>-1</dim>
					<dim>-1</dim>
					<dim>2048</dim>
				</port>
			</input>
			<output>
				<port id="1" precision="I64">
					<dim>3</dim>
				</port>
			</output>
		</layer>
		<layer id="50" name="Constant_54243" type="Const" version="opset1">
			<data element_type="i64" shape="1" offset="4" size="8" />
			<output>
				<port id="0" precision="I64">
					<dim>1</dim>
				</port>
			</output>
		</layer>
		<layer id="51" name="Constant_54244" type="Const" version="opset1">
			<data element_type="i64" shape="" offset="4" size="8" />
			<output>
				<port id="0" precision="I64" />
			</output>
		</layer>
		<layer id="52" name="Gather_54245" type="Gather" version="opset8">
			<data batch_dims="0" />
			<input>
				<port id="0" precision="I64">
					<dim>3</dim>
				</port>
				<port id="1" precision="I64">
					<dim>1</dim>
				</port>
				<port id="2" precision="I64" />
			</input>
			<output>
				<port id="3" precision="I64" names="1022,1038,1180,1196,1338,1354,1496,1512,1654,1670,1812,1828,1970,1986,2128,2144,2286,2302,2444,2460,259,2602,2618,2760,2776,289,2918,2934,3076,3092,3234,3250,3392,3408,3550,3566,3708,3724,390,406,548,564,706,722,864,880">
					<dim>1</dim>
				</port>
			</output>
		</layer>
		<layer id="53" name="Constant_47257" type="Const" version="opset1">
			<data element_type="i64" shape="1" offset="69815008" size="8" />
			<output>
				<port id="0" precision="I64">
					<dim>1</dim>
				</port>
			</output>
		</layer>
		<layer id="54" name="Constant_47259" type="Const" version="opset1">
			<data element_type="i64" shape="1" offset="69815008" size="8" />
			<output>
				<port id="0" precision="I64">
					<dim>1</dim>
				</port>
			</output>
		</layer>
		<layer id="55" name="__module.model.rotary_emb/prim::ListConstruct" type="Concat" version="opset1">
			<data axis="0" />
			<input>
				<port id="0" precision="I64">
					<dim>1</dim>
				</port>
				<port id="1" precision="I64">
					<dim>1</dim>
				</port>
				<port id="2" precision="I64">
					<dim>1</dim>
				</port>
			</input>
			<output>
				<port id="3" precision="I64">
					<dim>3</dim>
				</port>
			</output>
		</layer>
		<layer id="56" name="__module.model.rotary_emb/aten::expand/Broadcast" type="Broadcast" version="opset3">
			<data mode="bidirectional" />
			<input>
				<port id="0" precision="FP32">
					<dim>1</dim>
					<dim>32</dim>
					<dim>1</dim>
				</port>
				<port id="1" precision="I64">
					<dim>3</dim>
				</port>
			</input>
			<output>
				<port id="2" precision="FP32" names="291,296,inv_freq_expanded,inv_freq_expanded.1">
					<dim>-1</dim>
					<dim>32</dim>
					<dim>1</dim>
				</port>
			</output>
		</layer>
		<layer id="57" name="186" type="Const" version="opset1">
			<data element_type="i64" shape="" offset="69815008" size="8" />
			<output>
				<port id="0" precision="I64" names="186" />
			</output>
		</layer>
		<layer id="58" name="__module.model.rotary_emb/aten::unsqueeze/Unsqueeze_2" type="Unsqueeze" version="opset1">
			<input>
				<port id="0" precision="I64">
					<dim>-1</dim>
					<dim>-1</dim>
				</port>
				<port id="1" precision="I64" />
			</input>
			<output>
				<port id="2" precision="I64" names="293,294">
					<dim>-1</dim>
					<dim>1</dim>
					<dim>-1</dim>
				</port>
			</output>
		</layer>
		<layer id="59" name="__module.model.rotary_emb/aten::to/Convert_2" type="Convert" version="opset1">
			<data destination_type="f32" />
			<input>
				<port id="0" precision="I64">
					<dim>-1</dim>
					<dim>1</dim>
					<dim>-1</dim>
				</port>
			</input>
			<output>
				<port id="1" precision="FP32" names="295,297,position_ids_expanded,position_ids_expanded.1">
					<dim>-1</dim>
					<dim>1</dim>
					<dim>-1</dim>
				</port>
			</output>
		</layer>
		<layer id="60" name="__module.model.rotary_emb/aten::matmul/MatMul" type="MatMul" version="opset1">
			<data transpose_a="false" transpose_b="false" />
			<input>
				<port id="0" precision="FP32">
					<dim>-1</dim>
					<dim>32</dim>
					<dim>1</dim>
				</port>
				<port id="1" precision="FP32">
					<dim>-1</dim>
					<dim>1</dim>
					<dim>-1</dim>
				</port>
			</input>
			<output>
				<port id="2" precision="FP32" names="298">
					<dim>-1</dim>
					<dim>32</dim>
					<dim>-1</dim>
				</port>
			</output>
		</layer>
		<layer id="61" name="__module.model.rotary_emb/aten::transpose/Constant" type="Const" version="opset1">
			<data element_type="i32" shape="3" offset="69815016" size="12" />
			<output>
				<port id="0" precision="I32">
					<dim>3</dim>
				</port>
			</output>
		</layer>
		<layer id="62" name="__module.model.rotary_emb/aten::transpose/Transpose" type="Transpose" version="opset1">
			<input>
				<port id="0" precision="FP32">
					<dim>-1</dim>
					<dim>32</dim>
					<dim>-1</dim>
				</port>
				<port id="1" precision="I32">
					<dim>3</dim>
				</port>
			</input>
			<output>
				<port id="2" precision="FP32" names="299">
					<dim>-1</dim>
					<dim>-1</dim>
					<dim>32</dim>
				</port>
			</output>
		</layer>
		<layer id="63" name="__module.model.rotary_emb/aten::cat/Concat" type="Concat" version="opset1">
			<data axis="-1" />
			<input>
				<port id="0" precision="FP32">
					<dim>-1</dim>
					<dim>-1</dim>
					<dim>32</dim>
				</port>
				<port id="1" precision="FP32">
					<dim>-1</dim>
					<dim>-1</dim>
					<dim>32</dim>
				</port>
			</input>
			<output>
				<port id="2" precision="FP32" names="301,emb">
					<dim>-1</dim>
					<dim>-1</dim>
					<dim>64</dim>
				</port>
			</output>
		</layer>
		<layer id="64" name="__module.model.rotary_emb/aten::cos/Cos" type="Cos" version="opset1">
			<input>
				<port id="0" precision="FP32">
					<dim>-1</dim>
					<dim>-1</dim>
					<dim>64</dim>
				</port>
			</input>
			<output>
				<port id="1" precision="FP32" names="302,304,306,309,cos.1,cos.3,cos.5">
					<dim>-1</dim>
					<dim>-1</dim>
					<dim>64</dim>
				</port>
			</output>
		</layer>
		<layer id="65" name="__module.model.layers.0.self_attn/aten::unsqueeze/Unsqueeze" type="Unsqueeze" version="opset1">
			<input>
				<port id="0" precision="FP32">
					<dim>-1</dim>
					<dim>-1</dim>
					<dim>64</dim>
				</port>
				<port id="1" precision="I64" />
			</input>
			<output>
				<port id="2" precision="FP32" names="1142,1300,1458,1616,1774,1932,2090,2248,2406,2564,2722,2880,3038,3196,3354,349,3512,3670,510,668,826,984,cos,cos.11,cos.13,cos.15,cos.17,cos.19,cos.21,cos.23,cos.25,cos.27,cos.29,cos.31,cos.33,cos.35,cos.37,cos.39,cos.41,cos.43,cos.45,cos.47,cos.7,cos.9">
					<dim>-1</dim>
					<dim>1</dim>
					<dim>-1</dim>
					<dim>64</dim>
				</port>
			</output>
		</layer>
		<layer id="66" name="__module.model.layers.0.self_attn/aten::mul/Multiply" type="Multiply" version="opset1">
			<data auto_broadcast="numpy" />
			<input>
				<port id="0" precision="FP32">
					<dim>-1</dim>
					<dim>32</dim>
					<dim>-1</dim>
					<dim>64</dim>
				</port>
				<port id="1" precision="FP32">
					<dim>-1</dim>
					<dim>1</dim>
					<dim>-1</dim>
					<dim>64</dim>
				</port>
			</input>
			<output>
				<port id="2" precision="FP32" names="351">
					<dim>-1</dim>
					<dim>32</dim>
					<dim>-1</dim>
					<dim>64</dim>
				</port>
			</output>
		</layer>
		<layer id="67" name="Constant_914" type="Const" version="opset1">
			<data element_type="i64" shape="1" offset="69815028" size="8" />
			<output>
				<port id="0" precision="I64">
					<dim>1</dim>
				</port>
			</output>
		</layer>
		<layer id="68" name="Constant_916" type="Const" version="opset1">
			<data element_type="i64" shape="1" offset="69815036" size="8" />
			<output>
				<port id="0" precision="I64">
					<dim>1</dim>
				</port>
			</output>
		</layer>
		<layer id="69" name="Constant_918" type="Const" version="opset1">
			<data element_type="i64" shape="1" offset="69815008" size="8" />
			<output>
				<port id="0" precision="I64">
					<dim>1</dim>
				</port>
			</output>
		</layer>
		<layer id="70" name="Constant_870" type="Const" version="opset1">
			<data element_type="i64" shape="1" offset="69815044" size="8" />
			<output>
				<port id="0" precision="I64">
					<dim>1</dim>
				</port>
			</output>
		</layer>
		<layer id="71" name="__module.model.layers.0.self_attn/aten::slice/Slice" type="Slice" version="opset8">
			<input>
				<port id="0" precision="FP32">
					<dim>-1</dim>
					<dim>32</dim>
					<dim>-1</dim>
					<dim>64</dim>
				</port>
				<port id="1" precision="I64">
					<dim>1</dim>
				</port>
				<port id="2" precision="I64">
					<dim>1</dim>
				</port>
				<port id="3" precision="I64">
					<dim>1</dim>
				</port>
				<port id="4" precision="I64">
					<dim>1</dim>
				</port>
			</input>
			<output>
				<port id="5" precision="FP32" names="361,x2.1">
					<dim>-1</dim>
					<dim>32</dim>
					<dim>-1</dim>
					<dim>32</dim>
				</port>
			</output>
		</layer>
		<layer id="72" name="Constant_52736" type="Const" version="opset1">
			<data element_type="f32" shape="1, 1, 1, 1" offset="69815052" size="4" />
			<output>
				<port id="0" precision="FP32">
					<dim>1</dim>
					<dim>1</dim>
					<dim>1</dim>
					<dim>1</dim>
				</port>
			</output>
		</layer>
		<layer id="73" name="__module.model.layers.0.self_attn/aten::neg/Multiply" type="Multiply" version="opset1">
			<data auto_broadcast="numpy" />
			<input>
				<port id="0" precision="FP32">
					<dim>-1</dim>
					<dim>32</dim>
					<dim>-1</dim>
					<dim>32</dim>
				</port>
				<port id="1" precision="FP32">
					<dim>1</dim>
					<dim>1</dim>
					<dim>1</dim>
					<dim>1</dim>
				</port>
			</input>
			<output>
				<port id="2" precision="FP32" names="362">
					<dim>-1</dim>
					<dim>32</dim>
					<dim>-1</dim>
					<dim>32</dim>
				</port>
			</output>
		</layer>
		<layer id="74" name="Constant_811" type="Const" version="opset1">
			<data element_type="i64" shape="1" offset="4" size="8" />
			<output>
				<port id="0" precision="I64">
					<dim>1</dim>
				</port>
			</output>
		</layer>
		<layer id="75" name="Constant_855" type="Const" version="opset1">
			<data element_type="i64" shape="1" offset="69815028" size="8" />
			<output>
				<port id="0" precision="I64">
					<dim>1</dim>
				</port>
			</output>
		</layer>
		<layer id="76" name="Constant_857" type="Const" version="opset1">
			<data element_type="i64" shape="1" offset="69815008" size="8" />
			<output>
				<port id="0" precision="I64">
					<dim>1</dim>
				</port>
			</output>
		</layer>
		<layer id="77" name="Constant_809" type="Const" version="opset1">
			<data element_type="i64" shape="1" offset="69815044" size="8" />
			<output>
				<port id="0" precision="I64">
					<dim>1</dim>
				</port>
			</output>
		</layer>
		<layer id="78" name="__module.model.layers.0.self_attn/aten::slice/Slice_1" type="Slice" version="opset8">
			<input>
				<port id="0" precision="FP32">
					<dim>-1</dim>
					<dim>32</dim>
					<dim>-1</dim>
					<dim>64</dim>
				</port>
				<port id="1" precision="I64">
					<dim>1</dim>
				</port>
				<port id="2" precision="I64">
					<dim>1</dim>
				</port>
				<port id="3" precision="I64">
					<dim>1</dim>
				</port>
				<port id="4" precision="I64">
					<dim>1</dim>
				</port>
			</input>
			<output>
				<port id="5" precision="FP32" names="356">
					<dim>-1</dim>
					<dim>32</dim>
					<dim>-1</dim>
					<dim>32</dim>
				</port>
			</output>
		</layer>
		<layer id="79" name="__module.model.layers.0.self_attn/aten::cat/Concat" type="Concat" version="opset1">
			<data axis="-1" />
			<input>
				<port id="0" precision="FP32">
					<dim>-1</dim>
					<dim>32</dim>
					<dim>-1</dim>
					<dim>32</dim>
				</port>
				<port id="1" precision="FP32">
					<dim>-1</dim>
					<dim>32</dim>
					<dim>-1</dim>
					<dim>32</dim>
				</port>
			</input>
			<output>
				<port id="2" precision="FP32" names="364">
					<dim>-1</dim>
					<dim>32</dim>
					<dim>-1</dim>
					<dim>64</dim>
				</port>
			</output>
		</layer>
		<layer id="80" name="__module.model.rotary_emb/aten::sin/Sin" type="Sin" version="opset1">
			<input>
				<port id="0" precision="FP32">
					<dim>-1</dim>
					<dim>-1</dim>
					<dim>64</dim>
				</port>
			</input>
			<output>
				<port id="1" precision="FP32" names="303,305,307,310,sin.1,sin.3,sin.5">
					<dim>-1</dim>
					<dim>-1</dim>
					<dim>64</dim>
				</port>
			</output>
		</layer>
		<layer id="81" name="__module.model.layers.0.self_attn/aten::unsqueeze/Unsqueeze_1" type="Unsqueeze" version="opset1">
			<input>
				<port id="0" precision="FP32">
					<dim>-1</dim>
					<dim>-1</dim>
					<dim>64</dim>
				</port>
				<port id="1" precision="I64" />
			</input>
			<output>
				<port id="2" precision="FP32" names="1143,1301,1459,1617,1775,1933,2091,2249,2407,2565,2723,2881,3039,3197,3355,350,3513,3671,511,669,827,985,sin,sin.11,sin.13,sin.15,sin.17,sin.19,sin.21,sin.23,sin.25,sin.27,sin.29,sin.31,sin.33,sin.35,sin.37,sin.39,sin.41,sin.43,sin.45,sin.47,sin.7,sin.9">
					<dim>-1</dim>
					<dim>1</dim>
					<dim>-1</dim>
					<dim>64</dim>
				</port>
			</output>
		</layer>
		<layer id="82" name="__module.model.layers.0.self_attn/aten::mul/Multiply_1" type="Multiply" version="opset1">
			<data auto_broadcast="numpy" />
			<input>
				<port id="0" precision="FP32">
					<dim>-1</dim>
					<dim>32</dim>
					<dim>-1</dim>
					<dim>64</dim>
				</port>
				<port id="1" precision="FP32">
					<dim>-1</dim>
					<dim>1</dim>
					<dim>-1</dim>
					<dim>64</dim>
				</port>
			</input>
			<output>
				<port id="2" precision="FP32" names="365">
					<dim>-1</dim>
					<dim>32</dim>
					<dim>-1</dim>
					<dim>64</dim>
				</port>
			</output>
		</layer>
		<layer id="83" name="__module.model.layers.0.self_attn/aten::add/Add" type="Add" version="opset1">
			<data auto_broadcast="numpy" />
			<input>
				<port id="0" precision="FP32">
					<dim>-1</dim>
					<dim>32</dim>
					<dim>-1</dim>
					<dim>64</dim>
				</port>
				<port id="1" precision="FP32">
					<dim>-1</dim>
					<dim>32</dim>
					<dim>-1</dim>
					<dim>64</dim>
				</port>
			</input>
			<output>
				<port id="2" precision="FP32" names="366,query.1">
					<dim>-1</dim>
					<dim>32</dim>
					<dim>-1</dim>
					<dim>64</dim>
				</port>
			</output>
		</layer>
		<layer id="84" name="Constant_61762" type="Const" version="opset1">
			<data element_type="f32" shape="" offset="0" size="4" />
			<output>
				<port id="0" precision="FP32" />
			</output>
		</layer>
		<layer id="85" name="Constant_61755" type="Const" version="opset1">
			<data element_type="i64" shape="1" offset="12" size="8" />
			<output>
				<port id="0" precision="I64">
					<dim>1</dim>
				</port>
			</output>
		</layer>
		<layer id="86" name="Constant_61757" type="Const" version="opset1">
			<data element_type="i64" shape="1" offset="4" size="8" />
			<output>
				<port id="0" precision="I64">
					<dim>1</dim>
				</port>
			</output>
		</layer>
		<layer id="87" name="Constant_61759" type="Const" version="opset1">
			<data element_type="i64" shape="1" offset="20" size="8" />
			<output>
				<port id="0" precision="I64">
					<dim>1</dim>
				</port>
			</output>
		</layer>
		<layer id="88" name="Concat_61760" type="Concat" version="opset1">
			<data axis="0" />
			<input>
				<port id="0" precision="I64">
					<dim>1</dim>
				</port>
				<port id="1" precision="I64">
					<dim>1</dim>
				</port>
				<port id="2" precision="I64">
					<dim>1</dim>
				</port>
				<port id="3" precision="I64">
					<dim>1</dim>
				</port>
			</input>
			<output>
				<port id="4" precision="I64">
					<dim>4</dim>
				</port>
			</output>
		</layer>
		<layer id="89" name="Broadcast_61763" type="Broadcast" version="opset3">
			<data mode="numpy" />
			<input>
				<port id="0" precision="FP32" />
				<port id="1" precision="I64">
					<dim>4</dim>
				</port>
			</input>
			<output>
				<port id="2" precision="FP32">
					<dim>-1</dim>
					<dim>4</dim>
					<dim>0</dim>
					<dim>64</dim>
				</port>
			</output>
		</layer>
		<layer id="90" name="ReadValue_61274" type="ReadValue" version="opset6">
			<data variable_id="past_key_values.0.keypresent.0.key" variable_type="f32" variable_shape="?,4,?,64" />
			<input>
				<port id="0" precision="FP32">
					<dim>-1</dim>
					<dim>4</dim>
					<dim>0</dim>
					<dim>64</dim>
				</port>
			</input>
			<output>
				<port id="1" precision="FP32" names="past_key_values.0.key">
					<dim>-1</dim>
					<dim>4</dim>
					<dim>-1</dim>
					<dim>64</dim>
				</port>
			</output>
		</layer>
		<layer id="91" name="Constant_60769" type="Const" version="opset1">
			<data element_type="i64" shape="" offset="4" size="8" />
			<output>
				<port id="0" precision="I64" />
			</output>
		</layer>
		<layer id="92" name="Gather_60770" type="Gather" version="opset8">
			<data batch_dims="0" />
			<input>
				<port id="0" precision="FP32">
					<dim>-1</dim>
					<dim>4</dim>
					<dim>-1</dim>
					<dim>64</dim>
				</port>
				<port id="1" precision="I32">
					<dim>-1</dim>
				</port>
				<port id="2" precision="I64" />
			</input>
			<output>
				<port id="3" precision="FP32">
					<dim>-1</dim>
					<dim>4</dim>
					<dim>-1</dim>
					<dim>64</dim>
				</port>
			</output>
		</layer>
		<layer id="93" name="self.model.layers.0.self_attn.k_proj.weight" type="Const" version="opset1">
			<data element_type="i8" shape="256, 2048" offset="69815056" size="524288" />
			<output>
				<port id="0" precision="I8">
					<dim>256</dim>
					<dim>2048</dim>
				</port>
			</output>
		</layer>
		<layer id="94" name="Convert_74233" type="Convert" version="opset1">
			<data destination_type="f16" />
			<input>
				<port id="0" precision="I8">
					<dim>256</dim>
					<dim>2048</dim>
				</port>
			</input>
			<output>
				<port id="1" precision="FP16">
					<dim>256</dim>
					<dim>2048</dim>
				</port>
			</output>
		</layer>
		<layer id="95" name="self.model.layers.0.self_attn.k_proj.weight/scale" type="Const" version="opset1">
			<data element_type="f16" shape="256, 1" offset="70339344" size="512" />
			<output>
				<port id="0" precision="FP16">
					<dim>256</dim>
					<dim>1</dim>
				</port>
			</output>
		</layer>
		<layer id="96" name="self.model.layers.0.self_attn.k_proj.weight/fq_weights_1" type="Multiply" version="opset1">
			<data auto_broadcast="numpy" />
			<input>
				<port id="0" precision="FP16">
					<dim>256</dim>
					<dim>2048</dim>
				</port>
				<port id="1" precision="FP16">
					<dim>256</dim>
					<dim>1</dim>
				</port>
			</input>
			<output>
				<port id="2" precision="FP16">
					<dim>256</dim>
					<dim>2048</dim>
				</port>
			</output>
		</layer>
		<layer id="97" name="__module.model.layers.0.self_attn.k_proj/ov_ext::linear/Convert" type="Convert" version="opset1">
			<data destination_type="f32" />
			<rt_info>
				<attribute name="decompression" version="0" />
			</rt_info>
			<input>
				<port id="0" precision="FP16">
					<dim>256</dim>
					<dim>2048</dim>
				</port>
			</input>
			<output>
				<port id="1" precision="FP32">
					<dim>256</dim>
					<dim>2048</dim>
				</port>
			</output>
		</layer>
		<layer id="98" name="__module.model.layers.0.self_attn.k_proj/ov_ext::linear/MatMul" type="MatMul" version="opset1">
			<data transpose_a="false" transpose_b="true" />
			<input>
				<port id="0" precision="FP32">
					<dim>-1</dim>
					<dim>-1</dim>
					<dim>2048</dim>
				</port>
				<port id="1" precision="FP32">
					<dim>256</dim>
					<dim>2048</dim>
				</port>
			</input>
			<output>
				<port id="2" precision="FP32" names="340">
					<dim>-1</dim>
					<dim>-1</dim>
					<dim>256</dim>
				</port>
			</output>
		</layer>
		<layer id="99" name="Constant_59417" type="Const" version="opset1">
			<data element_type="i64" shape="4" offset="70339856" size="32" />
			<output>
				<port id="0" precision="I64">
					<dim>4</dim>
				</port>
			</output>
		</layer>
		<layer id="100" name="__module.model.layers.0.self_attn/aten::view/Reshape_1" type="Reshape" version="opset1">
			<data special_zero="true" />
			<input>
				<port id="0" precision="FP32">
					<dim>-1</dim>
					<dim>-1</dim>
					<dim>256</dim>
				</port>
				<port id="1" precision="I64">
					<dim>4</dim>
				</port>
			</input>
			<output>
				<port id="2" precision="FP32" names="342">
					<dim>-1</dim>
					<dim>-1</dim>
					<dim>4</dim>
					<dim>64</dim>
				</port>
			</output>
		</layer>
		<layer id="101" name="__module.model.layers.0.self_attn/aten::transpose/Constant_1" type="Const" version="opset1">
			<data element_type="i32" shape="4" offset="69814864" size="16" />
			<output>
				<port id="0" precision="I32">
					<dim>4</dim>
				</port>
			</output>
		</layer>
		<layer id="102" name="__module.model.layers.0.self_attn/aten::transpose/Transpose_1" type="Transpose" version="opset1">
			<input>
				<port id="0" precision="FP32">
					<dim>-1</dim>
					<dim>-1</dim>
					<dim>4</dim>
					<dim>64</dim>
				</port>
				<port id="1" precision="I32">
					<dim>4</dim>
				</port>
			</input>
			<output>
				<port id="2" precision="FP32" names="343,k.1">
					<dim>-1</dim>
					<dim>4</dim>
					<dim>-1</dim>
					<dim>64</dim>
				</port>
			</output>
		</layer>
		<layer id="103" name="__module.model.layers.0.self_attn/aten::mul/Multiply_2" type="Multiply" version="opset1">
			<data auto_broadcast="numpy" />
			<input>
				<port id="0" precision="FP32">
					<dim>-1</dim>
					<dim>4</dim>
					<dim>-1</dim>
					<dim>64</dim>
				</port>
				<port id="1" precision="FP32">
					<dim>-1</dim>
					<dim>1</dim>
					<dim>-1</dim>
					<dim>64</dim>
				</port>
			</input>
			<output>
				<port id="2" precision="FP32" names="367">
					<dim>-1</dim>
					<dim>4</dim>
					<dim>-1</dim>
					<dim>64</dim>
				</port>
			</output>
		</layer>
		<layer id="104" name="Constant_1057" type="Const" version="opset1">
			<data element_type="i64" shape="1" offset="69815028" size="8" />
			<output>
				<port id="0" precision="I64">
					<dim>1</dim>
				</port>
			</output>
		</layer>
		<layer id="105" name="Constant_1059" type="Const" version="opset1">
			<data element_type="i64" shape="1" offset="69815036" size="8" />
			<output>
				<port id="0" precision="I64">
					<dim>1</dim>
				</port>
			</output>
		</layer>
		<layer id="106" name="Constant_1061" type="Const" version="opset1">
			<data element_type="i64" shape="1" offset="69815008" size="8" />
			<output>
				<port id="0" precision="I64">
					<dim>1</dim>
				</port>
			</output>
		</layer>
		<layer id="107" name="Constant_1013" type="Const" version="opset1">
			<data element_type="i64" shape="1" offset="69815044" size="8" />
			<output>
				<port id="0" precision="I64">
					<dim>1</dim>
				</port>
			</output>
		</layer>
		<layer id="108" name="__module.model.layers.0.self_attn/aten::slice/Slice_2" type="Slice" version="opset8">
			<input>
				<port id="0" precision="FP32">
					<dim>-1</dim>
					<dim>4</dim>
					<dim>-1</dim>
					<dim>64</dim>
				</port>
				<port id="1" precision="I64">
					<dim>1</dim>
				</port>
				<port id="2" precision="I64">
					<dim>1</dim>
				</port>
				<port id="3" precision="I64">
					<dim>1</dim>
				</port>
				<port id="4" precision="I64">
					<dim>1</dim>
				</port>
			</input>
			<output>
				<port id="5" precision="FP32" names="377,x2.3">
					<dim>-1</dim>
					<dim>4</dim>
					<dim>-1</dim>
					<dim>32</dim>
				</port>
			</output>
		</layer>
		<layer id="109" name="Constant_52737" type="Const" version="opset1">
			<data element_type="f32" shape="1, 1, 1, 1" offset="69815052" size="4" />
			<output>
				<port id="0" precision="FP32">
					<dim>1</dim>
					<dim>1</dim>
					<dim>1</dim>
					<dim>1</dim>
				</port>
			</output>
		</layer>
		<layer id="110" name="__module.model.layers.0.self_attn/aten::neg/Multiply_1" type="Multiply" version="opset1">
			<data auto_broadcast="numpy" />
			<input>
				<port id="0" precision="FP32">
					<dim>-1</dim>
					<dim>4</dim>
					<dim>-1</dim>
					<dim>32</dim>
				</port>
				<port id="1" precision="FP32">
					<dim>1</dim>
					<dim>1</dim>
					<dim>1</dim>
					<dim>1</dim>
				</port>
			</input>
			<output>
				<port id="2" precision="FP32" names="378">
					<dim>-1</dim>
					<dim>4</dim>
					<dim>-1</dim>
					<dim>32</dim>
				</port>
			</output>
		</layer>
		<layer id="111" name="Constant_954" type="Const" version="opset1">
			<data element_type="i64" shape="1" offset="4" size="8" />
			<output>
				<port id="0" precision="I64">
					<dim>1</dim>
				</port>
			</output>
		</layer>
		<layer id="112" name="Constant_998" type="Const" version="opset1">
			<data element_type="i64" shape="1" offset="69815028" size="8" />
			<output>
				<port id="0" precision="I64">
					<dim>1</dim>
				</port>
			</output>
		</layer>
		<layer id="113" name="Constant_1000" type="Const" version="opset1">
			<data element_type="i64" shape="1" offset="69815008" size="8" />
			<output>
				<port id="0" precision="I64">
					<dim>1</dim>
				</port>
			</output>
		</layer>
		<layer id="114" name="Constant_952" type="Const" version="opset1">
			<data element_type="i64" shape="1" offset="69815044" size="8" />
			<output>
				<port id="0" precision="I64">
					<dim>1</dim>
				</port>
			</output>
		</layer>
		<layer id="115" name="__module.model.layers.0.self_attn/aten::slice/Slice_3" type="Slice" version="opset8">
			<input>
				<port id="0" precision="FP32">
					<dim>-1</dim>
					<dim>4</dim>
					<dim>-1</dim>
					<dim>64</dim>
				</port>
				<port id="1" precision="I64">
					<dim>1</dim>
				</port>
				<port id="2" precision="I64">
					<dim>1</dim>
				</port>
				<port id="3" precision="I64">
					<dim>1</dim>
				</port>
				<port id="4" precision="I64">
					<dim>1</dim>
				</port>
			</input>
			<output>
				<port id="5" precision="FP32" names="372">
					<dim>-1</dim>
					<dim>4</dim>
					<dim>-1</dim>
					<dim>32</dim>
				</port>
			</output>
		</layer>
		<layer id="116" name="__module.model.layers.0.self_attn/aten::cat/Concat_1" type="Concat" version="opset1">
			<data axis="-1" />
			<input>
				<port id="0" precision="FP32">
					<dim>-1</dim>
					<dim>4</dim>
					<dim>-1</dim>
					<dim>32</dim>
				</port>
				<port id="1" precision="FP32">
					<dim>-1</dim>
					<dim>4</dim>
					<dim>-1</dim>
					<dim>32</dim>
				</port>
			</input>
			<output>
				<port id="2" precision="FP32" names="380">
					<dim>-1</dim>
					<dim>4</dim>
					<dim>-1</dim>
					<dim>64</dim>
				</port>
			</output>
		</layer>
		<layer id="117" name="__module.model.layers.0.self_attn/aten::mul/Multiply_3" type="Multiply" version="opset1">
			<data auto_broadcast="numpy" />
			<input>
				<port id="0" precision="FP32">
					<dim>-1</dim>
					<dim>4</dim>
					<dim>-1</dim>
					<dim>64</dim>
				</port>
				<port id="1" precision="FP32">
					<dim>-1</dim>
					<dim>1</dim>
					<dim>-1</dim>
					<dim>64</dim>
				</port>
			</input>
			<output>
				<port id="2" precision="FP32" names="381">
					<dim>-1</dim>
					<dim>4</dim>
					<dim>-1</dim>
					<dim>64</dim>
				</port>
			</output>
		</layer>
		<layer id="118" name="__module.model.layers.0.self_attn/aten::add/Add_1" type="Add" version="opset1">
			<data auto_broadcast="numpy" />
			<input>
				<port id="0" precision="FP32">
					<dim>-1</dim>
					<dim>4</dim>
					<dim>-1</dim>
					<dim>64</dim>
				</port>
				<port id="1" precision="FP32">
					<dim>-1</dim>
					<dim>4</dim>
					<dim>-1</dim>
					<dim>64</dim>
				</port>
			</input>
			<output>
				<port id="2" precision="FP32" names="382,key_states">
					<dim>-1</dim>
					<dim>4</dim>
					<dim>-1</dim>
					<dim>64</dim>
				</port>
			</output>
		</layer>
		<layer id="119" name="__module.model.layers.0.self_attn/aten::cat/Concat_2" type="Concat" version="opset1">
			<data axis="-2" />
			<input>
				<port id="0" precision="FP32">
					<dim>-1</dim>
					<dim>4</dim>
					<dim>-1</dim>
					<dim>64</dim>
				</port>
				<port id="1" precision="FP32">
					<dim>-1</dim>
					<dim>4</dim>
					<dim>-1</dim>
					<dim>64</dim>
				</port>
			</input>
			<output>
				<port id="2" precision="FP32" names="395,396,hidden_states.9">
					<dim>-1</dim>
					<dim>4</dim>
					<dim>-1</dim>
					<dim>64</dim>
				</port>
			</output>
		</layer>
		<layer id="120" name="187" type="Const" version="opset1">
			<data element_type="i64" shape="" offset="70339888" size="8" />
			<output>
				<port id="0" precision="I64" names="187" />
			</output>
		</layer>
		<layer id="121" name="__module.model.layers.0.self_attn/aten::unsqueeze/Unsqueeze_2" type="Unsqueeze" version="opset1">
			<input>
				<port id="0" precision="FP32">
					<dim>-1</dim>
					<dim>4</dim>
					<dim>-1</dim>
					<dim>64</dim>
				</port>
				<port id="1" precision="I64" />
			</input>
			<output>
				<port id="2" precision="FP32" names="397,398,399">
					<dim>-1</dim>
					<dim>4</dim>
					<dim>1</dim>
					<dim>-1</dim>
					<dim>64</dim>
				</port>
			</output>
		</layer>
		<layer id="122" name="__module.model.layers.0.self_attn/aten::size/ShapeOf_2" type="ShapeOf" version="opset3">
			<data output_type="i64" />
			<input>
				<port id="0" precision="FP32">
					<dim>-1</dim>
					<dim>4</dim>
					<dim>-1</dim>
					<dim>64</dim>
				</port>
			</input>
			<output>
				<port id="1" precision="I64">
					<dim>4</dim>
				</port>
			</output>
		</layer>
		<layer id="123" name="Constant_48893" type="Const" version="opset1">
			<data element_type="i64" shape="2" offset="70339896" size="16" />
			<output>
				<port id="0" precision="I64">
					<dim>2</dim>
				</port>
			</output>
		</layer>
		<layer id="124" name="Constant_48894" type="Const" version="opset1">
			<data element_type="i64" shape="" offset="4" size="8" />
			<output>
				<port id="0" precision="I64" />
			</output>
		</layer>
		<layer id="125" name="Gather_48895" type="Gather" version="opset8">
			<data batch_dims="0" />
			<input>
				<port id="0" precision="I64">
					<dim>4</dim>
				</port>
				<port id="1" precision="I64">
					<dim>2</dim>
				</port>
				<port id="2" precision="I64" />
			</input>
			<output>
				<port id="3" precision="I64">
					<dim>2</dim>
				</port>
			</output>
		</layer>
		<layer id="126" name="Constant_47266" type="Const" version="opset1">
			<data element_type="i64" shape="1" offset="70339912" size="8" />
			<output>
				<port id="0" precision="I64">
					<dim>1</dim>
				</port>
			</output>
		</layer>
		<layer id="127" name="ShapeOf_54284" type="ShapeOf" version="opset3">
			<data output_type="i64" />
			<input>
				<port id="0" precision="FP32">
					<dim>-1</dim>
					<dim>4</dim>
					<dim>-1</dim>
					<dim>64</dim>
				</port>
			</input>
			<output>
				<port id="1" precision="I64">
					<dim>4</dim>
				</port>
			</output>
		</layer>
		<layer id="128" name="Constant_54285" type="Const" version="opset1">
			<data element_type="i64" shape="" offset="70339888" size="8" />
			<output>
				<port id="0" precision="I64" />
			</output>
		</layer>
		<layer id="129" name="Constant_54286" type="Const" version="opset1">
			<data element_type="i64" shape="" offset="4" size="8" />
			<output>
				<port id="0" precision="I64" />
			</output>
		</layer>
		<layer id="130" name="Gather_54287" type="Gather" version="opset8">
			<data batch_dims="0" />
			<input>
				<port id="0" precision="I64">
					<dim>4</dim>
				</port>
				<port id="1" precision="I64" />
				<port id="2" precision="I64" />
			</input>
			<output>
				<port id="3" precision="I64" names="237" />
			</output>
		</layer>
		<layer id="131" name="Constant_54298" type="Const" version="opset1">
			<data element_type="i64" shape="1" offset="69815008" size="8" />
			<output>
				<port id="0" precision="I64">
					<dim>1</dim>
				</port>
			</output>
		</layer>
		<layer id="132" name="Reshape_54299" type="Reshape" version="opset1">
			<data special_zero="false" />
			<input>
				<port id="0" precision="I64" />
				<port id="1" precision="I64">
					<dim>1</dim>
				</port>
			</input>
			<output>
				<port id="2" precision="I64">
					<dim>1</dim>
				</port>
			</output>
		</layer>
		<layer id="133" name="Constant_54253" type="Const" version="opset1">
			<data element_type="i64" shape="" offset="69815008" size="8" />
			<output>
				<port id="0" precision="I64" />
			</output>
		</layer>
		<layer id="134" name="Constant_54254" type="Const" version="opset1">
			<data element_type="i64" shape="" offset="4" size="8" />
			<output>
				<port id="0" precision="I64" />
			</output>
		</layer>
		<layer id="135" name="Gather_54255" type="Gather" version="opset8">
			<data batch_dims="0" />
			<input>
				<port id="0" precision="I64">
					<dim>3</dim>
				</port>
				<port id="1" precision="I64" />
				<port id="2" precision="I64" />
			</input>
			<output>
				<port id="3" precision="I64" names="239,244" />
			</output>
		</layer>
		<layer id="136" name="Constant_54300" type="Const" version="opset1">
			<data element_type="i64" shape="1" offset="69815008" size="8" />
			<output>
				<port id="0" precision="I64">
					<dim>1</dim>
				</port>
			</output>
		</layer>
		<layer id="137" name="Reshape_54301" type="Reshape" version="opset1">
			<data special_zero="false" />
			<input>
				<port id="0" precision="I64" />
				<port id="1" precision="I64">
					<dim>1</dim>
				</port>
			</input>
			<output>
				<port id="2" precision="I64">
					<dim>1</dim>
				</port>
			</output>
		</layer>
		<layer id="138" name="Add_54302" type="Add" version="opset1">
			<data auto_broadcast="numpy" />
			<input>
				<port id="0" precision="I64">
					<dim>1</dim>
				</port>
				<port id="1" precision="I64">
					<dim>1</dim>
				</port>
			</input>
			<output>
				<port id="2" precision="I64" names="1025,1054,1183,1212,1341,1370,1499,1528,1657,1686,1815,1844,1973,2002,2131,2160,2289,2318,2447,2476,2605,2634,2763,2792,2921,2950,3079,3108,3237,3266,3395,3424,3553,3582,3711,3740,393,422,551,580,709,738,867,896">
					<dim>1</dim>
				</port>
			</output>
		</layer>
		<layer id="139" name="Constant_47269" type="Const" version="opset1">
			<data element_type="i64" shape="1" offset="20" size="8" />
			<output>
				<port id="0" precision="I64">
					<dim>1</dim>
				</port>
			</output>
		</layer>
		<layer id="140" name="__module.model.layers.0.self_attn/prim::ListConstruct_2" type="Concat" version="opset1">
			<data axis="0" />
			<input>
				<port id="0" precision="I64">
					<dim>2</dim>
				</port>
				<port id="1" precision="I64">
					<dim>1</dim>
				</port>
				<port id="2" precision="I64">
					<dim>1</dim>
				</port>
				<port id="3" precision="I64">
					<dim>1</dim>
				</port>
			</input>
			<output>
				<port id="4" precision="I64">
					<dim>5</dim>
				</port>
			</output>
		</layer>
		<layer id="141" name="__module.model.layers.0.self_attn/aten::expand/Broadcast" type="Broadcast" version="opset3">
			<data mode="bidirectional" />
			<input>
				<port id="0" precision="FP32">
					<dim>-1</dim>
					<dim>4</dim>
					<dim>1</dim>
					<dim>-1</dim>
					<dim>64</dim>
				</port>
				<port id="1" precision="I64">
					<dim>5</dim>
				</port>
			</input>
			<output>
				<port id="2" precision="FP32" names="401,hidden_states.11">
					<dim>-1</dim>
					<dim>4</dim>
					<dim>8</dim>
					<dim>-1</dim>
					<dim>64</dim>
				</port>
			</output>
		</layer>
		<layer id="142" name="Constant_59418" type="Const" version="opset1">
			<data element_type="i64" shape="4" offset="70339920" size="32" />
			<output>
				<port id="0" precision="I64">
					<dim>4</dim>
				</port>
			</output>
		</layer>
		<layer id="143" name="__module.model.layers.0.self_attn/aten::reshape/Reshape" type="Reshape" version="opset1">
			<data special_zero="true" />
			<input>
				<port id="0" precision="FP32">
					<dim>-1</dim>
					<dim>4</dim>
					<dim>8</dim>
					<dim>-1</dim>
					<dim>64</dim>
				</port>
				<port id="1" precision="I64">
					<dim>4</dim>
				</port>
			</input>
			<output>
				<port id="2" precision="FP32" names="405,key.1">
					<dim>-1</dim>
					<dim>32</dim>
					<dim>-1</dim>
					<dim>64</dim>
				</port>
			</output>
		</layer>
		<layer id="144" name="Constant_61774" type="Const" version="opset1">
			<data element_type="f32" shape="" offset="0" size="4" />
			<output>
				<port id="0" precision="FP32" />
			</output>
		</layer>
		<layer id="145" name="Constant_61767" type="Const" version="opset1">
			<data element_type="i64" shape="1" offset="12" size="8" />
			<output>
				<port id="0" precision="I64">
					<dim>1</dim>
				</port>
			</output>
		</layer>
		<layer id="146" name="Constant_61769" type="Const" version="opset1">
			<data element_type="i64" shape="1" offset="4" size="8" />
			<output>
				<port id="0" precision="I64">
					<dim>1</dim>
				</port>
			</output>
		</layer>
		<layer id="147" name="Constant_61771" type="Const" version="opset1">
			<data element_type="i64" shape="1" offset="20" size="8" />
			<output>
				<port id="0" precision="I64">
					<dim>1</dim>
				</port>
			</output>
		</layer>
		<layer id="148" name="Concat_61772" type="Concat" version="opset1">
			<data axis="0" />
			<input>
				<port id="0" precision="I64">
					<dim>1</dim>
				</port>
				<port id="1" precision="I64">
					<dim>1</dim>
				</port>
				<port id="2" precision="I64">
					<dim>1</dim>
				</port>
				<port id="3" precision="I64">
					<dim>1</dim>
				</port>
			</input>
			<output>
				<port id="4" precision="I64">
					<dim>4</dim>
				</port>
			</output>
		</layer>
		<layer id="149" name="Broadcast_61775" type="Broadcast" version="opset3">
			<data mode="numpy" />
			<input>
				<port id="0" precision="FP32" />
				<port id="1" precision="I64">
					<dim>4</dim>
				</port>
			</input>
			<output>
				<port id="2" precision="FP32">
					<dim>-1</dim>
					<dim>4</dim>
					<dim>0</dim>
					<dim>64</dim>
				</port>
			</output>
		</layer>
		<layer id="150" name="ReadValue_61276" type="ReadValue" version="opset6">
			<data variable_id="past_key_values.0.valuepresent.0.value" variable_type="f32" variable_shape="?,4,?,64" />
			<input>
				<port id="0" precision="FP32">
					<dim>-1</dim>
					<dim>4</dim>
					<dim>0</dim>
					<dim>64</dim>
				</port>
			</input>
			<output>
				<port id="1" precision="FP32" names="past_key_values.0.value">
					<dim>-1</dim>
					<dim>4</dim>
					<dim>-1</dim>
					<dim>64</dim>
				</port>
			</output>
		</layer>
		<layer id="151" name="Constant_60772" type="Const" version="opset1">
			<data element_type="i64" shape="" offset="4" size="8" />
			<output>
				<port id="0" precision="I64" />
			</output>
		</layer>
		<layer id="152" name="Gather_60773" type="Gather" version="opset8">
			<data batch_dims="0" />
			<input>
				<port id="0" precision="FP32">
					<dim>-1</dim>
					<dim>4</dim>
					<dim>-1</dim>
					<dim>64</dim>
				</port>
				<port id="1" precision="I32">
					<dim>-1</dim>
				</port>
				<port id="2" precision="I64" />
			</input>
			<output>
				<port id="3" precision="FP32">
					<dim>-1</dim>
					<dim>4</dim>
					<dim>-1</dim>
					<dim>64</dim>
				</port>
			</output>
		</layer>
		<layer id="153" name="self.model.layers.0.self_attn.v_proj.weight" type="Const" version="opset1">
			<data element_type="i8" shape="256, 2048" offset="70339952" size="524288" />
			<output>
				<port id="0" precision="I8">
					<dim>256</dim>
					<dim>2048</dim>
				</port>
			</output>
		</layer>
		<layer id="154" name="Convert_74239" type="Convert" version="opset1">
			<data destination_type="f16" />
			<input>
				<port id="0" precision="I8">
					<dim>256</dim>
					<dim>2048</dim>
				</port>
			</input>
			<output>
				<port id="1" precision="FP16">
					<dim>256</dim>
					<dim>2048</dim>
				</port>
			</output>
		</layer>
		<layer id="155" name="self.model.layers.0.self_attn.v_proj.weight/scale" type="Const" version="opset1">
			<data element_type="f16" shape="256, 1" offset="70864240" size="512" />
			<output>
				<port id="0" precision="FP16">
					<dim>256</dim>
					<dim>1</dim>
				</port>
			</output>
		</layer>
		<layer id="156" name="self.model.layers.0.self_attn.v_proj.weight/fq_weights_1" type="Multiply" version="opset1">
			<data auto_broadcast="numpy" />
			<input>
				<port id="0" precision="FP16">
					<dim>256</dim>
					<dim>2048</dim>
				</port>
				<port id="1" precision="FP16">
					<dim>256</dim>
					<dim>1</dim>
				</port>
			</input>
			<output>
				<port id="2" precision="FP16">
					<dim>256</dim>
					<dim>2048</dim>
				</port>
			</output>
		</layer>
		<layer id="157" name="__module.model.layers.0.self_attn.v_proj/ov_ext::linear/Convert" type="Convert" version="opset1">
			<data destination_type="f32" />
			<rt_info>
				<attribute name="decompression" version="0" />
			</rt_info>
			<input>
				<port id="0" precision="FP16">
					<dim>256</dim>
					<dim>2048</dim>
				</port>
			</input>
			<output>
				<port id="1" precision="FP32">
					<dim>256</dim>
					<dim>2048</dim>
				</port>
			</output>
		</layer>
		<layer id="158" name="__module.model.layers.0.self_attn.v_proj/ov_ext::linear/MatMul" type="MatMul" version="opset1">
			<data transpose_a="false" transpose_b="true" />
			<input>
				<port id="0" precision="FP32">
					<dim>-1</dim>
					<dim>-1</dim>
					<dim>2048</dim>
				</port>
				<port id="1" precision="FP32">
					<dim>256</dim>
					<dim>2048</dim>
				</port>
			</input>
			<output>
				<port id="2" precision="FP32" names="345">
					<dim>-1</dim>
					<dim>-1</dim>
					<dim>256</dim>
				</port>
			</output>
		</layer>
		<layer id="159" name="Constant_59419" type="Const" version="opset1">
			<data element_type="i64" shape="4" offset="70339856" size="32" />
			<output>
				<port id="0" precision="I64">
					<dim>4</dim>
				</port>
			</output>
		</layer>
		<layer id="160" name="__module.model.layers.0.self_attn/aten::view/Reshape_2" type="Reshape" version="opset1">
			<data special_zero="true" />
			<input>
				<port id="0" precision="FP32">
					<dim>-1</dim>
					<dim>-1</dim>
					<dim>256</dim>
				</port>
				<port id="1" precision="I64">
					<dim>4</dim>
				</port>
			</input>
			<output>
				<port id="2" precision="FP32" names="347">
					<dim>-1</dim>
					<dim>-1</dim>
					<dim>4</dim>
					<dim>64</dim>
				</port>
			</output>
		</layer>
		<layer id="161" name="__module.model.layers.0.self_attn/aten::transpose/Constant_2" type="Const" version="opset1">
			<data element_type="i32" shape="4" offset="69814864" size="16" />
			<output>
				<port id="0" precision="I32">
					<dim>4</dim>
				</port>
			</output>
		</layer>
		<layer id="162" name="__module.model.layers.0.self_attn/aten::transpose/Transpose_2" type="Transpose" version="opset1">
			<input>
				<port id="0" precision="FP32">
					<dim>-1</dim>
					<dim>-1</dim>
					<dim>4</dim>
					<dim>64</dim>
				</port>
				<port id="1" precision="I32">
					<dim>4</dim>
				</port>
			</input>
			<output>
				<port id="2" precision="FP32" names="348">
					<dim>-1</dim>
					<dim>4</dim>
					<dim>-1</dim>
					<dim>64</dim>
				</port>
			</output>
		</layer>
		<layer id="163" name="__module.model.layers.0.self_attn/aten::cat/Concat_3" type="Concat" version="opset1">
			<data axis="-2" />
			<input>
				<port id="0" precision="FP32">
					<dim>-1</dim>
					<dim>4</dim>
					<dim>-1</dim>
					<dim>64</dim>
				</port>
				<port id="1" precision="FP32">
					<dim>-1</dim>
					<dim>4</dim>
					<dim>-1</dim>
					<dim>64</dim>
				</port>
			</input>
			<output>
				<port id="2" precision="FP32" names="411,412,hidden_states.13">
					<dim>-1</dim>
					<dim>4</dim>
					<dim>-1</dim>
					<dim>64</dim>
				</port>
			</output>
		</layer>
		<layer id="164" name="__module.model.layers.0.self_attn/aten::unsqueeze/Unsqueeze_3" type="Unsqueeze" version="opset1">
			<input>
				<port id="0" precision="FP32">
					<dim>-1</dim>
					<dim>4</dim>
					<dim>-1</dim>
					<dim>64</dim>
				</port>
				<port id="1" precision="I64" />
			</input>
			<output>
				<port id="2" precision="FP32" names="413,414,415">
					<dim>-1</dim>
					<dim>4</dim>
					<dim>1</dim>
					<dim>-1</dim>
					<dim>64</dim>
				</port>
			</output>
		</layer>
		<layer id="165" name="__module.model.layers.0.self_attn/aten::expand/Broadcast_1" type="Broadcast" version="opset3">
			<data mode="bidirectional" />
			<input>
				<port id="0" precision="FP32">
					<dim>-1</dim>
					<dim>4</dim>
					<dim>1</dim>
					<dim>-1</dim>
					<dim>64</dim>
				</port>
				<port id="1" precision="I64">
					<dim>5</dim>
				</port>
			</input>
			<output>
				<port id="2" precision="FP32" names="417,hidden_states.15">
					<dim>-1</dim>
					<dim>4</dim>
					<dim>8</dim>
					<dim>-1</dim>
					<dim>64</dim>
				</port>
			</output>
		</layer>
		<layer id="166" name="Constant_59420" type="Const" version="opset1">
			<data element_type="i64" shape="4" offset="70339920" size="32" />
			<output>
				<port id="0" precision="I64">
					<dim>4</dim>
				</port>
			</output>
		</layer>
		<layer id="167" name="__module.model.layers.0.self_attn/aten::reshape/Reshape_1" type="Reshape" version="opset1">
			<data special_zero="true" />
			<input>
				<port id="0" precision="FP32">
					<dim>-1</dim>
					<dim>4</dim>
					<dim>8</dim>
					<dim>-1</dim>
					<dim>64</dim>
				</port>
				<port id="1" precision="I64">
					<dim>4</dim>
				</port>
			</input>
			<output>
				<port id="2" precision="FP32" names="421,value.1">
					<dim>-1</dim>
					<dim>32</dim>
					<dim>-1</dim>
					<dim>64</dim>
				</port>
			</output>
		</layer>
		<layer id="168" name="__module.model/aten::triu/Constant" type="Const" version="opset1">
			<data element_type="i32" shape="" offset="0" size="4" />
			<output>
				<port id="0" precision="I32" />
			</output>
		</layer>
		<layer id="169" name="Multiply_49601" type="Const" version="opset1">
			<data element_type="f32" shape="" offset="70864752" size="4" />
			<output>
				<port id="0" precision="FP32" />
			</output>
		</layer>
		<layer id="170" name="Constant_49606" type="Const" version="opset1">
			<data element_type="i64" shape="2" offset="70864756" size="16" />
			<output>
				<port id="0" precision="I64">
					<dim>2</dim>
				</port>
			</output>
		</layer>
		<layer id="171" name="ShapeOf_54260" type="ShapeOf" version="opset3">
			<data output_type="i64" />
			<input>
				<port id="0" precision="I64">
					<dim>-1</dim>
					<dim>-1</dim>
				</port>
			</input>
			<output>
				<port id="1" precision="I64">
					<dim>2</dim>
				</port>
			</output>
		</layer>
		<layer id="172" name="Constant_54261" type="Const" version="opset1">
			<data element_type="i64" shape="" offset="69815008" size="8" />
			<output>
				<port id="0" precision="I64" />
			</output>
		</layer>
		<layer id="173" name="Constant_54262" type="Const" version="opset1">
			<data element_type="i64" shape="" offset="4" size="8" />
			<output>
				<port id="0" precision="I64" />
			</output>
		</layer>
		<layer id="174" name="Gather_54263" type="Gather" version="opset8">
			<data batch_dims="0" />
			<input>
				<port id="0" precision="I64">
					<dim>2</dim>
				</port>
				<port id="1" precision="I64" />
				<port id="2" precision="I64" />
			</input>
			<output>
				<port id="3" precision="I64" names="245,263" />
			</output>
		</layer>
		<layer id="175" name="Constant_54264" type="Const" version="opset1">
			<data element_type="i64" shape="1" offset="69815008" size="8" />
			<output>
				<port id="0" precision="I64">
					<dim>1</dim>
				</port>
			</output>
		</layer>
		<layer id="176" name="Reshape_54265" type="Reshape" version="opset1">
			<data special_zero="false" />
			<input>
				<port id="0" precision="I64" />
				<port id="1" precision="I64">
					<dim>1</dim>
				</port>
			</input>
			<output>
				<port id="2" precision="I64">
					<dim>1</dim>
				</port>
			</output>
		</layer>
		<layer id="177" name="__module.model/prim::ListConstruct" type="Concat" version="opset1">
			<data axis="0" />
			<input>
				<port id="0" precision="I64">
					<dim>1</dim>
				</port>
				<port id="1" precision="I64">
					<dim>1</dim>
				</port>
			</input>
			<output>
				<port id="2" precision="I64">
					<dim>2</dim>
				</port>
			</output>
		</layer>
		<layer id="178" name="Maximum_49607" type="Maximum" version="opset1">
			<data auto_broadcast="numpy" />
			<input>
				<port id="0" precision="I64">
					<dim>2</dim>
				</port>
				<port id="1" precision="I64">
					<dim>2</dim>
				</port>
			</input>
			<output>
				<port id="2" precision="I64">
					<dim>2</dim>
				</port>
			</output>
		</layer>
		<layer id="179" name="__module.model/aten::mul/Multiply" type="Broadcast" version="opset3">
			<data mode="numpy" />
			<input>
				<port id="0" precision="FP32" />
				<port id="1" precision="I64">
					<dim>2</dim>
				</port>
			</input>
			<output>
				<port id="2" precision="FP32" names="248">
					<dim>-1</dim>
					<dim>-1</dim>
				</port>
			</output>
		</layer>
		<layer id="180" name="ShapeOf_54270" type="ShapeOf" version="opset3">
			<data output_type="i32" />
			<input>
				<port id="0" precision="FP32">
					<dim>-1</dim>
					<dim>-1</dim>
				</port>
			</input>
			<output>
				<port id="1" precision="I32">
					<dim>2</dim>
				</port>
			</output>
		</layer>
		<layer id="181" name="Constant_54271" type="Const" version="opset1">
			<data element_type="i64" shape="" offset="69815008" size="8" />
			<output>
				<port id="0" precision="I64" />
			</output>
		</layer>
		<layer id="182" name="Constant_54272" type="Const" version="opset1">
			<data element_type="i64" shape="" offset="4" size="8" />
			<output>
				<port id="0" precision="I64" />
			</output>
		</layer>
		<layer id="183" name="Gather_54273" type="Gather" version="opset8">
			<data batch_dims="0" />
			<input>
				<port id="0" precision="I32">
					<dim>2</dim>
				</port>
				<port id="1" precision="I64" />
				<port id="2" precision="I64" />
			</input>
			<output>
				<port id="3" precision="I32" />
			</output>
		</layer>
		<layer id="184" name="__module.model/aten::triu/Constant_2" type="Const" version="opset1">
			<data element_type="i32" shape="" offset="70864772" size="4" />
			<output>
				<port id="0" precision="I32" />
			</output>
		</layer>
		<layer id="185" name="__module.model/aten::triu/Range" type="Range" version="opset4">
			<data output_type="i32" />
			<input>
				<port id="0" precision="I32" />
				<port id="1" precision="I32" />
				<port id="2" precision="I32" />
			</input>
			<output>
				<port id="3" precision="I32">
					<dim>-1</dim>
				</port>
			</output>
		</layer>
		<layer id="186" name="__module.model/aten::triu/Unsqueeze" type="Unsqueeze" version="opset1">
			<input>
				<port id="0" precision="I32">
					<dim>-1</dim>
				</port>
				<port id="1" precision="I32" />
			</input>
			<output>
				<port id="2" precision="I32">
					<dim>1</dim>
					<dim>-1</dim>
				</port>
			</output>
		</layer>
		<layer id="187" name="__module.model/aten::triu/Convert" type="Const" version="opset1">
			<data element_type="i32" shape="" offset="70864772" size="4" />
			<output>
				<port id="0" precision="I32" />
			</output>
		</layer>
		<layer id="188" name="Constant_54277" type="Const" version="opset1">
			<data element_type="i64" shape="" offset="4" size="8" />
			<output>
				<port id="0" precision="I64" />
			</output>
		</layer>
		<layer id="189" name="Constant_54278" type="Const" version="opset1">
			<data element_type="i64" shape="" offset="4" size="8" />
			<output>
				<port id="0" precision="I64" />
			</output>
		</layer>
		<layer id="190" name="Gather_54279" type="Gather" version="opset8">
			<data batch_dims="0" />
			<input>
				<port id="0" precision="I32">
					<dim>2</dim>
				</port>
				<port id="1" precision="I64" />
				<port id="2" precision="I64" />
			</input>
			<output>
				<port id="3" precision="I32" />
			</output>
		</layer>
		<layer id="191" name="__module.model/aten::triu/Add" type="Add" version="opset1">
			<data auto_broadcast="numpy" />
			<input>
				<port id="0" precision="I32" />
				<port id="1" precision="I32" />
			</input>
			<output>
				<port id="2" precision="I32" />
			</output>
		</layer>
		<layer id="192" name="__module.model/aten::triu/Range_1" type="Range" version="opset4">
			<data output_type="i32" />
			<input>
				<port id="0" precision="I32" />
				<port id="1" precision="I32" />
				<port id="2" precision="I32" />
			</input>
			<output>
				<port id="3" precision="I32">
					<dim>-1</dim>
				</port>
			</output>
		</layer>
		<layer id="193" name="__module.model/aten::triu/Unsqueeze_1" type="Unsqueeze" version="opset1">
			<input>
				<port id="0" precision="I32">
					<dim>-1</dim>
				</port>
				<port id="1" precision="I32" />
			</input>
			<output>
				<port id="2" precision="I32">
					<dim>-1</dim>
					<dim>1</dim>
				</port>
			</output>
		</layer>
		<layer id="194" name="__module.model/aten::triu/GreaterEqual" type="GreaterEqual" version="opset1">
			<data auto_broadcast="numpy" />
			<input>
				<port id="0" precision="I32">
					<dim>1</dim>
					<dim>-1</dim>
				</port>
				<port id="1" precision="I32">
					<dim>-1</dim>
					<dim>1</dim>
				</port>
			</input>
			<output>
				<port id="2" precision="BOOL">
					<dim>-1</dim>
					<dim>-1</dim>
				</port>
			</output>
		</layer>
		<layer id="195" name="__module.model/aten::triu/ConvertLike" type="Const" version="opset1">
			<data element_type="f32" shape="" offset="0" size="4" />
			<output>
				<port id="0" precision="FP32" />
			</output>
		</layer>
		<layer id="196" name="__module.model/aten::triu/Select" type="Select" version="opset1">
			<data auto_broadcast="numpy" />
			<input>
				<port id="0" precision="BOOL">
					<dim>-1</dim>
					<dim>-1</dim>
				</port>
				<port id="1" precision="FP32">
					<dim>-1</dim>
					<dim>-1</dim>
				</port>
				<port id="2" precision="FP32" />
			</input>
			<output>
				<port id="3" precision="FP32" names="249_1">
					<dim>-1</dim>
					<dim>-1</dim>
				</port>
			</output>
		</layer>
		<layer id="197" name="__module.model/aten::arange/Constant" type="Const" version="opset1">
			<data element_type="i32" shape="" offset="0" size="4" />
			<output>
				<port id="0" precision="I32" />
			</output>
		</layer>
		<layer id="198" name="__module.model/aten::arange/Constant_1" type="Const" version="opset1">
			<data element_type="i32" shape="" offset="70864772" size="4" />
			<output>
				<port id="0" precision="I32" />
			</output>
		</layer>
		<layer id="199" name="__module.model/aten::arange/Range" type="Range" version="opset4">
			<data output_type="f32" />
			<input>
				<port id="0" precision="I32" />
				<port id="1" precision="I64" />
				<port id="2" precision="I32" />
			</input>
			<output>
				<port id="3" precision="FP32">
					<dim>-1</dim>
				</port>
			</output>
		</layer>
		<layer id="200" name="__module.model/aten::arange/ConvertLike" type="Convert" version="opset1">
			<data destination_type="i64" />
			<input>
				<port id="0" precision="FP32">
					<dim>-1</dim>
				</port>
			</input>
			<output>
				<port id="1" precision="I64" names="250">
					<dim>-1</dim>
				</port>
			</output>
		</layer>
		<layer id="201" name="__module.model/aten::gt/Convert" type="Convert" version="opset1">
			<data destination_type="f32" />
			<input>
				<port id="0" precision="I64">
					<dim>-1</dim>
				</port>
			</input>
			<output>
				<port id="1" precision="FP32">
					<dim>-1</dim>
				</port>
			</output>
		</layer>
		<layer id="202" name="__module.model/aten::add/Add" type="Add" version="opset1">
			<data auto_broadcast="numpy" />
			<input>
				<port id="0" precision="I64" />
				<port id="1" precision="I64" />
			</input>
			<output>
				<port id="2" precision="I64" names="241" />
			</output>
		</layer>
		<layer id="203" name="__module.model/aten::arange/Constant_2" type="Const" version="opset1">
			<data element_type="i32" shape="" offset="70864772" size="4" />
			<output>
				<port id="0" precision="I32" />
			</output>
		</layer>
		<layer id="204" name="__module.model/aten::arange/Range_1" type="Range" version="opset4">
			<data output_type="f32" />
			<input>
				<port id="0" precision="I64" />
				<port id="1" precision="I64" />
				<port id="2" precision="I32" />
			</input>
			<output>
				<port id="3" precision="FP32" names="243,cache_position">
					<dim>-1</dim>
				</port>
			</output>
		</layer>
		<layer id="205" name="Constant_252" type="Const" version="opset1">
			<data element_type="i64" shape="2" offset="70864776" size="16" />
			<output>
				<port id="0" precision="I64" names="251">
					<dim>2</dim>
				</port>
			</output>
		</layer>
		<layer id="206" name="__module.model/aten::reshape/Reshape" type="Reshape" version="opset1">
			<data special_zero="false" />
			<input>
				<port id="0" precision="FP32">
					<dim>-1</dim>
				</port>
				<port id="1" precision="I64">
					<dim>2</dim>
				</port>
			</input>
			<output>
				<port id="2" precision="FP32" names="252">
					<dim>-1</dim>
					<dim>1</dim>
				</port>
			</output>
		</layer>
		<layer id="207" name="__module.model/aten::gt/Greater" type="Greater" version="opset1">
			<data auto_broadcast="numpy" />
			<input>
				<port id="0" precision="FP32">
					<dim>-1</dim>
				</port>
				<port id="1" precision="FP32">
					<dim>-1</dim>
					<dim>1</dim>
				</port>
			</input>
			<output>
				<port id="2" precision="BOOL" names="253">
					<dim>-1</dim>
					<dim>-1</dim>
				</port>
			</output>
		</layer>
		<layer id="208" name="__module.model/aten::mul_/ConvertLike" type="Convert" version="opset1">
			<data destination_type="f32" />
			<input>
				<port id="0" precision="BOOL">
					<dim>-1</dim>
					<dim>-1</dim>
				</port>
			</input>
			<output>
				<port id="1" precision="FP32">
					<dim>-1</dim>
					<dim>-1</dim>
				</port>
			</output>
		</layer>
		<layer id="209" name="__module.model/aten::mul_/Multiply" type="Multiply" version="opset1">
			<data auto_broadcast="numpy" />
			<input>
				<port id="0" precision="FP32">
					<dim>-1</dim>
					<dim>-1</dim>
				</port>
				<port id="1" precision="FP32">
					<dim>-1</dim>
					<dim>-1</dim>
				</port>
			</input>
			<output>
				<port id="2" precision="FP32" names="249,causal_mask.1">
					<dim>-1</dim>
					<dim>-1</dim>
				</port>
			</output>
		</layer>
		<layer id="210" name="179" type="Const" version="opset1">
			<data element_type="i64" shape="" offset="4" size="8" />
			<output>
				<port id="0" precision="I64" names="179" />
			</output>
		</layer>
		<layer id="211" name="__module.model/aten::unsqueeze/Unsqueeze" type="Unsqueeze" version="opset1">
			<input>
				<port id="0" precision="FP32">
					<dim>-1</dim>
					<dim>-1</dim>
				</port>
				<port id="1" precision="I64" />
			</input>
			<output>
				<port id="2" precision="FP32" names="255">
					<dim>1</dim>
					<dim>-1</dim>
					<dim>-1</dim>
				</port>
			</output>
		</layer>
		<layer id="212" name="__module.model/aten::unsqueeze/Unsqueeze_1" type="Unsqueeze" version="opset1">
			<input>
				<port id="0" precision="FP32">
					<dim>1</dim>
					<dim>-1</dim>
					<dim>-1</dim>
				</port>
				<port id="1" precision="I64" />
			</input>
			<output>
				<port id="2" precision="FP32" names="256,257,258">
					<dim>1</dim>
					<dim>1</dim>
					<dim>-1</dim>
					<dim>-1</dim>
				</port>
			</output>
		</layer>
		<layer id="213" name="Constant_47297" type="Const" version="opset1">
			<data element_type="i64" shape="1" offset="69815008" size="8" />
			<output>
				<port id="0" precision="I64">
					<dim>1</dim>
				</port>
			</output>
		</layer>
		<layer id="214" name="Constant_47299" type="Const" version="opset1">
			<data element_type="i64" shape="1" offset="69815008" size="8" />
			<output>
				<port id="0" precision="I64">
					<dim>1</dim>
				</port>
			</output>
		</layer>
		<layer id="215" name="Constant_47301" type="Const" version="opset1">
			<data element_type="i64" shape="1" offset="69815008" size="8" />
			<output>
				<port id="0" precision="I64">
					<dim>1</dim>
				</port>
			</output>
		</layer>
		<layer id="216" name="__module.model/prim::ListConstruct_1" type="Concat" version="opset1">
			<data axis="0" />
			<input>
				<port id="0" precision="I64">
					<dim>1</dim>
				</port>
				<port id="1" precision="I64">
					<dim>1</dim>
				</port>
				<port id="2" precision="I64">
					<dim>1</dim>
				</port>
				<port id="3" precision="I64">
					<dim>1</dim>
				</port>
			</input>
			<output>
				<port id="4" precision="I64">
					<dim>4</dim>
				</port>
			</output>
		</layer>
		<layer id="217" name="__module.model/aten::expand/Broadcast" type="Broadcast" version="opset3">
			<data mode="bidirectional" />
			<input>
				<port id="0" precision="FP32">
					<dim>1</dim>
					<dim>1</dim>
					<dim>-1</dim>
					<dim>-1</dim>
				</port>
				<port id="1" precision="I64">
					<dim>4</dim>
				</port>
			</input>
			<output>
				<port id="2" precision="FP32" names="261,264,265,266,274,275,276,279_1,280_1,281_1,causal_mask.5">
					<dim>-1</dim>
					<dim>1</dim>
					<dim>-1</dim>
					<dim>-1</dim>
				</port>
			</output>
		</layer>
		<layer id="218" name="Constant_38980" type="Const" version="opset1">
			<data element_type="i64" shape="1" offset="65616420" size="8" />
			<output>
				<port id="0" precision="I64">
					<dim>1</dim>
				</port>
			</output>
		</layer>
		<layer id="219" name="SliceAssign_469/Reshape_3" type="Reshape" version="opset1">
			<data special_zero="false" />
			<input>
				<port id="0" precision="FP32">
					<dim>-1</dim>
					<dim>1</dim>
					<dim>-1</dim>
					<dim>-1</dim>
				</port>
				<port id="1" precision="I64">
					<dim>1</dim>
				</port>
			</input>
			<output>
				<port id="2" precision="FP32">
					<dim>-1</dim>
				</port>
			</output>
		</layer>
		<layer id="220" name="Constant_25105" type="Const" version="opset1">
			<data element_type="i64" shape="" offset="4" size="8" />
			<output>
				<port id="0" precision="I64" />
			</output>
		</layer>
		<layer id="221" name="SliceAssign_469/ShapeOf" type="ShapeOf" version="opset3">
			<data output_type="i64" />
			<input>
				<port id="0" precision="FP32">
					<dim>-1</dim>
					<dim>1</dim>
					<dim>-1</dim>
					<dim>-1</dim>
				</port>
			</input>
			<output>
				<port id="1" precision="I64">
					<dim>4</dim>
				</port>
			</output>
		</layer>
		<layer id="222" name="SliceAssign_469/ReduceProd" type="ReduceProd" version="opset1">
			<data keep_dims="false" />
			<input>
				<port id="0" precision="I64">
					<dim>4</dim>
				</port>
				<port id="1" precision="I64" />
			</input>
			<output>
				<port id="2" precision="I64" />
			</output>
		</layer>
		<layer id="223" name="Constant_25106" type="Const" version="opset1">
			<data element_type="i64" shape="" offset="69815008" size="8" />
			<output>
				<port id="0" precision="I64" />
			</output>
		</layer>
		<layer id="224" name="SliceAssign_469/Range" type="Range" version="opset4">
			<data output_type="i64" />
			<input>
				<port id="0" precision="I64" />
				<port id="1" precision="I64" />
				<port id="2" precision="I64" />
			</input>
			<output>
				<port id="3" precision="I64">
					<dim>-1</dim>
				</port>
			</output>
		</layer>
		<layer id="225" name="SliceAssign_469/Reshape" type="Reshape" version="opset1">
			<data special_zero="false" />
			<input>
				<port id="0" precision="I64">
					<dim>-1</dim>
				</port>
				<port id="1" precision="I64">
					<dim>4</dim>
				</port>
			</input>
			<output>
				<port id="2" precision="I64">
					<dim>-1</dim>
					<dim>1</dim>
					<dim>-1</dim>
					<dim>-1</dim>
				</port>
			</output>
		</layer>
		<layer id="226" name="Constant_459" type="Const" version="opset1">
			<data element_type="i64" shape="1" offset="4" size="8" />
			<output>
				<port id="0" precision="I64">
					<dim>1</dim>
				</port>
			</output>
		</layer>
		<layer id="227" name="Constant_462" type="Const" version="opset1">
			<data element_type="i64" shape="1" offset="69815008" size="8" />
			<output>
				<port id="0" precision="I64">
					<dim>1</dim>
				</port>
			</output>
		</layer>
		<layer id="228" name="Constant_457" type="Const" version="opset1">
			<data element_type="i64" shape="1" offset="69815044" size="8" />
			<output>
				<port id="0" precision="I64">
					<dim>1</dim>
				</port>
			</output>
		</layer>
		<layer id="229" name="SliceAssign_469/Slice_2" type="Slice" version="opset8">
			<input>
				<port id="0" precision="I64">
					<dim>-1</dim>
					<dim>1</dim>
					<dim>-1</dim>
					<dim>-1</dim>
				</port>
				<port id="1" precision="I64">
					<dim>1</dim>
				</port>
				<port id="2" precision="I64">
					<dim>1</dim>
				</port>
				<port id="3" precision="I64">
					<dim>1</dim>
				</port>
				<port id="4" precision="I64">
					<dim>1</dim>
				</port>
			</input>
			<output>
				<port id="5" precision="I64">
					<dim>-1</dim>
					<dim>1</dim>
					<dim>-1</dim>
					<dim>-1</dim>
				</port>
			</output>
		</layer>
		<layer id="230" name="Constant_25108" type="Const" version="opset1">
			<data element_type="i64" shape="2" offset="70864776" size="16" />
			<output>
				<port id="0" precision="I64">
					<dim>2</dim>
				</port>
			</output>
		</layer>
		<layer id="231" name="SliceAssign_469/Reshape_4" type="Reshape" version="opset1">
			<data special_zero="false" />
			<input>
				<port id="0" precision="I64">
					<dim>-1</dim>
					<dim>1</dim>
					<dim>-1</dim>
					<dim>-1</dim>
				</port>
				<port id="1" precision="I64">
					<dim>2</dim>
				</port>
			</input>
			<output>
				<port id="2" precision="I64">
					<dim>-1</dim>
					<dim>1</dim>
				</port>
			</output>
		</layer>
		<layer id="232" name="Constant_342" type="Const" version="opset1">
			<data element_type="i64" shape="1" offset="4" size="8" />
			<output>
				<port id="0" precision="I64">
					<dim>1</dim>
				</port>
			</output>
		</layer>
		<layer id="233" name="Constant_345" type="Const" version="opset1">
			<data element_type="i64" shape="1" offset="69815008" size="8" />
			<output>
				<port id="0" precision="I64">
					<dim>1</dim>
				</port>
			</output>
		</layer>
		<layer id="234" name="Constant_340" type="Const" version="opset1">
			<data element_type="i64" shape="1" offset="69815044" size="8" />
			<output>
				<port id="0" precision="I64">
					<dim>1</dim>
				</port>
			</output>
		</layer>
		<layer id="235" name="__module.model/aten::slice/Slice_5" type="Slice" version="opset8">
			<input>
				<port id="0" precision="FP32">
					<dim>-1</dim>
					<dim>1</dim>
					<dim>-1</dim>
					<dim>-1</dim>
				</port>
				<port id="1" precision="I64">
					<dim>1</dim>
				</port>
				<port id="2" precision="I64">
					<dim>1</dim>
				</port>
				<port id="3" precision="I64">
					<dim>1</dim>
				</port>
				<port id="4" precision="I64">
					<dim>1</dim>
				</port>
			</input>
			<output>
				<port id="5" precision="FP32" names="267,277,282_1">
					<dim>-1</dim>
					<dim>1</dim>
					<dim>-1</dim>
					<dim>-1</dim>
				</port>
			</output>
		</layer>
		<layer id="236" name="__module.model/aten::unsqueeze/Unsqueeze_2" type="Unsqueeze" version="opset1">
			<input>
				<port id="0" precision="I64">
					<dim>-1</dim>
					<dim>-1</dim>
				</port>
				<port id="1" precision="I64" />
			</input>
			<output>
				<port id="2" precision="I64" names="269">
					<dim>-1</dim>
					<dim>1</dim>
					<dim>-1</dim>
				</port>
			</output>
		</layer>
		<layer id="237" name="__module.model/aten::unsqueeze/Unsqueeze_3" type="Unsqueeze" version="opset1">
			<input>
				<port id="0" precision="I64">
					<dim>-1</dim>
					<dim>1</dim>
					<dim>-1</dim>
				</port>
				<port id="1" precision="I64" />
			</input>
			<output>
				<port id="2" precision="I64" names="270,271">
					<dim>-1</dim>
					<dim>1</dim>
					<dim>1</dim>
					<dim>-1</dim>
				</port>
			</output>
		</layer>
		<layer id="238" name="__module.model/aten::add/Convert" type="Convert" version="opset1">
			<data destination_type="f32" />
			<input>
				<port id="0" precision="I64">
					<dim>-1</dim>
					<dim>1</dim>
					<dim>1</dim>
					<dim>-1</dim>
				</port>
			</input>
			<output>
				<port id="1" precision="FP32">
					<dim>-1</dim>
					<dim>1</dim>
					<dim>1</dim>
					<dim>-1</dim>
				</port>
			</output>
		</layer>
		<layer id="239" name="__module.model/aten::add/Add_1" type="Add" version="opset1">
			<data auto_broadcast="numpy" />
			<input>
				<port id="0" precision="FP32">
					<dim>-1</dim>
					<dim>1</dim>
					<dim>-1</dim>
					<dim>-1</dim>
				</port>
				<port id="1" precision="FP32">
					<dim>-1</dim>
					<dim>1</dim>
					<dim>1</dim>
					<dim>-1</dim>
				</port>
			</input>
			<output>
				<port id="2" precision="FP32" names="272,padding_mask.1">
					<dim>-1</dim>
					<dim>1</dim>
					<dim>-1</dim>
					<dim>-1</dim>
				</port>
			</output>
		</layer>
		<layer id="240" name="Constant_52738" type="Const" version="opset1">
			<data element_type="f32" shape="1, 1, 1, 1" offset="0" size="4" />
			<output>
				<port id="0" precision="FP32">
					<dim>1</dim>
					<dim>1</dim>
					<dim>1</dim>
					<dim>1</dim>
				</port>
			</output>
		</layer>
		<layer id="241" name="__module.model/aten::eq/Equal" type="Equal" version="opset1">
			<data auto_broadcast="numpy" />
			<input>
				<port id="0" precision="FP32">
					<dim>-1</dim>
					<dim>1</dim>
					<dim>-1</dim>
					<dim>-1</dim>
				</port>
				<port id="1" precision="FP32">
					<dim>1</dim>
					<dim>1</dim>
					<dim>1</dim>
					<dim>1</dim>
				</port>
			</input>
			<output>
				<port id="2" precision="BOOL" names="273,padding_mask">
					<dim>-1</dim>
					<dim>1</dim>
					<dim>-1</dim>
					<dim>-1</dim>
				</port>
			</output>
		</layer>
		<layer id="242" name="__module.model/aten::masked_fill/ConvertLike" type="Const" version="opset1">
			<data element_type="f32" shape="" offset="70864752" size="4" />
			<output>
				<port id="0" precision="FP32" />
			</output>
		</layer>
		<layer id="243" name="__module.model/aten::masked_fill/Select" type="Select" version="opset1">
			<data auto_broadcast="numpy" />
			<input>
				<port id="0" precision="BOOL">
					<dim>-1</dim>
					<dim>1</dim>
					<dim>-1</dim>
					<dim>-1</dim>
				</port>
				<port id="1" precision="FP32" />
				<port id="2" precision="FP32">
					<dim>-1</dim>
					<dim>1</dim>
					<dim>-1</dim>
					<dim>-1</dim>
				</port>
			</input>
			<output>
				<port id="3" precision="FP32" names="278">
					<dim>-1</dim>
					<dim>1</dim>
					<dim>-1</dim>
					<dim>-1</dim>
				</port>
			</output>
		</layer>
		<layer id="244" name="__module.model/aten::copy_/ShapeOf" type="ShapeOf" version="opset3">
			<data output_type="i64" />
			<input>
				<port id="0" precision="FP32">
					<dim>-1</dim>
					<dim>1</dim>
					<dim>-1</dim>
					<dim>-1</dim>
				</port>
			</input>
			<output>
				<port id="1" precision="I64">
					<dim>4</dim>
				</port>
			</output>
		</layer>
		<layer id="245" name="__module.model/aten::copy_/Broadcast" type="Broadcast" version="opset3">
			<data mode="numpy" />
			<input>
				<port id="0" precision="FP32">
					<dim>-1</dim>
					<dim>1</dim>
					<dim>-1</dim>
					<dim>-1</dim>
				</port>
				<port id="1" precision="I64">
					<dim>4</dim>
				</port>
			</input>
			<output>
				<port id="2" precision="FP32" names="282">
					<dim>-1</dim>
					<dim>1</dim>
					<dim>-1</dim>
					<dim>-1</dim>
				</port>
			</output>
		</layer>
		<layer id="246" name="Constant_38982" type="Const" version="opset1">
			<data element_type="i64" shape="1" offset="65616420" size="8" />
			<output>
				<port id="0" precision="I64">
					<dim>1</dim>
				</port>
			</output>
		</layer>
		<layer id="247" name="SliceAssign_469/Reshape_5" type="Reshape" version="opset1">
			<data special_zero="false" />
			<input>
				<port id="0" precision="FP32">
					<dim>-1</dim>
					<dim>1</dim>
					<dim>-1</dim>
					<dim>-1</dim>
				</port>
				<port id="1" precision="I64">
					<dim>1</dim>
				</port>
			</input>
			<output>
				<port id="2" precision="FP32">
					<dim>-1</dim>
				</port>
			</output>
		</layer>
		<layer id="248" name="SliceAssign_469/ScatterNDUpdate" type="ScatterNDUpdate" version="opset4">
			<input>
				<port id="0" precision="FP32">
					<dim>-1</dim>
				</port>
				<port id="1" precision="I64">
					<dim>-1</dim>
					<dim>1</dim>
				</port>
				<port id="2" precision="FP32">
					<dim>-1</dim>
				</port>
			</input>
			<output>
				<port id="3" precision="FP32">
					<dim>-1</dim>
				</port>
			</output>
		</layer>
		<layer id="249" name="SliceAssign_469/Reshape_6" type="Reshape" version="opset1">
			<data special_zero="false" />
			<input>
				<port id="0" precision="FP32">
					<dim>-1</dim>
				</port>
				<port id="1" precision="I64">
					<dim>4</dim>
				</port>
			</input>
			<output>
				<port id="2" precision="FP32" names="1055,1056,1057,1213,1214,1215,1371,1372,1373,1529,1530,1531,1687,1688,1689,1845,1846,1847,2003,2004,2005,2161,2162,2163,2319,2320,2321,2477,2478,2479,262,2635,2636,2637,2793,2794,2795,2951,2952,2953,3109,3110,3111,3267,3268,3269,3425,3426,3427,3583,3584,3585,3741,3742,3743,423,424,425,581,582,583,739,740,741,897,898,899">
					<dim>-1</dim>
					<dim>1</dim>
					<dim>-1</dim>
					<dim>-1</dim>
				</port>
			</output>
		</layer>
		<layer id="250" name="Constant_1561" type="Const" version="opset1">
			<data element_type="i64" shape="1" offset="4" size="8" />
			<output>
				<port id="0" precision="I64">
					<dim>1</dim>
				</port>
			</output>
		</layer>
		<layer id="251" name="Constant_1564" type="Const" version="opset1">
			<data element_type="i64" shape="1" offset="69815008" size="8" />
			<output>
				<port id="0" precision="I64">
					<dim>1</dim>
				</port>
			</output>
		</layer>
		<layer id="252" name="Constant_1559" type="Const" version="opset1">
			<data element_type="i64" shape="1" offset="69815044" size="8" />
			<output>
				<port id="0" precision="I64">
					<dim>1</dim>
				</port>
			</output>
		</layer>
		<layer id="253" name="__module.model.layers.0.self_attn/aten::slice/Slice_15" type="Slice" version="opset8">
			<input>
				<port id="0" precision="FP32">
					<dim>-1</dim>
					<dim>1</dim>
					<dim>-1</dim>
					<dim>-1</dim>
				</port>
				<port id="1" precision="I64">
					<dim>1</dim>
				</port>
				<port id="2" precision="I64">
					<dim>1</dim>
				</port>
				<port id="3" precision="I64">
					<dim>1</dim>
				</port>
				<port id="4" precision="I64">
					<dim>1</dim>
				</port>
			</input>
			<output>
				<port id="5" precision="FP32" names="1058,1216,1374,1532,1690,1848,2006,2164,2322,2480,2638,2796,2954,3112,3270,3428,3586,3744,426,584,742,900">
					<dim>-1</dim>
					<dim>1</dim>
					<dim>-1</dim>
					<dim>-1</dim>
				</port>
			</output>
		</layer>
		<layer id="254" name="__module.model.layers.0.self_attn/aten::scaled_dot_product_attention/ConvertLike" type="Const" version="opset1">
			<data element_type="f32" shape="" offset="70864792" size="4" />
			<output>
				<port id="0" precision="FP32" />
			</output>
		</layer>
		<layer id="255" name="__module.model.layers.0.self_attn/aten::scaled_dot_product_attention/ScaledDotProductAttention" type="ScaledDotProductAttention" version="opset13">
			<data causal="false" />
			<input>
				<port id="0" precision="FP32">
					<dim>-1</dim>
					<dim>32</dim>
					<dim>-1</dim>
					<dim>64</dim>
				</port>
				<port id="1" precision="FP32">
					<dim>-1</dim>
					<dim>32</dim>
					<dim>-1</dim>
					<dim>64</dim>
				</port>
				<port id="2" precision="FP32">
					<dim>-1</dim>
					<dim>32</dim>
					<dim>-1</dim>
					<dim>64</dim>
				</port>
				<port id="3" precision="FP32">
					<dim>-1</dim>
					<dim>1</dim>
					<dim>-1</dim>
					<dim>-1</dim>
				</port>
				<port id="4" precision="FP32" />
			</input>
			<output>
				<port id="5" precision="FP32" names="430,attn_output.1">
					<dim>-1</dim>
					<dim>32</dim>
					<dim>-1</dim>
					<dim>64</dim>
				</port>
			</output>
		</layer>
		<layer id="256" name="__module.model.layers.0.self_attn/aten::transpose/Constant_3" type="Const" version="opset1">
			<data element_type="i32" shape="4" offset="69814864" size="16" />
			<output>
				<port id="0" precision="I32">
					<dim>4</dim>
				</port>
			</output>
		</layer>
		<layer id="257" name="__module.model.layers.0.self_attn/aten::transpose/Transpose_3" type="Transpose" version="opset1">
			<input>
				<port id="0" precision="FP32">
					<dim>-1</dim>
					<dim>32</dim>
					<dim>-1</dim>
					<dim>64</dim>
				</port>
				<port id="1" precision="I32">
					<dim>4</dim>
				</port>
			</input>
			<output>
				<port id="2" precision="FP32" names="431">
					<dim>-1</dim>
					<dim>-1</dim>
					<dim>32</dim>
					<dim>64</dim>
				</port>
			</output>
		</layer>
		<layer id="258" name="Constant_48888" type="Const" version="opset1">
			<data element_type="i64" shape="2" offset="70339896" size="16" />
			<output>
				<port id="0" precision="I64">
					<dim>2</dim>
				</port>
			</output>
		</layer>
		<layer id="259" name="Constant_48889" type="Const" version="opset1">
			<data element_type="i64" shape="" offset="4" size="8" />
			<output>
				<port id="0" precision="I64" />
			</output>
		</layer>
		<layer id="260" name="Gather_48890" type="Gather" version="opset8">
			<data batch_dims="0" />
			<input>
				<port id="0" precision="I64">
					<dim>3</dim>
				</port>
				<port id="1" precision="I64">
					<dim>2</dim>
				</port>
				<port id="2" precision="I64" />
			</input>
			<output>
				<port id="3" precision="I64">
					<dim>2</dim>
				</port>
			</output>
		</layer>
		<layer id="261" name="Constant_1606" type="Const" version="opset1">
			<data element_type="i64" shape="1" offset="65616420" size="8" />
			<output>
				<port id="0" precision="I64">
					<dim>1</dim>
				</port>
			</output>
		</layer>
		<layer id="262" name="__module.model.layers.0.self_attn/prim::ListConstruct_7" type="Concat" version="opset1">
			<data axis="0" />
			<input>
				<port id="0" precision="I64">
					<dim>2</dim>
				</port>
				<port id="1" precision="I64">
					<dim>1</dim>
				</port>
			</input>
			<output>
				<port id="2" precision="I64">
					<dim>3</dim>
				</port>
			</output>
		</layer>
		<layer id="263" name="__module.model.layers.0.self_attn/aten::reshape/Reshape_2" type="Reshape" version="opset1">
			<data special_zero="false" />
			<input>
				<port id="0" precision="FP32">
					<dim>-1</dim>
					<dim>-1</dim>
					<dim>32</dim>
					<dim>64</dim>
				</port>
				<port id="1" precision="I64">
					<dim>3</dim>
				</port>
			</input>
			<output>
				<port id="2" precision="FP32" names="434">
					<dim>-1</dim>
					<dim>-1</dim>
					<dim>-1</dim>
				</port>
			</output>
		</layer>
		<layer id="264" name="self.model.layers.0.self_attn.o_proj.weight" type="Const" version="opset1">
			<data element_type="i8" shape="2048, 2048" offset="70864796" size="4194304" />
			<output>
				<port id="0" precision="I8">
					<dim>2048</dim>
					<dim>2048</dim>
				</port>
			</output>
		</layer>
		<layer id="265" name="Convert_73975" type="Convert" version="opset1">
			<data destination_type="f16" />
			<input>
				<port id="0" precision="I8">
					<dim>2048</dim>
					<dim>2048</dim>
				</port>
			</input>
			<output>
				<port id="1" precision="FP16">
					<dim>2048</dim>
					<dim>2048</dim>
				</port>
			</output>
		</layer>
		<layer id="266" name="self.model.layers.0.self_attn.o_proj.weight/scale" type="Const" version="opset1">
			<data element_type="f16" shape="2048, 1" offset="75059100" size="4096" />
			<output>
				<port id="0" precision="FP16">
					<dim>2048</dim>
					<dim>1</dim>
				</port>
			</output>
		</layer>
		<layer id="267" name="self.model.layers.0.self_attn.o_proj.weight/fq_weights_1" type="Multiply" version="opset1">
			<data auto_broadcast="numpy" />
			<input>
				<port id="0" precision="FP16">
					<dim>2048</dim>
					<dim>2048</dim>
				</port>
				<port id="1" precision="FP16">
					<dim>2048</dim>
					<dim>1</dim>
				</port>
			</input>
			<output>
				<port id="2" precision="FP16">
					<dim>2048</dim>
					<dim>2048</dim>
				</port>
			</output>
		</layer>
		<layer id="268" name="__module.model.layers.0.self_attn.o_proj/ov_ext::linear/Convert" type="Convert" version="opset1">
			<data destination_type="f32" />
			<rt_info>
				<attribute name="decompression" version="0" />
			</rt_info>
			<input>
				<port id="0" precision="FP16">
					<dim>2048</dim>
					<dim>2048</dim>
				</port>
			</input>
			<output>
				<port id="1" precision="FP32">
					<dim>2048</dim>
					<dim>2048</dim>
				</port>
			</output>
		</layer>
		<layer id="269" name="__module.model.layers.0.self_attn.o_proj/ov_ext::linear/MatMul" type="MatMul" version="opset1">
			<data transpose_a="false" transpose_b="true" />
			<input>
				<port id="0" precision="FP32">
					<dim>-1</dim>
					<dim>-1</dim>
					<dim>-1</dim>
				</port>
				<port id="1" precision="FP32">
					<dim>2048</dim>
					<dim>2048</dim>
				</port>
			</input>
			<output>
				<port id="2" precision="FP32" names="437,439,hidden_states.17">
					<dim>-1</dim>
					<dim>-1</dim>
					<dim>2048</dim>
				</port>
			</output>
		</layer>
		<layer id="270" name="__module.model.layers.0/aten::add/Add" type="Add" version="opset1">
			<data auto_broadcast="numpy" />
			<input>
				<port id="0" precision="FP32">
					<dim>-1</dim>
					<dim>-1</dim>
					<dim>2048</dim>
				</port>
				<port id="1" precision="FP32">
					<dim>-1</dim>
					<dim>-1</dim>
					<dim>2048</dim>
				</port>
			</input>
			<output>
				<port id="2" precision="FP32" names="442,444,455,hidden_states.19,hidden_states.21">
					<dim>-1</dim>
					<dim>-1</dim>
					<dim>2048</dim>
				</port>
			</output>
		</layer>
		<layer id="271" name="Constant_52742" type="Const" version="opset1">
			<data element_type="f32" shape="1, 1, 2048" offset="75063196" size="8192" />
			<output>
				<port id="0" precision="FP32">
					<dim>1</dim>
					<dim>1</dim>
					<dim>2048</dim>
				</port>
			</output>
		</layer>
		<layer id="272" name="Constant_52741" type="Const" version="opset1">
			<data element_type="f32" shape="1, 1, 1" offset="65616412" size="4" />
			<output>
				<port id="0" precision="FP32">
					<dim>1</dim>
					<dim>1</dim>
					<dim>1</dim>
				</port>
			</output>
		</layer>
		<layer id="273" name="Constant_52739" type="Const" version="opset1">
			<data element_type="f32" shape="1, 1, 1" offset="65616416" size="4" />
			<output>
				<port id="0" precision="FP32">
					<dim>1</dim>
					<dim>1</dim>
					<dim>1</dim>
				</port>
			</output>
		</layer>
		<layer id="274" name="__module.model.layers.0.post_attention_layernorm/aten::pow/Power" type="Power" version="opset1">
			<data auto_broadcast="numpy" />
			<input>
				<port id="0" precision="FP32">
					<dim>-1</dim>
					<dim>-1</dim>
					<dim>2048</dim>
				</port>
				<port id="1" precision="FP32">
					<dim>1</dim>
					<dim>1</dim>
					<dim>1</dim>
				</port>
			</input>
			<output>
				<port id="2" precision="FP32" names="445">
					<dim>-1</dim>
					<dim>-1</dim>
					<dim>2048</dim>
				</port>
			</output>
		</layer>
		<layer id="275" name="Constant_1634" type="Const" version="opset1">
			<data element_type="i64" shape="1" offset="65616420" size="8" />
			<output>
				<port id="0" precision="I64" names="446">
					<dim>1</dim>
				</port>
			</output>
		</layer>
		<layer id="276" name="__module.model.layers.0.post_attention_layernorm/aten::mean/ReduceMean" type="ReduceMean" version="opset1">
			<data keep_dims="true" />
			<input>
				<port id="0" precision="FP32">
					<dim>-1</dim>
					<dim>-1</dim>
					<dim>2048</dim>
				</port>
				<port id="1" precision="I64">
					<dim>1</dim>
				</port>
			</input>
			<output>
				<port id="2" precision="FP32" names="447,variance.3">
					<dim>-1</dim>
					<dim>-1</dim>
					<dim>1</dim>
				</port>
			</output>
		</layer>
		<layer id="277" name="Constant_52740" type="Const" version="opset1">
			<data element_type="f32" shape="1, 1, 1" offset="65616428" size="4" />
			<output>
				<port id="0" precision="FP32">
					<dim>1</dim>
					<dim>1</dim>
					<dim>1</dim>
				</port>
			</output>
		</layer>
		<layer id="278" name="__module.model.layers.0.post_attention_layernorm/aten::add/Add" type="Add" version="opset1">
			<data auto_broadcast="numpy" />
			<input>
				<port id="0" precision="FP32">
					<dim>-1</dim>
					<dim>-1</dim>
					<dim>1</dim>
				</port>
				<port id="1" precision="FP32">
					<dim>1</dim>
					<dim>1</dim>
					<dim>1</dim>
				</port>
			</input>
			<output>
				<port id="2" precision="FP32" names="448">
					<dim>-1</dim>
					<dim>-1</dim>
					<dim>1</dim>
				</port>
			</output>
		</layer>
		<layer id="279" name="__module.model.layers.0.post_attention_layernorm/aten::rsqrt/Sqrt" type="Sqrt" version="opset1">
			<input>
				<port id="0" precision="FP32">
					<dim>-1</dim>
					<dim>-1</dim>
					<dim>1</dim>
				</port>
			</input>
			<output>
				<port id="1" precision="FP32">
					<dim>-1</dim>
					<dim>-1</dim>
					<dim>1</dim>
				</port>
			</output>
		</layer>
		<layer id="280" name="__module.model.layers.0.post_attention_layernorm/aten::rsqrt/Divide" type="Divide" version="opset1">
			<data auto_broadcast="numpy" m_pythondiv="true" />
			<input>
				<port id="0" precision="FP32">
					<dim>1</dim>
					<dim>1</dim>
					<dim>1</dim>
				</port>
				<port id="1" precision="FP32">
					<dim>-1</dim>
					<dim>-1</dim>
					<dim>1</dim>
				</port>
			</input>
			<output>
				<port id="2" precision="FP32" names="449">
					<dim>-1</dim>
					<dim>-1</dim>
					<dim>1</dim>
				</port>
			</output>
		</layer>
		<layer id="281" name="__module.model.layers.0.post_attention_layernorm/aten::mul/Multiply" type="Multiply" version="opset1">
			<data auto_broadcast="numpy" />
			<input>
				<port id="0" precision="FP32">
					<dim>-1</dim>
					<dim>-1</dim>
					<dim>2048</dim>
				</port>
				<port id="1" precision="FP32">
					<dim>-1</dim>
					<dim>-1</dim>
					<dim>1</dim>
				</port>
			</input>
			<output>
				<port id="2" precision="FP32" names="450,451,hidden_states.23,hidden_states.25">
					<dim>-1</dim>
					<dim>-1</dim>
					<dim>2048</dim>
				</port>
			</output>
		</layer>
		<layer id="282" name="__module.model.layers.0.post_attention_layernorm/aten::mul/Multiply_1" type="Multiply" version="opset1">
			<data auto_broadcast="numpy" />
			<input>
				<port id="0" precision="FP32">
					<dim>1</dim>
					<dim>1</dim>
					<dim>2048</dim>
				</port>
				<port id="1" precision="FP32">
					<dim>-1</dim>
					<dim>-1</dim>
					<dim>2048</dim>
				</port>
			</input>
			<output>
				<port id="2" precision="FP32" names="452,454">
					<dim>-1</dim>
					<dim>-1</dim>
					<dim>2048</dim>
				</port>
			</output>
		</layer>
		<layer id="283" name="self.model.layers.0.mlp.gate_proj.weight" type="Const" version="opset1">
			<data element_type="i8" shape="5632, 2048" offset="75071388" size="11534336" />
			<output>
				<port id="0" precision="I8">
					<dim>5632</dim>
					<dim>2048</dim>
				</port>
			</output>
		</layer>
		<layer id="284" name="Convert_73579" type="Convert" version="opset1">
			<data destination_type="f16" />
			<input>
				<port id="0" precision="I8">
					<dim>5632</dim>
					<dim>2048</dim>
				</port>
			</input>
			<output>
				<port id="1" precision="FP16">
					<dim>5632</dim>
					<dim>2048</dim>
				</port>
			</output>
		</layer>
		<layer id="285" name="self.model.layers.0.mlp.gate_proj.weight/scale" type="Const" version="opset1">
			<data element_type="f16" shape="5632, 1" offset="86605724" size="11264" />
			<output>
				<port id="0" precision="FP16">
					<dim>5632</dim>
					<dim>1</dim>
				</port>
			</output>
		</layer>
		<layer id="286" name="self.model.layers.0.mlp.gate_proj.weight/fq_weights_1" type="Multiply" version="opset1">
			<data auto_broadcast="numpy" />
			<input>
				<port id="0" precision="FP16">
					<dim>5632</dim>
					<dim>2048</dim>
				</port>
				<port id="1" precision="FP16">
					<dim>5632</dim>
					<dim>1</dim>
				</port>
			</input>
			<output>
				<port id="2" precision="FP16">
					<dim>5632</dim>
					<dim>2048</dim>
				</port>
			</output>
		</layer>
		<layer id="287" name="__module.model.layers.0.mlp.gate_proj/ov_ext::linear/Convert" type="Convert" version="opset1">
			<data destination_type="f32" />
			<rt_info>
				<attribute name="decompression" version="0" />
			</rt_info>
			<input>
				<port id="0" precision="FP16">
					<dim>5632</dim>
					<dim>2048</dim>
				</port>
			</input>
			<output>
				<port id="1" precision="FP32">
					<dim>5632</dim>
					<dim>2048</dim>
				</port>
			</output>
		</layer>
		<layer id="288" name="__module.model.layers.0.mlp.gate_proj/ov_ext::linear/MatMul" type="MatMul" version="opset1">
			<data transpose_a="false" transpose_b="true" />
			<input>
				<port id="0" precision="FP32">
					<dim>-1</dim>
					<dim>-1</dim>
					<dim>2048</dim>
				</port>
				<port id="1" precision="FP32">
					<dim>5632</dim>
					<dim>2048</dim>
				</port>
			</input>
			<output>
				<port id="2" precision="FP32" names="460,input.1">
					<dim>-1</dim>
					<dim>-1</dim>
					<dim>5632</dim>
				</port>
			</output>
		</layer>
		<layer id="289" name="__module.model.layers.0.mlp.act_fn/aten::silu/Swish" type="Swish" version="opset4">
			<input>
				<port id="0" precision="FP32">
					<dim>-1</dim>
					<dim>-1</dim>
					<dim>5632</dim>
				</port>
			</input>
			<output>
				<port id="1" precision="FP32" names="461">
					<dim>-1</dim>
					<dim>-1</dim>
					<dim>5632</dim>
				</port>
			</output>
		</layer>
		<layer id="290" name="self.model.layers.0.mlp.up_proj.weight" type="Const" version="opset1">
			<data element_type="i8" shape="5632, 2048" offset="86616988" size="11534336" />
			<output>
				<port id="0" precision="I8">
					<dim>5632</dim>
					<dim>2048</dim>
				</port>
			</output>
		</layer>
		<layer id="291" name="Convert_73573" type="Convert" version="opset1">
			<data destination_type="f16" />
			<input>
				<port id="0" precision="I8">
					<dim>5632</dim>
					<dim>2048</dim>
				</port>
			</input>
			<output>
				<port id="1" precision="FP16">
					<dim>5632</dim>
					<dim>2048</dim>
				</port>
			</output>
		</layer>
		<layer id="292" name="self.model.layers.0.mlp.up_proj.weight/scale" type="Const" version="opset1">
			<data element_type="f16" shape="5632, 1" offset="98151324" size="11264" />
			<output>
				<port id="0" precision="FP16">
					<dim>5632</dim>
					<dim>1</dim>
				</port>
			</output>
		</layer>
		<layer id="293" name="self.model.layers.0.mlp.up_proj.weight/fq_weights_1" type="Multiply" version="opset1">
			<data auto_broadcast="numpy" />
			<input>
				<port id="0" precision="FP16">
					<dim>5632</dim>
					<dim>2048</dim>
				</port>
				<port id="1" precision="FP16">
					<dim>5632</dim>
					<dim>1</dim>
				</port>
			</input>
			<output>
				<port id="2" precision="FP16">
					<dim>5632</dim>
					<dim>2048</dim>
				</port>
			</output>
		</layer>
		<layer id="294" name="__module.model.layers.0.mlp.up_proj/ov_ext::linear/Convert" type="Convert" version="opset1">
			<data destination_type="f32" />
			<rt_info>
				<attribute name="decompression" version="0" />
			</rt_info>
			<input>
				<port id="0" precision="FP16">
					<dim>5632</dim>
					<dim>2048</dim>
				</port>
			</input>
			<output>
				<port id="1" precision="FP32">
					<dim>5632</dim>
					<dim>2048</dim>
				</port>
			</output>
		</layer>
		<layer id="295" name="__module.model.layers.0.mlp.up_proj/ov_ext::linear/MatMul" type="MatMul" version="opset1">
			<data transpose_a="false" transpose_b="true" />
			<input>
				<port id="0" precision="FP32">
					<dim>-1</dim>
					<dim>-1</dim>
					<dim>2048</dim>
				</port>
				<port id="1" precision="FP32">
					<dim>5632</dim>
					<dim>2048</dim>
				</port>
			</input>
			<output>
				<port id="2" precision="FP32" names="463">
					<dim>-1</dim>
					<dim>-1</dim>
					<dim>5632</dim>
				</port>
			</output>
		</layer>
		<layer id="296" name="__module.model.layers.0.mlp/aten::mul/Multiply" type="Multiply" version="opset1">
			<data auto_broadcast="numpy" />
			<input>
				<port id="0" precision="FP32">
					<dim>-1</dim>
					<dim>-1</dim>
					<dim>5632</dim>
				</port>
				<port id="1" precision="FP32">
					<dim>-1</dim>
					<dim>-1</dim>
					<dim>5632</dim>
				</port>
			</input>
			<output>
				<port id="2" precision="FP32" names="464">
					<dim>-1</dim>
					<dim>-1</dim>
					<dim>5632</dim>
				</port>
			</output>
		</layer>
		<layer id="297" name="self.model.layers.0.mlp.down_proj.weight" type="Const" version="opset1">
			<data element_type="i8" shape="2048, 5632" offset="98162588" size="11534336" />
			<output>
				<port id="0" precision="I8">
					<dim>2048</dim>
					<dim>5632</dim>
				</port>
			</output>
		</layer>
		<layer id="298" name="Convert_73585" type="Convert" version="opset1">
			<data destination_type="f16" />
			<input>
				<port id="0" precision="I8">
					<dim>2048</dim>
					<dim>5632</dim>
				</port>
			</input>
			<output>
				<port id="1" precision="FP16">
					<dim>2048</dim>
					<dim>5632</dim>
				</port>
			</output>
		</layer>
		<layer id="299" name="self.model.layers.0.mlp.down_proj.weight/scale" type="Const" version="opset1">
			<data element_type="f16" shape="2048, 1" offset="109696924" size="4096" />
			<output>
				<port id="0" precision="FP16">
					<dim>2048</dim>
					<dim>1</dim>
				</port>
			</output>
		</layer>
		<layer id="300" name="self.model.layers.0.mlp.down_proj.weight/fq_weights_1" type="Multiply" version="opset1">
			<data auto_broadcast="numpy" />
			<input>
				<port id="0" precision="FP16">
					<dim>2048</dim>
					<dim>5632</dim>
				</port>
				<port id="1" precision="FP16">
					<dim>2048</dim>
					<dim>1</dim>
				</port>
			</input>
			<output>
				<port id="2" precision="FP16">
					<dim>2048</dim>
					<dim>5632</dim>
				</port>
			</output>
		</layer>
		<layer id="301" name="__module.model.layers.0.mlp.down_proj/ov_ext::linear/Convert" type="Convert" version="opset1">
			<data destination_type="f32" />
			<rt_info>
				<attribute name="decompression" version="0" />
			</rt_info>
			<input>
				<port id="0" precision="FP16">
					<dim>2048</dim>
					<dim>5632</dim>
				</port>
			</input>
			<output>
				<port id="1" precision="FP32">
					<dim>2048</dim>
					<dim>5632</dim>
				</port>
			</output>
		</layer>
		<layer id="302" name="__module.model.layers.0.mlp.down_proj/ov_ext::linear/MatMul" type="MatMul" version="opset1">
			<data transpose_a="false" transpose_b="true" />
			<input>
				<port id="0" precision="FP32">
					<dim>-1</dim>
					<dim>-1</dim>
					<dim>5632</dim>
				</port>
				<port id="1" precision="FP32">
					<dim>2048</dim>
					<dim>5632</dim>
				</port>
			</input>
			<output>
				<port id="2" precision="FP32" names="466,hidden_states.27">
					<dim>-1</dim>
					<dim>-1</dim>
					<dim>2048</dim>
				</port>
			</output>
		</layer>
		<layer id="303" name="__module.model.layers.0/aten::add/Add_1" type="Add" version="opset1">
			<data auto_broadcast="numpy" />
			<input>
				<port id="0" precision="FP32">
					<dim>-1</dim>
					<dim>-1</dim>
					<dim>2048</dim>
				</port>
				<port id="1" precision="FP32">
					<dim>-1</dim>
					<dim>-1</dim>
					<dim>2048</dim>
				</port>
			</input>
			<output>
				<port id="2" precision="FP32" names="467,469,477,488,hidden_states.29,hidden_states.31">
					<dim>-1</dim>
					<dim>-1</dim>
					<dim>2048</dim>
				</port>
			</output>
		</layer>
		<layer id="304" name="Constant_52746" type="Const" version="opset1">
			<data element_type="f32" shape="1, 1, 2048" offset="109701020" size="8192" />
			<output>
				<port id="0" precision="FP32">
					<dim>1</dim>
					<dim>1</dim>
					<dim>2048</dim>
				</port>
			</output>
		</layer>
		<layer id="305" name="Constant_52745" type="Const" version="opset1">
			<data element_type="f32" shape="1, 1, 1" offset="65616412" size="4" />
			<output>
				<port id="0" precision="FP32">
					<dim>1</dim>
					<dim>1</dim>
					<dim>1</dim>
				</port>
			</output>
		</layer>
		<layer id="306" name="Constant_52743" type="Const" version="opset1">
			<data element_type="f32" shape="1, 1, 1" offset="65616416" size="4" />
			<output>
				<port id="0" precision="FP32">
					<dim>1</dim>
					<dim>1</dim>
					<dim>1</dim>
				</port>
			</output>
		</layer>
		<layer id="307" name="__module.model.layers.1.input_layernorm/aten::pow/Power" type="Power" version="opset1">
			<data auto_broadcast="numpy" />
			<input>
				<port id="0" precision="FP32">
					<dim>-1</dim>
					<dim>-1</dim>
					<dim>2048</dim>
				</port>
				<port id="1" precision="FP32">
					<dim>1</dim>
					<dim>1</dim>
					<dim>1</dim>
				</port>
			</input>
			<output>
				<port id="2" precision="FP32" names="478">
					<dim>-1</dim>
					<dim>-1</dim>
					<dim>2048</dim>
				</port>
			</output>
		</layer>
		<layer id="308" name="Constant_1708" type="Const" version="opset1">
			<data element_type="i64" shape="1" offset="65616420" size="8" />
			<output>
				<port id="0" precision="I64" names="479">
					<dim>1</dim>
				</port>
			</output>
		</layer>
		<layer id="309" name="__module.model.layers.1.input_layernorm/aten::mean/ReduceMean" type="ReduceMean" version="opset1">
			<data keep_dims="true" />
			<input>
				<port id="0" precision="FP32">
					<dim>-1</dim>
					<dim>-1</dim>
					<dim>2048</dim>
				</port>
				<port id="1" precision="I64">
					<dim>1</dim>
				</port>
			</input>
			<output>
				<port id="2" precision="FP32" names="480,variance.5">
					<dim>-1</dim>
					<dim>-1</dim>
					<dim>1</dim>
				</port>
			</output>
		</layer>
		<layer id="310" name="Constant_52744" type="Const" version="opset1">
			<data element_type="f32" shape="1, 1, 1" offset="65616428" size="4" />
			<output>
				<port id="0" precision="FP32">
					<dim>1</dim>
					<dim>1</dim>
					<dim>1</dim>
				</port>
			</output>
		</layer>
		<layer id="311" name="__module.model.layers.1.input_layernorm/aten::add/Add" type="Add" version="opset1">
			<data auto_broadcast="numpy" />
			<input>
				<port id="0" precision="FP32">
					<dim>-1</dim>
					<dim>-1</dim>
					<dim>1</dim>
				</port>
				<port id="1" precision="FP32">
					<dim>1</dim>
					<dim>1</dim>
					<dim>1</dim>
				</port>
			</input>
			<output>
				<port id="2" precision="FP32" names="481">
					<dim>-1</dim>
					<dim>-1</dim>
					<dim>1</dim>
				</port>
			</output>
		</layer>
		<layer id="312" name="__module.model.layers.1.input_layernorm/aten::rsqrt/Sqrt" type="Sqrt" version="opset1">
			<input>
				<port id="0" precision="FP32">
					<dim>-1</dim>
					<dim>-1</dim>
					<dim>1</dim>
				</port>
			</input>
			<output>
				<port id="1" precision="FP32">
					<dim>-1</dim>
					<dim>-1</dim>
					<dim>1</dim>
				</port>
			</output>
		</layer>
		<layer id="313" name="__module.model.layers.1.input_layernorm/aten::rsqrt/Divide" type="Divide" version="opset1">
			<data auto_broadcast="numpy" m_pythondiv="true" />
			<input>
				<port id="0" precision="FP32">
					<dim>1</dim>
					<dim>1</dim>
					<dim>1</dim>
				</port>
				<port id="1" precision="FP32">
					<dim>-1</dim>
					<dim>-1</dim>
					<dim>1</dim>
				</port>
			</input>
			<output>
				<port id="2" precision="FP32" names="482">
					<dim>-1</dim>
					<dim>-1</dim>
					<dim>1</dim>
				</port>
			</output>
		</layer>
		<layer id="314" name="__module.model.layers.1.input_layernorm/aten::mul/Multiply" type="Multiply" version="opset1">
			<data auto_broadcast="numpy" />
			<input>
				<port id="0" precision="FP32">
					<dim>-1</dim>
					<dim>-1</dim>
					<dim>2048</dim>
				</port>
				<port id="1" precision="FP32">
					<dim>-1</dim>
					<dim>-1</dim>
					<dim>1</dim>
				</port>
			</input>
			<output>
				<port id="2" precision="FP32" names="483,484,hidden_states.33,hidden_states.35">
					<dim>-1</dim>
					<dim>-1</dim>
					<dim>2048</dim>
				</port>
			</output>
		</layer>
		<layer id="315" name="__module.model.layers.1.input_layernorm/aten::mul/Multiply_1" type="Multiply" version="opset1">
			<data auto_broadcast="numpy" />
			<input>
				<port id="0" precision="FP32">
					<dim>1</dim>
					<dim>1</dim>
					<dim>2048</dim>
				</port>
				<port id="1" precision="FP32">
					<dim>-1</dim>
					<dim>-1</dim>
					<dim>2048</dim>
				</port>
			</input>
			<output>
				<port id="2" precision="FP32" names="485,487,hidden_states.37">
					<dim>-1</dim>
					<dim>-1</dim>
					<dim>2048</dim>
				</port>
			</output>
		</layer>
		<layer id="316" name="self.model.layers.1.self_attn.q_proj.weight" type="Const" version="opset1">
			<data element_type="i8" shape="2048, 2048" offset="109709212" size="4194304" />
			<output>
				<port id="0" precision="I8">
					<dim>2048</dim>
					<dim>2048</dim>
				</port>
			</output>
		</layer>
		<layer id="317" name="Convert_73981" type="Convert" version="opset1">
			<data destination_type="f16" />
			<input>
				<port id="0" precision="I8">
					<dim>2048</dim>
					<dim>2048</dim>
				</port>
			</input>
			<output>
				<port id="1" precision="FP16">
					<dim>2048</dim>
					<dim>2048</dim>
				</port>
			</output>
		</layer>
		<layer id="318" name="self.model.layers.1.self_attn.q_proj.weight/scale" type="Const" version="opset1">
			<data element_type="f16" shape="2048, 1" offset="113903516" size="4096" />
			<output>
				<port id="0" precision="FP16">
					<dim>2048</dim>
					<dim>1</dim>
				</port>
			</output>
		</layer>
		<layer id="319" name="self.model.layers.1.self_attn.q_proj.weight/fq_weights_1" type="Multiply" version="opset1">
			<data auto_broadcast="numpy" />
			<input>
				<port id="0" precision="FP16">
					<dim>2048</dim>
					<dim>2048</dim>
				</port>
				<port id="1" precision="FP16">
					<dim>2048</dim>
					<dim>1</dim>
				</port>
			</input>
			<output>
				<port id="2" precision="FP16">
					<dim>2048</dim>
					<dim>2048</dim>
				</port>
			</output>
		</layer>
		<layer id="320" name="__module.model.layers.1.self_attn.q_proj/ov_ext::linear/Convert" type="Convert" version="opset1">
			<data destination_type="f32" />
			<rt_info>
				<attribute name="decompression" version="0" />
			</rt_info>
			<input>
				<port id="0" precision="FP16">
					<dim>2048</dim>
					<dim>2048</dim>
				</port>
			</input>
			<output>
				<port id="1" precision="FP32">
					<dim>2048</dim>
					<dim>2048</dim>
				</port>
			</output>
		</layer>
		<layer id="321" name="__module.model.layers.1.self_attn.q_proj/ov_ext::linear/MatMul" type="MatMul" version="opset1">
			<data transpose_a="false" transpose_b="true" />
			<input>
				<port id="0" precision="FP32">
					<dim>-1</dim>
					<dim>-1</dim>
					<dim>2048</dim>
				</port>
				<port id="1" precision="FP32">
					<dim>2048</dim>
					<dim>2048</dim>
				</port>
			</input>
			<output>
				<port id="2" precision="FP32" names="496">
					<dim>-1</dim>
					<dim>-1</dim>
					<dim>2048</dim>
				</port>
			</output>
		</layer>
		<layer id="322" name="Constant_59421" type="Const" version="opset1">
			<data element_type="i64" shape="4" offset="69814832" size="32" />
			<output>
				<port id="0" precision="I64">
					<dim>4</dim>
				</port>
			</output>
		</layer>
		<layer id="323" name="__module.model.layers.1.self_attn/aten::view/Reshape" type="Reshape" version="opset1">
			<data special_zero="true" />
			<input>
				<port id="0" precision="FP32">
					<dim>-1</dim>
					<dim>-1</dim>
					<dim>2048</dim>
				</port>
				<port id="1" precision="I64">
					<dim>4</dim>
				</port>
			</input>
			<output>
				<port id="2" precision="FP32" names="498">
					<dim>-1</dim>
					<dim>-1</dim>
					<dim>32</dim>
					<dim>64</dim>
				</port>
			</output>
		</layer>
		<layer id="324" name="__module.model.layers.1.self_attn/aten::transpose/Constant" type="Const" version="opset1">
			<data element_type="i32" shape="4" offset="69814864" size="16" />
			<output>
				<port id="0" precision="I32">
					<dim>4</dim>
				</port>
			</output>
		</layer>
		<layer id="325" name="__module.model.layers.1.self_attn/aten::transpose/Transpose" type="Transpose" version="opset1">
			<input>
				<port id="0" precision="FP32">
					<dim>-1</dim>
					<dim>-1</dim>
					<dim>32</dim>
					<dim>64</dim>
				</port>
				<port id="1" precision="I32">
					<dim>4</dim>
				</port>
			</input>
			<output>
				<port id="2" precision="FP32" names="499,q.3">
					<dim>-1</dim>
					<dim>32</dim>
					<dim>-1</dim>
					<dim>64</dim>
				</port>
			</output>
		</layer>
		<layer id="326" name="__module.model.layers.1.self_attn/aten::mul/Multiply" type="Multiply" version="opset1">
			<data auto_broadcast="numpy" />
			<input>
				<port id="0" precision="FP32">
					<dim>-1</dim>
					<dim>32</dim>
					<dim>-1</dim>
					<dim>64</dim>
				</port>
				<port id="1" precision="FP32">
					<dim>-1</dim>
					<dim>1</dim>
					<dim>-1</dim>
					<dim>64</dim>
				</port>
			</input>
			<output>
				<port id="2" precision="FP32" names="512">
					<dim>-1</dim>
					<dim>32</dim>
					<dim>-1</dim>
					<dim>64</dim>
				</port>
			</output>
		</layer>
		<layer id="327" name="Constant_2010" type="Const" version="opset1">
			<data element_type="i64" shape="1" offset="69815028" size="8" />
			<output>
				<port id="0" precision="I64">
					<dim>1</dim>
				</port>
			</output>
		</layer>
		<layer id="328" name="Constant_2012" type="Const" version="opset1">
			<data element_type="i64" shape="1" offset="69815036" size="8" />
			<output>
				<port id="0" precision="I64">
					<dim>1</dim>
				</port>
			</output>
		</layer>
		<layer id="329" name="Constant_2014" type="Const" version="opset1">
			<data element_type="i64" shape="1" offset="69815008" size="8" />
			<output>
				<port id="0" precision="I64">
					<dim>1</dim>
				</port>
			</output>
		</layer>
		<layer id="330" name="Constant_1966" type="Const" version="opset1">
			<data element_type="i64" shape="1" offset="69815044" size="8" />
			<output>
				<port id="0" precision="I64">
					<dim>1</dim>
				</port>
			</output>
		</layer>
		<layer id="331" name="__module.model.layers.1.self_attn/aten::slice/Slice" type="Slice" version="opset8">
			<input>
				<port id="0" precision="FP32">
					<dim>-1</dim>
					<dim>32</dim>
					<dim>-1</dim>
					<dim>64</dim>
				</port>
				<port id="1" precision="I64">
					<dim>1</dim>
				</port>
				<port id="2" precision="I64">
					<dim>1</dim>
				</port>
				<port id="3" precision="I64">
					<dim>1</dim>
				</port>
				<port id="4" precision="I64">
					<dim>1</dim>
				</port>
			</input>
			<output>
				<port id="5" precision="FP32" names="522,x2.5">
					<dim>-1</dim>
					<dim>32</dim>
					<dim>-1</dim>
					<dim>32</dim>
				</port>
			</output>
		</layer>
		<layer id="332" name="Constant_52747" type="Const" version="opset1">
			<data element_type="f32" shape="1, 1, 1, 1" offset="69815052" size="4" />
			<output>
				<port id="0" precision="FP32">
					<dim>1</dim>
					<dim>1</dim>
					<dim>1</dim>
					<dim>1</dim>
				</port>
			</output>
		</layer>
		<layer id="333" name="__module.model.layers.1.self_attn/aten::neg/Multiply" type="Multiply" version="opset1">
			<data auto_broadcast="numpy" />
			<input>
				<port id="0" precision="FP32">
					<dim>-1</dim>
					<dim>32</dim>
					<dim>-1</dim>
					<dim>32</dim>
				</port>
				<port id="1" precision="FP32">
					<dim>1</dim>
					<dim>1</dim>
					<dim>1</dim>
					<dim>1</dim>
				</port>
			</input>
			<output>
				<port id="2" precision="FP32" names="523">
					<dim>-1</dim>
					<dim>32</dim>
					<dim>-1</dim>
					<dim>32</dim>
				</port>
			</output>
		</layer>
		<layer id="334" name="Constant_1907" type="Const" version="opset1">
			<data element_type="i64" shape="1" offset="4" size="8" />
			<output>
				<port id="0" precision="I64">
					<dim>1</dim>
				</port>
			</output>
		</layer>
		<layer id="335" name="Constant_1951" type="Const" version="opset1">
			<data element_type="i64" shape="1" offset="69815028" size="8" />
			<output>
				<port id="0" precision="I64">
					<dim>1</dim>
				</port>
			</output>
		</layer>
		<layer id="336" name="Constant_1953" type="Const" version="opset1">
			<data element_type="i64" shape="1" offset="69815008" size="8" />
			<output>
				<port id="0" precision="I64">
					<dim>1</dim>
				</port>
			</output>
		</layer>
		<layer id="337" name="Constant_1905" type="Const" version="opset1">
			<data element_type="i64" shape="1" offset="69815044" size="8" />
			<output>
				<port id="0" precision="I64">
					<dim>1</dim>
				</port>
			</output>
		</layer>
		<layer id="338" name="__module.model.layers.1.self_attn/aten::slice/Slice_1" type="Slice" version="opset8">
			<input>
				<port id="0" precision="FP32">
					<dim>-1</dim>
					<dim>32</dim>
					<dim>-1</dim>
					<dim>64</dim>
				</port>
				<port id="1" precision="I64">
					<dim>1</dim>
				</port>
				<port id="2" precision="I64">
					<dim>1</dim>
				</port>
				<port id="3" precision="I64">
					<dim>1</dim>
				</port>
				<port id="4" precision="I64">
					<dim>1</dim>
				</port>
			</input>
			<output>
				<port id="5" precision="FP32" names="517">
					<dim>-1</dim>
					<dim>32</dim>
					<dim>-1</dim>
					<dim>32</dim>
				</port>
			</output>
		</layer>
		<layer id="339" name="__module.model.layers.1.self_attn/aten::cat/Concat" type="Concat" version="opset1">
			<data axis="-1" />
			<input>
				<port id="0" precision="FP32">
					<dim>-1</dim>
					<dim>32</dim>
					<dim>-1</dim>
					<dim>32</dim>
				</port>
				<port id="1" precision="FP32">
					<dim>-1</dim>
					<dim>32</dim>
					<dim>-1</dim>
					<dim>32</dim>
				</port>
			</input>
			<output>
				<port id="2" precision="FP32" names="525">
					<dim>-1</dim>
					<dim>32</dim>
					<dim>-1</dim>
					<dim>64</dim>
				</port>
			</output>
		</layer>
		<layer id="340" name="__module.model.layers.1.self_attn/aten::mul/Multiply_1" type="Multiply" version="opset1">
			<data auto_broadcast="numpy" />
			<input>
				<port id="0" precision="FP32">
					<dim>-1</dim>
					<dim>32</dim>
					<dim>-1</dim>
					<dim>64</dim>
				</port>
				<port id="1" precision="FP32">
					<dim>-1</dim>
					<dim>1</dim>
					<dim>-1</dim>
					<dim>64</dim>
				</port>
			</input>
			<output>
				<port id="2" precision="FP32" names="526">
					<dim>-1</dim>
					<dim>32</dim>
					<dim>-1</dim>
					<dim>64</dim>
				</port>
			</output>
		</layer>
		<layer id="341" name="__module.model.layers.1.self_attn/aten::add/Add" type="Add" version="opset1">
			<data auto_broadcast="numpy" />
			<input>
				<port id="0" precision="FP32">
					<dim>-1</dim>
					<dim>32</dim>
					<dim>-1</dim>
					<dim>64</dim>
				</port>
				<port id="1" precision="FP32">
					<dim>-1</dim>
					<dim>32</dim>
					<dim>-1</dim>
					<dim>64</dim>
				</port>
			</input>
			<output>
				<port id="2" precision="FP32" names="527,query.3">
					<dim>-1</dim>
					<dim>32</dim>
					<dim>-1</dim>
					<dim>64</dim>
				</port>
			</output>
		</layer>
		<layer id="342" name="Constant_61798" type="Const" version="opset1">
			<data element_type="f32" shape="" offset="0" size="4" />
			<output>
				<port id="0" precision="FP32" />
			</output>
		</layer>
		<layer id="343" name="Constant_61791" type="Const" version="opset1">
			<data element_type="i64" shape="1" offset="12" size="8" />
			<output>
				<port id="0" precision="I64">
					<dim>1</dim>
				</port>
			</output>
		</layer>
		<layer id="344" name="Constant_61793" type="Const" version="opset1">
			<data element_type="i64" shape="1" offset="4" size="8" />
			<output>
				<port id="0" precision="I64">
					<dim>1</dim>
				</port>
			</output>
		</layer>
		<layer id="345" name="Constant_61795" type="Const" version="opset1">
			<data element_type="i64" shape="1" offset="20" size="8" />
			<output>
				<port id="0" precision="I64">
					<dim>1</dim>
				</port>
			</output>
		</layer>
		<layer id="346" name="Concat_61796" type="Concat" version="opset1">
			<data axis="0" />
			<input>
				<port id="0" precision="I64">
					<dim>1</dim>
				</port>
				<port id="1" precision="I64">
					<dim>1</dim>
				</port>
				<port id="2" precision="I64">
					<dim>1</dim>
				</port>
				<port id="3" precision="I64">
					<dim>1</dim>
				</port>
			</input>
			<output>
				<port id="4" precision="I64">
					<dim>4</dim>
				</port>
			</output>
		</layer>
		<layer id="347" name="Broadcast_61799" type="Broadcast" version="opset3">
			<data mode="numpy" />
			<input>
				<port id="0" precision="FP32" />
				<port id="1" precision="I64">
					<dim>4</dim>
				</port>
			</input>
			<output>
				<port id="2" precision="FP32">
					<dim>-1</dim>
					<dim>4</dim>
					<dim>0</dim>
					<dim>64</dim>
				</port>
			</output>
		</layer>
		<layer id="348" name="ReadValue_61278" type="ReadValue" version="opset6">
			<data variable_id="past_key_values.1.keypresent.1.key" variable_type="f32" variable_shape="?,4,?,64" />
			<input>
				<port id="0" precision="FP32">
					<dim>-1</dim>
					<dim>4</dim>
					<dim>0</dim>
					<dim>64</dim>
				</port>
			</input>
			<output>
				<port id="1" precision="FP32" names="past_key_values.1.key">
					<dim>-1</dim>
					<dim>4</dim>
					<dim>-1</dim>
					<dim>64</dim>
				</port>
			</output>
		</layer>
		<layer id="349" name="Constant_60775" type="Const" version="opset1">
			<data element_type="i64" shape="" offset="4" size="8" />
			<output>
				<port id="0" precision="I64" />
			</output>
		</layer>
		<layer id="350" name="Gather_60776" type="Gather" version="opset8">
			<data batch_dims="0" />
			<input>
				<port id="0" precision="FP32">
					<dim>-1</dim>
					<dim>4</dim>
					<dim>-1</dim>
					<dim>64</dim>
				</port>
				<port id="1" precision="I32">
					<dim>-1</dim>
				</port>
				<port id="2" precision="I64" />
			</input>
			<output>
				<port id="3" precision="FP32">
					<dim>-1</dim>
					<dim>4</dim>
					<dim>-1</dim>
					<dim>64</dim>
				</port>
			</output>
		</layer>
		<layer id="351" name="self.model.layers.1.self_attn.k_proj.weight" type="Const" version="opset1">
			<data element_type="i8" shape="256, 2048" offset="113907612" size="524288" />
			<output>
				<port id="0" precision="I8">
					<dim>256</dim>
					<dim>2048</dim>
				</port>
			</output>
		</layer>
		<layer id="352" name="Convert_74251" type="Convert" version="opset1">
			<data destination_type="f16" />
			<input>
				<port id="0" precision="I8">
					<dim>256</dim>
					<dim>2048</dim>
				</port>
			</input>
			<output>
				<port id="1" precision="FP16">
					<dim>256</dim>
					<dim>2048</dim>
				</port>
			</output>
		</layer>
		<layer id="353" name="self.model.layers.1.self_attn.k_proj.weight/scale" type="Const" version="opset1">
			<data element_type="f16" shape="256, 1" offset="114431900" size="512" />
			<output>
				<port id="0" precision="FP16">
					<dim>256</dim>
					<dim>1</dim>
				</port>
			</output>
		</layer>
		<layer id="354" name="self.model.layers.1.self_attn.k_proj.weight/fq_weights_1" type="Multiply" version="opset1">
			<data auto_broadcast="numpy" />
			<input>
				<port id="0" precision="FP16">
					<dim>256</dim>
					<dim>2048</dim>
				</port>
				<port id="1" precision="FP16">
					<dim>256</dim>
					<dim>1</dim>
				</port>
			</input>
			<output>
				<port id="2" precision="FP16">
					<dim>256</dim>
					<dim>2048</dim>
				</port>
			</output>
		</layer>
		<layer id="355" name="__module.model.layers.1.self_attn.k_proj/ov_ext::linear/Convert" type="Convert" version="opset1">
			<data destination_type="f32" />
			<rt_info>
				<attribute name="decompression" version="0" />
			</rt_info>
			<input>
				<port id="0" precision="FP16">
					<dim>256</dim>
					<dim>2048</dim>
				</port>
			</input>
			<output>
				<port id="1" precision="FP32">
					<dim>256</dim>
					<dim>2048</dim>
				</port>
			</output>
		</layer>
		<layer id="356" name="__module.model.layers.1.self_attn.k_proj/ov_ext::linear/MatMul" type="MatMul" version="opset1">
			<data transpose_a="false" transpose_b="true" />
			<input>
				<port id="0" precision="FP32">
					<dim>-1</dim>
					<dim>-1</dim>
					<dim>2048</dim>
				</port>
				<port id="1" precision="FP32">
					<dim>256</dim>
					<dim>2048</dim>
				</port>
			</input>
			<output>
				<port id="2" precision="FP32" names="501">
					<dim>-1</dim>
					<dim>-1</dim>
					<dim>256</dim>
				</port>
			</output>
		</layer>
		<layer id="357" name="Constant_59422" type="Const" version="opset1">
			<data element_type="i64" shape="4" offset="70339856" size="32" />
			<output>
				<port id="0" precision="I64">
					<dim>4</dim>
				</port>
			</output>
		</layer>
		<layer id="358" name="__module.model.layers.1.self_attn/aten::view/Reshape_1" type="Reshape" version="opset1">
			<data special_zero="true" />
			<input>
				<port id="0" precision="FP32">
					<dim>-1</dim>
					<dim>-1</dim>
					<dim>256</dim>
				</port>
				<port id="1" precision="I64">
					<dim>4</dim>
				</port>
			</input>
			<output>
				<port id="2" precision="FP32" names="503">
					<dim>-1</dim>
					<dim>-1</dim>
					<dim>4</dim>
					<dim>64</dim>
				</port>
			</output>
		</layer>
		<layer id="359" name="__module.model.layers.1.self_attn/aten::transpose/Constant_1" type="Const" version="opset1">
			<data element_type="i32" shape="4" offset="69814864" size="16" />
			<output>
				<port id="0" precision="I32">
					<dim>4</dim>
				</port>
			</output>
		</layer>
		<layer id="360" name="__module.model.layers.1.self_attn/aten::transpose/Transpose_1" type="Transpose" version="opset1">
			<input>
				<port id="0" precision="FP32">
					<dim>-1</dim>
					<dim>-1</dim>
					<dim>4</dim>
					<dim>64</dim>
				</port>
				<port id="1" precision="I32">
					<dim>4</dim>
				</port>
			</input>
			<output>
				<port id="2" precision="FP32" names="504,k.3">
					<dim>-1</dim>
					<dim>4</dim>
					<dim>-1</dim>
					<dim>64</dim>
				</port>
			</output>
		</layer>
		<layer id="361" name="__module.model.layers.1.self_attn/aten::mul/Multiply_2" type="Multiply" version="opset1">
			<data auto_broadcast="numpy" />
			<input>
				<port id="0" precision="FP32">
					<dim>-1</dim>
					<dim>4</dim>
					<dim>-1</dim>
					<dim>64</dim>
				</port>
				<port id="1" precision="FP32">
					<dim>-1</dim>
					<dim>1</dim>
					<dim>-1</dim>
					<dim>64</dim>
				</port>
			</input>
			<output>
				<port id="2" precision="FP32" names="528">
					<dim>-1</dim>
					<dim>4</dim>
					<dim>-1</dim>
					<dim>64</dim>
				</port>
			</output>
		</layer>
		<layer id="362" name="Constant_2153" type="Const" version="opset1">
			<data element_type="i64" shape="1" offset="69815028" size="8" />
			<output>
				<port id="0" precision="I64">
					<dim>1</dim>
				</port>
			</output>
		</layer>
		<layer id="363" name="Constant_2155" type="Const" version="opset1">
			<data element_type="i64" shape="1" offset="69815036" size="8" />
			<output>
				<port id="0" precision="I64">
					<dim>1</dim>
				</port>
			</output>
		</layer>
		<layer id="364" name="Constant_2157" type="Const" version="opset1">
			<data element_type="i64" shape="1" offset="69815008" size="8" />
			<output>
				<port id="0" precision="I64">
					<dim>1</dim>
				</port>
			</output>
		</layer>
		<layer id="365" name="Constant_2109" type="Const" version="opset1">
			<data element_type="i64" shape="1" offset="69815044" size="8" />
			<output>
				<port id="0" precision="I64">
					<dim>1</dim>
				</port>
			</output>
		</layer>
		<layer id="366" name="__module.model.layers.1.self_attn/aten::slice/Slice_2" type="Slice" version="opset8">
			<input>
				<port id="0" precision="FP32">
					<dim>-1</dim>
					<dim>4</dim>
					<dim>-1</dim>
					<dim>64</dim>
				</port>
				<port id="1" precision="I64">
					<dim>1</dim>
				</port>
				<port id="2" precision="I64">
					<dim>1</dim>
				</port>
				<port id="3" precision="I64">
					<dim>1</dim>
				</port>
				<port id="4" precision="I64">
					<dim>1</dim>
				</port>
			</input>
			<output>
				<port id="5" precision="FP32" names="538,x2.7">
					<dim>-1</dim>
					<dim>4</dim>
					<dim>-1</dim>
					<dim>32</dim>
				</port>
			</output>
		</layer>
		<layer id="367" name="Constant_52748" type="Const" version="opset1">
			<data element_type="f32" shape="1, 1, 1, 1" offset="69815052" size="4" />
			<output>
				<port id="0" precision="FP32">
					<dim>1</dim>
					<dim>1</dim>
					<dim>1</dim>
					<dim>1</dim>
				</port>
			</output>
		</layer>
		<layer id="368" name="__module.model.layers.1.self_attn/aten::neg/Multiply_1" type="Multiply" version="opset1">
			<data auto_broadcast="numpy" />
			<input>
				<port id="0" precision="FP32">
					<dim>-1</dim>
					<dim>4</dim>
					<dim>-1</dim>
					<dim>32</dim>
				</port>
				<port id="1" precision="FP32">
					<dim>1</dim>
					<dim>1</dim>
					<dim>1</dim>
					<dim>1</dim>
				</port>
			</input>
			<output>
				<port id="2" precision="FP32" names="539">
					<dim>-1</dim>
					<dim>4</dim>
					<dim>-1</dim>
					<dim>32</dim>
				</port>
			</output>
		</layer>
		<layer id="369" name="Constant_2050" type="Const" version="opset1">
			<data element_type="i64" shape="1" offset="4" size="8" />
			<output>
				<port id="0" precision="I64">
					<dim>1</dim>
				</port>
			</output>
		</layer>
		<layer id="370" name="Constant_2094" type="Const" version="opset1">
			<data element_type="i64" shape="1" offset="69815028" size="8" />
			<output>
				<port id="0" precision="I64">
					<dim>1</dim>
				</port>
			</output>
		</layer>
		<layer id="371" name="Constant_2096" type="Const" version="opset1">
			<data element_type="i64" shape="1" offset="69815008" size="8" />
			<output>
				<port id="0" precision="I64">
					<dim>1</dim>
				</port>
			</output>
		</layer>
		<layer id="372" name="Constant_2048" type="Const" version="opset1">
			<data element_type="i64" shape="1" offset="69815044" size="8" />
			<output>
				<port id="0" precision="I64">
					<dim>1</dim>
				</port>
			</output>
		</layer>
		<layer id="373" name="__module.model.layers.1.self_attn/aten::slice/Slice_3" type="Slice" version="opset8">
			<input>
				<port id="0" precision="FP32">
					<dim>-1</dim>
					<dim>4</dim>
					<dim>-1</dim>
					<dim>64</dim>
				</port>
				<port id="1" precision="I64">
					<dim>1</dim>
				</port>
				<port id="2" precision="I64">
					<dim>1</dim>
				</port>
				<port id="3" precision="I64">
					<dim>1</dim>
				</port>
				<port id="4" precision="I64">
					<dim>1</dim>
				</port>
			</input>
			<output>
				<port id="5" precision="FP32" names="533">
					<dim>-1</dim>
					<dim>4</dim>
					<dim>-1</dim>
					<dim>32</dim>
				</port>
			</output>
		</layer>
		<layer id="374" name="__module.model.layers.1.self_attn/aten::cat/Concat_1" type="Concat" version="opset1">
			<data axis="-1" />
			<input>
				<port id="0" precision="FP32">
					<dim>-1</dim>
					<dim>4</dim>
					<dim>-1</dim>
					<dim>32</dim>
				</port>
				<port id="1" precision="FP32">
					<dim>-1</dim>
					<dim>4</dim>
					<dim>-1</dim>
					<dim>32</dim>
				</port>
			</input>
			<output>
				<port id="2" precision="FP32" names="541">
					<dim>-1</dim>
					<dim>4</dim>
					<dim>-1</dim>
					<dim>64</dim>
				</port>
			</output>
		</layer>
		<layer id="375" name="__module.model.layers.1.self_attn/aten::mul/Multiply_3" type="Multiply" version="opset1">
			<data auto_broadcast="numpy" />
			<input>
				<port id="0" precision="FP32">
					<dim>-1</dim>
					<dim>4</dim>
					<dim>-1</dim>
					<dim>64</dim>
				</port>
				<port id="1" precision="FP32">
					<dim>-1</dim>
					<dim>1</dim>
					<dim>-1</dim>
					<dim>64</dim>
				</port>
			</input>
			<output>
				<port id="2" precision="FP32" names="542">
					<dim>-1</dim>
					<dim>4</dim>
					<dim>-1</dim>
					<dim>64</dim>
				</port>
			</output>
		</layer>
		<layer id="376" name="__module.model.layers.1.self_attn/aten::add/Add_1" type="Add" version="opset1">
			<data auto_broadcast="numpy" />
			<input>
				<port id="0" precision="FP32">
					<dim>-1</dim>
					<dim>4</dim>
					<dim>-1</dim>
					<dim>64</dim>
				</port>
				<port id="1" precision="FP32">
					<dim>-1</dim>
					<dim>4</dim>
					<dim>-1</dim>
					<dim>64</dim>
				</port>
			</input>
			<output>
				<port id="2" precision="FP32" names="543">
					<dim>-1</dim>
					<dim>4</dim>
					<dim>-1</dim>
					<dim>64</dim>
				</port>
			</output>
		</layer>
		<layer id="377" name="__module.model.layers.1.self_attn/aten::cat/Concat_2" type="Concat" version="opset1">
			<data axis="-2" />
			<input>
				<port id="0" precision="FP32">
					<dim>-1</dim>
					<dim>4</dim>
					<dim>-1</dim>
					<dim>64</dim>
				</port>
				<port id="1" precision="FP32">
					<dim>-1</dim>
					<dim>4</dim>
					<dim>-1</dim>
					<dim>64</dim>
				</port>
			</input>
			<output>
				<port id="2" precision="FP32" names="553,554,hidden_states.39">
					<dim>-1</dim>
					<dim>4</dim>
					<dim>-1</dim>
					<dim>64</dim>
				</port>
			</output>
		</layer>
		<layer id="378" name="__module.model.layers.1.self_attn/aten::unsqueeze/Unsqueeze_2" type="Unsqueeze" version="opset1">
			<input>
				<port id="0" precision="FP32">
					<dim>-1</dim>
					<dim>4</dim>
					<dim>-1</dim>
					<dim>64</dim>
				</port>
				<port id="1" precision="I64" />
			</input>
			<output>
				<port id="2" precision="FP32" names="555,556,557">
					<dim>-1</dim>
					<dim>4</dim>
					<dim>1</dim>
					<dim>-1</dim>
					<dim>64</dim>
				</port>
			</output>
		</layer>
		<layer id="379" name="__module.model.layers.1.self_attn/aten::expand/Broadcast" type="Broadcast" version="opset3">
			<data mode="bidirectional" />
			<input>
				<port id="0" precision="FP32">
					<dim>-1</dim>
					<dim>4</dim>
					<dim>1</dim>
					<dim>-1</dim>
					<dim>64</dim>
				</port>
				<port id="1" precision="I64">
					<dim>5</dim>
				</port>
			</input>
			<output>
				<port id="2" precision="FP32" names="559,hidden_states.41">
					<dim>-1</dim>
					<dim>4</dim>
					<dim>8</dim>
					<dim>-1</dim>
					<dim>64</dim>
				</port>
			</output>
		</layer>
		<layer id="380" name="Constant_59423" type="Const" version="opset1">
			<data element_type="i64" shape="4" offset="70339920" size="32" />
			<output>
				<port id="0" precision="I64">
					<dim>4</dim>
				</port>
			</output>
		</layer>
		<layer id="381" name="__module.model.layers.1.self_attn/aten::reshape/Reshape" type="Reshape" version="opset1">
			<data special_zero="true" />
			<input>
				<port id="0" precision="FP32">
					<dim>-1</dim>
					<dim>4</dim>
					<dim>8</dim>
					<dim>-1</dim>
					<dim>64</dim>
				</port>
				<port id="1" precision="I64">
					<dim>4</dim>
				</port>
			</input>
			<output>
				<port id="2" precision="FP32" names="563,key.3">
					<dim>-1</dim>
					<dim>32</dim>
					<dim>-1</dim>
					<dim>64</dim>
				</port>
			</output>
		</layer>
		<layer id="382" name="Constant_61786" type="Const" version="opset1">
			<data element_type="f32" shape="" offset="0" size="4" />
			<output>
				<port id="0" precision="FP32" />
			</output>
		</layer>
		<layer id="383" name="Constant_61779" type="Const" version="opset1">
			<data element_type="i64" shape="1" offset="12" size="8" />
			<output>
				<port id="0" precision="I64">
					<dim>1</dim>
				</port>
			</output>
		</layer>
		<layer id="384" name="Constant_61781" type="Const" version="opset1">
			<data element_type="i64" shape="1" offset="4" size="8" />
			<output>
				<port id="0" precision="I64">
					<dim>1</dim>
				</port>
			</output>
		</layer>
		<layer id="385" name="Constant_61783" type="Const" version="opset1">
			<data element_type="i64" shape="1" offset="20" size="8" />
			<output>
				<port id="0" precision="I64">
					<dim>1</dim>
				</port>
			</output>
		</layer>
		<layer id="386" name="Concat_61784" type="Concat" version="opset1">
			<data axis="0" />
			<input>
				<port id="0" precision="I64">
					<dim>1</dim>
				</port>
				<port id="1" precision="I64">
					<dim>1</dim>
				</port>
				<port id="2" precision="I64">
					<dim>1</dim>
				</port>
				<port id="3" precision="I64">
					<dim>1</dim>
				</port>
			</input>
			<output>
				<port id="4" precision="I64">
					<dim>4</dim>
				</port>
			</output>
		</layer>
		<layer id="387" name="Broadcast_61787" type="Broadcast" version="opset3">
			<data mode="numpy" />
			<input>
				<port id="0" precision="FP32" />
				<port id="1" precision="I64">
					<dim>4</dim>
				</port>
			</input>
			<output>
				<port id="2" precision="FP32">
					<dim>-1</dim>
					<dim>4</dim>
					<dim>0</dim>
					<dim>64</dim>
				</port>
			</output>
		</layer>
		<layer id="388" name="ReadValue_61280" type="ReadValue" version="opset6">
			<data variable_id="past_key_values.1.valuepresent.1.value" variable_type="f32" variable_shape="?,4,?,64" />
			<input>
				<port id="0" precision="FP32">
					<dim>-1</dim>
					<dim>4</dim>
					<dim>0</dim>
					<dim>64</dim>
				</port>
			</input>
			<output>
				<port id="1" precision="FP32" names="past_key_values.1.value">
					<dim>-1</dim>
					<dim>4</dim>
					<dim>-1</dim>
					<dim>64</dim>
				</port>
			</output>
		</layer>
		<layer id="389" name="Constant_60778" type="Const" version="opset1">
			<data element_type="i64" shape="" offset="4" size="8" />
			<output>
				<port id="0" precision="I64" />
			</output>
		</layer>
		<layer id="390" name="Gather_60779" type="Gather" version="opset8">
			<data batch_dims="0" />
			<input>
				<port id="0" precision="FP32">
					<dim>-1</dim>
					<dim>4</dim>
					<dim>-1</dim>
					<dim>64</dim>
				</port>
				<port id="1" precision="I32">
					<dim>-1</dim>
				</port>
				<port id="2" precision="I64" />
			</input>
			<output>
				<port id="3" precision="FP32">
					<dim>-1</dim>
					<dim>4</dim>
					<dim>-1</dim>
					<dim>64</dim>
				</port>
			</output>
		</layer>
		<layer id="391" name="self.model.layers.1.self_attn.v_proj.weight" type="Const" version="opset1">
			<data element_type="i8" shape="256, 2048" offset="114432412" size="524288" />
			<output>
				<port id="0" precision="I8">
					<dim>256</dim>
					<dim>2048</dim>
				</port>
			</output>
		</layer>
		<layer id="392" name="Convert_74245" type="Convert" version="opset1">
			<data destination_type="f16" />
			<input>
				<port id="0" precision="I8">
					<dim>256</dim>
					<dim>2048</dim>
				</port>
			</input>
			<output>
				<port id="1" precision="FP16">
					<dim>256</dim>
					<dim>2048</dim>
				</port>
			</output>
		</layer>
		<layer id="393" name="self.model.layers.1.self_attn.v_proj.weight/scale" type="Const" version="opset1">
			<data element_type="f16" shape="256, 1" offset="114956700" size="512" />
			<output>
				<port id="0" precision="FP16">
					<dim>256</dim>
					<dim>1</dim>
				</port>
			</output>
		</layer>
		<layer id="394" name="self.model.layers.1.self_attn.v_proj.weight/fq_weights_1" type="Multiply" version="opset1">
			<data auto_broadcast="numpy" />
			<input>
				<port id="0" precision="FP16">
					<dim>256</dim>
					<dim>2048</dim>
				</port>
				<port id="1" precision="FP16">
					<dim>256</dim>
					<dim>1</dim>
				</port>
			</input>
			<output>
				<port id="2" precision="FP16">
					<dim>256</dim>
					<dim>2048</dim>
				</port>
			</output>
		</layer>
		<layer id="395" name="__module.model.layers.1.self_attn.v_proj/ov_ext::linear/Convert" type="Convert" version="opset1">
			<data destination_type="f32" />
			<rt_info>
				<attribute name="decompression" version="0" />
			</rt_info>
			<input>
				<port id="0" precision="FP16">
					<dim>256</dim>
					<dim>2048</dim>
				</port>
			</input>
			<output>
				<port id="1" precision="FP32">
					<dim>256</dim>
					<dim>2048</dim>
				</port>
			</output>
		</layer>
		<layer id="396" name="__module.model.layers.1.self_attn.v_proj/ov_ext::linear/MatMul" type="MatMul" version="opset1">
			<data transpose_a="false" transpose_b="true" />
			<input>
				<port id="0" precision="FP32">
					<dim>-1</dim>
					<dim>-1</dim>
					<dim>2048</dim>
				</port>
				<port id="1" precision="FP32">
					<dim>256</dim>
					<dim>2048</dim>
				</port>
…
		<edge from-layer="2765" from-port="2" to-layer="2766" to-port="1" />
		<edge from-layer="2766" from-port="2" to-layer="2770" to-port="0" />
		<edge from-layer="2766" from-port="2" to-layer="2799" to-port="0" />
		<edge from-layer="2766" from-port="2" to-layer="2777" to-port="0" />
		<edge from-layer="2767" from-port="0" to-layer="2778" to-port="0" />
		<edge from-layer="2768" from-port="0" to-layer="2776" to-port="0" />
		<edge from-layer="2769" from-port="0" to-layer="2770" to-port="1" />
		<edge from-layer="2770" from-port="2" to-layer="2772" to-port="0" />
		<edge from-layer="2771" from-port="0" to-layer="2772" to-port="1" />
		<edge from-layer="2772" from-port="2" to-layer="2774" to-port="0" />
		<edge from-layer="2773" from-port="0" to-layer="2774" to-port="1" />
		<edge from-layer="2774" from-port="2" to-layer="2775" to-port="0" />
		<edge from-layer="2775" from-port="1" to-layer="2776" to-port="1" />
		<edge from-layer="2776" from-port="2" to-layer="2777" to-port="1" />
		<edge from-layer="2777" from-port="2" to-layer="2778" to-port="1" />
		<edge from-layer="2778" from-port="2" to-layer="2784" to-port="0" />
		<edge from-layer="2778" from-port="2" to-layer="2791" to-port="0" />
		<edge from-layer="2779" from-port="0" to-layer="2780" to-port="0" />
		<edge from-layer="2780" from-port="1" to-layer="2782" to-port="0" />
		<edge from-layer="2781" from-port="0" to-layer="2782" to-port="1" />
		<edge from-layer="2782" from-port="2" to-layer="2783" to-port="0" />
		<edge from-layer="2783" from-port="1" to-layer="2784" to-port="1" />
		<edge from-layer="2784" from-port="2" to-layer="2785" to-port="0" />
		<edge from-layer="2785" from-port="1" to-layer="2792" to-port="0" />
		<edge from-layer="2786" from-port="0" to-layer="2787" to-port="0" />
		<edge from-layer="2787" from-port="1" to-layer="2789" to-port="0" />
		<edge from-layer="2788" from-port="0" to-layer="2789" to-port="1" />
		<edge from-layer="2789" from-port="2" to-layer="2790" to-port="0" />
		<edge from-layer="2790" from-port="1" to-layer="2791" to-port="1" />
		<edge from-layer="2791" from-port="2" to-layer="2792" to-port="1" />
		<edge from-layer="2792" from-port="2" to-layer="2798" to-port="0" />
		<edge from-layer="2793" from-port="0" to-layer="2794" to-port="0" />
		<edge from-layer="2794" from-port="1" to-layer="2796" to-port="0" />
		<edge from-layer="2795" from-port="0" to-layer="2796" to-port="1" />
		<edge from-layer="2796" from-port="2" to-layer="2797" to-port="0" />
		<edge from-layer="2797" from-port="1" to-layer="2798" to-port="1" />
		<edge from-layer="2798" from-port="2" to-layer="2799" to-port="1" />
		<edge from-layer="2799" from-port="2" to-layer="2803" to-port="0" />
		<edge from-layer="2799" from-port="2" to-layer="2810" to-port="0" />
		<edge from-layer="2799" from-port="2" to-layer="2912" to-port="0" />
		<edge from-layer="2800" from-port="0" to-layer="2811" to-port="0" />
		<edge from-layer="2801" from-port="0" to-layer="2809" to-port="0" />
		<edge from-layer="2802" from-port="0" to-layer="2803" to-port="1" />
		<edge from-layer="2803" from-port="2" to-layer="2805" to-port="0" />
		<edge from-layer="2804" from-port="0" to-layer="2805" to-port="1" />
		<edge from-layer="2805" from-port="2" to-layer="2807" to-port="0" />
		<edge from-layer="2806" from-port="0" to-layer="2807" to-port="1" />
		<edge from-layer="2807" from-port="2" to-layer="2808" to-port="0" />
		<edge from-layer="2808" from-port="1" to-layer="2809" to-port="1" />
		<edge from-layer="2809" from-port="2" to-layer="2810" to-port="1" />
		<edge from-layer="2810" from-port="2" to-layer="2811" to-port="1" />
		<edge from-layer="2811" from-port="2" to-layer="2817" to-port="0" />
		<edge from-layer="2811" from-port="2" to-layer="2852" to-port="0" />
		<edge from-layer="2811" from-port="2" to-layer="2892" to-port="0" />
		<edge from-layer="2812" from-port="0" to-layer="2813" to-port="0" />
		<edge from-layer="2813" from-port="1" to-layer="2815" to-port="0" />
		<edge from-layer="2814" from-port="0" to-layer="2815" to-port="1" />
		<edge from-layer="2815" from-port="2" to-layer="2816" to-port="0" />
		<edge from-layer="2816" from-port="1" to-layer="2817" to-port="1" />
		<edge from-layer="2817" from-port="2" to-layer="2819" to-port="0" />
		<edge from-layer="2818" from-port="0" to-layer="2819" to-port="1" />
		<edge from-layer="2819" from-port="2" to-layer="2821" to-port="0" />
		<edge from-layer="2820" from-port="0" to-layer="2821" to-port="1" />
		<edge from-layer="2821" from-port="2" to-layer="2827" to-port="0" />
		<edge from-layer="2821" from-port="2" to-layer="2834" to-port="0" />
		<edge from-layer="2821" from-port="2" to-layer="2822" to-port="0" />
		<edge from-layer="2822" from-port="2" to-layer="2837" to-port="0" />
		<edge from-layer="2823" from-port="0" to-layer="2827" to-port="1" />
		<edge from-layer="2824" from-port="0" to-layer="2827" to-port="2" />
		<edge from-layer="2825" from-port="0" to-layer="2827" to-port="3" />
		<edge from-layer="2826" from-port="0" to-layer="2827" to-port="4" />
		<edge from-layer="2827" from-port="5" to-layer="2829" to-port="0" />
		<edge from-layer="2828" from-port="0" to-layer="2829" to-port="1" />
		<edge from-layer="2829" from-port="2" to-layer="2835" to-port="0" />
		<edge from-layer="2830" from-port="0" to-layer="2834" to-port="1" />
		<edge from-layer="2831" from-port="0" to-layer="2834" to-port="2" />
		<edge from-layer="2832" from-port="0" to-layer="2834" to-port="3" />
		<edge from-layer="2833" from-port="0" to-layer="2834" to-port="4" />
		<edge from-layer="2834" from-port="5" to-layer="2835" to-port="1" />
		<edge from-layer="2835" from-port="2" to-layer="2836" to-port="0" />
		<edge from-layer="2836" from-port="2" to-layer="2837" to-port="1" />
		<edge from-layer="2837" from-port="2" to-layer="2902" to-port="0" />
		<edge from-layer="2838" from-port="0" to-layer="2843" to-port="0" />
		<edge from-layer="2839" from-port="0" to-layer="2842" to-port="1" />
		<edge from-layer="2840" from-port="0" to-layer="2842" to-port="2" />
		<edge from-layer="2841" from-port="0" to-layer="2842" to-port="3" />
		<edge from-layer="2842" from-port="4" to-layer="2843" to-port="1" />
		<edge from-layer="2843" from-port="2" to-layer="2844" to-port="0" />
		<edge from-layer="2844" from-port="1" to-layer="2846" to-port="0" />
		<edge from-layer="2845" from-port="0" to-layer="2846" to-port="2" />
		<edge from-layer="2846" from-port="3" to-layer="2873" to-port="0" />
		<edge from-layer="2847" from-port="0" to-layer="2848" to-port="0" />
		<edge from-layer="2848" from-port="1" to-layer="2850" to-port="0" />
		<edge from-layer="2849" from-port="0" to-layer="2850" to-port="1" />
		<edge from-layer="2850" from-port="2" to-layer="2851" to-port="0" />
		<edge from-layer="2851" from-port="1" to-layer="2852" to-port="1" />
		<edge from-layer="2852" from-port="2" to-layer="2854" to-port="0" />
		<edge from-layer="2853" from-port="0" to-layer="2854" to-port="1" />
		<edge from-layer="2854" from-port="2" to-layer="2856" to-port="0" />
		<edge from-layer="2855" from-port="0" to-layer="2856" to-port="1" />
		<edge from-layer="2856" from-port="2" to-layer="2862" to-port="0" />
		<edge from-layer="2856" from-port="2" to-layer="2857" to-port="0" />
		<edge from-layer="2856" from-port="2" to-layer="2869" to-port="0" />
		<edge from-layer="2857" from-port="2" to-layer="2872" to-port="0" />
		<edge from-layer="2858" from-port="0" to-layer="2862" to-port="1" />
		<edge from-layer="2859" from-port="0" to-layer="2862" to-port="2" />
		<edge from-layer="2860" from-port="0" to-layer="2862" to-port="3" />
		<edge from-layer="2861" from-port="0" to-layer="2862" to-port="4" />
		<edge from-layer="2862" from-port="5" to-layer="2864" to-port="0" />
		<edge from-layer="2863" from-port="0" to-layer="2864" to-port="1" />
		<edge from-layer="2864" from-port="2" to-layer="2870" to-port="0" />
		<edge from-layer="2865" from-port="0" to-layer="2869" to-port="1" />
		<edge from-layer="2866" from-port="0" to-layer="2869" to-port="2" />
		<edge from-layer="2867" from-port="0" to-layer="2869" to-port="3" />
		<edge from-layer="2868" from-port="0" to-layer="2869" to-port="4" />
		<edge from-layer="2869" from-port="5" to-layer="2870" to-port="1" />
		<edge from-layer="2870" from-port="2" to-layer="2871" to-port="0" />
		<edge from-layer="2871" from-port="2" to-layer="2872" to-port="1" />
		<edge from-layer="2872" from-port="2" to-layer="2873" to-port="1" />
		<edge from-layer="2873" from-port="2" to-layer="2874" to-port="0" />
		<edge from-layer="2873" from-port="2" to-layer="3305" to-port="0" />
		<edge from-layer="2874" from-port="2" to-layer="2875" to-port="0" />
		<edge from-layer="2875" from-port="2" to-layer="2877" to-port="0" />
		<edge from-layer="2876" from-port="0" to-layer="2877" to-port="1" />
		<edge from-layer="2877" from-port="2" to-layer="2902" to-port="1" />
		<edge from-layer="2878" from-port="0" to-layer="2883" to-port="0" />
		<edge from-layer="2879" from-port="0" to-layer="2882" to-port="1" />
		<edge from-layer="2880" from-port="0" to-layer="2882" to-port="2" />
		<edge from-layer="2881" from-port="0" to-layer="2882" to-port="3" />
		<edge from-layer="2882" from-port="4" to-layer="2883" to-port="1" />
		<edge from-layer="2883" from-port="2" to-layer="2884" to-port="0" />
		<edge from-layer="2884" from-port="1" to-layer="2886" to-port="0" />
		<edge from-layer="2885" from-port="0" to-layer="2886" to-port="2" />
		<edge from-layer="2886" from-port="3" to-layer="2897" to-port="0" />
		<edge from-layer="2887" from-port="0" to-layer="2888" to-port="0" />
		<edge from-layer="2888" from-port="1" to-layer="2890" to-port="0" />
		<edge from-layer="2889" from-port="0" to-layer="2890" to-port="1" />
		<edge from-layer="2890" from-port="2" to-layer="2891" to-port="0" />
		<edge from-layer="2891" from-port="1" to-layer="2892" to-port="1" />
		<edge from-layer="2892" from-port="2" to-layer="2894" to-port="0" />
		<edge from-layer="2893" from-port="0" to-layer="2894" to-port="1" />
		<edge from-layer="2894" from-port="2" to-layer="2896" to-port="0" />
		<edge from-layer="2895" from-port="0" to-layer="2896" to-port="1" />
		<edge from-layer="2896" from-port="2" to-layer="2897" to-port="1" />
		<edge from-layer="2897" from-port="2" to-layer="3304" to-port="0" />
		<edge from-layer="2897" from-port="2" to-layer="2898" to-port="0" />
		<edge from-layer="2898" from-port="2" to-layer="2899" to-port="0" />
		<edge from-layer="2899" from-port="2" to-layer="2901" to-port="0" />
		<edge from-layer="2900" from-port="0" to-layer="2901" to-port="1" />
		<edge from-layer="2901" from-port="2" to-layer="2902" to-port="2" />
		<edge from-layer="2902" from-port="5" to-layer="2904" to-port="0" />
		<edge from-layer="2903" from-port="0" to-layer="2904" to-port="1" />
		<edge from-layer="2904" from-port="2" to-layer="2905" to-port="0" />
		<edge from-layer="2905" from-port="2" to-layer="2911" to-port="0" />
		<edge from-layer="2906" from-port="0" to-layer="2907" to-port="0" />
		<edge from-layer="2907" from-port="1" to-layer="2909" to-port="0" />
		<edge from-layer="2908" from-port="0" to-layer="2909" to-port="1" />
		<edge from-layer="2909" from-port="2" to-layer="2910" to-port="0" />
		<edge from-layer="2910" from-port="1" to-layer="2911" to-port="1" />
		<edge from-layer="2911" from-port="2" to-layer="2912" to-port="1" />
		<edge from-layer="2912" from-port="2" to-layer="2945" to-port="0" />
		<edge from-layer="2912" from-port="2" to-layer="2923" to-port="0" />
		<edge from-layer="2912" from-port="2" to-layer="2916" to-port="0" />
		<edge from-layer="2913" from-port="0" to-layer="2924" to-port="0" />
		<edge from-layer="2914" from-port="0" to-layer="2922" to-port="0" />
		<edge from-layer="2915" from-port="0" to-layer="2916" to-port="1" />
		<edge from-layer="2916" from-port="2" to-layer="2918" to-port="0" />
		<edge from-layer="2917" from-port="0" to-layer="2918" to-port="1" />
		<edge from-layer="2918" from-port="2" to-layer="2920" to-port="0" />
		<edge from-layer="2919" from-port="0" to-layer="2920" to-port="1" />
		<edge from-layer="2920" from-port="2" to-layer="2921" to-port="0" />
		<edge from-layer="2921" from-port="1" to-layer="2922" to-port="1" />
		<edge from-layer="2922" from-port="2" to-layer="2923" to-port="1" />
		<edge from-layer="2923" from-port="2" to-layer="2924" to-port="1" />
		<edge from-layer="2924" from-port="2" to-layer="2937" to-port="0" />
		<edge from-layer="2924" from-port="2" to-layer="2930" to-port="0" />
		<edge from-layer="2925" from-port="0" to-layer="2926" to-port="0" />
		<edge from-layer="2926" from-port="1" to-layer="2928" to-port="0" />
		<edge from-layer="2927" from-port="0" to-layer="2928" to-port="1" />
		<edge from-layer="2928" from-port="2" to-layer="2929" to-port="0" />
		<edge from-layer="2929" from-port="1" to-layer="2930" to-port="1" />
		<edge from-layer="2930" from-port="2" to-layer="2931" to-port="0" />
		<edge from-layer="2931" from-port="1" to-layer="2938" to-port="0" />
		<edge from-layer="2932" from-port="0" to-layer="2933" to-port="0" />
		<edge from-layer="2933" from-port="1" to-layer="2935" to-port="0" />
		<edge from-layer="2934" from-port="0" to-layer="2935" to-port="1" />
		<edge from-layer="2935" from-port="2" to-layer="2936" to-port="0" />
		<edge from-layer="2936" from-port="1" to-layer="2937" to-port="1" />
		<edge from-layer="2937" from-port="2" to-layer="2938" to-port="1" />
		<edge from-layer="2938" from-port="2" to-layer="2944" to-port="0" />
		<edge from-layer="2939" from-port="0" to-layer="2940" to-port="0" />
		<edge from-layer="2940" from-port="1" to-layer="2942" to-port="0" />
		<edge from-layer="2941" from-port="0" to-layer="2942" to-port="1" />
		<edge from-layer="2942" from-port="2" to-layer="2943" to-port="0" />
		<edge from-layer="2943" from-port="1" to-layer="2944" to-port="1" />
		<edge from-layer="2944" from-port="2" to-layer="2945" to-port="1" />
		<edge from-layer="2945" from-port="2" to-layer="2949" to-port="0" />
		<edge from-layer="2945" from-port="2" to-layer="3058" to-port="0" />
		<edge from-layer="2945" from-port="2" to-layer="2956" to-port="0" />
		<edge from-layer="2946" from-port="0" to-layer="2957" to-port="0" />
		<edge from-layer="2947" from-port="0" to-layer="2955" to-port="0" />
		<edge from-layer="2948" from-port="0" to-layer="2949" to-port="1" />
		<edge from-layer="2949" from-port="2" to-layer="2951" to-port="0" />
		<edge from-layer="2950" from-port="0" to-layer="2951" to-port="1" />
		<edge from-layer="2951" from-port="2" to-layer="2953" to-port="0" />
		<edge from-layer="2952" from-port="0" to-layer="2953" to-port="1" />
		<edge from-layer="2953" from-port="2" to-layer="2954" to-port="0" />
		<edge from-layer="2954" from-port="1" to-layer="2955" to-port="1" />
		<edge from-layer="2955" from-port="2" to-layer="2956" to-port="1" />
		<edge from-layer="2956" from-port="2" to-layer="2957" to-port="1" />
		<edge from-layer="2957" from-port="2" to-layer="2998" to-port="0" />
		<edge from-layer="2957" from-port="2" to-layer="3038" to-port="0" />
		<edge from-layer="2957" from-port="2" to-layer="2963" to-port="0" />
		<edge from-layer="2958" from-port="0" to-layer="2959" to-port="0" />
		<edge from-layer="2959" from-port="1" to-layer="2961" to-port="0" />
		<edge from-layer="2960" from-port="0" to-layer="2961" to-port="1" />
		<edge from-layer="2961" from-port="2" to-layer="2962" to-port="0" />
		<edge from-layer="2962" from-port="1" to-layer="2963" to-port="1" />
		<edge from-layer="2963" from-port="2" to-layer="2965" to-port="0" />
		<edge from-layer="2964" from-port="0" to-layer="2965" to-port="1" />
		<edge from-layer="2965" from-port="2" to-layer="2967" to-port="0" />
		<edge from-layer="2966" from-port="0" to-layer="2967" to-port="1" />
		<edge from-layer="2967" from-port="2" to-layer="2968" to-port="0" />
		<edge from-layer="2967" from-port="2" to-layer="2973" to-port="0" />
		<edge from-layer="2967" from-port="2" to-layer="2980" to-port="0" />
		<edge from-layer="2968" from-port="2" to-layer="2983" to-port="0" />
		<edge from-layer="2969" from-port="0" to-layer="2973" to-port="1" />
		<edge from-layer="2970" from-port="0" to-layer="2973" to-port="2" />
		<edge from-layer="2971" from-port="0" to-layer="2973" to-port="3" />
		<edge from-layer="2972" from-port="0" to-layer="2973" to-port="4" />
		<edge from-layer="2973" from-port="5" to-layer="2975" to-port="0" />
		<edge from-layer="2974" from-port="0" to-layer="2975" to-port="1" />
		<edge from-layer="2975" from-port="2" to-layer="2981" to-port="0" />
		<edge from-layer="2976" from-port="0" to-layer="2980" to-port="1" />
		<edge from-layer="2977" from-port="0" to-layer="2980" to-port="2" />
		<edge from-layer="2978" from-port="0" to-layer="2980" to-port="3" />
		<edge from-layer="2979" from-port="0" to-layer="2980" to-port="4" />
		<edge from-layer="2980" from-port="5" to-layer="2981" to-port="1" />
		<edge from-layer="2981" from-port="2" to-layer="2982" to-port="0" />
		<edge from-layer="2982" from-port="2" to-layer="2983" to-port="1" />
		<edge from-layer="2983" from-port="2" to-layer="3048" to-port="0" />
		<edge from-layer="2984" from-port="0" to-layer="2989" to-port="0" />
		<edge from-layer="2985" from-port="0" to-layer="2988" to-port="1" />
		<edge from-layer="2986" from-port="0" to-layer="2988" to-port="2" />
		<edge from-layer="2987" from-port="0" to-layer="2988" to-port="3" />
		<edge from-layer="2988" from-port="4" to-layer="2989" to-port="1" />
		<edge from-layer="2989" from-port="2" to-layer="2990" to-port="0" />
		<edge from-layer="2990" from-port="1" to-layer="2992" to-port="0" />
		<edge from-layer="2991" from-port="0" to-layer="2992" to-port="2" />
		<edge from-layer="2992" from-port="3" to-layer="3019" to-port="0" />
		<edge from-layer="2993" from-port="0" to-layer="2994" to-port="0" />
		<edge from-layer="2994" from-port="1" to-layer="2996" to-port="0" />
		<edge from-layer="2995" from-port="0" to-layer="2996" to-port="1" />
		<edge from-layer="2996" from-port="2" to-layer="2997" to-port="0" />
		<edge from-layer="2997" from-port="1" to-layer="2998" to-port="1" />
		<edge from-layer="2998" from-port="2" to-layer="3000" to-port="0" />
		<edge from-layer="2999" from-port="0" to-layer="3000" to-port="1" />
		<edge from-layer="3000" from-port="2" to-layer="3002" to-port="0" />
		<edge from-layer="3001" from-port="0" to-layer="3002" to-port="1" />
		<edge from-layer="3002" from-port="2" to-layer="3003" to-port="0" />
		<edge from-layer="3002" from-port="2" to-layer="3015" to-port="0" />
		<edge from-layer="3002" from-port="2" to-layer="3008" to-port="0" />
		<edge from-layer="3003" from-port="2" to-layer="3018" to-port="0" />
		<edge from-layer="3004" from-port="0" to-layer="3008" to-port="1" />
		<edge from-layer="3005" from-port="0" to-layer="3008" to-port="2" />
		<edge from-layer="3006" from-port="0" to-layer="3008" to-port="3" />
		<edge from-layer="3007" from-port="0" to-layer="3008" to-port="4" />
		<edge from-layer="3008" from-port="5" to-layer="3010" to-port="0" />
		<edge from-layer="3009" from-port="0" to-layer="3010" to-port="1" />
		<edge from-layer="3010" from-port="2" to-layer="3016" to-port="0" />
		<edge from-layer="3011" from-port="0" to-layer="3015" to-port="1" />
		<edge from-layer="3012" from-port="0" to-layer="3015" to-port="2" />
		<edge from-layer="3013" from-port="0" to-layer="3015" to-port="3" />
		<edge from-layer="3014" from-port="0" to-layer="3015" to-port="4" />
		<edge from-layer="3015" from-port="5" to-layer="3016" to-port="1" />
		<edge from-layer="3016" from-port="2" to-layer="3017" to-port="0" />
		<edge from-layer="3017" from-port="2" to-layer="3018" to-port="1" />
		<edge from-layer="3018" from-port="2" to-layer="3019" to-port="1" />
		<edge from-layer="3019" from-port="2" to-layer="3020" to-port="0" />
		<edge from-layer="3019" from-port="2" to-layer="3303" to-port="0" />
		<edge from-layer="3020" from-port="2" to-layer="3021" to-port="0" />
		<edge from-layer="3021" from-port="2" to-layer="3023" to-port="0" />
		<edge from-layer="3022" from-port="0" to-layer="3023" to-port="1" />
		<edge from-layer="3023" from-port="2" to-layer="3048" to-port="1" />
		<edge from-layer="3024" from-port="0" to-layer="3029" to-port="0" />
		<edge from-layer="3025" from-port="0" to-layer="3028" to-port="1" />
		<edge from-layer="3026" from-port="0" to-layer="3028" to-port="2" />
		<edge from-layer="3027" from-port="0" to-layer="3028" to-port="3" />
		<edge from-layer="3028" from-port="4" to-layer="3029" to-port="1" />
		<edge from-layer="3029" from-port="2" to-layer="3030" to-port="0" />
		<edge from-layer="3030" from-port="1" to-layer="3032" to-port="0" />
		<edge from-layer="3031" from-port="0" to-layer="3032" to-port="2" />
		<edge from-layer="3032" from-port="3" to-layer="3043" to-port="0" />
		<edge from-layer="3033" from-port="0" to-layer="3034" to-port="0" />
		<edge from-layer="3034" from-port="1" to-layer="3036" to-port="0" />
		<edge from-layer="3035" from-port="0" to-layer="3036" to-port="1" />
		<edge from-layer="3036" from-port="2" to-layer="3037" to-port="0" />
		<edge from-layer="3037" from-port="1" to-layer="3038" to-port="1" />
		<edge from-layer="3038" from-port="2" to-layer="3040" to-port="0" />
		<edge from-layer="3039" from-port="0" to-layer="3040" to-port="1" />
		<edge from-layer="3040" from-port="2" to-layer="3042" to-port="0" />
		<edge from-layer="3041" from-port="0" to-layer="3042" to-port="1" />
		<edge from-layer="3042" from-port="2" to-layer="3043" to-port="1" />
		<edge from-layer="3043" from-port="2" to-layer="3302" to-port="0" />
		<edge from-layer="3043" from-port="2" to-layer="3044" to-port="0" />
		<edge from-layer="3044" from-port="2" to-layer="3045" to-port="0" />
		<edge from-layer="3045" from-port="2" to-layer="3047" to-port="0" />
		<edge from-layer="3046" from-port="0" to-layer="3047" to-port="1" />
		<edge from-layer="3047" from-port="2" to-layer="3048" to-port="2" />
		<edge from-layer="3048" from-port="5" to-layer="3050" to-port="0" />
		<edge from-layer="3049" from-port="0" to-layer="3050" to-port="1" />
		<edge from-layer="3050" from-port="2" to-layer="3051" to-port="0" />
		<edge from-layer="3051" from-port="2" to-layer="3057" to-port="0" />
		<edge from-layer="3052" from-port="0" to-layer="3053" to-port="0" />
		<edge from-layer="3053" from-port="1" to-layer="3055" to-port="0" />
		<edge from-layer="3054" from-port="0" to-layer="3055" to-port="1" />
		<edge from-layer="3055" from-port="2" to-layer="3056" to-port="0" />
		<edge from-layer="3056" from-port="1" to-layer="3057" to-port="1" />
		<edge from-layer="3057" from-port="2" to-layer="3058" to-port="1" />
		<edge from-layer="3058" from-port="2" to-layer="3091" to-port="0" />
		<edge from-layer="3058" from-port="2" to-layer="3062" to-port="0" />
		<edge from-layer="3058" from-port="2" to-layer="3069" to-port="0" />
		<edge from-layer="3059" from-port="0" to-layer="3070" to-port="0" />
		<edge from-layer="3060" from-port="0" to-layer="3068" to-port="0" />
		<edge from-layer="3061" from-port="0" to-layer="3062" to-port="1" />
		<edge from-layer="3062" from-port="2" to-layer="3064" to-port="0" />
		<edge from-layer="3063" from-port="0" to-layer="3064" to-port="1" />
		<edge from-layer="3064" from-port="2" to-layer="3066" to-port="0" />
		<edge from-layer="3065" from-port="0" to-layer="3066" to-port="1" />
		<edge from-layer="3066" from-port="2" to-layer="3067" to-port="0" />
		<edge from-layer="3067" from-port="1" to-layer="3068" to-port="1" />
		<edge from-layer="3068" from-port="2" to-layer="3069" to-port="1" />
		<edge from-layer="3069" from-port="2" to-layer="3070" to-port="1" />
		<edge from-layer="3070" from-port="2" to-layer="3076" to-port="0" />
		<edge from-layer="3070" from-port="2" to-layer="3083" to-port="0" />
		<edge from-layer="3071" from-port="0" to-layer="3072" to-port="0" />
		<edge from-layer="3072" from-port="1" to-layer="3074" to-port="0" />
		<edge from-layer="3073" from-port="0" to-layer="3074" to-port="1" />
		<edge from-layer="3074" from-port="2" to-layer="3075" to-port="0" />
		<edge from-layer="3075" from-port="1" to-layer="3076" to-port="1" />
		<edge from-layer="3076" from-port="2" to-layer="3077" to-port="0" />
		<edge from-layer="3077" from-port="1" to-layer="3084" to-port="0" />
		<edge from-layer="3078" from-port="0" to-layer="3079" to-port="0" />
		<edge from-layer="3079" from-port="1" to-layer="3081" to-port="0" />
		<edge from-layer="3080" from-port="0" to-layer="3081" to-port="1" />
		<edge from-layer="3081" from-port="2" to-layer="3082" to-port="0" />
		<edge from-layer="3082" from-port="1" to-layer="3083" to-port="1" />
		<edge from-layer="3083" from-port="2" to-layer="3084" to-port="1" />
		<edge from-layer="3084" from-port="2" to-layer="3090" to-port="0" />
		<edge from-layer="3085" from-port="0" to-layer="3086" to-port="0" />
		<edge from-layer="3086" from-port="1" to-layer="3088" to-port="0" />
		<edge from-layer="3087" from-port="0" to-layer="3088" to-port="1" />
		<edge from-layer="3088" from-port="2" to-layer="3089" to-port="0" />
		<edge from-layer="3089" from-port="1" to-layer="3090" to-port="1" />
		<edge from-layer="3090" from-port="2" to-layer="3091" to-port="1" />
		<edge from-layer="3091" from-port="2" to-layer="3102" to-port="0" />
		<edge from-layer="3091" from-port="2" to-layer="3204" to-port="0" />
		<edge from-layer="3091" from-port="2" to-layer="3095" to-port="0" />
		<edge from-layer="3092" from-port="0" to-layer="3103" to-port="0" />
		<edge from-layer="3093" from-port="0" to-layer="3101" to-port="0" />
		<edge from-layer="3094" from-port="0" to-layer="3095" to-port="1" />
		<edge from-layer="3095" from-port="2" to-layer="3097" to-port="0" />
		<edge from-layer="3096" from-port="0" to-layer="3097" to-port="1" />
		<edge from-layer="3097" from-port="2" to-layer="3099" to-port="0" />
		<edge from-layer="3098" from-port="0" to-layer="3099" to-port="1" />
		<edge from-layer="3099" from-port="2" to-layer="3100" to-port="0" />
		<edge from-layer="3100" from-port="1" to-layer="3101" to-port="1" />
		<edge from-layer="3101" from-port="2" to-layer="3102" to-port="1" />
		<edge from-layer="3102" from-port="2" to-layer="3103" to-port="1" />
		<edge from-layer="3103" from-port="2" to-layer="3144" to-port="0" />
		<edge from-layer="3103" from-port="2" to-layer="3109" to-port="0" />
		<edge from-layer="3103" from-port="2" to-layer="3184" to-port="0" />
		<edge from-layer="3104" from-port="0" to-layer="3105" to-port="0" />
		<edge from-layer="3105" from-port="1" to-layer="3107" to-port="0" />
		<edge from-layer="3106" from-port="0" to-layer="3107" to-port="1" />
		<edge from-layer="3107" from-port="2" to-layer="3108" to-port="0" />
		<edge from-layer="3108" from-port="1" to-layer="3109" to-port="1" />
		<edge from-layer="3109" from-port="2" to-layer="3111" to-port="0" />
		<edge from-layer="3110" from-port="0" to-layer="3111" to-port="1" />
		<edge from-layer="3111" from-port="2" to-layer="3113" to-port="0" />
		<edge from-layer="3112" from-port="0" to-layer="3113" to-port="1" />
		<edge from-layer="3113" from-port="2" to-layer="3126" to-port="0" />
		<edge from-layer="3113" from-port="2" to-layer="3114" to-port="0" />
		<edge from-layer="3113" from-port="2" to-layer="3119" to-port="0" />
		<edge from-layer="3114" from-port="2" to-layer="3129" to-port="0" />
		<edge from-layer="3115" from-port="0" to-layer="3119" to-port="1" />
		<edge from-layer="3116" from-port="0" to-layer="3119" to-port="2" />
		<edge from-layer="3117" from-port="0" to-layer="3119" to-port="3" />
		<edge from-layer="3118" from-port="0" to-layer="3119" to-port="4" />
		<edge from-layer="3119" from-port="5" to-layer="3121" to-port="0" />
		<edge from-layer="3120" from-port="0" to-layer="3121" to-port="1" />
		<edge from-layer="3121" from-port="2" to-layer="3127" to-port="0" />
		<edge from-layer="3122" from-port="0" to-layer="3126" to-port="1" />
		<edge from-layer="3123" from-port="0" to-layer="3126" to-port="2" />
		<edge from-layer="3124" from-port="0" to-layer="3126" to-port="3" />
		<edge from-layer="3125" from-port="0" to-layer="3126" to-port="4" />
		<edge from-layer="3126" from-port="5" to-layer="3127" to-port="1" />
		<edge from-layer="3127" from-port="2" to-layer="3128" to-port="0" />
		<edge from-layer="3128" from-port="2" to-layer="3129" to-port="1" />
		<edge from-layer="3129" from-port="2" to-layer="3194" to-port="0" />
		<edge from-layer="3130" from-port="0" to-layer="3135" to-port="0" />
		<edge from-layer="3131" from-port="0" to-layer="3134" to-port="1" />
		<edge from-layer="3132" from-port="0" to-layer="3134" to-port="2" />
		<edge from-layer="3133" from-port="0" to-layer="3134" to-port="3" />
		<edge from-layer="3134" from-port="4" to-layer="3135" to-port="1" />
		<edge from-layer="3135" from-port="2" to-layer="3136" to-port="0" />
		<edge from-layer="3136" from-port="1" to-layer="3138" to-port="0" />
		<edge from-layer="3137" from-port="0" to-layer="3138" to-port="2" />
		<edge from-layer="3138" from-port="3" to-layer="3165" to-port="0" />
		<edge from-layer="3139" from-port="0" to-layer="3140" to-port="0" />
		<edge from-layer="3140" from-port="1" to-layer="3142" to-port="0" />
		<edge from-layer="3141" from-port="0" to-layer="3142" to-port="1" />
		<edge from-layer="3142" from-port="2" to-layer="3143" to-port="0" />
		<edge from-layer="3143" from-port="1" to-layer="3144" to-port="1" />
		<edge from-layer="3144" from-port="2" to-layer="3146" to-port="0" />
		<edge from-layer="3145" from-port="0" to-layer="3146" to-port="1" />
		<edge from-layer="3146" from-port="2" to-layer="3148" to-port="0" />
		<edge from-layer="3147" from-port="0" to-layer="3148" to-port="1" />
		<edge from-layer="3148" from-port="2" to-layer="3149" to-port="0" />
		<edge from-layer="3148" from-port="2" to-layer="3154" to-port="0" />
		<edge from-layer="3148" from-port="2" to-layer="3161" to-port="0" />
		<edge from-layer="3149" from-port="2" to-layer="3164" to-port="0" />
		<edge from-layer="3150" from-port="0" to-layer="3154" to-port="1" />
		<edge from-layer="3151" from-port="0" to-layer="3154" to-port="2" />
		<edge from-layer="3152" from-port="0" to-layer="3154" to-port="3" />
		<edge from-layer="3153" from-port="0" to-layer="3154" to-port="4" />
		<edge from-layer="3154" from-port="5" to-layer="3156" to-port="0" />
		<edge from-layer="3155" from-port="0" to-layer="3156" to-port="1" />
		<edge from-layer="3156" from-port="2" to-layer="3162" to-port="0" />
		<edge from-layer="3157" from-port="0" to-layer="3161" to-port="1" />
		<edge from-layer="3158" from-port="0" to-layer="3161" to-port="2" />
		<edge from-layer="3159" from-port="0" to-layer="3161" to-port="3" />
		<edge from-layer="3160" from-port="0" to-layer="3161" to-port="4" />
		<edge from-layer="3161" from-port="5" to-layer="3162" to-port="1" />
		<edge from-layer="3162" from-port="2" to-layer="3163" to-port="0" />
		<edge from-layer="3163" from-port="2" to-layer="3164" to-port="1" />
		<edge from-layer="3164" from-port="2" to-layer="3165" to-port="1" />
		<edge from-layer="3165" from-port="2" to-layer="3299" to-port="0" />
		<edge from-layer="3165" from-port="2" to-layer="3166" to-port="0" />
		<edge from-layer="3166" from-port="2" to-layer="3167" to-port="0" />
		<edge from-layer="3167" from-port="2" to-layer="3169" to-port="0" />
		<edge from-layer="3168" from-port="0" to-layer="3169" to-port="1" />
		<edge from-layer="3169" from-port="2" to-layer="3194" to-port="1" />
		<edge from-layer="3170" from-port="0" to-layer="3175" to-port="0" />
		<edge from-layer="3171" from-port="0" to-layer="3174" to-port="1" />
		<edge from-layer="3172" from-port="0" to-layer="3174" to-port="2" />
		<edge from-layer="3173" from-port="0" to-layer="3174" to-port="3" />
		<edge from-layer="3174" from-port="4" to-layer="3175" to-port="1" />
		<edge from-layer="3175" from-port="2" to-layer="3176" to-port="0" />
		<edge from-layer="3176" from-port="1" to-layer="3178" to-port="0" />
		<edge from-layer="3177" from-port="0" to-layer="3178" to-port="2" />
		<edge from-layer="3178" from-port="3" to-layer="3189" to-port="0" />
		<edge from-layer="3179" from-port="0" to-layer="3180" to-port="0" />
		<edge from-layer="3180" from-port="1" to-layer="3182" to-port="0" />
		<edge from-layer="3181" from-port="0" to-layer="3182" to-port="1" />
		<edge from-layer="3182" from-port="2" to-layer="3183" to-port="0" />
		<edge from-layer="3183" from-port="1" to-layer="3184" to-port="1" />
		<edge from-layer="3184" from-port="2" to-layer="3186" to-port="0" />
		<edge from-layer="3185" from-port="0" to-layer="3186" to-port="1" />
		<edge from-layer="3186" from-port="2" to-layer="3188" to-port="0" />
		<edge from-layer="3187" from-port="0" to-layer="3188" to-port="1" />
		<edge from-layer="3188" from-port="2" to-layer="3189" to-port="1" />
		<edge from-layer="3189" from-port="2" to-layer="3190" to-port="0" />
		<edge from-layer="3189" from-port="2" to-layer="3298" to-port="0" />
		<edge from-layer="3190" from-port="2" to-layer="3191" to-port="0" />
		<edge from-layer="3191" from-port="2" to-layer="3193" to-port="0" />
		<edge from-layer="3192" from-port="0" to-layer="3193" to-port="1" />
		<edge from-layer="3193" from-port="2" to-layer="3194" to-port="2" />
		<edge from-layer="3194" from-port="5" to-layer="3196" to-port="0" />
		<edge from-layer="3195" from-port="0" to-layer="3196" to-port="1" />
		<edge from-layer="3196" from-port="2" to-layer="3197" to-port="0" />
		<edge from-layer="3197" from-port="2" to-layer="3203" to-port="0" />
		<edge from-layer="3198" from-port="0" to-layer="3199" to-port="0" />
		<edge from-layer="3199" from-port="1" to-layer="3201" to-port="0" />
		<edge from-layer="3200" from-port="0" to-layer="3201" to-port="1" />
		<edge from-layer="3201" from-port="2" to-layer="3202" to-port="0" />
		<edge from-layer="3202" from-port="1" to-layer="3203" to-port="1" />
		<edge from-layer="3203" from-port="2" to-layer="3204" to-port="1" />
		<edge from-layer="3204" from-port="2" to-layer="3215" to-port="0" />
		<edge from-layer="3204" from-port="2" to-layer="3208" to-port="0" />
		<edge from-layer="3204" from-port="2" to-layer="3237" to-port="0" />
		<edge from-layer="3205" from-port="0" to-layer="3216" to-port="0" />
		<edge from-layer="3206" from-port="0" to-layer="3214" to-port="0" />
		<edge from-layer="3207" from-port="0" to-layer="3208" to-port="1" />
		<edge from-layer="3208" from-port="2" to-layer="3210" to-port="0" />
		<edge from-layer="3209" from-port="0" to-layer="3210" to-port="1" />
		<edge from-layer="3210" from-port="2" to-layer="3212" to-port="0" />
		<edge from-layer="3211" from-port="0" to-layer="3212" to-port="1" />
		<edge from-layer="3212" from-port="2" to-layer="3213" to-port="0" />
		<edge from-layer="3213" from-port="1" to-layer="3214" to-port="1" />
		<edge from-layer="3214" from-port="2" to-layer="3215" to-port="1" />
		<edge from-layer="3215" from-port="2" to-layer="3216" to-port="1" />
		<edge from-layer="3216" from-port="2" to-layer="3222" to-port="0" />
		<edge from-layer="3216" from-port="2" to-layer="3229" to-port="0" />
		<edge from-layer="3217" from-port="0" to-layer="3218" to-port="0" />
		<edge from-layer="3218" from-port="1" to-layer="3220" to-port="0" />
		<edge from-layer="3219" from-port="0" to-layer="3220" to-port="1" />
		<edge from-layer="3220" from-port="2" to-layer="3221" to-port="0" />
		<edge from-layer="3221" from-port="1" to-layer="3222" to-port="1" />
		<edge from-layer="3222" from-port="2" to-layer="3223" to-port="0" />
		<edge from-layer="3223" from-port="1" to-layer="3230" to-port="0" />
		<edge from-layer="3224" from-port="0" to-layer="3225" to-port="0" />
		<edge from-layer="3225" from-port="1" to-layer="3227" to-port="0" />
		<edge from-layer="3226" from-port="0" to-layer="3227" to-port="1" />
		<edge from-layer="3227" from-port="2" to-layer="3228" to-port="0" />
		<edge from-layer="3228" from-port="1" to-layer="3229" to-port="1" />
		<edge from-layer="3229" from-port="2" to-layer="3230" to-port="1" />
		<edge from-layer="3230" from-port="2" to-layer="3236" to-port="0" />
		<edge from-layer="3231" from-port="0" to-layer="3232" to-port="0" />
		<edge from-layer="3232" from-port="1" to-layer="3234" to-port="0" />
		<edge from-layer="3233" from-port="0" to-layer="3234" to-port="1" />
		<edge from-layer="3234" from-port="2" to-layer="3235" to-port="0" />
		<edge from-layer="3235" from-port="1" to-layer="3236" to-port="1" />
		<edge from-layer="3236" from-port="2" to-layer="3237" to-port="1" />
		<edge from-layer="3237" from-port="2" to-layer="3240" to-port="0" />
		<edge from-layer="3237" from-port="2" to-layer="3247" to-port="0" />
		<edge from-layer="3237" from-port="2" to-layer="3371" to-port="0" />
		<edge from-layer="3238" from-port="0" to-layer="3246" to-port="0" />
		<edge from-layer="3239" from-port="0" to-layer="3240" to-port="1" />
		<edge from-layer="3240" from-port="2" to-layer="3242" to-port="0" />
		<edge from-layer="3241" from-port="0" to-layer="3242" to-port="1" />
		<edge from-layer="3242" from-port="2" to-layer="3244" to-port="0" />
		<edge from-layer="3243" from-port="0" to-layer="3244" to-port="1" />
		<edge from-layer="3244" from-port="2" to-layer="3245" to-port="0" />
		<edge from-layer="3245" from-port="1" to-layer="3246" to-port="1" />
		<edge from-layer="3246" from-port="2" to-layer="3247" to-port="1" />
		<edge from-layer="3247" from-port="2" to-layer="3248" to-port="1" />
		<edge from-layer="3248" from-port="2" to-layer="3332" to-port="0" />
		<edge from-layer="3248" from-port="2" to-layer="3254" to-port="0" />
		<edge from-layer="3248" from-port="2" to-layer="3275" to-port="0" />
		<edge from-layer="3249" from-port="0" to-layer="3250" to-port="0" />
		<edge from-layer="3250" from-port="1" to-layer="3252" to-port="0" />
		<edge from-layer="3251" from-port="0" to-layer="3252" to-port="1" />
		<edge from-layer="3252" from-port="2" to-layer="3253" to-port="0" />
		<edge from-layer="3253" from-port="1" to-layer="3254" to-port="1" />
		<edge from-layer="3254" from-port="2" to-layer="3256" to-port="0" />
		<edge from-layer="3255" from-port="0" to-layer="3256" to-port="1" />
		<edge from-layer="3256" from-port="2" to-layer="3258" to-port="0" />
		<edge from-layer="3257" from-port="0" to-layer="3258" to-port="1" />
		<edge from-layer="3258" from-port="2" to-layer="3259" to-port="1" />
		<edge from-layer="3259" from-port="2" to-layer="3357" to-port="0" />
		<edge from-layer="3259" from-port="2" to-layer="3260" to-port="0" />
		<edge from-layer="3261" from-port="0" to-layer="3266" to-port="0" />
		<edge from-layer="3262" from-port="0" to-layer="3265" to-port="1" />
		<edge from-layer="3263" from-port="0" to-layer="3265" to-port="2" />
		<edge from-layer="3264" from-port="0" to-layer="3265" to-port="3" />
		<edge from-layer="3265" from-port="4" to-layer="3266" to-port="1" />
		<edge from-layer="3266" from-port="2" to-layer="3267" to-port="0" />
		<edge from-layer="3267" from-port="1" to-layer="3269" to-port="0" />
		<edge from-layer="3268" from-port="0" to-layer="3269" to-port="2" />
		<edge from-layer="3269" from-port="3" to-layer="3296" to-port="0" />
		<edge from-layer="3270" from-port="0" to-layer="3271" to-port="0" />
		<edge from-layer="3271" from-port="1" to-layer="3273" to-port="0" />
		<edge from-layer="3272" from-port="0" to-layer="3273" to-port="1" />
		<edge from-layer="3273" from-port="2" to-layer="3274" to-port="0" />
		<edge from-layer="3274" from-port="1" to-layer="3275" to-port="1" />
		<edge from-layer="3275" from-port="2" to-layer="3277" to-port="0" />
		<edge from-layer="3276" from-port="0" to-layer="3277" to-port="1" />
		<edge from-layer="3277" from-port="2" to-layer="3279" to-port="0" />
		<edge from-layer="3278" from-port="0" to-layer="3279" to-port="1" />
		<edge from-layer="3279" from-port="2" to-layer="3292" to-port="0" />
		<edge from-layer="3279" from-port="2" to-layer="3285" to-port="0" />
		<edge from-layer="3279" from-port="2" to-layer="3280" to-port="0" />
		<edge from-layer="3280" from-port="2" to-layer="3295" to-port="0" />
		<edge from-layer="3281" from-port="0" to-layer="3285" to-port="1" />
		<edge from-layer="3282" from-port="0" to-layer="3285" to-port="2" />
		<edge from-layer="3283" from-port="0" to-layer="3285" to-port="3" />
		<edge from-layer="3284" from-port="0" to-layer="3285" to-port="4" />
		<edge from-layer="3285" from-port="5" to-layer="3287" to-port="0" />
		<edge from-layer="3286" from-port="0" to-layer="3287" to-port="1" />
		<edge from-layer="3287" from-port="2" to-layer="3293" to-port="0" />
		<edge from-layer="3288" from-port="0" to-layer="3292" to-port="1" />
		<edge from-layer="3289" from-port="0" to-layer="3292" to-port="2" />
		<edge from-layer="3290" from-port="0" to-layer="3292" to-port="3" />
		<edge from-layer="3291" from-port="0" to-layer="3292" to-port="4" />
		<edge from-layer="3292" from-port="5" to-layer="3293" to-port="1" />
		<edge from-layer="3293" from-port="2" to-layer="3294" to-port="0" />
		<edge from-layer="3294" from-port="2" to-layer="3295" to-port="1" />
		<edge from-layer="3295" from-port="2" to-layer="3296" to-port="1" />
		<edge from-layer="3296" from-port="2" to-layer="3297" to-port="0" />
		<edge from-layer="3296" from-port="2" to-layer="3353" to-port="0" />
		<edge from-layer="3326" from-port="0" to-layer="3415" to-port="0" />
		<edge from-layer="3327" from-port="0" to-layer="3328" to-port="0" />
		<edge from-layer="3328" from-port="1" to-layer="3330" to-port="0" />
		<edge from-layer="3329" from-port="0" to-layer="3330" to-port="1" />
		<edge from-layer="3330" from-port="2" to-layer="3331" to-port="0" />
		<edge from-layer="3331" from-port="1" to-layer="3332" to-port="1" />
		<edge from-layer="3332" from-port="2" to-layer="3334" to-port="0" />
		<edge from-layer="3333" from-port="0" to-layer="3334" to-port="1" />
		<edge from-layer="3334" from-port="2" to-layer="3336" to-port="0" />
		<edge from-layer="3335" from-port="0" to-layer="3336" to-port="1" />
		<edge from-layer="3336" from-port="2" to-layer="3337" to-port="0" />
		<edge from-layer="3336" from-port="2" to-layer="3342" to-port="0" />
		<edge from-layer="3336" from-port="2" to-layer="3349" to-port="0" />
		<edge from-layer="3337" from-port="2" to-layer="3352" to-port="0" />
		<edge from-layer="3338" from-port="0" to-layer="3342" to-port="1" />
		<edge from-layer="3339" from-port="0" to-layer="3342" to-port="2" />
		<edge from-layer="3340" from-port="0" to-layer="3342" to-port="3" />
		<edge from-layer="3341" from-port="0" to-layer="3342" to-port="4" />
		<edge from-layer="3342" from-port="5" to-layer="3344" to-port="0" />
		<edge from-layer="3343" from-port="0" to-layer="3344" to-port="1" />
		<edge from-layer="3344" from-port="2" to-layer="3350" to-port="0" />
		<edge from-layer="3345" from-port="0" to-layer="3349" to-port="1" />
		<edge from-layer="3346" from-port="0" to-layer="3349" to-port="2" />
		<edge from-layer="3347" from-port="0" to-layer="3349" to-port="3" />
		<edge from-layer="3348" from-port="0" to-layer="3349" to-port="4" />
		<edge from-layer="3349" from-port="5" to-layer="3350" to-port="1" />
		<edge from-layer="3350" from-port="2" to-layer="3351" to-port="0" />
		<edge from-layer="3351" from-port="2" to-layer="3352" to-port="1" />
		<edge from-layer="3352" from-port="2" to-layer="3361" to-port="0" />
		<edge from-layer="3353" from-port="2" to-layer="3354" to-port="0" />
		<edge from-layer="3354" from-port="2" to-layer="3356" to-port="0" />
		<edge from-layer="3355" from-port="0" to-layer="3356" to-port="1" />
		<edge from-layer="3356" from-port="2" to-layer="3361" to-port="1" />
		<edge from-layer="3357" from-port="2" to-layer="3358" to-port="0" />
		<edge from-layer="3358" from-port="2" to-layer="3360" to-port="0" />
		<edge from-layer="3359" from-port="0" to-layer="3360" to-port="1" />
		<edge from-layer="3360" from-port="2" to-layer="3361" to-port="2" />
		<edge from-layer="3361" from-port="5" to-layer="3363" to-port="0" />
		<edge from-layer="3362" from-port="0" to-layer="3363" to-port="1" />
		<edge from-layer="3363" from-port="2" to-layer="3364" to-port="0" />
		<edge from-layer="3364" from-port="2" to-layer="3370" to-port="0" />
		<edge from-layer="3365" from-port="0" to-layer="3366" to-port="0" />
		<edge from-layer="3366" from-port="1" to-layer="3368" to-port="0" />
		<edge from-layer="3367" from-port="0" to-layer="3368" to-port="1" />
		<edge from-layer="3368" from-port="2" to-layer="3369" to-port="0" />
		<edge from-layer="3369" from-port="1" to-layer="3370" to-port="1" />
		<edge from-layer="3370" from-port="2" to-layer="3371" to-port="1" />
		<edge from-layer="3371" from-port="2" to-layer="3375" to-port="0" />
		<edge from-layer="3371" from-port="2" to-layer="3404" to-port="0" />
		<edge from-layer="3371" from-port="2" to-layer="3382" to-port="0" />
		<edge from-layer="3372" from-port="0" to-layer="3383" to-port="0" />
		<edge from-layer="3373" from-port="0" to-layer="3381" to-port="0" />
		<edge from-layer="3374" from-port="0" to-layer="3375" to-port="1" />
		<edge from-layer="3375" from-port="2" to-layer="3377" to-port="0" />
		<edge from-layer="3376" from-port="0" to-layer="3377" to-port="1" />
		<edge from-layer="3377" from-port="2" to-layer="3379" to-port="0" />
		<edge from-layer="3378" from-port="0" to-layer="3379" to-port="1" />
		<edge from-layer="3379" from-port="2" to-layer="3380" to-port="0" />
		<edge from-layer="3380" from-port="1" to-layer="3381" to-port="1" />
		<edge from-layer="3381" from-port="2" to-layer="3382" to-port="1" />
		<edge from-layer="3382" from-port="2" to-layer="3383" to-port="1" />
		<edge from-layer="3383" from-port="2" to-layer="3389" to-port="0" />
		<edge from-layer="3383" from-port="2" to-layer="3396" to-port="0" />
		<edge from-layer="3384" from-port="0" to-layer="3385" to-port="0" />
		<edge from-layer="3385" from-port="1" to-layer="3387" to-port="0" />
		<edge from-layer="3386" from-port="0" to-layer="3387" to-port="1" />
		<edge from-layer="3387" from-port="2" to-layer="3388" to-port="0" />
		<edge from-layer="3388" from-port="1" to-layer="3389" to-port="1" />
		<edge from-layer="3389" from-port="2" to-layer="3390" to-port="0" />
		<edge from-layer="3390" from-port="1" to-layer="3397" to-port="0" />
		<edge from-layer="3391" from-port="0" to-layer="3392" to-port="0" />
		<edge from-layer="3392" from-port="1" to-layer="3394" to-port="0" />
		<edge from-layer="3393" from-port="0" to-layer="3394" to-port="1" />
		<edge from-layer="3394" from-port="2" to-layer="3395" to-port="0" />
		<edge from-layer="3395" from-port="1" to-layer="3396" to-port="1" />
		<edge from-layer="3396" from-port="2" to-layer="3397" to-port="1" />
		<edge from-layer="3397" from-port="2" to-layer="3403" to-port="0" />
		<edge from-layer="3398" from-port="0" to-layer="3399" to-port="0" />
		<edge from-layer="3399" from-port="1" to-layer="3401" to-port="0" />
		<edge from-layer="3400" from-port="0" to-layer="3401" to-port="1" />
		<edge from-layer="3401" from-port="2" to-layer="3402" to-port="0" />
		<edge from-layer="3402" from-port="1" to-layer="3403" to-port="1" />
		<edge from-layer="3403" from-port="2" to-layer="3404" to-port="1" />
		<edge from-layer="3404" from-port="2" to-layer="3407" to-port="0" />
		<edge from-layer="3404" from-port="2" to-layer="3414" to-port="0" />
		<edge from-layer="3405" from-port="0" to-layer="3413" to-port="0" />
		<edge from-layer="3406" from-port="0" to-layer="3407" to-port="1" />
		<edge from-layer="3407" from-port="2" to-layer="3409" to-port="0" />
		<edge from-layer="3408" from-port="0" to-layer="3409" to-port="1" />
		<edge from-layer="3409" from-port="2" to-layer="3411" to-port="0" />
		<edge from-layer="3410" from-port="0" to-layer="3411" to-port="1" />
		<edge from-layer="3411" from-port="2" to-layer="3412" to-port="0" />
		<edge from-layer="3412" from-port="1" to-layer="3413" to-port="1" />
		<edge from-layer="3413" from-port="2" to-layer="3414" to-port="1" />
		<edge from-layer="3414" from-port="2" to-layer="3415" to-port="1" />
		<edge from-layer="3415" from-port="2" to-layer="3421" to-port="0" />
		<edge from-layer="3416" from-port="0" to-layer="3417" to-port="0" />
		<edge from-layer="3417" from-port="1" to-layer="3419" to-port="0" />
		<edge from-layer="3418" from-port="0" to-layer="3419" to-port="1" />
		<edge from-layer="3419" from-port="2" to-layer="3420" to-port="0" />
		<edge from-layer="3420" from-port="1" to-layer="3421" to-port="1" />
		<edge from-layer="3421" from-port="2" to-layer="3422" to-port="0" />
	</edges>
	<rt_info>
		<Runtime_version value="2025.1.0-18503-6fec06580ab-releases/2025/1" />
		<conversion_parameters>
			<framework value="pytorch" />
			<is_python_object value="True" />
		</conversion_parameters>
		<nncf>
			<friendly_names_were_updated value="True" />
			<weight_compression>
				<advanced_parameters value="{'statistics_path': None, 'awq_params': {'subset_size': 32, 'percent_to_apply': 0.002, 'alpha_min': 0.0, 'alpha_max': 1.0, 'steps': 100}, 'scale_estimation_params': {'subset_size': 64, 'initial_steps': 5, 'scale_steps': 5, 'weight_penalty': -1.0}, 'gptq_params': {'damp_percent': 0.1, 'block_size': 128, 'subset_size': 128}, 'lora_correction_params': {'adapter_rank': 8, 'num_iterations': 3, 'apply_regularization': True, 'subset_size': 128, 'use_int8_adapters': True}}" />
				<all_layers value="False" />
				<awq value="False" />
				<backup_mode value="int8_asym" />
				<gptq value="False" />
				<group_size value="-1" />
				<ignored_scope value="[]" />
				<lora_correction value="False" />
				<mode value="int8_sym" />
				<ratio value="1.0" />
				<scale_estimation value="False" />
				<sensitivity_metric value="weight_quantization_error" />
			</weight_compression>
		</nncf>
		<optimum>
			<optimum_intel_version value="1.22.0" />
			<optimum_version value="1.25.3" />
			<pytorch_version value="2.7.0" />
			<transformers_version value="4.48.3" />
		</optimum>
		<runtime_options>
			<ACTIVATIONS_SCALE_FACTOR value="8.0" />
		</runtime_options>
	</rt_info>
</net>
