<?xml version="1.0"?>
<net name="Model0" version="11">
	<layers>
		<layer id="3" name="input_ids" type="Parameter" version="opset1">
			<data shape="?,?" element_type="i64" />
			<output>
				<port id="0" precision="I64" names="input_ids">
					<dim>-1</dim>
					<dim>-1</dim>
				</port>
			</output>
		</layer>
		<layer id="2" name="attention_mask" type="Parameter" version="opset1">
			<data shape="?,?" element_type="i64" />
			<output>
				<port id="0" precision="I64" names="attention_mask">
					<dim>-1</dim>
					<dim>-1</dim>
				</port>
			</output>
		</layer>
		<layer id="1" name="position_ids" type="Parameter" version="opset1">
			<data shape="?,?" element_type="i64" />
			<output>
				<port id="0" precision="I64" names="position_ids">
					<dim>-1</dim>
					<dim>-1</dim>
				</port>
			</output>
		</layer>
		<layer id="0" name="beam_idx" type="Parameter" version="opset1">
			<data shape="?" element_type="i32" />
			<output>
				<port id="0" precision="I32" names="beam_idx">
					<dim>-1</dim>
				</port>
			</output>
		</layer>
		<layer id="4" name="Constant_64404" type="Const" version="opset1">
			<data element_type="f32" shape="" offset="0" size="4" />
			<output>
				<port id="0" precision="FP32" />
			</output>
		</layer>
		<layer id="5" name="ShapeOf_64390" type="ShapeOf" version="opset3">
			<data output_type="i64" />
			<input>
				<port id="0" precision="I64">
					<dim>-1</dim>
					<dim>-1</dim>
				</port>
			</input>
			<output>
				<port id="1" precision="I64">
					<dim>2</dim>
				</port>
			</output>
		</layer>
		<layer id="6" name="Constant_64392" type="Const" version="opset1">
			<data element_type="i32" shape="1" offset="0" size="4" />
			<output>
				<port id="0" precision="I32">
					<dim>1</dim>
				</port>
			</output>
		</layer>
		<layer id="7" name="Constant_64394" type="Const" version="opset1">
			<data element_type="i32" shape="" offset="0" size="4" />
			<output>
				<port id="0" precision="I32" />
			</output>
		</layer>
		<layer id="8" name="Gather_64395" type="Gather" version="opset8">
			<data batch_dims="0" />
			<input>
				<port id="0" precision="I64">
					<dim>2</dim>
				</port>
				<port id="1" precision="I32">
					<dim>1</dim>
				</port>
				<port id="2" precision="I32" />
			</input>
			<output>
				<port id="3" precision="I64">
					<dim>1</dim>
				</port>
			</output>
		</layer>
		<layer id="9" name="Constant_64397" type="Const" version="opset1">
			<data element_type="i64" shape="1" offset="4" size="8" />
			<output>
				<port id="0" precision="I64">
					<dim>1</dim>
				</port>
			</output>
		</layer>
		<layer id="10" name="Constant_64399" type="Const" version="opset1">
			<data element_type="i64" shape="1" offset="12" size="8" />
			<output>
				<port id="0" precision="I64">
					<dim>1</dim>
				</port>
			</output>
		</layer>
		<layer id="11" name="Constant_64401" type="Const" version="opset1">
			<data element_type="i64" shape="1" offset="20" size="8" />
			<output>
				<port id="0" precision="I64">
					<dim>1</dim>
				</port>
			</output>
		</layer>
		<layer id="12" name="Concat_64402" type="Concat" version="opset1">
			<data axis="0" />
			<input>
				<port id="0" precision="I64">
					<dim>1</dim>
				</port>
				<port id="1" precision="I64">
					<dim>1</dim>
				</port>
				<port id="2" precision="I64">
					<dim>1</dim>
				</port>
				<port id="3" precision="I64">
					<dim>1</dim>
				</port>
			</input>
			<output>
				<port id="4" precision="I64">
					<dim>4</dim>
				</port>
			</output>
		</layer>
		<layer id="13" name="Broadcast_64405" type="Broadcast" version="opset3">
			<data mode="numpy" />
			<input>
				<port id="0" precision="FP32" />
				<port id="1" precision="I64">
					<dim>4</dim>
				</port>
			</input>
			<output>
				<port id="2" precision="FP32">
					<dim>-1</dim>
					<dim>4</dim>
					<dim>0</dim>
					<dim>64</dim>
				</port>
			</output>
		</layer>
		<layer id="14" name="ReadValue_61262" type="ReadValue" version="opset6">
			<data variable_id="past_key_values.9.valuepresent.9.value" variable_type="f32" variable_shape="?,4,?,64" />
			<input>
				<port id="0" precision="FP32">
					<dim>-1</dim>
					<dim>4</dim>
					<dim>0</dim>
					<dim>64</dim>
				</port>
			</input>
			<output>
				<port id="1" precision="FP32" names="past_key_values.9.value">
					<dim>-1</dim>
					<dim>4</dim>
					<dim>-1</dim>
					<dim>64</dim>
				</port>
			</output>
		</layer>
		<layer id="15" name="Constant_57976" type="Const" version="opset1">
			<data element_type="i32" shape="" offset="0" size="4" />
			<output>
				<port id="0" precision="I32" />
			</output>
		</layer>
		<layer id="16" name="Gather_57977" type="Gather" version="opset8">
			<data batch_dims="0" />
			<input>
				<port id="0" precision="FP32">
					<dim>-1</dim>
					<dim>4</dim>
					<dim>-1</dim>
					<dim>64</dim>
				</port>
				<port id="1" precision="I32">
					<dim>-1</dim>
				</port>
				<port id="2" precision="I32" />
			</input>
			<output>
				<port id="3" precision="FP32">
					<dim>-1</dim>
					<dim>4</dim>
					<dim>-1</dim>
					<dim>64</dim>
				</port>
			</output>
		</layer>
		<layer id="17" name="Constant_38721" type="Const" version="opset1">
			<data element_type="f32" shape="1, 1, 2048" offset="28" size="8192" />
			<output>
				<port id="0" precision="FP32">
					<dim>1</dim>
					<dim>1</dim>
					<dim>2048</dim>
				</port>
			</output>
		</layer>
		<layer id="18" name="self.model.embed_tokens.weight" type="Const" version="opset1">
			<data element_type="u8" shape="32000, 2048" offset="8220" size="65536000" />
			<output>
				<port id="0" precision="U8">
					<dim>32000</dim>
					<dim>2048</dim>
				</port>
			</output>
		</layer>
		<layer id="19" name="Convert_85423" type="Convert" version="opset1">
			<data destination_type="f16" />
			<input>
				<port id="0" precision="U8">
					<dim>32000</dim>
					<dim>2048</dim>
				</port>
			</input>
			<output>
				<port id="1" precision="FP16">
					<dim>32000</dim>
					<dim>2048</dim>
				</port>
			</output>
		</layer>
		<layer id="20" name="self.model.embed_tokens.weight/zero_point" type="Const" version="opset1">
			<data element_type="u8" shape="32000, 1" offset="65544220" size="32000" />
			<output>
				<port id="0" precision="U8">
					<dim>32000</dim>
					<dim>1</dim>
				</port>
			</output>
		</layer>
		<layer id="21" name="Convert_85426" type="Convert" version="opset1">
			<data destination_type="f16" />
			<input>
				<port id="0" precision="U8">
					<dim>32000</dim>
					<dim>1</dim>
				</port>
			</input>
			<output>
				<port id="1" precision="FP16">
					<dim>32000</dim>
					<dim>1</dim>
				</port>
			</output>
		</layer>
		<layer id="22" name="self.model.embed_tokens.weight/zero_point/subtract" type="Subtract" version="opset1">
			<data auto_broadcast="numpy" />
			<input>
				<port id="0" precision="FP16">
					<dim>32000</dim>
					<dim>2048</dim>
				</port>
				<port id="1" precision="FP16">
					<dim>32000</dim>
					<dim>1</dim>
				</port>
			</input>
			<output>
				<port id="2" precision="FP16">
					<dim>32000</dim>
					<dim>2048</dim>
				</port>
			</output>
		</layer>
		<layer id="23" name="self.model.embed_tokens.weight/scale" type="Const" version="opset1">
			<data element_type="f16" shape="32000, 1" offset="65576220" size="64000" />
			<output>
				<port id="0" precision="FP16">
					<dim>32000</dim>
					<dim>1</dim>
				</port>
			</output>
		</layer>
		<layer id="24" name="self.model.embed_tokens.weight/fq_weights_0" type="Multiply" version="opset1">
			<data auto_broadcast="numpy" />
			<input>
				<port id="0" precision="FP16">
					<dim>32000</dim>
					<dim>2048</dim>
				</port>
				<port id="1" precision="FP16">
					<dim>32000</dim>
					<dim>1</dim>
				</port>
			</input>
			<output>
				<port id="2" precision="FP16">
					<dim>32000</dim>
					<dim>2048</dim>
				</port>
			</output>
		</layer>
		<layer id="25" name="__module.model.embed_tokens/ov_ext::embedding/Convert" type="Convert" version="opset1">
			<data destination_type="f32" />
			<rt_info>
				<attribute name="decompression" version="0" />
			</rt_info>
			<input>
				<port id="0" precision="FP16">
					<dim>32000</dim>
					<dim>2048</dim>
				</port>
			</input>
			<output>
				<port id="1" precision="FP32">
					<dim>32000</dim>
					<dim>2048</dim>
				</port>
			</output>
		</layer>
		<layer id="26" name="__module.model.embed_tokens/ov_ext::embedding/Convert_1" type="Convert" version="opset1">
			<data destination_type="i32" />
			<input>
				<port id="0" precision="I64">
					<dim>-1</dim>
					<dim>-1</dim>
				</port>
			</input>
			<output>
				<port id="1" precision="I32">
					<dim>-1</dim>
					<dim>-1</dim>
				</port>
			</output>
		</layer>
		<layer id="27" name="__module.model.embed_tokens/ov_ext::embedding/Constant" type="Const" version="opset1">
			<data element_type="i32" shape="" offset="0" size="4" />
			<output>
				<port id="0" precision="I32" />
			</output>
		</layer>
		<layer id="28" name="__module.model.embed_tokens/ov_ext::embedding/Gather" type="Gather" version="opset8">
			<data batch_dims="0" />
			<input>
				<port id="0" precision="FP32">
					<dim>32000</dim>
					<dim>2048</dim>
				</port>
				<port id="1" precision="I32">
					<dim>-1</dim>
					<dim>-1</dim>
				</port>
				<port id="2" precision="I32" />
			</input>
			<output>
				<port id="3" precision="FP32" names="221,304,315,hidden_states.1,inputs_embeds">
					<dim>-1</dim>
					<dim>-1</dim>
					<dim>2048</dim>
				</port>
			</output>
		</layer>
		<layer id="29" name="Constant_38630" type="Const" version="opset1">
			<data element_type="f32" shape="1, 1, 2048" offset="65640220" size="8192" />
			<output>
				<port id="0" precision="FP32">
					<dim>1</dim>
					<dim>1</dim>
					<dim>2048</dim>
				</port>
			</output>
		</layer>
		<layer id="30" name="Constant_38629" type="Const" version="opset1">
			<data element_type="f32" shape="1, 1, 1" offset="65648412" size="4" />
			<output>
				<port id="0" precision="FP32">
					<dim>1</dim>
					<dim>1</dim>
					<dim>1</dim>
				</port>
			</output>
		</layer>
		<layer id="31" name="Constant_38627" type="Const" version="opset1">
			<data element_type="f32" shape="1, 1, 1" offset="65648416" size="4" />
			<output>
				<port id="0" precision="FP32">
					<dim>1</dim>
					<dim>1</dim>
					<dim>1</dim>
				</port>
			</output>
		</layer>
		<layer id="32" name="__module.model.layers.0.input_layernorm/aten::pow/Power" type="Power" version="opset1">
			<data auto_broadcast="numpy" />
			<input>
				<port id="0" precision="FP32">
					<dim>-1</dim>
					<dim>-1</dim>
					<dim>2048</dim>
				</port>
				<port id="1" precision="FP32">
					<dim>1</dim>
					<dim>1</dim>
					<dim>1</dim>
				</port>
			</input>
			<output>
				<port id="2" precision="FP32" names="305">
					<dim>-1</dim>
					<dim>-1</dim>
					<dim>2048</dim>
				</port>
			</output>
		</layer>
		<layer id="33" name="Constant_641" type="Const" version="opset1">
			<data element_type="i64" shape="1" offset="65648420" size="8" />
			<output>
				<port id="0" precision="I64" names="306">
					<dim>1</dim>
				</port>
			</output>
		</layer>
		<layer id="34" name="__module.model.layers.0.input_layernorm/aten::mean/ReduceMean" type="ReduceMean" version="opset1">
			<data keep_dims="true" />
			<input>
				<port id="0" precision="FP32">
					<dim>-1</dim>
					<dim>-1</dim>
					<dim>2048</dim>
				</port>
				<port id="1" precision="I64">
					<dim>1</dim>
				</port>
			</input>
			<output>
				<port id="2" precision="FP32" names="307,variance.1">
					<dim>-1</dim>
					<dim>-1</dim>
					<dim>1</dim>
				</port>
			</output>
		</layer>
		<layer id="35" name="Constant_38628" type="Const" version="opset1">
			<data element_type="f32" shape="1, 1, 1" offset="65648428" size="4" />
			<output>
				<port id="0" precision="FP32">
					<dim>1</dim>
					<dim>1</dim>
					<dim>1</dim>
				</port>
			</output>
		</layer>
		<layer id="36" name="__module.model.layers.0.input_layernorm/aten::add/Add" type="Add" version="opset1">
			<data auto_broadcast="numpy" />
			<input>
				<port id="0" precision="FP32">
					<dim>-1</dim>
					<dim>-1</dim>
					<dim>1</dim>
				</port>
				<port id="1" precision="FP32">
					<dim>1</dim>
					<dim>1</dim>
					<dim>1</dim>
				</port>
			</input>
			<output>
				<port id="2" precision="FP32" names="308">
					<dim>-1</dim>
					<dim>-1</dim>
					<dim>1</dim>
				</port>
			</output>
		</layer>
		<layer id="37" name="__module.model.layers.0.input_layernorm/aten::rsqrt/Sqrt" type="Sqrt" version="opset1">
			<input>
				<port id="0" precision="FP32">
					<dim>-1</dim>
					<dim>-1</dim>
					<dim>1</dim>
				</port>
			</input>
			<output>
				<port id="1" precision="FP32">
					<dim>-1</dim>
					<dim>-1</dim>
					<dim>1</dim>
				</port>
			</output>
		</layer>
		<layer id="38" name="__module.model.layers.0.input_layernorm/aten::rsqrt/Divide" type="Divide" version="opset1">
			<data auto_broadcast="numpy" m_pythondiv="true" />
			<input>
				<port id="0" precision="FP32">
					<dim>1</dim>
					<dim>1</dim>
					<dim>1</dim>
				</port>
				<port id="1" precision="FP32">
					<dim>-1</dim>
					<dim>-1</dim>
					<dim>1</dim>
				</port>
			</input>
			<output>
				<port id="2" precision="FP32" names="309">
					<dim>-1</dim>
					<dim>-1</dim>
					<dim>1</dim>
				</port>
			</output>
		</layer>
		<layer id="39" name="__module.model.layers.0.input_layernorm/aten::mul/Multiply" type="Multiply" version="opset1">
			<data auto_broadcast="numpy" />
			<input>
				<port id="0" precision="FP32">
					<dim>-1</dim>
					<dim>-1</dim>
					<dim>2048</dim>
				</port>
				<port id="1" precision="FP32">
					<dim>-1</dim>
					<dim>-1</dim>
					<dim>1</dim>
				</port>
			</input>
			<output>
				<port id="2" precision="FP32" names="310,311,hidden_states.3,hidden_states.5">
					<dim>-1</dim>
					<dim>-1</dim>
					<dim>2048</dim>
				</port>
			</output>
		</layer>
		<layer id="40" name="__module.model.layers.0.input_layernorm/aten::mul/Multiply_1" type="Multiply" version="opset1">
			<data auto_broadcast="numpy" />
			<input>
				<port id="0" precision="FP32">
					<dim>1</dim>
					<dim>1</dim>
					<dim>2048</dim>
				</port>
				<port id="1" precision="FP32">
					<dim>-1</dim>
					<dim>-1</dim>
					<dim>2048</dim>
				</port>
			</input>
			<output>
				<port id="2" precision="FP32" names="312,314,hidden_states.7">
					<dim>-1</dim>
					<dim>-1</dim>
					<dim>2048</dim>
				</port>
			</output>
		</layer>
		<layer id="41" name="self.model.layers.0.self_attn.q_proj.weight" type="Const" version="opset1">
			<data element_type="i4" shape="2048, 16, 128" offset="65648432" size="2097152" />
			<output>
				<port id="0" precision="I4">
					<dim>2048</dim>
					<dim>16</dim>
					<dim>128</dim>
				</port>
			</output>
		</layer>
		<layer id="42" name="Convert_85904" type="Convert" version="opset1">
			<data destination_type="f16" />
			<input>
				<port id="0" precision="I4">
					<dim>2048</dim>
					<dim>16</dim>
					<dim>128</dim>
				</port>
			</input>
			<output>
				<port id="1" precision="FP16">
					<dim>2048</dim>
					<dim>16</dim>
					<dim>128</dim>
				</port>
			</output>
		</layer>
		<layer id="43" name="self.model.layers.0.self_attn.q_proj.weight/scale" type="Const" version="opset1">
			<data element_type="f16" shape="2048, 16, 1" offset="67745584" size="65536" />
			<output>
				<port id="0" precision="FP16">
					<dim>2048</dim>
					<dim>16</dim>
					<dim>1</dim>
				</port>
			</output>
		</layer>
		<layer id="44" name="self.model.layers.0.self_attn.q_proj.weight/fq_weights_1" type="Multiply" version="opset1">
			<data auto_broadcast="numpy" />
			<input>
				<port id="0" precision="FP16">
					<dim>2048</dim>
					<dim>16</dim>
					<dim>128</dim>
				</port>
				<port id="1" precision="FP16">
					<dim>2048</dim>
					<dim>16</dim>
					<dim>1</dim>
				</port>
			</input>
			<output>
				<port id="2" precision="FP16">
					<dim>2048</dim>
					<dim>16</dim>
					<dim>128</dim>
				</port>
			</output>
		</layer>
		<layer id="45" name="Constant_85908" type="Const" version="opset1">
			<data element_type="i32" shape="2" offset="67811120" size="8" />
			<output>
				<port id="0" precision="I32">
					<dim>2</dim>
				</port>
			</output>
		</layer>
		<layer id="46" name="Reshape_85909" type="Reshape" version="opset1">
			<data special_zero="false" />
			<input>
				<port id="0" precision="FP16">
					<dim>2048</dim>
					<dim>16</dim>
					<dim>128</dim>
				</port>
				<port id="1" precision="I32">
					<dim>2</dim>
				</port>
			</input>
			<output>
				<port id="2" precision="FP16">
					<dim>2048</dim>
					<dim>2048</dim>
				</port>
			</output>
		</layer>
		<layer id="47" name="__module.model.layers.0.self_attn.q_proj/ov_ext::linear/ConvertLike" type="Convert" version="opset1">
			<data destination_type="f32" />
			<rt_info>
				<attribute name="decompression" version="0" />
			</rt_info>
			<input>
				<port id="0" precision="FP16">
					<dim>2048</dim>
					<dim>2048</dim>
				</port>
			</input>
			<output>
				<port id="1" precision="FP32">
					<dim>2048</dim>
					<dim>2048</dim>
				</port>
			</output>
		</layer>
		<layer id="48" name="__module.model.layers.0.self_attn.q_proj/ov_ext::linear/MatMul" type="MatMul" version="opset1">
			<data transpose_a="false" transpose_b="true" />
			<input>
				<port id="0" precision="FP32">
					<dim>-1</dim>
					<dim>-1</dim>
					<dim>2048</dim>
				</port>
				<port id="1" precision="FP32">
					<dim>2048</dim>
					<dim>2048</dim>
				</port>
			</input>
			<output>
				<port id="2" precision="FP32" names="323,query_states.1">
					<dim>-1</dim>
					<dim>-1</dim>
					<dim>2048</dim>
				</port>
			</output>
		</layer>
		<layer id="49" name="Constant_45185" type="Const" version="opset1">
			<data element_type="i64" shape="4" offset="67811128" size="32" />
			<output>
				<port id="0" precision="I64">
					<dim>4</dim>
				</port>
			</output>
		</layer>
		<layer id="50" name="__module.model.layers.0.self_attn/aten::view/Reshape" type="Reshape" version="opset1">
			<data special_zero="true" />
			<input>
				<port id="0" precision="FP32">
					<dim>-1</dim>
					<dim>-1</dim>
					<dim>2048</dim>
				</port>
				<port id="1" precision="I64">
					<dim>4</dim>
				</port>
			</input>
			<output>
				<port id="2" precision="FP32" names="329">
					<dim>-1</dim>
					<dim>-1</dim>
					<dim>32</dim>
					<dim>64</dim>
				</port>
			</output>
		</layer>
		<layer id="51" name="__module.model.layers.0.self_attn/aten::transpose/Constant" type="Const" version="opset1">
			<data element_type="i32" shape="4" offset="67811160" size="16" />
			<output>
				<port id="0" precision="I32">
					<dim>4</dim>
				</port>
			</output>
		</layer>
		<layer id="52" name="__module.model.layers.0.self_attn/aten::transpose/Transpose" type="Transpose" version="opset1">
			<input>
				<port id="0" precision="FP32">
					<dim>-1</dim>
					<dim>-1</dim>
					<dim>32</dim>
					<dim>64</dim>
				</port>
				<port id="1" precision="I32">
					<dim>4</dim>
				</port>
			</input>
			<output>
				<port id="2" precision="FP32" names="330,q.1">
					<dim>-1</dim>
					<dim>32</dim>
					<dim>-1</dim>
					<dim>64</dim>
				</port>
			</output>
		</layer>
		<layer id="53" name="__module.model.rotary_emb/aten::unsqueeze/Unsqueeze_1" type="Const" version="opset1">
			<data element_type="f32" shape="1, 32, 1" offset="67811176" size="128" />
			<output>
				<port id="0" precision="FP32" names="275,276">
					<dim>1</dim>
					<dim>32</dim>
					<dim>1</dim>
				</port>
			</output>
		</layer>
		<layer id="54" name="ShapeOf_40047" type="ShapeOf" version="opset3">
			<data output_type="i64" />
			<input>
				<port id="0" precision="I64">
					<dim>-1</dim>
					<dim>-1</dim>
				</port>
			</input>
			<output>
				<port id="1" precision="I64">
					<dim>2</dim>
				</port>
			</output>
		</layer>
		<layer id="55" name="Constant_40048" type="Const" version="opset1">
			<data element_type="i64" shape="1" offset="12" size="8" />
			<output>
				<port id="0" precision="I64">
					<dim>1</dim>
				</port>
			</output>
		</layer>
		<layer id="56" name="Constant_40049" type="Const" version="opset1">
			<data element_type="i64" shape="" offset="12" size="8" />
			<output>
				<port id="0" precision="I64" />
			</output>
		</layer>
		<layer id="57" name="Gather_40050" type="Gather" version="opset8">
			<data batch_dims="0" />
			<input>
				<port id="0" precision="I64">
					<dim>2</dim>
				</port>
				<port id="1" precision="I64">
					<dim>1</dim>
				</port>
				<port id="2" precision="I64" />
			</input>
			<output>
				<port id="3" precision="I64" names="277">
					<dim>1</dim>
				</port>
			</output>
		</layer>
		<layer id="58" name="Constant_33658" type="Const" version="opset1">
			<data element_type="i64" shape="1" offset="67811304" size="8" />
			<output>
				<port id="0" precision="I64">
					<dim>1</dim>
				</port>
			</output>
		</layer>
		<layer id="59" name="Constant_33660" type="Const" version="opset1">
			<data element_type="i64" shape="1" offset="67811304" size="8" />
			<output>
				<port id="0" precision="I64">
					<dim>1</dim>
				</port>
			</output>
		</layer>
		<layer id="60" name="__module.model.rotary_emb/prim::ListConstruct" type="Concat" version="opset1">
			<data axis="0" />
			<input>
				<port id="0" precision="I64">
					<dim>1</dim>
				</port>
				<port id="1" precision="I64">
					<dim>1</dim>
				</port>
				<port id="2" precision="I64">
					<dim>1</dim>
				</port>
			</input>
			<output>
				<port id="3" precision="I64">
					<dim>3</dim>
				</port>
			</output>
		</layer>
		<layer id="61" name="__module.model.rotary_emb/aten::expand/Broadcast" type="Broadcast" version="opset3">
			<data mode="bidirectional" />
			<input>
				<port id="0" precision="FP32">
					<dim>1</dim>
					<dim>32</dim>
					<dim>1</dim>
				</port>
				<port id="1" precision="I64">
					<dim>3</dim>
				</port>
			</input>
			<output>
				<port id="2" precision="FP32" names="279,284,inv_freq_expanded,inv_freq_expanded.1">
					<dim>-1</dim>
					<dim>32</dim>
					<dim>1</dim>
				</port>
			</output>
		</layer>
		<layer id="62" name="170" type="Const" version="opset1">
			<data element_type="i64" shape="" offset="67811304" size="8" />
			<output>
				<port id="0" precision="I64" names="170" />
			</output>
		</layer>
		<layer id="63" name="__module.model.rotary_emb/aten::unsqueeze/Unsqueeze_2" type="Unsqueeze" version="opset1">
			<input>
				<port id="0" precision="I64">
					<dim>-1</dim>
					<dim>-1</dim>
				</port>
				<port id="1" precision="I64" />
			</input>
			<output>
				<port id="2" precision="I64" names="281,282">
					<dim>-1</dim>
					<dim>1</dim>
					<dim>-1</dim>
				</port>
			</output>
		</layer>
		<layer id="64" name="__module.model.rotary_emb/aten::to/Convert_2" type="Convert" version="opset1">
			<data destination_type="f32" />
			<input>
				<port id="0" precision="I64">
					<dim>-1</dim>
					<dim>1</dim>
					<dim>-1</dim>
				</port>
			</input>
			<output>
				<port id="1" precision="FP32" names="283,285,position_ids_expanded,position_ids_expanded.1">
					<dim>-1</dim>
					<dim>1</dim>
					<dim>-1</dim>
				</port>
			</output>
		</layer>
		<layer id="65" name="__module.model.rotary_emb/aten::matmul/MatMul" type="MatMul" version="opset1">
			<data transpose_a="false" transpose_b="false" />
			<input>
				<port id="0" precision="FP32">
					<dim>-1</dim>
					<dim>32</dim>
					<dim>1</dim>
				</port>
				<port id="1" precision="FP32">
					<dim>-1</dim>
					<dim>1</dim>
					<dim>-1</dim>
				</port>
			</input>
			<output>
				<port id="2" precision="FP32" names="286">
					<dim>-1</dim>
					<dim>32</dim>
					<dim>-1</dim>
				</port>
			</output>
		</layer>
		<layer id="66" name="__module.model.rotary_emb/aten::transpose/Constant" type="Const" version="opset1">
			<data element_type="i32" shape="3" offset="67811312" size="12" />
			<output>
				<port id="0" precision="I32">
					<dim>3</dim>
				</port>
			</output>
		</layer>
		<layer id="67" name="__module.model.rotary_emb/aten::transpose/Transpose" type="Transpose" version="opset1">
			<input>
				<port id="0" precision="FP32">
					<dim>-1</dim>
					<dim>32</dim>
					<dim>-1</dim>
				</port>
				<port id="1" precision="I32">
					<dim>3</dim>
				</port>
			</input>
			<output>
				<port id="2" precision="FP32" names="287">
					<dim>-1</dim>
					<dim>-1</dim>
					<dim>32</dim>
				</port>
			</output>
		</layer>
		<layer id="68" name="__module.model.rotary_emb/aten::cat/Concat" type="Concat" version="opset1">
			<data axis="-1" />
			<input>
				<port id="0" precision="FP32">
					<dim>-1</dim>
					<dim>-1</dim>
					<dim>32</dim>
				</port>
				<port id="1" precision="FP32">
					<dim>-1</dim>
					<dim>-1</dim>
					<dim>32</dim>
				</port>
			</input>
			<output>
				<port id="2" precision="FP32" names="289,emb">
					<dim>-1</dim>
					<dim>-1</dim>
					<dim>64</dim>
				</port>
			</output>
		</layer>
		<layer id="69" name="__module.model.rotary_emb/aten::cos/Cos" type="Cos" version="opset1">
			<input>
				<port id="0" precision="FP32">
					<dim>-1</dim>
					<dim>-1</dim>
					<dim>64</dim>
				</port>
			</input>
			<output>
				<port id="1" precision="FP32" names="290,292,294,297,cos.1,cos.3,cos.5">
					<dim>-1</dim>
					<dim>-1</dim>
					<dim>64</dim>
				</port>
			</output>
		</layer>
		<layer id="70" name="__module.model.layers.0.self_attn/aten::unsqueeze/Unsqueeze" type="Unsqueeze" version="opset1">
			<input>
				<port id="0" precision="FP32">
					<dim>-1</dim>
					<dim>-1</dim>
					<dim>64</dim>
				</port>
				<port id="1" precision="I64" />
			</input>
			<output>
				<port id="2" precision="FP32" names="1110,1264,1418,1572,1726,1880,2034,2188,2342,2496,2650,2804,2958,3112,3266,337,3420,3574,494,648,802,956,cos,cos.11,cos.13,cos.15,cos.17,cos.19,cos.21,cos.23,cos.25,cos.27,cos.29,cos.31,cos.33,cos.35,cos.37,cos.39,cos.41,cos.43,cos.45,cos.47,cos.7,cos.9">
					<dim>-1</dim>
					<dim>1</dim>
					<dim>-1</dim>
					<dim>64</dim>
				</port>
			</output>
		</layer>
		<layer id="71" name="__module.model.layers.0.self_attn/aten::mul/Multiply" type="Multiply" version="opset1">
			<data auto_broadcast="numpy" />
			<input>
				<port id="0" precision="FP32">
					<dim>-1</dim>
					<dim>32</dim>
					<dim>-1</dim>
					<dim>64</dim>
				</port>
				<port id="1" precision="FP32">
					<dim>-1</dim>
					<dim>1</dim>
					<dim>-1</dim>
					<dim>64</dim>
				</port>
			</input>
			<output>
				<port id="2" precision="FP32" names="339">
					<dim>-1</dim>
					<dim>32</dim>
					<dim>-1</dim>
					<dim>64</dim>
				</port>
			</output>
		</layer>
		<layer id="72" name="Constant_1038" type="Const" version="opset1">
			<data element_type="i64" shape="1" offset="67811324" size="8" />
			<output>
				<port id="0" precision="I64">
					<dim>1</dim>
				</port>
			</output>
		</layer>
		<layer id="73" name="Constant_1040" type="Const" version="opset1">
			<data element_type="i64" shape="1" offset="67811332" size="8" />
			<output>
				<port id="0" precision="I64">
					<dim>1</dim>
				</port>
			</output>
		</layer>
		<layer id="74" name="Constant_1042" type="Const" version="opset1">
			<data element_type="i64" shape="1" offset="67811304" size="8" />
			<output>
				<port id="0" precision="I64">
					<dim>1</dim>
				</port>
			</output>
		</layer>
		<layer id="75" name="__module.model.layers.0.self_attn/aten::slice/Reshape" type="Const" version="opset1">
			<data element_type="i64" shape="1" offset="67811340" size="8" />
			<output>
				<port id="0" precision="I64">
					<dim>1</dim>
				</port>
			</output>
		</layer>
		<layer id="76" name="__module.model.layers.0.self_attn/aten::slice/Slice" type="Slice" version="opset8">
			<input>
				<port id="0" precision="FP32">
					<dim>-1</dim>
					<dim>32</dim>
					<dim>-1</dim>
					<dim>64</dim>
				</port>
				<port id="1" precision="I64">
					<dim>1</dim>
				</port>
				<port id="2" precision="I64">
					<dim>1</dim>
				</port>
				<port id="3" precision="I64">
					<dim>1</dim>
				</port>
				<port id="4" precision="I64">
					<dim>1</dim>
				</port>
			</input>
			<output>
				<port id="5" precision="FP32" names="349,x2.1">
					<dim>-1</dim>
					<dim>32</dim>
					<dim>-1</dim>
					<dim>32</dim>
				</port>
			</output>
		</layer>
		<layer id="77" name="Constant_38631" type="Const" version="opset1">
			<data element_type="f32" shape="1, 1, 1, 1" offset="67811348" size="4" />
			<output>
				<port id="0" precision="FP32">
					<dim>1</dim>
					<dim>1</dim>
					<dim>1</dim>
					<dim>1</dim>
				</port>
			</output>
		</layer>
		<layer id="78" name="__module.model.layers.0.self_attn/aten::neg/Multiply" type="Multiply" version="opset1">
			<data auto_broadcast="numpy" />
			<input>
				<port id="0" precision="FP32">
					<dim>-1</dim>
					<dim>32</dim>
					<dim>-1</dim>
					<dim>32</dim>
				</port>
				<port id="1" precision="FP32">
					<dim>1</dim>
					<dim>1</dim>
					<dim>1</dim>
					<dim>1</dim>
				</port>
			</input>
			<output>
				<port id="2" precision="FP32" names="350">
					<dim>-1</dim>
					<dim>32</dim>
					<dim>-1</dim>
					<dim>32</dim>
				</port>
			</output>
		</layer>
		<layer id="79" name="Constant_935" type="Const" version="opset1">
			<data element_type="i64" shape="1" offset="12" size="8" />
			<output>
				<port id="0" precision="I64">
					<dim>1</dim>
				</port>
			</output>
		</layer>
		<layer id="80" name="Constant_979" type="Const" version="opset1">
			<data element_type="i64" shape="1" offset="67811324" size="8" />
			<output>
				<port id="0" precision="I64">
					<dim>1</dim>
				</port>
			</output>
		</layer>
		<layer id="81" name="Constant_981" type="Const" version="opset1">
			<data element_type="i64" shape="1" offset="67811304" size="8" />
			<output>
				<port id="0" precision="I64">
					<dim>1</dim>
				</port>
			</output>
		</layer>
		<layer id="82" name="__module.model.layers.0.self_attn/aten::slice/Slice_1" type="Slice" version="opset8">
			<input>
				<port id="0" precision="FP32">
					<dim>-1</dim>
					<dim>32</dim>
					<dim>-1</dim>
					<dim>64</dim>
				</port>
				<port id="1" precision="I64">
					<dim>1</dim>
				</port>
				<port id="2" precision="I64">
					<dim>1</dim>
				</port>
				<port id="3" precision="I64">
					<dim>1</dim>
				</port>
				<port id="4" precision="I64">
					<dim>1</dim>
				</port>
			</input>
			<output>
				<port id="5" precision="FP32" names="344">
					<dim>-1</dim>
					<dim>32</dim>
					<dim>-1</dim>
					<dim>32</dim>
				</port>
			</output>
		</layer>
		<layer id="83" name="__module.model.layers.0.self_attn/aten::cat/Concat" type="Concat" version="opset1">
			<data axis="-1" />
			<input>
				<port id="0" precision="FP32">
					<dim>-1</dim>
					<dim>32</dim>
					<dim>-1</dim>
					<dim>32</dim>
				</port>
				<port id="1" precision="FP32">
					<dim>-1</dim>
					<dim>32</dim>
					<dim>-1</dim>
					<dim>32</dim>
				</port>
			</input>
			<output>
				<port id="2" precision="FP32" names="352">
					<dim>-1</dim>
					<dim>32</dim>
					<dim>-1</dim>
					<dim>64</dim>
				</port>
			</output>
		</layer>
		<layer id="84" name="__module.model.rotary_emb/aten::sin/Sin" type="Sin" version="opset1">
			<input>
				<port id="0" precision="FP32">
					<dim>-1</dim>
					<dim>-1</dim>
					<dim>64</dim>
				</port>
			</input>
			<output>
				<port id="1" precision="FP32" names="291,293,295,298,sin.1,sin.3,sin.5">
					<dim>-1</dim>
					<dim>-1</dim>
					<dim>64</dim>
				</port>
			</output>
		</layer>
		<layer id="85" name="__module.model.layers.0.self_attn/aten::unsqueeze/Unsqueeze_1" type="Unsqueeze" version="opset1">
			<input>
				<port id="0" precision="FP32">
					<dim>-1</dim>
					<dim>-1</dim>
					<dim>64</dim>
				</port>
				<port id="1" precision="I64" />
			</input>
			<output>
				<port id="2" precision="FP32" names="1111,1265,1419,1573,1727,1881,2035,2189,2343,2497,2651,2805,2959,3113,3267,338,3421,3575,495,649,803,957,sin,sin.11,sin.13,sin.15,sin.17,sin.19,sin.21,sin.23,sin.25,sin.27,sin.29,sin.31,sin.33,sin.35,sin.37,sin.39,sin.41,sin.43,sin.45,sin.47,sin.7,sin.9">
					<dim>-1</dim>
					<dim>1</dim>
					<dim>-1</dim>
					<dim>64</dim>
				</port>
			</output>
		</layer>
		<layer id="86" name="__module.model.layers.0.self_attn/aten::mul/Multiply_1" type="Multiply" version="opset1">
			<data auto_broadcast="numpy" />
			<input>
				<port id="0" precision="FP32">
					<dim>-1</dim>
					<dim>32</dim>
					<dim>-1</dim>
					<dim>64</dim>
				</port>
				<port id="1" precision="FP32">
					<dim>-1</dim>
					<dim>1</dim>
					<dim>-1</dim>
					<dim>64</dim>
				</port>
			</input>
			<output>
				<port id="2" precision="FP32" names="353">
					<dim>-1</dim>
					<dim>32</dim>
					<dim>-1</dim>
					<dim>64</dim>
				</port>
			</output>
		</layer>
		<layer id="87" name="__module.model.layers.0.self_attn/aten::add/Add" type="Add" version="opset1">
			<data auto_broadcast="numpy" />
			<input>
				<port id="0" precision="FP32">
					<dim>-1</dim>
					<dim>32</dim>
					<dim>-1</dim>
					<dim>64</dim>
				</port>
				<port id="1" precision="FP32">
					<dim>-1</dim>
					<dim>32</dim>
					<dim>-1</dim>
					<dim>64</dim>
				</port>
			</input>
			<output>
				<port id="2" precision="FP32" names="354">
					<dim>-1</dim>
					<dim>32</dim>
					<dim>-1</dim>
					<dim>64</dim>
				</port>
			</output>
		</layer>
		<layer id="88" name="Constant_64416" type="Const" version="opset1">
			<data element_type="f32" shape="" offset="0" size="4" />
			<output>
				<port id="0" precision="FP32" />
			</output>
		</layer>
		<layer id="89" name="Constant_64409" type="Const" version="opset1">
			<data element_type="i64" shape="1" offset="4" size="8" />
			<output>
				<port id="0" precision="I64">
					<dim>1</dim>
				</port>
			</output>
		</layer>
		<layer id="90" name="Constant_64411" type="Const" version="opset1">
			<data element_type="i64" shape="1" offset="12" size="8" />
			<output>
				<port id="0" precision="I64">
					<dim>1</dim>
				</port>
			</output>
		</layer>
		<layer id="91" name="Constant_64413" type="Const" version="opset1">
			<data element_type="i64" shape="1" offset="20" size="8" />
			<output>
				<port id="0" precision="I64">
					<dim>1</dim>
				</port>
			</output>
		</layer>
		<layer id="92" name="Concat_64414" type="Concat" version="opset1">
			<data axis="0" />
			<input>
				<port id="0" precision="I64">
					<dim>1</dim>
				</port>
				<port id="1" precision="I64">
					<dim>1</dim>
				</port>
				<port id="2" precision="I64">
					<dim>1</dim>
				</port>
				<port id="3" precision="I64">
					<dim>1</dim>
				</port>
			</input>
			<output>
				<port id="4" precision="I64">
					<dim>4</dim>
				</port>
			</output>
		</layer>
		<layer id="93" name="Broadcast_64417" type="Broadcast" version="opset3">
			<data mode="numpy" />
			<input>
				<port id="0" precision="FP32" />
				<port id="1" precision="I64">
					<dim>4</dim>
				</port>
			</input>
			<output>
				<port id="2" precision="FP32">
					<dim>-1</dim>
					<dim>4</dim>
					<dim>0</dim>
					<dim>64</dim>
				</port>
			</output>
		</layer>
		<layer id="94" name="ReadValue_61176" type="ReadValue" version="opset6">
			<data variable_id="past_key_values.0.keypresent.0.key" variable_type="f32" variable_shape="?,4,?,64" />
			<input>
				<port id="0" precision="FP32">
					<dim>-1</dim>
					<dim>4</dim>
					<dim>0</dim>
					<dim>64</dim>
				</port>
			</input>
			<output>
				<port id="1" precision="FP32" names="past_key_values.0.key">
					<dim>-1</dim>
					<dim>4</dim>
					<dim>-1</dim>
					<dim>64</dim>
				</port>
			</output>
		</layer>
		<layer id="95" name="Constant_57919" type="Const" version="opset1">
			<data element_type="i32" shape="" offset="0" size="4" />
			<output>
				<port id="0" precision="I32" />
			</output>
		</layer>
		<layer id="96" name="Gather_57920" type="Gather" version="opset8">
			<data batch_dims="0" />
			<input>
				<port id="0" precision="FP32">
					<dim>-1</dim>
					<dim>4</dim>
					<dim>-1</dim>
					<dim>64</dim>
				</port>
				<port id="1" precision="I32">
					<dim>-1</dim>
				</port>
				<port id="2" precision="I32" />
			</input>
			<output>
				<port id="3" precision="FP32">
					<dim>-1</dim>
					<dim>4</dim>
					<dim>-1</dim>
					<dim>64</dim>
				</port>
			</output>
		</layer>
		<layer id="97" name="self.model.layers.0.self_attn.k_proj.weight" type="Const" version="opset1">
			<data element_type="i4" shape="256, 16, 128" offset="67811352" size="262144" />
			<output>
				<port id="0" precision="I4">
					<dim>256</dim>
					<dim>16</dim>
					<dim>128</dim>
				</port>
			</output>
		</layer>
		<layer id="98" name="Convert_86212" type="Convert" version="opset1">
			<data destination_type="f16" />
			<input>
				<port id="0" precision="I4">
					<dim>256</dim>
					<dim>16</dim>
					<dim>128</dim>
				</port>
			</input>
			<output>
				<port id="1" precision="FP16">
					<dim>256</dim>
					<dim>16</dim>
					<dim>128</dim>
				</port>
			</output>
		</layer>
		<layer id="99" name="self.model.layers.0.self_attn.k_proj.weight/scale" type="Const" version="opset1">
			<data element_type="f16" shape="256, 16, 1" offset="68073496" size="8192" />
			<output>
				<port id="0" precision="FP16">
					<dim>256</dim>
					<dim>16</dim>
					<dim>1</dim>
				</port>
			</output>
		</layer>
		<layer id="100" name="self.model.layers.0.self_attn.k_proj.weight/fq_weights_1" type="Multiply" version="opset1">
			<data auto_broadcast="numpy" />
			<input>
				<port id="0" precision="FP16">
					<dim>256</dim>
					<dim>16</dim>
					<dim>128</dim>
				</port>
				<port id="1" precision="FP16">
					<dim>256</dim>
					<dim>16</dim>
					<dim>1</dim>
				</port>
			</input>
			<output>
				<port id="2" precision="FP16">
					<dim>256</dim>
					<dim>16</dim>
					<dim>128</dim>
				</port>
			</output>
		</layer>
		<layer id="101" name="Constant_86216" type="Const" version="opset1">
			<data element_type="i32" shape="2" offset="68081688" size="8" />
			<output>
				<port id="0" precision="I32">
					<dim>2</dim>
				</port>
			</output>
		</layer>
		<layer id="102" name="Reshape_86217" type="Reshape" version="opset1">
			<data special_zero="false" />
			<input>
				<port id="0" precision="FP16">
					<dim>256</dim>
					<dim>16</dim>
					<dim>128</dim>
				</port>
				<port id="1" precision="I32">
					<dim>2</dim>
				</port>
			</input>
			<output>
				<port id="2" precision="FP16">
					<dim>256</dim>
					<dim>2048</dim>
				</port>
			</output>
		</layer>
		<layer id="103" name="__module.model.layers.0.self_attn.k_proj/ov_ext::linear/ConvertLike" type="Convert" version="opset1">
			<data destination_type="f32" />
			<rt_info>
				<attribute name="decompression" version="0" />
			</rt_info>
			<input>
				<port id="0" precision="FP16">
					<dim>256</dim>
					<dim>2048</dim>
				</port>
			</input>
			<output>
				<port id="1" precision="FP32">
					<dim>256</dim>
					<dim>2048</dim>
				</port>
			</output>
		</layer>
		<layer id="104" name="__module.model.layers.0.self_attn.k_proj/ov_ext::linear/MatMul" type="MatMul" version="opset1">
			<data transpose_a="false" transpose_b="true" />
			<input>
				<port id="0" precision="FP32">
					<dim>-1</dim>
					<dim>-1</dim>
					<dim>2048</dim>
				</port>
				<port id="1" precision="FP32">
					<dim>256</dim>
					<dim>2048</dim>
				</port>
			</input>
			<output>
				<port id="2" precision="FP32" names="325,key_states.3">
					<dim>-1</dim>
					<dim>-1</dim>
					<dim>256</dim>
				</port>
			</output>
		</layer>
		<layer id="105" name="Constant_45186" type="Const" version="opset1">
			<data element_type="i64" shape="4" offset="68081696" size="32" />
			<output>
				<port id="0" precision="I64">
					<dim>4</dim>
				</port>
			</output>
		</layer>
		<layer id="106" name="__module.model.layers.0.self_attn/aten::view/Reshape_1" type="Reshape" version="opset1">
			<data special_zero="true" />
			<input>
				<port id="0" precision="FP32">
					<dim>-1</dim>
					<dim>-1</dim>
					<dim>256</dim>
				</port>
				<port id="1" precision="I64">
					<dim>4</dim>
				</port>
			</input>
			<output>
				<port id="2" precision="FP32" names="332">
					<dim>-1</dim>
					<dim>-1</dim>
					<dim>4</dim>
					<dim>64</dim>
				</port>
			</output>
		</layer>
		<layer id="107" name="__module.model.layers.0.self_attn/aten::transpose/Constant_1" type="Const" version="opset1">
			<data element_type="i32" shape="4" offset="67811160" size="16" />
			<output>
				<port id="0" precision="I32">
					<dim>4</dim>
				</port>
			</output>
		</layer>
		<layer id="108" name="__module.model.layers.0.self_attn/aten::transpose/Transpose_1" type="Transpose" version="opset1">
			<input>
				<port id="0" precision="FP32">
					<dim>-1</dim>
					<dim>-1</dim>
					<dim>4</dim>
					<dim>64</dim>
				</port>
				<port id="1" precision="I32">
					<dim>4</dim>
				</port>
			</input>
			<output>
				<port id="2" precision="FP32" names="333,k.1">
					<dim>-1</dim>
					<dim>4</dim>
					<dim>-1</dim>
					<dim>64</dim>
				</port>
			</output>
		</layer>
		<layer id="109" name="__module.model.layers.0.self_attn/aten::mul/Multiply_2" type="Multiply" version="opset1">
			<data auto_broadcast="numpy" />
			<input>
				<port id="0" precision="FP32">
					<dim>-1</dim>
					<dim>4</dim>
					<dim>-1</dim>
					<dim>64</dim>
				</port>
				<port id="1" precision="FP32">
					<dim>-1</dim>
					<dim>1</dim>
					<dim>-1</dim>
					<dim>64</dim>
				</port>
			</input>
			<output>
				<port id="2" precision="FP32" names="355">
					<dim>-1</dim>
					<dim>4</dim>
					<dim>-1</dim>
					<dim>64</dim>
				</port>
			</output>
		</layer>
		<layer id="110" name="Constant_1181" type="Const" version="opset1">
			<data element_type="i64" shape="1" offset="67811324" size="8" />
			<output>
				<port id="0" precision="I64">
					<dim>1</dim>
				</port>
			</output>
		</layer>
		<layer id="111" name="Constant_1183" type="Const" version="opset1">
			<data element_type="i64" shape="1" offset="67811332" size="8" />
			<output>
				<port id="0" precision="I64">
					<dim>1</dim>
				</port>
			</output>
		</layer>
		<layer id="112" name="Constant_1185" type="Const" version="opset1">
			<data element_type="i64" shape="1" offset="67811304" size="8" />
			<output>
				<port id="0" precision="I64">
					<dim>1</dim>
				</port>
			</output>
		</layer>
		<layer id="113" name="__module.model.layers.0.self_attn/aten::slice/Slice_2" type="Slice" version="opset8">
			<input>
				<port id="0" precision="FP32">
					<dim>-1</dim>
					<dim>4</dim>
					<dim>-1</dim>
					<dim>64</dim>
				</port>
				<port id="1" precision="I64">
					<dim>1</dim>
				</port>
				<port id="2" precision="I64">
					<dim>1</dim>
				</port>
				<port id="3" precision="I64">
					<dim>1</dim>
				</port>
				<port id="4" precision="I64">
					<dim>1</dim>
				</port>
			</input>
			<output>
				<port id="5" precision="FP32" names="365,x2.3">
					<dim>-1</dim>
					<dim>4</dim>
					<dim>-1</dim>
					<dim>32</dim>
				</port>
			</output>
		</layer>
		<layer id="114" name="Constant_38632" type="Const" version="opset1">
			<data element_type="f32" shape="1, 1, 1, 1" offset="67811348" size="4" />
			<output>
				<port id="0" precision="FP32">
					<dim>1</dim>
					<dim>1</dim>
					<dim>1</dim>
					<dim>1</dim>
				</port>
			</output>
		</layer>
		<layer id="115" name="__module.model.layers.0.self_attn/aten::neg/Multiply_1" type="Multiply" version="opset1">
			<data auto_broadcast="numpy" />
			<input>
				<port id="0" precision="FP32">
					<dim>-1</dim>
					<dim>4</dim>
					<dim>-1</dim>
					<dim>32</dim>
				</port>
				<port id="1" precision="FP32">
					<dim>1</dim>
					<dim>1</dim>
					<dim>1</dim>
					<dim>1</dim>
				</port>
			</input>
			<output>
				<port id="2" precision="FP32" names="366">
					<dim>-1</dim>
					<dim>4</dim>
					<dim>-1</dim>
					<dim>32</dim>
				</port>
			</output>
		</layer>
		<layer id="116" name="Constant_1078" type="Const" version="opset1">
			<data element_type="i64" shape="1" offset="12" size="8" />
			<output>
				<port id="0" precision="I64">
					<dim>1</dim>
				</port>
			</output>
		</layer>
		<layer id="117" name="Constant_1122" type="Const" version="opset1">
			<data element_type="i64" shape="1" offset="67811324" size="8" />
			<output>
				<port id="0" precision="I64">
					<dim>1</dim>
				</port>
			</output>
		</layer>
		<layer id="118" name="Constant_1124" type="Const" version="opset1">
			<data element_type="i64" shape="1" offset="67811304" size="8" />
			<output>
				<port id="0" precision="I64">
					<dim>1</dim>
				</port>
			</output>
		</layer>
		<layer id="119" name="__module.model.layers.0.self_attn/aten::slice/Slice_3" type="Slice" version="opset8">
			<input>
				<port id="0" precision="FP32">
					<dim>-1</dim>
					<dim>4</dim>
					<dim>-1</dim>
					<dim>64</dim>
				</port>
				<port id="1" precision="I64">
					<dim>1</dim>
				</port>
				<port id="2" precision="I64">
					<dim>1</dim>
				</port>
				<port id="3" precision="I64">
					<dim>1</dim>
				</port>
				<port id="4" precision="I64">
					<dim>1</dim>
				</port>
			</input>
			<output>
				<port id="5" precision="FP32" names="360">
					<dim>-1</dim>
					<dim>4</dim>
					<dim>-1</dim>
					<dim>32</dim>
				</port>
			</output>
		</layer>
		<layer id="120" name="__module.model.layers.0.self_attn/aten::cat/Concat_1" type="Concat" version="opset1">
			<data axis="-1" />
			<input>
				<port id="0" precision="FP32">
					<dim>-1</dim>
					<dim>4</dim>
					<dim>-1</dim>
					<dim>32</dim>
				</port>
				<port id="1" precision="FP32">
					<dim>-1</dim>
					<dim>4</dim>
					<dim>-1</dim>
					<dim>32</dim>
				</port>
			</input>
			<output>
				<port id="2" precision="FP32" names="368">
					<dim>-1</dim>
					<dim>4</dim>
					<dim>-1</dim>
					<dim>64</dim>
				</port>
			</output>
		</layer>
		<layer id="121" name="__module.model.layers.0.self_attn/aten::mul/Multiply_3" type="Multiply" version="opset1">
			<data auto_broadcast="numpy" />
			<input>
				<port id="0" precision="FP32">
					<dim>-1</dim>
					<dim>4</dim>
					<dim>-1</dim>
					<dim>64</dim>
				</port>
				<port id="1" precision="FP32">
					<dim>-1</dim>
					<dim>1</dim>
					<dim>-1</dim>
					<dim>64</dim>
				</port>
			</input>
			<output>
				<port id="2" precision="FP32" names="369">
					<dim>-1</dim>
					<dim>4</dim>
					<dim>-1</dim>
					<dim>64</dim>
				</port>
			</output>
		</layer>
		<layer id="122" name="__module.model.layers.0.self_attn/aten::add/Add_1" type="Add" version="opset1">
			<data auto_broadcast="numpy" />
			<input>
				<port id="0" precision="FP32">
					<dim>-1</dim>
					<dim>4</dim>
					<dim>-1</dim>
					<dim>64</dim>
				</port>
				<port id="1" precision="FP32">
					<dim>-1</dim>
					<dim>4</dim>
					<dim>-1</dim>
					<dim>64</dim>
				</port>
			</input>
			<output>
				<port id="2" precision="FP32" names="370,key_states.5">
					<dim>-1</dim>
					<dim>4</dim>
					<dim>-1</dim>
					<dim>64</dim>
				</port>
			</output>
		</layer>
		<layer id="123" name="__module.model.layers.0.self_attn/aten::cat/Concat_2" type="Concat" version="opset1">
			<data axis="-2" />
			<input>
				<port id="0" precision="FP32">
					<dim>-1</dim>
					<dim>4</dim>
					<dim>-1</dim>
					<dim>64</dim>
				</port>
				<port id="1" precision="FP32">
					<dim>-1</dim>
					<dim>4</dim>
					<dim>-1</dim>
					<dim>64</dim>
				</port>
			</input>
			<output>
				<port id="2" precision="FP32" names="present.0.key">
					<dim>-1</dim>
					<dim>4</dim>
					<dim>-1</dim>
					<dim>64</dim>
				</port>
			</output>
		</layer>
		<layer id="124" name="172" type="Const" version="opset1">
			<data element_type="i64" shape="" offset="68081728" size="8" />
			<output>
				<port id="0" precision="I64" names="172" />
			</output>
		</layer>
		<layer id="125" name="__module.model.layers.0.self_attn/aten::unsqueeze/Unsqueeze_2" type="Unsqueeze" version="opset1">
			<input>
				<port id="0" precision="FP32">
					<dim>-1</dim>
					<dim>4</dim>
					<dim>-1</dim>
					<dim>64</dim>
				</port>
				<port id="1" precision="I64" />
			</input>
			<output>
				<port id="2" precision="FP32" names="385,386,387">
					<dim>-1</dim>
					<dim>4</dim>
					<dim>1</dim>
					<dim>-1</dim>
					<dim>64</dim>
				</port>
			</output>
		</layer>
		<layer id="126" name="ShapeOf_40109" type="ShapeOf" version="opset3">
			<data output_type="i64" />
			<input>
				<port id="0" precision="FP32">
					<dim>-1</dim>
					<dim>4</dim>
					<dim>-1</dim>
					<dim>64</dim>
				</port>
			</input>
			<output>
				<port id="1" precision="I64">
					<dim>4</dim>
				</port>
			</output>
		</layer>
		<layer id="127" name="Constant_40110" type="Const" version="opset1">
			<data element_type="i64" shape="1" offset="12" size="8" />
			<output>
				<port id="0" precision="I64">
					<dim>1</dim>
				</port>
			</output>
		</layer>
		<layer id="128" name="Constant_40111" type="Const" version="opset1">
			<data element_type="i64" shape="" offset="12" size="8" />
			<output>
				<port id="0" precision="I64" />
			</output>
		</layer>
		<layer id="129" name="Gather_40112" type="Gather" version="opset8">
			<data batch_dims="0" />
			<input>
				<port id="0" precision="I64">
					<dim>4</dim>
				</port>
				<port id="1" precision="I64">
					<dim>1</dim>
				</port>
				<port id="2" precision="I64" />
			</input>
			<output>
				<port id="3" precision="I64" names="378">
					<dim>1</dim>
				</port>
			</output>
		</layer>
		<layer id="130" name="Constant_33666" type="Const" version="opset1">
			<data element_type="i64" shape="1" offset="4" size="8" />
			<output>
				<port id="0" precision="I64">
					<dim>1</dim>
				</port>
			</output>
		</layer>
		<layer id="131" name="Constant_33668" type="Const" version="opset1">
			<data element_type="i64" shape="1" offset="68081736" size="8" />
			<output>
				<port id="0" precision="I64">
					<dim>1</dim>
				</port>
			</output>
		</layer>
		<layer id="132" name="Constant_40092" type="Const" version="opset1">
			<data element_type="i64" shape="" offset="68081728" size="8" />
			<output>
				<port id="0" precision="I64" />
			</output>
		</layer>
		<layer id="133" name="Constant_40093" type="Const" version="opset1">
			<data element_type="i64" shape="" offset="12" size="8" />
			<output>
				<port id="0" precision="I64" />
			</output>
		</layer>
		<layer id="134" name="Gather_40094" type="Gather" version="opset8">
			<data batch_dims="0" />
			<input>
				<port id="0" precision="I64">
					<dim>4</dim>
				</port>
				<port id="1" precision="I64" />
				<port id="2" precision="I64" />
			</input>
			<output>
				<port id="3" precision="I64" names="225" />
			</output>
		</layer>
		<layer id="135" name="Constant_40113" type="Const" version="opset1">
			<data element_type="i64" shape="1" offset="67811304" size="8" />
			<output>
				<port id="0" precision="I64">
					<dim>1</dim>
				</port>
			</output>
		</layer>
		<layer id="136" name="Reshape_40114" type="Reshape" version="opset1">
			<data special_zero="false" />
			<input>
				<port id="0" precision="I64" />
				<port id="1" precision="I64">
					<dim>1</dim>
				</port>
			</input>
			<output>
				<port id="2" precision="I64">
					<dim>1</dim>
				</port>
			</output>
		</layer>
		<layer id="137" name="ShapeOf_40115" type="ShapeOf" version="opset3">
			<data output_type="i64" />
			<input>
				<port id="0" precision="FP32">
					<dim>-1</dim>
					<dim>4</dim>
					<dim>-1</dim>
					<dim>64</dim>
				</port>
			</input>
			<output>
				<port id="1" precision="I64">
					<dim>4</dim>
				</port>
			</output>
		</layer>
		<layer id="138" name="Constant_40116" type="Const" version="opset1">
			<data element_type="i64" shape="1" offset="68081728" size="8" />
			<output>
				<port id="0" precision="I64">
					<dim>1</dim>
				</port>
			</output>
		</layer>
		<layer id="139" name="Constant_40117" type="Const" version="opset1">
			<data element_type="i64" shape="" offset="12" size="8" />
			<output>
				<port id="0" precision="I64" />
			</output>
		</layer>
		<layer id="140" name="Gather_40118" type="Gather" version="opset8">
			<data batch_dims="0" />
			<input>
				<port id="0" precision="I64">
					<dim>4</dim>
				</port>
				<port id="1" precision="I64">
					<dim>1</dim>
				</port>
				<port id="2" precision="I64" />
			</input>
			<output>
				<port id="3" precision="I64">
					<dim>1</dim>
				</port>
			</output>
		</layer>
		<layer id="141" name="Add_40119" type="Add" version="opset1">
			<data auto_broadcast="numpy" />
			<input>
				<port id="0" precision="I64">
					<dim>1</dim>
				</port>
				<port id="1" precision="I64">
					<dim>1</dim>
				</port>
			</input>
			<output>
				<port id="2" precision="I64" names="381,397,410">
					<dim>1</dim>
				</port>
			</output>
		</layer>
		<layer id="142" name="Constant_33671" type="Const" version="opset1">
			<data element_type="i64" shape="1" offset="20" size="8" />
			<output>
				<port id="0" precision="I64">
					<dim>1</dim>
				</port>
			</output>
		</layer>
		<layer id="143" name="__module.model.layers.0.self_attn/prim::ListConstruct_2" type="Concat" version="opset1">
			<data axis="0" />
			<input>
				<port id="0" precision="I64">
					<dim>1</dim>
				</port>
				<port id="1" precision="I64">
					<dim>1</dim>
				</port>
				<port id="2" precision="I64">
					<dim>1</dim>
				</port>
				<port id="3" precision="I64">
					<dim>1</dim>
				</port>
				<port id="4" precision="I64">
					<dim>1</dim>
				</port>
			</input>
			<output>
				<port id="5" precision="I64">
					<dim>5</dim>
				</port>
			</output>
		</layer>
		<layer id="144" name="__module.model.layers.0.self_attn/aten::expand/Broadcast" type="Broadcast" version="opset3">
			<data mode="bidirectional" />
			<input>
				<port id="0" precision="FP32">
					<dim>-1</dim>
					<dim>4</dim>
					<dim>1</dim>
					<dim>-1</dim>
					<dim>64</dim>
				</port>
				<port id="1" precision="I64">
					<dim>5</dim>
				</port>
			</input>
			<output>
				<port id="2" precision="FP32" names="389,hidden_states.11">
					<dim>-1</dim>
					<dim>4</dim>
					<dim>8</dim>
					<dim>-1</dim>
					<dim>64</dim>
				</port>
			</output>
		</layer>
		<layer id="145" name="Constant_45187" type="Const" version="opset1">
			<data element_type="i64" shape="4" offset="68081744" size="32" />
			<output>
				<port id="0" precision="I64">
					<dim>4</dim>
				</port>
			</output>
		</layer>
		<layer id="146" name="__module.model.layers.0.self_attn/aten::reshape/Reshape" type="Reshape" version="opset1">
			<data special_zero="true" />
			<input>
				<port id="0" precision="FP32">
					<dim>-1</dim>
					<dim>4</dim>
					<dim>8</dim>
					<dim>-1</dim>
					<dim>64</dim>
				</port>
				<port id="1" precision="I64">
					<dim>4</dim>
				</port>
			</input>
			<output>
				<port id="2" precision="FP32" names="393,key_states.7">
					<dim>-1</dim>
					<dim>32</dim>
					<dim>-1</dim>
					<dim>64</dim>
				</port>
			</output>
		</layer>
		<layer id="147" name="Constant_64428" type="Const" version="opset1">
			<data element_type="f32" shape="" offset="0" size="4" />
			<output>
				<port id="0" precision="FP32" />
			</output>
		</layer>
		<layer id="148" name="Constant_64421" type="Const" version="opset1">
			<data element_type="i64" shape="1" offset="4" size="8" />
			<output>
				<port id="0" precision="I64">
					<dim>1</dim>
				</port>
			</output>
		</layer>
		<layer id="149" name="Constant_64423" type="Const" version="opset1">
			<data element_type="i64" shape="1" offset="12" size="8" />
			<output>
				<port id="0" precision="I64">
					<dim>1</dim>
				</port>
			</output>
		</layer>
		<layer id="150" name="Constant_64425" type="Const" version="opset1">
			<data element_type="i64" shape="1" offset="20" size="8" />
			<output>
				<port id="0" precision="I64">
					<dim>1</dim>
				</port>
			</output>
		</layer>
		<layer id="151" name="Concat_64426" type="Concat" version="opset1">
			<data axis="0" />
			<input>
				<port id="0" precision="I64">
					<dim>1</dim>
				</port>
				<port id="1" precision="I64">
					<dim>1</dim>
				</port>
				<port id="2" precision="I64">
					<dim>1</dim>
				</port>
				<port id="3" precision="I64">
					<dim>1</dim>
				</port>
			</input>
			<output>
				<port id="4" precision="I64">
					<dim>4</dim>
				</port>
			</output>
		</layer>
		<layer id="152" name="Broadcast_64429" type="Broadcast" version="opset3">
			<data mode="numpy" />
			<input>
				<port id="0" precision="FP32" />
				<port id="1" precision="I64">
					<dim>4</dim>
				</port>
			</input>
			<output>
				<port id="2" precision="FP32">
					<dim>-1</dim>
					<dim>4</dim>
					<dim>0</dim>
					<dim>64</dim>
				</port>
			</output>
		</layer>
		<layer id="153" name="ReadValue_61178" type="ReadValue" version="opset6">
			<data variable_id="past_key_values.0.valuepresent.0.value" variable_type="f32" variable_shape="?,4,?,64" />
			<input>
				<port id="0" precision="FP32">
					<dim>-1</dim>
					<dim>4</dim>
					<dim>0</dim>
					<dim>64</dim>
				</port>
			</input>
			<output>
				<port id="1" precision="FP32" names="past_key_values.0.value">
					<dim>-1</dim>
					<dim>4</dim>
					<dim>-1</dim>
					<dim>64</dim>
				</port>
			</output>
		</layer>
		<layer id="154" name="Constant_57922" type="Const" version="opset1">
			<data element_type="i32" shape="" offset="0" size="4" />
			<output>
				<port id="0" precision="I32" />
			</output>
		</layer>
		<layer id="155" name="Gather_57923" type="Gather" version="opset8">
			<data batch_dims="0" />
			<input>
				<port id="0" precision="FP32">
					<dim>-1</dim>
					<dim>4</dim>
					<dim>-1</dim>
					<dim>64</dim>
				</port>
				<port id="1" precision="I32">
					<dim>-1</dim>
				</port>
				<port id="2" precision="I32" />
			</input>
			<output>
				<port id="3" precision="FP32">
					<dim>-1</dim>
					<dim>4</dim>
					<dim>-1</dim>
					<dim>64</dim>
				</port>
			</output>
		</layer>
		<layer id="156" name="self.model.layers.0.self_attn.v_proj.weight" type="Const" version="opset1">
			<data element_type="i4" shape="256, 16, 128" offset="68081776" size="262144" />
			<output>
				<port id="0" precision="I4">
					<dim>256</dim>
					<dim>16</dim>
					<dim>128</dim>
				</port>
			</output>
		</layer>
		<layer id="157" name="Convert_86219" type="Convert" version="opset1">
			<data destination_type="f16" />
			<input>
				<port id="0" precision="I4">
					<dim>256</dim>
					<dim>16</dim>
					<dim>128</dim>
				</port>
			</input>
			<output>
				<port id="1" precision="FP16">
					<dim>256</dim>
					<dim>16</dim>
					<dim>128</dim>
				</port>
			</output>
		</layer>
		<layer id="158" name="self.model.layers.0.self_attn.v_proj.weight/scale" type="Const" version="opset1">
			<data element_type="f16" shape="256, 16, 1" offset="68343920" size="8192" />
			<output>
				<port id="0" precision="FP16">
					<dim>256</dim>
					<dim>16</dim>
					<dim>1</dim>
				</port>
			</output>
		</layer>
		<layer id="159" name="self.model.layers.0.self_attn.v_proj.weight/fq_weights_1" type="Multiply" version="opset1">
			<data auto_broadcast="numpy" />
			<input>
				<port id="0" precision="FP16">
					<dim>256</dim>
					<dim>16</dim>
					<dim>128</dim>
				</port>
				<port id="1" precision="FP16">
					<dim>256</dim>
					<dim>16</dim>
					<dim>1</dim>
				</port>
			</input>
			<output>
				<port id="2" precision="FP16">
					<dim>256</dim>
					<dim>16</dim>
					<dim>128</dim>
				</port>
			</output>
		</layer>
		<layer id="160" name="Constant_86223" type="Const" version="opset1">
			<data element_type="i32" shape="2" offset="68081688" size="8" />
			<output>
				<port id="0" precision="I32">
					<dim>2</dim>
				</port>
			</output>
		</layer>
		<layer id="161" name="Reshape_86224" type="Reshape" version="opset1">
			<data special_zero="false" />
			<input>
				<port id="0" precision="FP16">
					<dim>256</dim>
					<dim>16</dim>
					<dim>128</dim>
				</port>
				<port id="1" precision="I32">
					<dim>2</dim>
				</port>
			</input>
			<output>
				<port id="2" precision="FP16">
					<dim>256</dim>
					<dim>2048</dim>
				</port>
			</output>
		</layer>
		<layer id="162" name="__module.model.layers.0.self_attn.v_proj/ov_ext::linear/ConvertLike" type="Convert" version="opset1">
			<data destination_type="f32" />
			<rt_info>
				<attribute name="decompression" version="0" />
			</rt_info>
			<input>
				<port id="0" precision="FP16">
					<dim>256</dim>
					<dim>2048</dim>
				</port>
			</input>
			<output>
				<port id="1" precision="FP32">
					<dim>256</dim>
					<dim>2048</dim>
				</port>
			</output>
		</layer>
		<layer id="163" name="__module.model.layers.0.self_attn.v_proj/ov_ext::linear/MatMul" type="MatMul" version="opset1">
			<data transpose_a="false" transpose_b="true" />
			<input>
				<port id="0" precision="FP32">
					<dim>-1</dim>
					<dim>-1</dim>
					<dim>2048</dim>
				</port>
				<port id="1" precision="FP32">
					<dim>256</dim>
					<dim>2048</dim>
				</port>
			</input>
			<output>
				<port id="2" precision="FP32" names="327,value_states.1">
					<dim>-1</dim>
					<dim>-1</dim>
					<dim>256</dim>
				</port>
			</output>
		</layer>
		<layer id="164" name="Constant_45188" type="Const" version="opset1">
			<data element_type="i64" shape="4" offset="68081696" size="32" />
			<output>
				<port id="0" precision="I64">
					<dim>4</dim>
				</port>
			</output>
		</layer>
		<layer id="165" name="__module.model.layers.0.self_attn/aten::view/Reshape_2" type="Reshape" version="opset1">
			<data special_zero="true" />
			<input>
				<port id="0" precision="FP32">
					<dim>-1</dim>
					<dim>-1</dim>
					<dim>256</dim>
				</port>
				<port id="1" precision="I64">
					<dim>4</dim>
				</port>
			</input>
			<output>
				<port id="2" precision="FP32" names="335">
					<dim>-1</dim>
					<dim>-1</dim>
					<dim>4</dim>
					<dim>64</dim>
				</port>
			</output>
		</layer>
		<layer id="166" name="__module.model.layers.0.self_attn/aten::transpose/Constant_2" type="Const" version="opset1">
			<data element_type="i32" shape="4" offset="67811160" size="16" />
			<output>
				<port id="0" precision="I32">
					<dim>4</dim>
				</port>
			</output>
		</layer>
		<layer id="167" name="__module.model.layers.0.self_attn/aten::transpose/Transpose_2" type="Transpose" version="opset1">
			<input>
				<port id="0" precision="FP32">
					<dim>-1</dim>
					<dim>-1</dim>
					<dim>4</dim>
					<dim>64</dim>
				</port>
				<port id="1" precision="I32">
					<dim>4</dim>
				</port>
			</input>
			<output>
				<port id="2" precision="FP32" names="336">
					<dim>-1</dim>
					<dim>4</dim>
					<dim>-1</dim>
					<dim>64</dim>
				</port>
			</output>
		</layer>
		<layer id="168" name="__module.model.layers.0.self_attn/aten::cat/Concat_3" type="Concat" version="opset1">
			<data axis="-2" />
			<input>
				<port id="0" precision="FP32">
					<dim>-1</dim>
					<dim>4</dim>
					<dim>-1</dim>
					<dim>64</dim>
				</port>
				<port id="1" precision="FP32">
					<dim>-1</dim>
					<dim>4</dim>
					<dim>-1</dim>
					<dim>64</dim>
				</port>
			</input>
			<output>
				<port id="2" precision="FP32" names="present.0.value">
					<dim>-1</dim>
					<dim>4</dim>
					<dim>-1</dim>
					<dim>64</dim>
				</port>
			</output>
		</layer>
		<layer id="169" name="__module.model.layers.0.self_attn/aten::unsqueeze/Unsqueeze_3" type="Unsqueeze" version="opset1">
			<input>
				<port id="0" precision="FP32">
					<dim>-1</dim>
					<dim>4</dim>
					<dim>-1</dim>
					<dim>64</dim>
				</port>
				<port id="1" precision="I64" />
			</input>
			<output>
				<port id="2" precision="FP32" names="401,402,403">
					<dim>-1</dim>
					<dim>4</dim>
					<dim>1</dim>
					<dim>-1</dim>
					<dim>64</dim>
				</port>
			</output>
		</layer>
		<layer id="170" name="ShapeOf_40095" type="ShapeOf" version="opset3">
			<data output_type="i64" />
			<input>
				<port id="0" precision="FP32">
					<dim>-1</dim>
					<dim>-1</dim>
					<dim>2048</dim>
				</port>
			</input>
			<output>
				<port id="1" precision="I64">
					<dim>3</dim>
				</port>
			</output>
		</layer>
		<layer id="171" name="Constant_40096" type="Const" version="opset1">
			<data element_type="i64" shape="1" offset="12" size="8" />
			<output>
				<port id="0" precision="I64">
					<dim>1</dim>
				</port>
			</output>
		</layer>
		<layer id="172" name="Constant_40097" type="Const" version="opset1">
			<data element_type="i64" shape="" offset="12" size="8" />
			<output>
				<port id="0" precision="I64" />
			</output>
		</layer>
		<layer id="173" name="Gather_40098" type="Gather" version="opset8">
			<data batch_dims="0" />
			<input>
				<port id="0" precision="I64">
					<dim>3</dim>
				</port>
				<port id="1" precision="I64">
					<dim>1</dim>
				</port>
				<port id="2" precision="I64" />
			</input>
			<output>
				<port id="3" precision="I64" names="1010,1164,1318,1472,1626,1780,1934,2088,2242,2396,247,2550,2704,2858,3012,3166,3320,3474,3628,394,548,702,856">
					<dim>1</dim>
				</port>
			</output>
		</layer>
		<layer id="174" name="Constant_33680" type="Const" version="opset1">
			<data element_type="i64" shape="1" offset="4" size="8" />
			<output>
				<port id="0" precision="I64">
					<dim>1</dim>
				</port>
			</output>
		</layer>
		<layer id="175" name="Constant_33682" type="Const" version="opset1">
			<data element_type="i64" shape="1" offset="68081736" size="8" />
			<output>
				<port id="0" precision="I64">
					<dim>1</dim>
				</port>
			</output>
		</layer>
		<layer id="176" name="Constant_33685" type="Const" version="opset1">
			<data element_type="i64" shape="1" offset="20" size="8" />
			<output>
				<port id="0" precision="I64">
					<dim>1</dim>
				</port>
			</output>
		</layer>
		<layer id="177" name="__module.model.layers.0.self_attn/prim::ListConstruct_5" type="Concat" version="opset1">
			<data axis="0" />
			<input>
				<port id="0" precision="I64">
					<dim>1</dim>
				</port>
				<port id="1" precision="I64">
					<dim>1</dim>
				</port>
				<port id="2" precision="I64">
					<dim>1</dim>
				</port>
				<port id="3" precision="I64">
					<dim>1</dim>
				</port>
				<port id="4" precision="I64">
					<dim>1</dim>
				</port>
			</input>
			<output>
				<port id="5" precision="I64">
					<dim>5</dim>
				</port>
			</output>
		</layer>
		<layer id="178" name="__module.model.layers.0.self_attn/aten::expand/Broadcast_1" type="Broadcast" version="opset3">
			<data mode="bidirectional" />
			<input>
				<port id="0" precision="FP32">
					<dim>-1</dim>
					<dim>4</dim>
					<dim>1</dim>
					<dim>-1</dim>
					<dim>64</dim>
				</port>
				<port id="1" precision="I64">
					<dim>5</dim>
				</port>
			</input>
			<output>
				<port id="2" precision="FP32" names="405,hidden_states.15">
					<dim>-1</dim>
					<dim>4</dim>
					<dim>8</dim>
					<dim>-1</dim>
					<dim>64</dim>
				</port>
			</output>
		</layer>
		<layer id="179" name="Constant_45189" type="Const" version="opset1">
			<data element_type="i64" shape="4" offset="68081744" size="32" />
			<output>
				<port id="0" precision="I64">
					<dim>4</dim>
				</port>
			</output>
		</layer>
		<layer id="180" name="__module.model.layers.0.self_attn/aten::reshape/Reshape_1" type="Reshape" version="opset1">
			<data special_zero="true" />
			<input>
				<port id="0" precision="FP32">
					<dim>-1</dim>
					<dim>4</dim>
					<dim>8</dim>
					<dim>-1</dim>
					<dim>64</dim>
				</port>
				<port id="1" precision="I64">
					<dim>4</dim>
				</port>
			</input>
			<output>
				<port id="2" precision="FP32" names="409">
					<dim>-1</dim>
					<dim>32</dim>
					<dim>-1</dim>
					<dim>64</dim>
				</port>
			</output>
		</layer>
		<layer id="181" name="__module.model/aten::triu/Constant" type="Const" version="opset1">
			<data element_type="i32" shape="" offset="0" size="4" />
			<output>
				<port id="0" precision="I32" />
			</output>
		</layer>
		<layer id="182" name="Multiply_35672" type="Const" version="opset1">
			<data element_type="f32" shape="" offset="68352112" size="4" />
			<output>
				<port id="0" precision="FP32" />
			</output>
		</layer>
		<layer id="183" name="Constant_35677" type="Const" version="opset1">
			<data element_type="i64" shape="2" offset="68352116" size="16" />
			<output>
				<port id="0" precision="I64">
					<dim>2</dim>
				</port>
			</output>
		</layer>
		<layer id="184" name="Constant_40060" type="Const" version="opset1">
			<data element_type="i64" shape="" offset="67811304" size="8" />
			<output>
				<port id="0" precision="I64" />
			</output>
		</layer>
		<layer id="185" name="Constant_40061" type="Const" version="opset1">
			<data element_type="i64" shape="" offset="12" size="8" />
			<output>
				<port id="0" precision="I64" />
			</output>
		</layer>
		<layer id="186" name="Gather_40062" type="Gather" version="opset8">
			<data batch_dims="0" />
			<input>
				<port id="0" precision="I64">
					<dim>3</dim>
				</port>
				<port id="1" precision="I64" />
				<port id="2" precision="I64" />
			</input>
			<output>
				<port id="3" precision="I64" names="227,232" />
			</output>
		</layer>
		<layer id="187" name="Constant_40063" type="Const" version="opset1">
			<data element_type="i64" shape="1" offset="67811304" size="8" />
			<output>
				<port id="0" precision="I64">
					<dim>1</dim>
				</port>
			</output>
		</layer>
		<layer id="188" name="Reshape_40064" type="Reshape" version="opset1">
			<data special_zero="false" />
			<input>
				<port id="0" precision="I64" />
				<port id="1" precision="I64">
					<dim>1</dim>
				</port>
			</input>
			<output>
				<port id="2" precision="I64">
					<dim>1</dim>
				</port>
			</output>
		</layer>
		<layer id="189" name="ShapeOf_40067" type="ShapeOf" version="opset3">
			<data output_type="i64" />
			<input>
				<port id="0" precision="I64">
					<dim>-1</dim>
					<dim>-1</dim>
				</port>
			</input>
			<output>
				<port id="1" precision="I64">
					<dim>2</dim>
				</port>
			</output>
		</layer>
		<layer id="190" name="Constant_40068" type="Const" version="opset1">
			<data element_type="i64" shape="" offset="67811304" size="8" />
			<output>
				<port id="0" precision="I64" />
			</output>
		</layer>
		<layer id="191" name="Constant_40069" type="Const" version="opset1">
			<data element_type="i64" shape="" offset="12" size="8" />
			<output>
				<port id="0" precision="I64" />
			</output>
		</layer>
		<layer id="192" name="Gather_40070" type="Gather" version="opset8">
			<data batch_dims="0" />
			<input>
				<port id="0" precision="I64">
					<dim>2</dim>
				</port>
				<port id="1" precision="I64" />
				<port id="2" precision="I64" />
			</input>
			<output>
				<port id="3" precision="I64" names="233,251" />
			</output>
		</layer>
		<layer id="193" name="Constant_40071" type="Const" version="opset1">
			<data element_type="i64" shape="1" offset="67811304" size="8" />
			<output>
				<port id="0" precision="I64">
					<dim>1</dim>
				</port>
			</output>
		</layer>
		<layer id="194" name="Reshape_40072" type="Reshape" version="opset1">
			<data special_zero="false" />
			<input>
				<port id="0" precision="I64" />
				<port id="1" precision="I64">
					<dim>1</dim>
				</port>
			</input>
			<output>
				<port id="2" precision="I64">
					<dim>1</dim>
				</port>
			</output>
		</layer>
		<layer id="195" name="__module.model/prim::ListConstruct" type="Concat" version="opset1">
			<data axis="0" />
			<input>
				<port id="0" precision="I64">
					<dim>1</dim>
				</port>
				<port id="1" precision="I64">
					<dim>1</dim>
				</port>
			</input>
			<output>
				<port id="2" precision="I64">
					<dim>2</dim>
				</port>
			</output>
		</layer>
		<layer id="196" name="Maximum_35678" type="Maximum" version="opset1">
			<data auto_broadcast="numpy" />
			<input>
				<port id="0" precision="I64">
					<dim>2</dim>
				</port>
				<port id="1" precision="I64">
					<dim>2</dim>
				</port>
			</input>
			<output>
				<port id="2" precision="I64">
					<dim>2</dim>
				</port>
			</output>
		</layer>
		<layer id="197" name="__module.model/aten::mul/Multiply" type="Broadcast" version="opset3">
			<data mode="numpy" />
			<input>
				<port id="0" precision="FP32" />
				<port id="1" precision="I64">
					<dim>2</dim>
				</port>
			</input>
			<output>
				<port id="2" precision="FP32" names="236">
					<dim>-1</dim>
					<dim>-1</dim>
				</port>
			</output>
		</layer>
		<layer id="198" name="ShapeOf_40077" type="ShapeOf" version="opset3">
			<data output_type="i32" />
			<input>
				<port id="0" precision="FP32">
					<dim>-1</dim>
					<dim>-1</dim>
				</port>
			</input>
			<output>
				<port id="1" precision="I32">
					<dim>2</dim>
				</port>
			</output>
		</layer>
		<layer id="199" name="Constant_40078" type="Const" version="opset1">
			<data element_type="i64" shape="" offset="67811304" size="8" />
			<output>
				<port id="0" precision="I64" />
			</output>
		</layer>
		<layer id="200" name="Constant_40079" type="Const" version="opset1">
			<data element_type="i64" shape="" offset="12" size="8" />
			<output>
				<port id="0" precision="I64" />
			</output>
		</layer>
		<layer id="201" name="Gather_40080" type="Gather" version="opset8">
			<data batch_dims="0" />
			<input>
				<port id="0" precision="I32">
					<dim>2</dim>
				</port>
				<port id="1" precision="I64" />
				<port id="2" precision="I64" />
			</input>
			<output>
				<port id="3" precision="I32" />
			</output>
		</layer>
		<layer id="202" name="__module.model/aten::triu/Constant_2" type="Const" version="opset1">
			<data element_type="i32" shape="" offset="68352132" size="4" />
			<output>
				<port id="0" precision="I32" />
			</output>
		</layer>
		<layer id="203" name="__module.model/aten::triu/Range" type="Range" version="opset4">
			<data output_type="i32" />
			<input>
				<port id="0" precision="I32" />
				<port id="1" precision="I32" />
				<port id="2" precision="I32" />
			</input>
			<output>
				<port id="3" precision="I32">
					<dim>-1</dim>
				</port>
			</output>
		</layer>
		<layer id="204" name="__module.model/aten::triu/Unsqueeze" type="Unsqueeze" version="opset1">
			<input>
				<port id="0" precision="I32">
					<dim>-1</dim>
				</port>
				<port id="1" precision="I32" />
			</input>
			<output>
				<port id="2" precision="I32">
					<dim>1</dim>
					<dim>-1</dim>
				</port>
			</output>
		</layer>
		<layer id="205" name="__module.model/aten::triu/Convert" type="Const" version="opset1">
			<data element_type="i32" shape="" offset="68352132" size="4" />
			<output>
				<port id="0" precision="I32" />
			</output>
		</layer>
		<layer id="206" name="Constant_40084" type="Const" version="opset1">
			<data element_type="i64" shape="" offset="12" size="8" />
			<output>
				<port id="0" precision="I64" />
			</output>
		</layer>
		<layer id="207" name="Constant_40085" type="Const" version="opset1">
			<data element_type="i64" shape="" offset="12" size="8" />
			<output>
				<port id="0" precision="I64" />
			</output>
		</layer>
		<layer id="208" name="Gather_40086" type="Gather" version="opset8">
			<data batch_dims="0" />
			<input>
				<port id="0" precision="I32">
					<dim>2</dim>
				</port>
				<port id="1" precision="I64" />
				<port id="2" precision="I64" />
			</input>
			<output>
				<port id="3" precision="I32" />
			</output>
		</layer>
		<layer id="209" name="__module.model/aten::triu/Add" type="Add" version="opset1">
			<data auto_broadcast="numpy" />
			<input>
				<port id="0" precision="I32" />
				<port id="1" precision="I32" />
			</input>
			<output>
				<port id="2" precision="I32" />
			</output>
		</layer>
		<layer id="210" name="__module.model/aten::triu/Range_1" type="Range" version="opset4">
			<data output_type="i32" />
			<input>
				<port id="0" precision="I32" />
				<port id="1" precision="I32" />
				<port id="2" precision="I32" />
			</input>
			<output>
				<port id="3" precision="I32">
					<dim>-1</dim>
				</port>
			</output>
		</layer>
		<layer id="211" name="__module.model/aten::triu/Unsqueeze_1" type="Unsqueeze" version="opset1">
			<input>
				<port id="0" precision="I32">
					<dim>-1</dim>
				</port>
				<port id="1" precision="I32" />
			</input>
			<output>
				<port id="2" precision="I32">
					<dim>-1</dim>
					<dim>1</dim>
				</port>
			</output>
		</layer>
		<layer id="212" name="__module.model/aten::triu/GreaterEqual" type="GreaterEqual" version="opset1">
			<data auto_broadcast="numpy" />
			<input>
				<port id="0" precision="I32">
					<dim>1</dim>
					<dim>-1</dim>
				</port>
				<port id="1" precision="I32">
					<dim>-1</dim>
					<dim>1</dim>
				</port>
			</input>
			<output>
				<port id="2" precision="BOOL">
					<dim>-1</dim>
					<dim>-1</dim>
				</port>
			</output>
		</layer>
		<layer id="213" name="__module.model/aten::triu/ConvertLike" type="Const" version="opset1">
			<data element_type="f32" shape="" offset="0" size="4" />
			<output>
				<port id="0" precision="FP32" />
			</output>
		</layer>
		<layer id="214" name="__module.model/aten::triu/Select" type="Select" version="opset1">
			<data auto_broadcast="numpy" />
			<input>
				<port id="0" precision="BOOL">
					<dim>-1</dim>
					<dim>-1</dim>
				</port>
				<port id="1" precision="FP32">
					<dim>-1</dim>
					<dim>-1</dim>
				</port>
				<port id="2" precision="FP32" />
			</input>
			<output>
				<port id="3" precision="FP32" names="237_1">
					<dim>-1</dim>
					<dim>-1</dim>
				</port>
			</output>
		</layer>
		<layer id="215" name="__module.model/aten::arange/Constant" type="Const" version="opset1">
			<data element_type="i32" shape="" offset="0" size="4" />
			<output>
				<port id="0" precision="I32" />
			</output>
		</layer>
		<layer id="216" name="__module.model/aten::arange/Constant_1" type="Const" version="opset1">
			<data element_type="i32" shape="" offset="68352132" size="4" />
			<output>
				<port id="0" precision="I32" />
			</output>
		</layer>
		<layer id="217" name="__module.model/aten::arange/Range" type="Range" version="opset4">
			<data output_type="f32" />
			<input>
				<port id="0" precision="I32" />
				<port id="1" precision="I64" />
				<port id="2" precision="I32" />
			</input>
			<output>
				<port id="3" precision="FP32">
					<dim>-1</dim>
				</port>
			</output>
		</layer>
		<layer id="218" name="__module.model/aten::arange/ConvertLike" type="Convert" version="opset1">
			<data destination_type="i64" />
			<input>
				<port id="0" precision="FP32">
					<dim>-1</dim>
				</port>
			</input>
			<output>
				<port id="1" precision="I64" names="238">
					<dim>-1</dim>
				</port>
			</output>
		</layer>
		<layer id="219" name="__module.model/aten::gt/Convert" type="Convert" version="opset1">
			<data destination_type="f32" />
			<input>
				<port id="0" precision="I64">
					<dim>-1</dim>
				</port>
			</input>
			<output>
				<port id="1" precision="FP32">
					<dim>-1</dim>
				</port>
			</output>
		</layer>
		<layer id="220" name="__module.model/aten::add/Add" type="Add" version="opset1">
			<data auto_broadcast="numpy" />
			<input>
				<port id="0" precision="I64" />
				<port id="1" precision="I64" />
			</input>
			<output>
				<port id="2" precision="I64" names="229" />
			</output>
		</layer>
		<layer id="221" name="__module.model/aten::arange/Constant_2" type="Const" version="opset1">
			<data element_type="i32" shape="" offset="68352132" size="4" />
			<output>
				<port id="0" precision="I32" />
			</output>
		</layer>
		<layer id="222" name="__module.model/aten::arange/Range_1" type="Range" version="opset4">
			<data output_type="f32" />
			<input>
				<port id="0" precision="I64" />
				<port id="1" precision="I64" />
				<port id="2" precision="I32" />
			</input>
			<output>
				<port id="3" precision="FP32" names="231,cache_position">
					<dim>-1</dim>
				</port>
			</output>
		</layer>
		<layer id="223" name="Constant_249" type="Const" version="opset1">
			<data element_type="i64" shape="2" offset="68352136" size="16" />
			<output>
				<port id="0" precision="I64" names="239">
					<dim>2</dim>
				</port>
			</output>
		</layer>
		<layer id="224" name="__module.model/aten::reshape/Reshape" type="Reshape" version="opset1">
			<data special_zero="false" />
			<input>
				<port id="0" precision="FP32">
					<dim>-1</dim>
				</port>
				<port id="1" precision="I64">
					<dim>2</dim>
				</port>
			</input>
			<output>
				<port id="2" precision="FP32" names="240">
					<dim>-1</dim>
					<dim>1</dim>
				</port>
			</output>
		</layer>
		<layer id="225" name="__module.model/aten::gt/Greater" type="Greater" version="opset1">
			<data auto_broadcast="numpy" />
			<input>
				<port id="0" precision="FP32">
					<dim>-1</dim>
				</port>
				<port id="1" precision="FP32">
					<dim>-1</dim>
					<dim>1</dim>
				</port>
			</input>
			<output>
				<port id="2" precision="BOOL" names="241">
					<dim>-1</dim>
					<dim>-1</dim>
				</port>
			</output>
		</layer>
		<layer id="226" name="__module.model/aten::mul_/ConvertLike" type="Convert" version="opset1">
			<data destination_type="f32" />
			<input>
				<port id="0" precision="BOOL">
					<dim>-1</dim>
					<dim>-1</dim>
				</port>
			</input>
			<output>
				<port id="1" precision="FP32">
					<dim>-1</dim>
					<dim>-1</dim>
				</port>
			</output>
		</layer>
		<layer id="227" name="__module.model/aten::mul_/Multiply" type="Multiply" version="opset1">
			<data auto_broadcast="numpy" />
			<input>
				<port id="0" precision="FP32">
					<dim>-1</dim>
					<dim>-1</dim>
				</port>
				<port id="1" precision="FP32">
					<dim>-1</dim>
					<dim>-1</dim>
				</port>
			</input>
			<output>
				<port id="2" precision="FP32" names="237,causal_mask.1">
					<dim>-1</dim>
					<dim>-1</dim>
				</port>
			</output>
		</layer>
		<layer id="228" name="163" type="Const" version="opset1">
			<data element_type="i64" shape="" offset="12" size="8" />
			<output>
				<port id="0" precision="I64" names="163" />
			</output>
		</layer>
		<layer id="229" name="__module.model/aten::unsqueeze/Unsqueeze" type="Unsqueeze" version="opset1">
			<input>
				<port id="0" precision="FP32">
					<dim>-1</dim>
					<dim>-1</dim>
				</port>
				<port id="1" precision="I64" />
			</input>
			<output>
				<port id="2" precision="FP32" names="243">
					<dim>1</dim>
					<dim>-1</dim>
					<dim>-1</dim>
				</port>
			</output>
		</layer>
		<layer id="230" name="__module.model/aten::unsqueeze/Unsqueeze_1" type="Unsqueeze" version="opset1">
			<input>
				<port id="0" precision="FP32">
					<dim>1</dim>
					<dim>-1</dim>
					<dim>-1</dim>
				</port>
				<port id="1" precision="I64" />
			</input>
			<output>
				<port id="2" precision="FP32" names="244,245,246">
					<dim>1</dim>
					<dim>1</dim>
					<dim>-1</dim>
					<dim>-1</dim>
				</port>
			</output>
		</layer>
		<layer id="231" name="Constant_33694" type="Const" version="opset1">
			<data element_type="i64" shape="1" offset="67811304" size="8" />
			<output>
				<port id="0" precision="I64">
					<dim>1</dim>
				</port>
			</output>
		</layer>
		<layer id="232" name="Constant_33696" type="Const" version="opset1">
			<data element_type="i64" shape="1" offset="67811304" size="8" />
			<output>
				<port id="0" precision="I64">
					<dim>1</dim>
				</port>
			</output>
		</layer>
		<layer id="233" name="Constant_33698" type="Const" version="opset1">
			<data element_type="i64" shape="1" offset="67811304" size="8" />
			<output>
				<port id="0" precision="I64">
					<dim>1</dim>
				</port>
			</output>
		</layer>
		<layer id="234" name="__module.model/prim::ListConstruct_1" type="Concat" version="opset1">
			<data axis="0" />
			<input>
				<port id="0" precision="I64">
					<dim>1</dim>
				</port>
				<port id="1" precision="I64">
					<dim>1</dim>
				</port>
				<port id="2" precision="I64">
					<dim>1</dim>
				</port>
				<port id="3" precision="I64">
					<dim>1</dim>
				</port>
			</input>
			<output>
				<port id="4" precision="I64">
					<dim>4</dim>
				</port>
			</output>
		</layer>
		<layer id="235" name="__module.model/aten::expand/Broadcast" type="Broadcast" version="opset3">
			<data mode="bidirectional" />
			<input>
				<port id="0" precision="FP32">
					<dim>1</dim>
					<dim>1</dim>
					<dim>-1</dim>
					<dim>-1</dim>
				</port>
				<port id="1" precision="I64">
					<dim>4</dim>
				</port>
			</input>
			<output>
				<port id="2" precision="FP32" names="249,252,253,254,262,263,264,267_1,268_1,269_1,causal_mask.5">
					<dim>-1</dim>
					<dim>1</dim>
					<dim>-1</dim>
					<dim>-1</dim>
				</port>
			</output>
		</layer>
		<layer id="236" name="Constant_27622" type="Const" version="opset1">
			<data element_type="i64" shape="1" offset="65648420" size="8" />
			<output>
				<port id="0" precision="I64">
					<dim>1</dim>
				</port>
			</output>
		</layer>
		<layer id="237" name="SliceAssign_466/Reshape_3" type="Reshape" version="opset1">
			<data special_zero="false" />
			<input>
				<port id="0" precision="FP32">
					<dim>-1</dim>
					<dim>1</dim>
					<dim>-1</dim>
					<dim>-1</dim>
				</port>
				<port id="1" precision="I64">
					<dim>1</dim>
				</port>
			</input>
			<output>
				<port id="2" precision="FP32">
					<dim>-1</dim>
				</port>
			</output>
		</layer>
		<layer id="238" name="Constant_22658" type="Const" version="opset1">
			<data element_type="i64" shape="" offset="12" size="8" />
			<output>
				<port id="0" precision="I64" />
			</output>
		</layer>
		<layer id="239" name="SliceAssign_466/ShapeOf" type="ShapeOf" version="opset3">
			<data output_type="i64" />
			<input>
				<port id="0" precision="FP32">
					<dim>-1</dim>
					<dim>1</dim>
					<dim>-1</dim>
					<dim>-1</dim>
				</port>
			</input>
			<output>
				<port id="1" precision="I64">
					<dim>4</dim>
				</port>
			</output>
		</layer>
		<layer id="240" name="SliceAssign_466/ReduceProd" type="ReduceProd" version="opset1">
			<data keep_dims="false" />
			<input>
				<port id="0" precision="I64">
					<dim>4</dim>
				</port>
				<port id="1" precision="I64" />
			</input>
			<output>
				<port id="2" precision="I64" />
			</output>
		</layer>
		<layer id="241" name="Constant_22659" type="Const" version="opset1">
			<data element_type="i64" shape="" offset="67811304" size="8" />
			<output>
				<port id="0" precision="I64" />
			</output>
		</layer>
		<layer id="242" name="SliceAssign_466/Range" type="Range" version="opset4">
			<data output_type="i64" />
			<input>
				<port id="0" precision="I64" />
				<port id="1" precision="I64" />
				<port id="2" precision="I64" />
			</input>
			<output>
				<port id="3" precision="I64">
					<dim>-1</dim>
				</port>
			</output>
		</layer>
		<layer id="243" name="SliceAssign_466/Reshape" type="Reshape" version="opset1">
			<data special_zero="false" />
			<input>
				<port id="0" precision="I64">
					<dim>-1</dim>
				</port>
				<port id="1" precision="I64">
					<dim>4</dim>
				</port>
			</input>
			<output>
				<port id="2" precision="I64">
					<dim>-1</dim>
					<dim>1</dim>
					<dim>-1</dim>
					<dim>-1</dim>
				</port>
			</output>
		</layer>
		<layer id="244" name="Constant_455" type="Const" version="opset1">
			<data element_type="i64" shape="1" offset="12" size="8" />
			<output>
				<port id="0" precision="I64">
					<dim>1</dim>
				</port>
			</output>
		</layer>
		<layer id="245" name="Constant_458" type="Const" version="opset1">
			<data element_type="i64" shape="1" offset="67811304" size="8" />
			<output>
				<port id="0" precision="I64">
					<dim>1</dim>
				</port>
			</output>
		</layer>
		<layer id="246" name="SliceAssign_466/Slice_2" type="Slice" version="opset8">
			<input>
				<port id="0" precision="I64">
					<dim>-1</dim>
					<dim>1</dim>
					<dim>-1</dim>
					<dim>-1</dim>
				</port>
				<port id="1" precision="I64">
					<dim>1</dim>
				</port>
				<port id="2" precision="I64">
					<dim>1</dim>
				</port>
				<port id="3" precision="I64">
					<dim>1</dim>
				</port>
				<port id="4" precision="I64">
					<dim>1</dim>
				</port>
			</input>
			<output>
				<port id="5" precision="I64">
					<dim>-1</dim>
					<dim>1</dim>
					<dim>-1</dim>
					<dim>-1</dim>
				</port>
			</output>
		</layer>
		<layer id="247" name="Constant_22661" type="Const" version="opset1">
			<data element_type="i64" shape="2" offset="68352136" size="16" />
			<output>
				<port id="0" precision="I64">
					<dim>2</dim>
				</port>
			</output>
		</layer>
		<layer id="248" name="SliceAssign_466/Reshape_4" type="Reshape" version="opset1">
			<data special_zero="false" />
			<input>
				<port id="0" precision="I64">
					<dim>-1</dim>
					<dim>1</dim>
					<dim>-1</dim>
					<dim>-1</dim>
				</port>
				<port id="1" precision="I64">
					<dim>2</dim>
				</port>
			</input>
			<output>
				<port id="2" precision="I64">
					<dim>-1</dim>
					<dim>1</dim>
				</port>
			</output>
		</layer>
		<layer id="249" name="Constant_338" type="Const" version="opset1">
			<data element_type="i64" shape="1" offset="12" size="8" />
			<output>
				<port id="0" precision="I64">
					<dim>1</dim>
				</port>
			</output>
		</layer>
		<layer id="250" name="Constant_341" type="Const" version="opset1">
			<data element_type="i64" shape="1" offset="67811304" size="8" />
			<output>
				<port id="0" precision="I64">
					<dim>1</dim>
				</port>
			</output>
		</layer>
		<layer id="251" name="__module.model/aten::slice/Slice_5" type="Slice" version="opset8">
			<input>
				<port id="0" precision="FP32">
					<dim>-1</dim>
					<dim>1</dim>
					<dim>-1</dim>
					<dim>-1</dim>
				</port>
				<port id="1" precision="I64">
					<dim>1</dim>
				</port>
				<port id="2" precision="I64">
					<dim>1</dim>
				</port>
				<port id="3" precision="I64">
					<dim>1</dim>
				</port>
				<port id="4" precision="I64">
					<dim>1</dim>
				</port>
			</input>
			<output>
				<port id="5" precision="FP32" names="255,265,270_1">
					<dim>-1</dim>
					<dim>1</dim>
					<dim>-1</dim>
					<dim>-1</dim>
				</port>
			</output>
		</layer>
		<layer id="252" name="__module.model/aten::unsqueeze/Unsqueeze_2" type="Unsqueeze" version="opset1">
			<input>
				<port id="0" precision="I64">
					<dim>-1</dim>
					<dim>-1</dim>
				</port>
				<port id="1" precision="I64" />
			</input>
			<output>
				<port id="2" precision="I64" names="257">
					<dim>-1</dim>
					<dim>1</dim>
					<dim>-1</dim>
				</port>
			</output>
		</layer>
		<layer id="253" name="__module.model/aten::unsqueeze/Unsqueeze_3" type="Unsqueeze" version="opset1">
			<input>
				<port id="0" precision="I64">
					<dim>-1</dim>
					<dim>1</dim>
					<dim>-1</dim>
				</port>
				<port id="1" precision="I64" />
			</input>
			<output>
				<port id="2" precision="I64" names="258,259">
					<dim>-1</dim>
					<dim>1</dim>
					<dim>1</dim>
					<dim>-1</dim>
				</port>
			</output>
		</layer>
		<layer id="254" name="__module.model/aten::add/Convert" type="Convert" version="opset1">
			<data destination_type="f32" />
			<input>
				<port id="0" precision="I64">
					<dim>-1</dim>
					<dim>1</dim>
					<dim>1</dim>
					<dim>-1</dim>
				</port>
			</input>
			<output>
				<port id="1" precision="FP32">
					<dim>-1</dim>
					<dim>1</dim>
					<dim>1</dim>
					<dim>-1</dim>
				</port>
			</output>
		</layer>
		<layer id="255" name="__module.model/aten::add/Add_1" type="Add" version="opset1">
			<data auto_broadcast="numpy" />
			<input>
				<port id="0" precision="FP32">
					<dim>-1</dim>
					<dim>1</dim>
					<dim>-1</dim>
					<dim>-1</dim>
				</port>
				<port id="1" precision="FP32">
					<dim>-1</dim>
					<dim>1</dim>
					<dim>1</dim>
					<dim>-1</dim>
				</port>
			</input>
			<output>
				<port id="2" precision="FP32" names="260,padding_mask.1">
					<dim>-1</dim>
					<dim>1</dim>
					<dim>-1</dim>
					<dim>-1</dim>
				</port>
			</output>
		</layer>
		<layer id="256" name="Constant_38633" type="Const" version="opset1">
			<data element_type="f32" shape="1, 1, 1, 1" offset="0" size="4" />
			<output>
				<port id="0" precision="FP32">
					<dim>1</dim>
					<dim>1</dim>
					<dim>1</dim>
					<dim>1</dim>
				</port>
			</output>
		</layer>
		<layer id="257" name="__module.model/aten::eq/Equal" type="Equal" version="opset1">
			<data auto_broadcast="numpy" />
			<input>
				<port id="0" precision="FP32">
					<dim>-1</dim>
					<dim>1</dim>
					<dim>-1</dim>
					<dim>-1</dim>
				</port>
				<port id="1" precision="FP32">
					<dim>1</dim>
					<dim>1</dim>
					<dim>1</dim>
					<dim>1</dim>
				</port>
			</input>
			<output>
				<port id="2" precision="BOOL" names="261,padding_mask">
					<dim>-1</dim>
					<dim>1</dim>
					<dim>-1</dim>
					<dim>-1</dim>
				</port>
			</output>
		</layer>
		<layer id="258" name="160" type="Const" version="opset1">
			<data element_type="f32" shape="" offset="68352112" size="4" />
			<output>
				<port id="0" precision="FP32" names="160" />
			</output>
		</layer>
		<layer id="259" name="__module.model/aten::masked_fill/Select" type="Select" version="opset1">
			<data auto_broadcast="numpy" />
			<input>
				<port id="0" precision="BOOL">
					<dim>-1</dim>
					<dim>1</dim>
					<dim>-1</dim>
					<dim>-1</dim>
				</port>
				<port id="1" precision="FP32" />
				<port id="2" precision="FP32">
					<dim>-1</dim>
					<dim>1</dim>
					<dim>-1</dim>
					<dim>-1</dim>
				</port>
			</input>
			<output>
				<port id="3" precision="FP32" names="266">
					<dim>-1</dim>
					<dim>1</dim>
					<dim>-1</dim>
					<dim>-1</dim>
				</port>
			</output>
		</layer>
		<layer id="260" name="__module.model/aten::copy_/ShapeOf" type="ShapeOf" version="opset3">
			<data output_type="i64" />
			<input>
				<port id="0" precision="FP32">
					<dim>-1</dim>
					<dim>1</dim>
					<dim>-1</dim>
					<dim>-1</dim>
				</port>
			</input>
			<output>
				<port id="1" precision="I64">
					<dim>4</dim>
				</port>
			</output>
		</layer>
		<layer id="261" name="__module.model/aten::copy_/Broadcast" type="Broadcast" version="opset3">
			<data mode="numpy" />
			<input>
				<port id="0" precision="FP32">
					<dim>-1</dim>
					<dim>1</dim>
					<dim>-1</dim>
					<dim>-1</dim>
				</port>
				<port id="1" precision="I64">
					<dim>4</dim>
				</port>
			</input>
			<output>
				<port id="2" precision="FP32" names="270">
					<dim>-1</dim>
					<dim>1</dim>
					<dim>-1</dim>
					<dim>-1</dim>
				</port>
			</output>
		</layer>
		<layer id="262" name="Constant_27624" type="Const" version="opset1">
			<data element_type="i64" shape="1" offset="65648420" size="8" />
			<output>
				<port id="0" precision="I64">
					<dim>1</dim>
				</port>
			</output>
		</layer>
		<layer id="263" name="SliceAssign_466/Reshape_5" type="Reshape" version="opset1">
			<data special_zero="false" />
			<input>
				<port id="0" precision="FP32">
					<dim>-1</dim>
					<dim>1</dim>
					<dim>-1</dim>
					<dim>-1</dim>
				</port>
				<port id="1" precision="I64">
					<dim>1</dim>
				</port>
			</input>
			<output>
				<port id="2" precision="FP32">
					<dim>-1</dim>
				</port>
			</output>
		</layer>
		<layer id="264" name="SliceAssign_466/ScatterNDUpdate" type="ScatterNDUpdate" version="opset4">
			<input>
				<port id="0" precision="FP32">
					<dim>-1</dim>
				</port>
				<port id="1" precision="I64">
					<dim>-1</dim>
					<dim>1</dim>
				</port>
				<port id="2" precision="FP32">
					<dim>-1</dim>
				</port>
			</input>
			<output>
				<port id="3" precision="FP32">
					<dim>-1</dim>
				</port>
			</output>
		</layer>
		<layer id="265" name="SliceAssign_466/Reshape_6" type="Reshape" version="opset1">
			<data special_zero="false" />
			<input>
				<port id="0" precision="FP32">
					<dim>-1</dim>
				</port>
				<port id="1" precision="I64">
					<dim>4</dim>
				</port>
			</input>
			<output>
				<port id="2" precision="FP32" names="1027,1028,1029,1181,1182,1183,1335,1336,1337,1489,1490,1491,1643,1644,1645,1797,1798,1799,1951,1952,1953,2105,2106,2107,2259,2260,2261,2413,2414,2415,250,2567,2568,2569,2721,2722,2723,2875,2876,2877,3029,3030,3031,3183,3184,3185,3337,3338,3339,3491,3492,3493,3645,3646,3647,411,412,413,565,566,567,719,720,721,873,874,875">
					<dim>-1</dim>
					<dim>1</dim>
					<dim>-1</dim>
					<dim>-1</dim>
				</port>
			</output>
		</layer>
		<layer id="266" name="Constant_1441" type="Const" version="opset1">
			<data element_type="i64" shape="1" offset="12" size="8" />
			<output>
				<port id="0" precision="I64">
					<dim>1</dim>
				</port>
			</output>
		</layer>
		<layer id="267" name="Constant_1444" type="Const" version="opset1">
			<data element_type="i64" shape="1" offset="67811304" size="8" />
			<output>
				<port id="0" precision="I64">
					<dim>1</dim>
				</port>
			</output>
		</layer>
		<layer id="268" name="__module.model.layers.0.self_attn/aten::slice/Slice_15" type="Slice" version="opset8">
			<input>
				<port id="0" precision="FP32">
					<dim>-1</dim>
					<dim>1</dim>
					<dim>-1</dim>
					<dim>-1</dim>
				</port>
				<port id="1" precision="I64">
					<dim>1</dim>
				</port>
				<port id="2" precision="I64">
					<dim>1</dim>
				</port>
				<port id="3" precision="I64">
					<dim>1</dim>
				</port>
				<port id="4" precision="I64">
					<dim>1</dim>
				</port>
			</input>
			<output>
				<port id="5" precision="FP32" names="414">
					<dim>-1</dim>
					<dim>1</dim>
					<dim>-1</dim>
					<dim>-1</dim>
				</port>
			</output>
		</layer>
		<layer id="269" name="__module.model.layers.0.self_attn/aten::scaled_dot_product_attention/ScaledDotProductAttention" type="ScaledDotProductAttention" version="opset13">
			<data causal="false" />
			<input>
				<port id="0" precision="FP32">
					<dim>-1</dim>
					<dim>32</dim>
					<dim>-1</dim>
					<dim>64</dim>
				</port>
				<port id="1" precision="FP32">
					<dim>-1</dim>
					<dim>32</dim>
					<dim>-1</dim>
					<dim>64</dim>
				</port>
				<port id="2" precision="FP32">
					<dim>-1</dim>
					<dim>32</dim>
					<dim>-1</dim>
					<dim>64</dim>
				</port>
				<port id="3" precision="FP32">
					<dim>-1</dim>
					<dim>1</dim>
					<dim>-1</dim>
					<dim>-1</dim>
				</port>
			</input>
			<output>
				<port id="4" precision="FP32" names="415,attn_output.1">
					<dim>-1</dim>
					<dim>32</dim>
					<dim>-1</dim>
					<dim>64</dim>
				</port>
			</output>
		</layer>
		<layer id="270" name="__module.model.layers.0.self_attn/aten::transpose/Constant_3" type="Const" version="opset1">
			<data element_type="i32" shape="4" offset="67811160" size="16" />
			<output>
				<port id="0" precision="I32">
					<dim>4</dim>
				</port>
			</output>
		</layer>
		<layer id="271" name="__module.model.layers.0.self_attn/aten::transpose/Transpose_3" type="Transpose" version="opset1">
			<input>
				<port id="0" precision="FP32">
					<dim>-1</dim>
					<dim>32</dim>
					<dim>-1</dim>
					<dim>64</dim>
				</port>
				<port id="1" precision="I32">
					<dim>4</dim>
				</port>
			</input>
			<output>
				<port id="2" precision="FP32" names="416">
					<dim>-1</dim>
					<dim>-1</dim>
					<dim>32</dim>
					<dim>64</dim>
				</port>
			</output>
		</layer>
		<layer id="272" name="Constant_35069" type="Const" version="opset1">
			<data element_type="i64" shape="2" offset="68352152" size="16" />
			<output>
				<port id="0" precision="I64">
					<dim>2</dim>
				</port>
			</output>
		</layer>
		<layer id="273" name="Constant_35070" type="Const" version="opset1">
			<data element_type="i64" shape="" offset="12" size="8" />
			<output>
				<port id="0" precision="I64" />
			</output>
		</layer>
		<layer id="274" name="Gather_35071" type="Gather" version="opset8">
			<data batch_dims="0" />
			<input>
				<port id="0" precision="I64">
					<dim>3</dim>
				</port>
				<port id="1" precision="I64">
					<dim>2</dim>
				</port>
				<port id="2" precision="I64" />
			</input>
			<output>
				<port id="3" precision="I64">
					<dim>2</dim>
				</port>
			</output>
		</layer>
		<layer id="275" name="Constant_1518" type="Const" version="opset1">
			<data element_type="i64" shape="1" offset="65648420" size="8" />
			<output>
				<port id="0" precision="I64">
					<dim>1</dim>
				</port>
			</output>
		</layer>
		<layer id="276" name="__module.model.layers.0.self_attn/prim::ListConstruct_7" type="Concat" version="opset1">
			<data axis="0" />
			<input>
				<port id="0" precision="I64">
					<dim>2</dim>
				</port>
				<port id="1" precision="I64">
					<dim>1</dim>
				</port>
			</input>
			<output>
				<port id="2" precision="I64">
					<dim>3</dim>
				</port>
			</output>
		</layer>
		<layer id="277" name="__module.model.layers.0.self_attn/aten::view/Reshape_3" type="Reshape" version="opset1">
			<data special_zero="false" />
			<input>
				<port id="0" precision="FP32">
					<dim>-1</dim>
					<dim>-1</dim>
					<dim>32</dim>
					<dim>64</dim>
				</port>
				<port id="1" precision="I64">
					<dim>3</dim>
				</port>
			</input>
			<output>
				<port id="2" precision="FP32" names="419">
					<dim>-1</dim>
					<dim>-1</dim>
					<dim>-1</dim>
				</port>
			</output>
		</layer>
		<layer id="278" name="self.model.layers.0.self_attn.o_proj.weight" type="Const" version="opset1">
			<data element_type="i4" shape="2048, 16, 128" offset="68352168" size="2097152" />
			<output>
				<port id="0" precision="I4">
					<dim>2048</dim>
					<dim>16</dim>
					<dim>128</dim>
				</port>
			</output>
		</layer>
		<layer id="279" name="Convert_85911" type="Convert" version="opset1">
			<data destination_type="f16" />
			<input>
				<port id="0" precision="I4">
					<dim>2048</dim>
					<dim>16</dim>
					<dim>128</dim>
				</port>
			</input>
			<output>
				<port id="1" precision="FP16">
					<dim>2048</dim>
					<dim>16</dim>
					<dim>128</dim>
				</port>
			</output>
		</layer>
		<layer id="280" name="self.model.layers.0.self_attn.o_proj.weight/scale" type="Const" version="opset1">
			<data element_type="f16" shape="2048, 16, 1" offset="70449320" size="65536" />
			<output>
				<port id="0" precision="FP16">
					<dim>2048</dim>
					<dim>16</dim>
					<dim>1</dim>
				</port>
			</output>
		</layer>
		<layer id="281" name="self.model.layers.0.self_attn.o_proj.weight/fq_weights_1" type="Multiply" version="opset1">
			<data auto_broadcast="numpy" />
			<input>
				<port id="0" precision="FP16">
					<dim>2048</dim>
					<dim>16</dim>
					<dim>128</dim>
				</port>
				<port id="1" precision="FP16">
					<dim>2048</dim>
					<dim>16</dim>
					<dim>1</dim>
				</port>
			</input>
			<output>
				<port id="2" precision="FP16">
					<dim>2048</dim>
					<dim>16</dim>
					<dim>128</dim>
				</port>
			</output>
		</layer>
		<layer id="282" name="Constant_85915" type="Const" version="opset1">
			<data element_type="i32" shape="2" offset="67811120" size="8" />
			<output>
				<port id="0" precision="I32">
					<dim>2</dim>
				</port>
			</output>
		</layer>
		<layer id="283" name="Reshape_85916" type="Reshape" version="opset1">
			<data special_zero="false" />
			<input>
				<port id="0" precision="FP16">
					<dim>2048</dim>
					<dim>16</dim>
					<dim>128</dim>
				</port>
				<port id="1" precision="I32">
					<dim>2</dim>
				</port>
			</input>
			<output>
				<port id="2" precision="FP16">
					<dim>2048</dim>
					<dim>2048</dim>
				</port>
			</output>
		</layer>
		<layer id="284" name="__module.model.layers.0.self_attn.o_proj/ov_ext::linear/ConvertLike" type="Convert" version="opset1">
			<data destination_type="f32" />
			<rt_info>
				<attribute name="decompression" version="0" />
			</rt_info>
			<input>
				<port id="0" precision="FP16">
					<dim>2048</dim>
					<dim>2048</dim>
				</port>
			</input>
			<output>
				<port id="1" precision="FP32">
					<dim>2048</dim>
					<dim>2048</dim>
				</port>
			</output>
		</layer>
		<layer id="285" name="__module.model.layers.0.self_attn.o_proj/ov_ext::linear/MatMul" type="MatMul" version="opset1">
			<data transpose_a="false" transpose_b="true" />
			<input>
				<port id="0" precision="FP32">
					<dim>-1</dim>
					<dim>-1</dim>
					<dim>-1</dim>
				</port>
				<port id="1" precision="FP32">
					<dim>2048</dim>
					<dim>2048</dim>
				</port>
			</input>
			<output>
				<port id="2" precision="FP32" names="421,423,hidden_states.17">
					<dim>-1</dim>
					<dim>-1</dim>
					<dim>2048</dim>
				</port>
			</output>
		</layer>
		<layer id="286" name="__module.model.layers.0/aten::add/Add" type="Add" version="opset1">
			<data auto_broadcast="numpy" />
			<input>
				<port id="0" precision="FP32">
					<dim>-1</dim>
					<dim>-1</dim>
					<dim>2048</dim>
				</port>
				<port id="1" precision="FP32">
					<dim>-1</dim>
					<dim>-1</dim>
					<dim>2048</dim>
				</port>
			</input>
			<output>
				<port id="2" precision="FP32" names="426,428,439,hidden_states.19,hidden_states.21">
					<dim>-1</dim>
					<dim>-1</dim>
					<dim>2048</dim>
				</port>
			</output>
		</layer>
		<layer id="287" name="Constant_38637" type="Const" version="opset1">
			<data element_type="f32" shape="1, 1, 2048" offset="70514856" size="8192" />
			<output>
				<port id="0" precision="FP32">
					<dim>1</dim>
					<dim>1</dim>
					<dim>2048</dim>
				</port>
			</output>
		</layer>
		<layer id="288" name="Constant_38636" type="Const" version="opset1">
			<data element_type="f32" shape="1, 1, 1" offset="65648412" size="4" />
			<output>
				<port id="0" precision="FP32">
					<dim>1</dim>
					<dim>1</dim>
					<dim>1</dim>
				</port>
			</output>
		</layer>
		<layer id="289" name="Constant_38634" type="Const" version="opset1">
			<data element_type="f32" shape="1, 1, 1" offset="65648416" size="4" />
			<output>
				<port id="0" precision="FP32">
					<dim>1</dim>
					<dim>1</dim>
					<dim>1</dim>
				</port>
			</output>
		</layer>
		<layer id="290" name="__module.model.layers.0.post_attention_layernorm/aten::pow/Power" type="Power" version="opset1">
			<data auto_broadcast="numpy" />
			<input>
				<port id="0" precision="FP32">
					<dim>-1</dim>
					<dim>-1</dim>
					<dim>2048</dim>
				</port>
				<port id="1" precision="FP32">
					<dim>1</dim>
					<dim>1</dim>
					<dim>1</dim>
				</port>
			</input>
			<output>
				<port id="2" precision="FP32" names="429">
					<dim>-1</dim>
					<dim>-1</dim>
					<dim>2048</dim>
				</port>
			</output>
		</layer>
		<layer id="291" name="Constant_1546" type="Const" version="opset1">
			<data element_type="i64" shape="1" offset="65648420" size="8" />
			<output>
				<port id="0" precision="I64" names="430">
					<dim>1</dim>
				</port>
			</output>
		</layer>
		<layer id="292" name="__module.model.layers.0.post_attention_layernorm/aten::mean/ReduceMean" type="ReduceMean" version="opset1">
			<data keep_dims="true" />
			<input>
				<port id="0" precision="FP32">
					<dim>-1</dim>
					<dim>-1</dim>
					<dim>2048</dim>
				</port>
				<port id="1" precision="I64">
					<dim>1</dim>
				</port>
			</input>
			<output>
				<port id="2" precision="FP32" names="431,variance.3">
					<dim>-1</dim>
					<dim>-1</dim>
					<dim>1</dim>
				</port>
			</output>
		</layer>
		<layer id="293" name="Constant_38635" type="Const" version="opset1">
			<data element_type="f32" shape="1, 1, 1" offset="65648428" size="4" />
			<output>
				<port id="0" precision="FP32">
					<dim>1</dim>
					<dim>1</dim>
					<dim>1</dim>
				</port>
			</output>
		</layer>
		<layer id="294" name="__module.model.layers.0.post_attention_layernorm/aten::add/Add" type="Add" version="opset1">
			<data auto_broadcast="numpy" />
			<input>
				<port id="0" precision="FP32">
					<dim>-1</dim>
					<dim>-1</dim>
					<dim>1</dim>
				</port>
				<port id="1" precision="FP32">
					<dim>1</dim>
					<dim>1</dim>
					<dim>1</dim>
				</port>
			</input>
			<output>
				<port id="2" precision="FP32" names="432">
					<dim>-1</dim>
					<dim>-1</dim>
					<dim>1</dim>
				</port>
			</output>
		</layer>
		<layer id="295" name="__module.model.layers.0.post_attention_layernorm/aten::rsqrt/Sqrt" type="Sqrt" version="opset1">
			<input>
				<port id="0" precision="FP32">
					<dim>-1</dim>
					<dim>-1</dim>
					<dim>1</dim>
				</port>
			</input>
			<output>
				<port id="1" precision="FP32">
					<dim>-1</dim>
					<dim>-1</dim>
					<dim>1</dim>
				</port>
			</output>
		</layer>
		<layer id="296" name="__module.model.layers.0.post_attention_layernorm/aten::rsqrt/Divide" type="Divide" version="opset1">
			<data auto_broadcast="numpy" m_pythondiv="true" />
			<input>
				<port id="0" precision="FP32">
					<dim>1</dim>
					<dim>1</dim>
					<dim>1</dim>
				</port>
				<port id="1" precision="FP32">
					<dim>-1</dim>
					<dim>-1</dim>
					<dim>1</dim>
				</port>
			</input>
			<output>
				<port id="2" precision="FP32" names="433">
					<dim>-1</dim>
					<dim>-1</dim>
					<dim>1</dim>
				</port>
			</output>
		</layer>
		<layer id="297" name="__module.model.layers.0.post_attention_layernorm/aten::mul/Multiply" type="Multiply" version="opset1">
			<data auto_broadcast="numpy" />
			<input>
				<port id="0" precision="FP32">
					<dim>-1</dim>
					<dim>-1</dim>
					<dim>2048</dim>
				</port>
				<port id="1" precision="FP32">
					<dim>-1</dim>
					<dim>-1</dim>
					<dim>1</dim>
				</port>
			</input>
			<output>
				<port id="2" precision="FP32" names="434,435,hidden_states.23,hidden_states.25">
					<dim>-1</dim>
					<dim>-1</dim>
					<dim>2048</dim>
				</port>
			</output>
		</layer>
		<layer id="298" name="__module.model.layers.0.post_attention_layernorm/aten::mul/Multiply_1" type="Multiply" version="opset1">
			<data auto_broadcast="numpy" />
			<input>
				<port id="0" precision="FP32">
					<dim>1</dim>
					<dim>1</dim>
					<dim>2048</dim>
				</port>
				<port id="1" precision="FP32">
					<dim>-1</dim>
					<dim>-1</dim>
					<dim>2048</dim>
				</port>
			</input>
			<output>
				<port id="2" precision="FP32" names="436,438">
					<dim>-1</dim>
					<dim>-1</dim>
					<dim>2048</dim>
				</port>
			</output>
		</layer>
		<layer id="299" name="self.model.layers.0.mlp.gate_proj.weight" type="Const" version="opset1">
			<data element_type="i4" shape="5632, 16, 128" offset="70523048" size="5767168" />
			<output>
				<port id="0" precision="I4">
					<dim>5632</dim>
					<dim>16</dim>
					<dim>128</dim>
				</port>
			</output>
		</layer>
		<layer id="300" name="Convert_85449" type="Convert" version="opset1">
			<data destination_type="f16" />
			<input>
				<port id="0" precision="I4">
					<dim>5632</dim>
					<dim>16</dim>
					<dim>128</dim>
				</port>
			</input>
			<output>
				<port id="1" precision="FP16">
					<dim>5632</dim>
					<dim>16</dim>
					<dim>128</dim>
				</port>
			</output>
		</layer>
		<layer id="301" name="self.model.layers.0.mlp.gate_proj.weight/scale" type="Const" version="opset1">
			<data element_type="f16" shape="5632, 16, 1" offset="76290216" size="180224" />
			<output>
				<port id="0" precision="FP16">
					<dim>5632</dim>
					<dim>16</dim>
					<dim>1</dim>
				</port>
			</output>
		</layer>
		<layer id="302" name="self.model.layers.0.mlp.gate_proj.weight/fq_weights_1" type="Multiply" version="opset1">
			<data auto_broadcast="numpy" />
			<input>
				<port id="0" precision="FP16">
					<dim>5632</dim>
					<dim>16</dim>
					<dim>128</dim>
				</port>
				<port id="1" precision="FP16">
					<dim>5632</dim>
					<dim>16</dim>
					<dim>1</dim>
				</port>
			</input>
			<output>
				<port id="2" precision="FP16">
					<dim>5632</dim>
					<dim>16</dim>
					<dim>128</dim>
				</port>
			</output>
		</layer>
		<layer id="303" name="Constant_85453" type="Const" version="opset1">
			<data element_type="i32" shape="2" offset="76470440" size="8" />
			<output>
				<port id="0" precision="I32">
					<dim>2</dim>
				</port>
			</output>
		</layer>
		<layer id="304" name="Reshape_85454" type="Reshape" version="opset1">
			<data special_zero="false" />
			<input>
				<port id="0" precision="FP16">
					<dim>5632</dim>
					<dim>16</dim>
					<dim>128</dim>
				</port>
				<port id="1" precision="I32">
					<dim>2</dim>
				</port>
			</input>
			<output>
				<port id="2" precision="FP16">
					<dim>5632</dim>
					<dim>2048</dim>
				</port>
			</output>
		</layer>
		<layer id="305" name="__module.model.layers.0.mlp.gate_proj/ov_ext::linear/ConvertLike" type="Convert" version="opset1">
			<data destination_type="f32" />
			<rt_info>
				<attribute name="decompression" version="0" />
			</rt_info>
			<input>
				<port id="0" precision="FP16">
					<dim>5632</dim>
					<dim>2048</dim>
				</port>
			</input>
			<output>
				<port id="1" precision="FP32">
					<dim>5632</dim>
					<dim>2048</dim>
				</port>
			</output>
		</layer>
		<layer id="306" name="__module.model.layers.0.mlp.gate_proj/ov_ext::linear/MatMul" type="MatMul" version="opset1">
			<data transpose_a="false" transpose_b="true" />
			<input>
				<port id="0" precision="FP32">
					<dim>-1</dim>
					<dim>-1</dim>
					<dim>2048</dim>
				</port>
				<port id="1" precision="FP32">
					<dim>5632</dim>
					<dim>2048</dim>
				</port>
			</input>
			<output>
				<port id="2" precision="FP32" names="444,input.1">
					<dim>-1</dim>
					<dim>-1</dim>
					<dim>5632</dim>
				</port>
			</output>
		</layer>
		<layer id="307" name="__module.model.layers.0.mlp.act_fn/aten::silu/Swish" type="Swish" version="opset4">
			<input>
				<port id="0" precision="FP32">
					<dim>-1</dim>
					<dim>-1</dim>
					<dim>5632</dim>
				</port>
			</input>
			<output>
				<port id="1" precision="FP32" names="445">
					<dim>-1</dim>
					<dim>-1</dim>
					<dim>5632</dim>
				</port>
			</output>
		</layer>
		<layer id="308" name="self.model.layers.0.mlp.up_proj.weight" type="Const" version="opset1">
			<data element_type="i4" shape="5632, 16, 128" offset="76470448" size="5767168" />
			<output>
				<port id="0" precision="I4">
					<dim>5632</dim>
					<dim>16</dim>
					<dim>128</dim>
				</port>
			</output>
		</layer>
		<layer id="309" name="Convert_85442" type="Convert" version="opset1">
			<data destination_type="f16" />
			<input>
				<port id="0" precision="I4">
					<dim>5632</dim>
					<dim>16</dim>
					<dim>128</dim>
				</port>
			</input>
			<output>
				<port id="1" precision="FP16">
					<dim>5632</dim>
					<dim>16</dim>
					<dim>128</dim>
				</port>
			</output>
		</layer>
		<layer id="310" name="self.model.layers.0.mlp.up_proj.weight/scale" type="Const" version="opset1">
			<data element_type="f16" shape="5632, 16, 1" offset="82237616" size="180224" />
			<output>
				<port id="0" precision="FP16">
					<dim>5632</dim>
					<dim>16</dim>
					<dim>1</dim>
				</port>
			</output>
		</layer>
		<layer id="311" name="self.model.layers.0.mlp.up_proj.weight/fq_weights_1" type="Multiply" version="opset1">
			<data auto_broadcast="numpy" />
			<input>
				<port id="0" precision="FP16">
					<dim>5632</dim>
					<dim>16</dim>
					<dim>128</dim>
				</port>
				<port id="1" precision="FP16">
					<dim>5632</dim>
					<dim>16</dim>
					<dim>1</dim>
				</port>
			</input>
			<output>
				<port id="2" precision="FP16">
					<dim>5632</dim>
					<dim>16</dim>
					<dim>128</dim>
				</port>
			</output>
		</layer>
		<layer id="312" name="Constant_85446" type="Const" version="opset1">
			<data element_type="i32" shape="2" offset="76470440" size="8" />
			<output>
				<port id="0" precision="I32">
					<dim>2</dim>
				</port>
			</output>
		</layer>
		<layer id="313" name="Reshape_85447" type="Reshape" version="opset1">
			<data special_zero="false" />
			<input>
				<port id="0" precision="FP16">
					<dim>5632</dim>
					<dim>16</dim>
					<dim>128</dim>
				</port>
				<port id="1" precision="I32">
					<dim>2</dim>
				</port>
			</input>
			<output>
				<port id="2" precision="FP16">
					<dim>5632</dim>
					<dim>2048</dim>
				</port>
			</output>
		</layer>
		<layer id="314" name="__module.model.layers.0.mlp.up_proj/ov_ext::linear/ConvertLike" type="Convert" version="opset1">
			<data destination_type="f32" />
			<rt_info>
				<attribute name="decompression" version="0" />
			</rt_info>
			<input>
				<port id="0" precision="FP16">
					<dim>5632</dim>
					<dim>2048</dim>
				</port>
			</input>
			<output>
				<port id="1" precision="FP32">
					<dim>5632</dim>
					<dim>2048</dim>
				</port>
			</output>
		</layer>
		<layer id="315" name="__module.model.layers.0.mlp.up_proj/ov_ext::linear/MatMul" type="MatMul" version="opset1">
			<data transpose_a="false" transpose_b="true" />
			<input>
				<port id="0" precision="FP32">
					<dim>-1</dim>
					<dim>-1</dim>
					<dim>2048</dim>
				</port>
				<port id="1" precision="FP32">
					<dim>5632</dim>
					<dim>2048</dim>
				</port>
			</input>
			<output>
				<port id="2" precision="FP32" names="447">
					<dim>-1</dim>
					<dim>-1</dim>
					<dim>5632</dim>
				</port>
			</output>
		</layer>
		<layer id="316" name="__module.model.layers.0.mlp/aten::mul/Multiply" type="Multiply" version="opset1">
			<data auto_broadcast="numpy" />
			<input>
				<port id="0" precision="FP32">
					<dim>-1</dim>
					<dim>-1</dim>
					<dim>5632</dim>
				</port>
				<port id="1" precision="FP32">
					<dim>-1</dim>
					<dim>-1</dim>
					<dim>5632</dim>
				</port>
			</input>
			<output>
				<port id="2" precision="FP32" names="448">
					<dim>-1</dim>
					<dim>-1</dim>
					<dim>5632</dim>
				</port>
			</output>
		</layer>
		<layer id="317" name="self.model.layers.0.mlp.down_proj.weight" type="Const" version="opset1">
			<data element_type="i4" shape="2048, 44, 128" offset="82417840" size="5767168" />
			<output>
				<port id="0" precision="I4">
					<dim>2048</dim>
					<dim>44</dim>
					<dim>128</dim>
				</port>
			</output>
		</layer>
		<layer id="318" name="Convert_85456" type="Convert" version="opset1">
			<data destination_type="f16" />
			<input>
				<port id="0" precision="I4">
					<dim>2048</dim>
					<dim>44</dim>
					<dim>128</dim>
				</port>
			</input>
			<output>
				<port id="1" precision="FP16">
					<dim>2048</dim>
					<dim>44</dim>
					<dim>128</dim>
				</port>
			</output>
		</layer>
		<layer id="319" name="self.model.layers.0.mlp.down_proj.weight/scale" type="Const" version="opset1">
			<data element_type="f16" shape="2048, 44, 1" offset="88185008" size="180224" />
			<output>
				<port id="0" precision="FP16">
					<dim>2048</dim>
					<dim>44</dim>
					<dim>1</dim>
				</port>
			</output>
		</layer>
		<layer id="320" name="self.model.layers.0.mlp.down_proj.weight/fq_weights_1" type="Multiply" version="opset1">
			<data auto_broadcast="numpy" />
			<input>
				<port id="0" precision="FP16">
					<dim>2048</dim>
					<dim>44</dim>
					<dim>128</dim>
				</port>
				<port id="1" precision="FP16">
					<dim>2048</dim>
					<dim>44</dim>
					<dim>1</dim>
				</port>
			</input>
			<output>
				<port id="2" precision="FP16">
					<dim>2048</dim>
					<dim>44</dim>
					<dim>128</dim>
				</port>
			</output>
		</layer>
		<layer id="321" name="Constant_85460" type="Const" version="opset1">
			<data element_type="i32" shape="2" offset="88365232" size="8" />
			<output>
				<port id="0" precision="I32">
					<dim>2</dim>
				</port>
			</output>
		</layer>
		<layer id="322" name="Reshape_85461" type="Reshape" version="opset1">
			<data special_zero="false" />
			<input>
				<port id="0" precision="FP16">
					<dim>2048</dim>
					<dim>44</dim>
					<dim>128</dim>
				</port>
				<port id="1" precision="I32">
					<dim>2</dim>
				</port>
			</input>
			<output>
				<port id="2" precision="FP16">
					<dim>2048</dim>
					<dim>5632</dim>
				</port>
			</output>
		</layer>
		<layer id="323" name="__module.model.layers.0.mlp.down_proj/ov_ext::linear/ConvertLike" type="Convert" version="opset1">
			<data destination_type="f32" />
			<rt_info>
				<attribute name="decompression" version="0" />
			</rt_info>
			<input>
				<port id="0" precision="FP16">
					<dim>2048</dim>
					<dim>5632</dim>
				</port>
			</input>
			<output>
				<port id="1" precision="FP32">
					<dim>2048</dim>
					<dim>5632</dim>
				</port>
			</output>
		</layer>
		<layer id="324" name="__module.model.layers.0.mlp.down_proj/ov_ext::linear/MatMul" type="MatMul" version="opset1">
			<data transpose_a="false" transpose_b="true" />
			<input>
				<port id="0" precision="FP32">
					<dim>-1</dim>
					<dim>-1</dim>
					<dim>5632</dim>
				</port>
				<port id="1" precision="FP32">
					<dim>2048</dim>
					<dim>5632</dim>
				</port>
			</input>
			<output>
				<port id="2" precision="FP32" names="450,hidden_states.27">
					<dim>-1</dim>
					<dim>-1</dim>
					<dim>2048</dim>
				</port>
			</output>
		</layer>
		<layer id="325" name="__module.model.layers.0/aten::add/Add_1" type="Add" version="opset1">
			<data auto_broadcast="numpy" />
			<input>
				<port id="0" precision="FP32">
					<dim>-1</dim>
					<dim>-1</dim>
					<dim>2048</dim>
				</port>
				<port id="1" precision="FP32">
					<dim>-1</dim>
					<dim>-1</dim>
					<dim>2048</dim>
				</port>
			</input>
			<output>
				<port id="2" precision="FP32" names="451,453,461,472,hidden_states.29,hidden_states.31">
					<dim>-1</dim>
					<dim>-1</dim>
					<dim>2048</dim>
				</port>
			</output>
		</layer>
		<layer id="326" name="Constant_38641" type="Const" version="opset1">
			<data element_type="f32" shape="1, 1, 2048" offset="88365240" size="8192" />
			<output>
				<port id="0" precision="FP32">
					<dim>1</dim>
					<dim>1</dim>
					<dim>2048</dim>
				</port>
			</output>
		</layer>
		<layer id="327" name="Constant_38640" type="Const" version="opset1">
			<data element_type="f32" shape="1, 1, 1" offset="65648412" size="4" />
			<output>
				<port id="0" precision="FP32">
					<dim>1</dim>
					<dim>1</dim>
					<dim>1</dim>
				</port>
			</output>
		</layer>
		<layer id="328" name="Constant_38638" type="Const" version="opset1">
			<data element_type="f32" shape="1, 1, 1" offset="65648416" size="4" />
			<output>
				<port id="0" precision="FP32">
					<dim>1</dim>
					<dim>1</dim>
					<dim>1</dim>
				</port>
			</output>
		</layer>
		<layer id="329" name="__module.model.layers.1.input_layernorm/aten::pow/Power" type="Power" version="opset1">
			<data auto_broadcast="numpy" />
			<input>
				<port id="0" precision="FP32">
					<dim>-1</dim>
					<dim>-1</dim>
					<dim>2048</dim>
				</port>
				<port id="1" precision="FP32">
					<dim>1</dim>
					<dim>1</dim>
					<dim>1</dim>
				</port>
			</input>
			<output>
				<port id="2" precision="FP32" names="462">
					<dim>-1</dim>
					<dim>-1</dim>
					<dim>2048</dim>
				</port>
			</output>
		</layer>
		<layer id="330" name="Constant_1620" type="Const" version="opset1">
			<data element_type="i64" shape="1" offset="65648420" size="8" />
			<output>
				<port id="0" precision="I64" names="463">
					<dim>1</dim>
				</port>
			</output>
		</layer>
		<layer id="331" name="__module.model.layers.1.input_layernorm/aten::mean/ReduceMean" type="ReduceMean" version="opset1">
			<data keep_dims="true" />
			<input>
				<port id="0" precision="FP32">
					<dim>-1</dim>
					<dim>-1</dim>
					<dim>2048</dim>
				</port>
				<port id="1" precision="I64">
					<dim>1</dim>
				</port>
			</input>
			<output>
				<port id="2" precision="FP32" names="464,variance.5">
					<dim>-1</dim>
					<dim>-1</dim>
					<dim>1</dim>
				</port>
			</output>
		</layer>
		<layer id="332" name="Constant_38639" type="Const" version="opset1">
			<data element_type="f32" shape="1, 1, 1" offset="65648428" size="4" />
			<output>
				<port id="0" precision="FP32">
					<dim>1</dim>
					<dim>1</dim>
					<dim>1</dim>
				</port>
			</output>
		</layer>
		<layer id="333" name="__module.model.layers.1.input_layernorm/aten::add/Add" type="Add" version="opset1">
			<data auto_broadcast="numpy" />
			<input>
				<port id="0" precision="FP32">
					<dim>-1</dim>
					<dim>-1</dim>
					<dim>1</dim>
				</port>
				<port id="1" precision="FP32">
					<dim>1</dim>
					<dim>1</dim>
					<dim>1</dim>
				</port>
			</input>
			<output>
				<port id="2" precision="FP32" names="465">
					<dim>-1</dim>
					<dim>-1</dim>
					<dim>1</dim>
				</port>
			</output>
		</layer>
		<layer id="334" name="__module.model.layers.1.input_layernorm/aten::rsqrt/Sqrt" type="Sqrt" version="opset1">
			<input>
				<port id="0" precision="FP32">
					<dim>-1</dim>
					<dim>-1</dim>
					<dim>1</dim>
				</port>
			</input>
			<output>
				<port id="1" precision="FP32">
					<dim>-1</dim>
					<dim>-1</dim>
					<dim>1</dim>
				</port>
			</output>
		</layer>
		<layer id="335" name="__module.model.layers.1.input_layernorm/aten::rsqrt/Divide" type="Divide" version="opset1">
			<data auto_broadcast="numpy" m_pythondiv="true" />
			<input>
				<port id="0" precision="FP32">
					<dim>1</dim>
					<dim>1</dim>
					<dim>1</dim>
				</port>
				<port id="1" precision="FP32">
					<dim>-1</dim>
					<dim>-1</dim>
					<dim>1</dim>
				</port>
			</input>
			<output>
				<port id="2" precision="FP32" names="466">
					<dim>-1</dim>
					<dim>-1</dim>
					<dim>1</dim>
				</port>
			</output>
		</layer>
		<layer id="336" name="__module.model.layers.1.input_layernorm/aten::mul/Multiply" type="Multiply" version="opset1">
			<data auto_broadcast="numpy" />
			<input>
				<port id="0" precision="FP32">
					<dim>-1</dim>
					<dim>-1</dim>
					<dim>2048</dim>
				</port>
				<port id="1" precision="FP32">
					<dim>-1</dim>
					<dim>-1</dim>
					<dim>1</dim>
				</port>
			</input>
			<output>
				<port id="2" precision="FP32" names="467,468,hidden_states.33,hidden_states.35">
					<dim>-1</dim>
					<dim>-1</dim>
					<dim>2048</dim>
				</port>
			</output>
		</layer>
		<layer id="337" name="__module.model.layers.1.input_layernorm/aten::mul/Multiply_1" type="Multiply" version="opset1">
			<data auto_broadcast="numpy" />
			<input>
				<port id="0" precision="FP32">
					<dim>1</dim>
					<dim>1</dim>
					<dim>2048</dim>
				</port>
				<port id="1" precision="FP32">
					<dim>-1</dim>
					<dim>-1</dim>
					<dim>2048</dim>
				</port>
			</input>
			<output>
				<port id="2" precision="FP32" names="469,471,hidden_states.37">
					<dim>-1</dim>
					<dim>-1</dim>
					<dim>2048</dim>
				</port>
			</output>
		</layer>
		<layer id="338" name="self.model.layers.1.self_attn.q_proj.weight" type="Const" version="opset1">
			<data element_type="i4" shape="2048, 16, 128" offset="88373432" size="2097152" />
			<output>
				<port id="0" precision="I4">
					<dim>2048</dim>
					<dim>16</dim>
					<dim>128</dim>
				</port>
			</output>
		</layer>
		<layer id="339" name="Convert_85918" type="Convert" version="opset1">
			<data destination_type="f16" />
			<input>
				<port id="0" precision="I4">
					<dim>2048</dim>
					<dim>16</dim>
					<dim>128</dim>
				</port>
			</input>
			<output>
				<port id="1" precision="FP16">
					<dim>2048</dim>
					<dim>16</dim>
					<dim>128</dim>
				</port>
			</output>
		</layer>
		<layer id="340" name="self.model.layers.1.self_attn.q_proj.weight/scale" type="Const" version="opset1">
			<data element_type="f16" shape="2048, 16, 1" offset="90470584" size="65536" />
			<output>
				<port id="0" precision="FP16">
					<dim>2048</dim>
					<dim>16</dim>
					<dim>1</dim>
				</port>
			</output>
		</layer>
		<layer id="341" name="self.model.layers.1.self_attn.q_proj.weight/fq_weights_1" type="Multiply" version="opset1">
			<data auto_broadcast="numpy" />
			<input>
				<port id="0" precision="FP16">
					<dim>2048</dim>
					<dim>16</dim>
					<dim>128</dim>
				</port>
				<port id="1" precision="FP16">
					<dim>2048</dim>
					<dim>16</dim>
					<dim>1</dim>
				</port>
			</input>
			<output>
				<port id="2" precision="FP16">
					<dim>2048</dim>
					<dim>16</dim>
					<dim>128</dim>
				</port>
			</output>
		</layer>
		<layer id="342" name="Constant_85922" type="Const" version="opset1">
			<data element_type="i32" shape="2" offset="67811120" size="8" />
			<output>
				<port id="0" precision="I32">
					<dim>2</dim>
				</port>
			</output>
		</layer>
		<layer id="343" name="Reshape_85923" type="Reshape" version="opset1">
			<data special_zero="false" />
			<input>
				<port id="0" precision="FP16">
					<dim>2048</dim>
					<dim>16</dim>
					<dim>128</dim>
				</port>
				<port id="1" precision="I32">
					<dim>2</dim>
				</port>
			</input>
			<output>
				<port id="2" precision="FP16">
					<dim>2048</dim>
					<dim>2048</dim>
				</port>
			</output>
		</layer>
		<layer id="344" name="__module.model.layers.1.self_attn.q_proj/ov_ext::linear/ConvertLike" type="Convert" version="opset1">
			<data destination_type="f32" />
			<rt_info>
				<attribute name="decompression" version="0" />
			</rt_info>
			<input>
				<port id="0" precision="FP16">
					<dim>2048</dim>
					<dim>2048</dim>
				</port>
			</input>
			<output>
				<port id="1" precision="FP32">
					<dim>2048</dim>
					<dim>2048</dim>
				</port>
			</output>
		</layer>
		<layer id="345" name="__module.model.layers.1.self_attn.q_proj/ov_ext::linear/MatMul" type="MatMul" version="opset1">
			<data transpose_a="false" transpose_b="true" />
			<input>
				<port id="0" precision="FP32">
					<dim>-1</dim>
					<dim>-1</dim>
					<dim>2048</dim>
				</port>
				<port id="1" precision="FP32">
					<dim>2048</dim>
					<dim>2048</dim>
				</port>
			</input>
			<output>
				<port id="2" precision="FP32" names="480,query_states.3">
					<dim>-1</dim>
					<dim>-1</dim>
					<dim>2048</dim>
				</port>
			</output>
		</layer>
		<layer id="346" name="Constant_45190" type="Const" version="opset1">
			<data element_type="i64" shape="4" offset="67811128" size="32" />
			<output>
				<port id="0" precision="I64">
					<dim>4</dim>
				</port>
			</output>
		</layer>
		<layer id="347" name="__module.model.layers.1.self_attn/aten::view/Reshape" type="Reshape" version="opset1">
			<data special_zero="true" />
			<input>
				<port id="0" precision="FP32">
					<dim>-1</dim>
					<dim>-1</dim>
					<dim>2048</dim>
				</port>
				<port id="1" precision="I64">
					<dim>4</dim>
				</port>
			</input>
			<output>
				<port id="2" precision="FP32" names="486">
					<dim>-1</dim>
					<dim>-1</dim>
					<dim>32</dim>
					<dim>64</dim>
				</port>
			</output>
		</layer>
		<layer id="348" name="__module.model.layers.1.self_attn/aten::transpose/Constant" type="Const" version="opset1">
			<data element_type="i32" shape="4" offset="67811160" size="16" />
			<output>
				<port id="0" precision="I32">
					<dim>4</dim>
				</port>
			</output>
		</layer>
		<layer id="349" name="__module.model.layers.1.self_attn/aten::transpose/Transpose" type="Transpose" version="opset1">
			<input>
				<port id="0" precision="FP32">
					<dim>-1</dim>
					<dim>-1</dim>
					<dim>32</dim>
					<dim>64</dim>
				</port>
				<port id="1" precision="I32">
					<dim>4</dim>
				</port>
			</input>
			<output>
				<port id="2" precision="FP32" names="487,q.3">
					<dim>-1</dim>
					<dim>32</dim>
					<dim>-1</dim>
					<dim>64</dim>
				</port>
			</output>
		</layer>
		<layer id="350" name="__module.model.layers.1.self_attn/aten::mul/Multiply" type="Multiply" version="opset1">
			<data auto_broadcast="numpy" />
			<input>
				<port id="0" precision="FP32">
					<dim>-1</dim>
					<dim>32</dim>
					<dim>-1</dim>
					<dim>64</dim>
				</port>
				<port id="1" precision="FP32">
					<dim>-1</dim>
					<dim>1</dim>
					<dim>-1</dim>
					<dim>64</dim>
				</port>
			</input>
			<output>
				<port id="2" precision="FP32" names="496">
					<dim>-1</dim>
					<dim>32</dim>
					<dim>-1</dim>
					<dim>64</dim>
				</port>
			</output>
		</layer>
		<layer id="351" name="Constant_2017" type="Const" version="opset1">
			<data element_type="i64" shape="1" offset="67811324" size="8" />
			<output>
				<port id="0" precision="I64">
					<dim>1</dim>
				</port>
			</output>
		</layer>
		<layer id="352" name="Constant_2019" type="Const" version="opset1">
			<data element_type="i64" shape="1" offset="67811332" size="8" />
			<output>
				<port id="0" precision="I64">
					<dim>1</dim>
				</port>
			</output>
		</layer>
		<layer id="353" name="Constant_2021" type="Const" version="opset1">
			<data element_type="i64" shape="1" offset="67811304" size="8" />
			<output>
				<port id="0" precision="I64">
					<dim>1</dim>
				</port>
			</output>
		</layer>
		<layer id="354" name="__module.model.layers.1.self_attn/aten::slice/Slice" type="Slice" version="opset8">
			<input>
				<port id="0" precision="FP32">
					<dim>-1</dim>
					<dim>32</dim>
					<dim>-1</dim>
					<dim>64</dim>
				</port>
				<port id="1" precision="I64">
					<dim>1</dim>
				</port>
				<port id="2" precision="I64">
					<dim>1</dim>
				</port>
				<port id="3" precision="I64">
					<dim>1</dim>
				</port>
				<port id="4" precision="I64">
					<dim>1</dim>
				</port>
			</input>
			<output>
				<port id="5" precision="FP32" names="506,x2.5">
					<dim>-1</dim>
					<dim>32</dim>
					<dim>-1</dim>
					<dim>32</dim>
				</port>
			</output>
		</layer>
		<layer id="355" name="Constant_38642" type="Const" version="opset1">
			<data element_type="f32" shape="1, 1, 1, 1" offset="67811348" size="4" />
			<output>
				<port id="0" precision="FP32">
					<dim>1</dim>
					<dim>1</dim>
					<dim>1</dim>
					<dim>1</dim>
				</port>
			</output>
		</layer>
		<layer id="356" name="__module.model.layers.1.self_attn/aten::neg/Multiply" type="Multiply" version="opset1">
			<data auto_broadcast="numpy" />
			<input>
				<port id="0" precision="FP32">
					<dim>-1</dim>
					<dim>32</dim>
					<dim>-1</dim>
					<dim>32</dim>
				</port>
				<port id="1" precision="FP32">
					<dim>1</dim>
					<dim>1</dim>
					<dim>1</dim>
					<dim>1</dim>
				</port>
			</input>
			<output>
				<port id="2" precision="FP32" names="507">
					<dim>-1</dim>
					<dim>32</dim>
					<dim>-1</dim>
					<dim>32</dim>
				</port>
			</output>
		</layer>
		<layer id="357" name="Constant_1914" type="Const" version="opset1">
			<data element_type="i64" shape="1" offset="12" size="8" />
			<output>
				<port id="0" precision="I64">
					<dim>1</dim>
				</port>
			</output>
		</layer>
		<layer id="358" name="Constant_1958" type="Const" version="opset1">
			<data element_type="i64" shape="1" offset="67811324" size="8" />
			<output>
				<port id="0" precision="I64">
					<dim>1</dim>
				</port>
			</output>
		</layer>
		<layer id="359" name="Constant_1960" type="Const" version="opset1">
			<data element_type="i64" shape="1" offset="67811304" size="8" />
			<output>
				<port id="0" precision="I64">
					<dim>1</dim>
				</port>
			</output>
		</layer>
		<layer id="360" name="__module.model.layers.1.self_attn/aten::slice/Slice_1" type="Slice" version="opset8">
			<input>
				<port id="0" precision="FP32">
					<dim>-1</dim>
					<dim>32</dim>
					<dim>-1</dim>
					<dim>64</dim>
				</port>
				<port id="1" precision="I64">
					<dim>1</dim>
				</port>
				<port id="2" precision="I64">
					<dim>1</dim>
				</port>
				<port id="3" precision="I64">
					<dim>1</dim>
				</port>
				<port id="4" precision="I64">
					<dim>1</dim>
				</port>
			</input>
			<output>
				<port id="5" precision="FP32" names="501">
					<dim>-1</dim>
					<dim>32</dim>
					<dim>-1</dim>
					<dim>32</dim>
				</port>
			</output>
		</layer>
		<layer id="361" name="__module.model.layers.1.self_attn/aten::cat/Concat" type="Concat" version="opset1">
			<data axis="-1" />
			<input>
				<port id="0" precision="FP32">
					<dim>-1</dim>
					<dim>32</dim>
					<dim>-1</dim>
					<dim>32</dim>
				</port>
				<port id="1" precision="FP32">
					<dim>-1</dim>
					<dim>32</dim>
					<dim>-1</dim>
					<dim>32</dim>
				</port>
			</input>
			<output>
				<port id="2" precision="FP32" names="509">
					<dim>-1</dim>
					<dim>32</dim>
					<dim>-1</dim>
					<dim>64</dim>
				</port>
			</output>
		</layer>
		<layer id="362" name="__module.model.layers.1.self_attn/aten::mul/Multiply_1" type="Multiply" version="opset1">
			<data auto_broadcast="numpy" />
			<input>
				<port id="0" precision="FP32">
					<dim>-1</dim>
					<dim>32</dim>
					<dim>-1</dim>
					<dim>64</dim>
				</port>
				<port id="1" precision="FP32">
					<dim>-1</dim>
					<dim>1</dim>
					<dim>-1</dim>
					<dim>64</dim>
				</port>
			</input>
			<output>
				<port id="2" precision="FP32" names="510">
					<dim>-1</dim>
					<dim>32</dim>
					<dim>-1</dim>
					<dim>64</dim>
				</port>
			</output>
		</layer>
		<layer id="363" name="__module.model.layers.1.self_attn/aten::add/Add" type="Add" version="opset1">
			<data auto_broadcast="numpy" />
			<input>
				<port id="0" precision="FP32">
					<dim>-1</dim>
					<dim>32</dim>
					<dim>-1</dim>
					<dim>64</dim>
				</port>
				<port id="1" precision="FP32">
					<dim>-1</dim>
					<dim>32</dim>
					<dim>-1</dim>
					<dim>64</dim>
				</port>
			</input>
			<output>
				<port id="2" precision="FP32" names="511">
					<dim>-1</dim>
					<dim>32</dim>
					<dim>-1</dim>
					<dim>64</dim>
				</port>
			</output>
		</layer>
		<layer id="364" name="Constant_64440" type="Const" version="opset1">
			<data element_type="f32" shape="" offset="0" size="4" />
			<output>
				<port id="0" precision="FP32" />
			</output>
		</layer>
		<layer id="365" name="Constant_64433" type="Const" version="opset1">
			<data element_type="i64" shape="1" offset="4" size="8" />
			<output>
				<port id="0" precision="I64">
					<dim>1</dim>
				</port>
			</output>
		</layer>
		<layer id="366" name="Constant_64435" type="Const" version="opset1">
			<data element_type="i64" shape="1" offset="12" size="8" />
			<output>
				<port id="0" precision="I64">
					<dim>1</dim>
				</port>
			</output>
		</layer>
		<layer id="367" name="Constant_64437" type="Const" version="opset1">
			<data element_type="i64" shape="1" offset="20" size="8" />
			<output>
				<port id="0" precision="I64">
					<dim>1</dim>
				</port>
			</output>
		</layer>
		<layer id="368" name="Concat_64438" type="Concat" version="opset1">
			<data axis="0" />
			<input>
				<port id="0" precision="I64">
					<dim>1</dim>
				</port>
				<port id="1" precision="I64">
					<dim>1</dim>
				</port>
				<port id="2" precision="I64">
					<dim>1</dim>
				</port>
				<port id="3" precision="I64">
					<dim>1</dim>
				</port>
			</input>
			<output>
				<port id="4" precision="I64">
					<dim>4</dim>
				</port>
			</output>
		</layer>
		<layer id="369" name="Broadcast_64441" type="Broadcast" version="opset3">
			<data mode="numpy" />
			<input>
				<port id="0" precision="FP32" />
				<port id="1" precision="I64">
					<dim>4</dim>
				</port>
			</input>
			<output>
				<port id="2" precision="FP32">
					<dim>-1</dim>
					<dim>4</dim>
					<dim>0</dim>
					<dim>64</dim>
				</port>
			</output>
		</layer>
		<layer id="370" name="ReadValue_61180" type="ReadValue" version="opset6">
			<data variable_id="past_key_values.1.keypresent.1.key" variable_type="f32" variable_shape="?,4,?,64" />
			<input>
				<port id="0" precision="FP32">
					<dim>-1</dim>
					<dim>4</dim>
					<dim>0</dim>
					<dim>64</dim>
				</port>
			</input>
			<output>
				<port id="1" precision="FP32" names="past_key_values.1.key">
					<dim>-1</dim>
					<dim>4</dim>
					<dim>-1</dim>
					<dim>64</dim>
				</port>
			</output>
		</layer>
		<layer id="371" name="Constant_57925" type="Const" version="opset1">
			<data element_type="i32" shape="" offset="0" size="4" />
			<output>
				<port id="0" precision="I32" />
			</output>
		</layer>
		<layer id="372" name="Gather_57926" type="Gather" version="opset8">
			<data batch_dims="0" />
			<input>
				<port id="0" precision="FP32">
					<dim>-1</dim>
					<dim>4</dim>
					<dim>-1</dim>
					<dim>64</dim>
				</port>
				<port id="1" precision="I32">
					<dim>-1</dim>
				</port>
				<port id="2" precision="I32" />
			</input>
			<output>
				<port id="3" precision="FP32">
					<dim>-1</dim>
					<dim>4</dim>
					<dim>-1</dim>
					<dim>64</dim>
				</port>
			</output>
		</layer>
		<layer id="373" name="self.model.layers.1.self_attn.k_proj.weight" type="Const" version="opset1">
			<data element_type="i4" shape="256, 16, 128" offset="90536120" size="262144" />
			<output>
				<port id="0" precision="I4">
					<dim>256</dim>
					<dim>16</dim>
					<dim>128</dim>
				</port>
			</output>
		</layer>
		<layer id="374" name="Convert_86226" type="Convert" version="opset1">
			<data destination_type="f16" />
			<input>
				<port id="0" precision="I4">
					<dim>256</dim>
					<dim>16</dim>
					<dim>128</dim>
				</port>
			</input>
			<output>
				<port id="1" precision="FP16">
					<dim>256</dim>
					<dim>16</dim>
					<dim>128</dim>
				</port>
			</output>
		</layer>
		<layer id="375" name="self.model.layers.1.self_attn.k_proj.weight/scale" type="Const" version="opset1">
			<data element_type="f16" shape="256, 16, 1" offset="90798264" size="8192" />
			<output>
				<port id="0" precision="FP16">
					<dim>256</dim>
					<dim>16</dim>
					<dim>1</dim>
				</port>
			</output>
		</layer>
		<layer id="376" name="self.model.layers.1.self_attn.k_proj.weight/fq_weights_1" type="Multiply" version="opset1">
			<data auto_broadcast="numpy" />
			<input>
				<port id="0" precision="FP16">
					<dim>256</dim>
					<dim>16</dim>
					<dim>128</dim>
				</port>
				<port id="1" precision="FP16">
					<dim>256</dim>
					<dim>16</dim>
					<dim>1</dim>
				</port>
			</input>
			<output>
				<port id="2" precision="FP16">
					<dim>256</dim>
					<dim>16</dim>
					<dim>128</dim>
				</port>
			</output>
		</layer>
		<layer id="377" name="Constant_86230" type="Const" version="opset1">
			<data element_type="i32" shape="2" offset="68081688" size="8" />
			<output>
				<port id="0" precision="I32">
					<dim>2</dim>
				</port>
			</output>
		</layer>
		<layer id="378" name="Reshape_86231" type="Reshape" version="opset1">
			<data special_zero="false" />
			<input>
				<port id="0" precision="FP16">
					<dim>256</dim>
					<dim>16</dim>
					<dim>128</dim>
				</port>
				<port id="1" precision="I32">
					<dim>2</dim>
				</port>
			</input>
			<output>
				<port id="2" precision="FP16">
					<dim>256</dim>
					<dim>2048</dim>
				</port>
			</output>
		</layer>
		<layer id="379" name="__module.model.layers.1.self_attn.k_proj/ov_ext::linear/ConvertLike" type="Convert" version="opset1">
			<data destination_type="f32" />
			<rt_info>
				<attribute name="decompression" version="0" />
			</rt_info>
			<input>
				<port id="0" precision="FP16">
					<dim>256</dim>
					<dim>2048</dim>
				</port>
			</input>
			<output>
				<port id="1" precision="FP32">
					<dim>256</dim>
					<dim>2048</dim>
				</port>
			</output>
		</layer>
		<layer id="380" name="__module.model.layers.1.self_attn.k_proj/ov_ext::linear/MatMul" type="MatMul" version="opset1">
			<data transpose_a="false" transpose_b="true" />
			<input>
				<port id="0" precision="FP32">
					<dim>-1</dim>
					<dim>-1</dim>
					<dim>2048</dim>
				</port>
				<port id="1" precision="FP32">
					<dim>256</dim>
					<dim>2048</dim>
				</port>
			</input>
			<output>
				<port id="2" precision="FP32" names="482,key_states.9">
					<dim>-1</dim>
					<dim>-1</dim>
					<dim>256</dim>
				</port>
			</output>
		</layer>
		<layer id="381" name="Constant_45191" type="Const" version="opset1">
			<data element_type="i64" shape="4" offset="68081696" size="32" />
			<output>
				<port id="0" precision="I64">
					<dim>4</dim>
				</port>
			</output>
		</layer>
		<layer id="382" name="__module.model.layers.1.self_attn/aten::view/Reshape_1" type="Reshape" version="opset1">
			<data special_zero="true" />
			<input>
				<port id="0" precision="FP32">
					<dim>-1</dim>
					<dim>-1</dim>
					<dim>256</dim>
				</port>
				<port id="1" precision="I64">
					<dim>4</dim>
				</port>
			</input>
			<output>
				<port id="2" precision="FP32" names="489">
					<dim>-1</dim>
					<dim>-1</dim>
					<dim>4</dim>
					<dim>64</dim>
				</port>
			</output>
		</layer>
		<layer id="383" name="__module.model.layers.1.self_attn/aten::transpose/Constant_1" type="Const" version="opset1">
			<data element_type="i32" shape="4" offset="67811160" size="16" />
			<output>
				<port id="0" precision="I32">
					<dim>4</dim>
				</port>
			</output>
		</layer>
		<layer id="384" name="__module.model.layers.1.self_attn/aten::transpose/Transpose_1" type="Transpose" version="opset1">
			<input>
				<port id="0" precision="FP32">
					<dim>-1</dim>
					<dim>-1</dim>
					<dim>4</dim>
					<dim>64</dim>
				</port>
				<port id="1" precision="I32">
					<dim>4</dim>
				</port>
			</input>
			<output>
				<port id="2" precision="FP32" names="490,k.3">
					<dim>-1</dim>
					<dim>4</dim>
					<dim>-1</dim>
					<dim>64</dim>
				</port>
			</output>
		</layer>
		<layer id="385" name="__module.model.layers.1.self_attn/aten::mul/Multiply_2" type="Multiply" version="opset1">
			<data auto_broadcast="numpy" />
			<input>
				<port id="0" precision="FP32">
					<dim>-1</dim>
					<dim>4</dim>
					<dim>-1</dim>
					<dim>64</dim>
				</port>
				<port id="1" precision="FP32">
					<dim>-1</dim>
					<dim>1</dim>
					<dim>-1</dim>
					<dim>64</dim>
				</port>
			</input>
			<output>
				<port id="2" precision="FP32" names="512">
					<dim>-1</dim>
					<dim>4</dim>
					<dim>-1</dim>
					<dim>64</dim>
				</port>
			</output>
		</layer>
		<layer id="386" name="Constant_2160" type="Const" version="opset1">
			<data element_type="i64" shape="1" offset="67811324" size="8" />
			<output>
				<port id="0" precision="I64">
					<dim>1</dim>
				</port>
			</output>
		</layer>
		<layer id="387" name="Constant_2162" type="Const" version="opset1">
			<data element_type="i64" shape="1" offset="67811332" size="8" />
			<output>
				<port id="0" precision="I64">
					<dim>1</dim>
				</port>
			</output>
		</layer>
		<layer id="388" name="Constant_2164" type="Const" version="opset1">
			<data element_type="i64" shape="1" offset="67811304" size="8" />
			<output>
				<port id="0" precision="I64">
					<dim>1</dim>
				</port>
			</output>
		</layer>
		<layer id="389" name="__module.model.layers.1.self_attn/aten::slice/Slice_2" type="Slice" version="opset8">
			<input>
				<port id="0" precision="FP32">
					<dim>-1</dim>
					<dim>4</dim>
					<dim>-1</dim>
					<dim>64</dim>
				</port>
				<port id="1" precision="I64">
					<dim>1</dim>
				</port>
				<port id="2" precision="I64">
					<dim>1</dim>
				</port>
				<port id="3" precision="I64">
					<dim>1</dim>
				</port>
				<port id="4" precision="I64">
					<dim>1</dim>
				</port>
			</input>
			<output>
				<port id="5" precision="FP32" names="522,x2.7">
					<dim>-1</dim>
					<dim>4</dim>
					<dim>-1</dim>
					<dim>32</dim>
				</port>
			</output>
		</layer>
		<layer id="390" name="Constant_38643" type="Const" version="opset1">
			<data element_type="f32" shape="1, 1, 1, 1" offset="67811348" size="4" />
			<output>
				<port id="0" precision="FP32">
					<dim>1</dim>
					<dim>1</dim>
					<dim>1</dim>
					<dim>1</dim>
				</port>
			</output>
		</layer>
		<layer id="391" name="__module.model.layers.1.self_attn/aten::neg/Multiply_1" type="Multiply" version="opset1">
			<data auto_broadcast="numpy" />
			<input>
				<port id="0" precision="FP32">
					<dim>-1</dim>
					<dim>4</dim>
					<dim>-1</dim>
					<dim>32</dim>
				</port>
				<port id="1" precision="FP32">
					<dim>1</dim>
					<dim>1</dim>
					<dim>1</dim>
					<dim>1</dim>
				</port>
			</input>
			<output>
				<port id="2" precision="FP32" names="523">
					<dim>-1</dim>
					<dim>4</dim>
					<dim>-1</dim>
					<dim>32</dim>
				</port>
			</output>
		</layer>
		<layer id="392" name="Constant_2057" type="Const" version="opset1">
			<data element_type="i64" shape="1" offset="12" size="8" />
			<output>
				<port id="0" precision="I64">
					<dim>1</dim>
				</port>
			</output>
		</layer>
		<layer id="393" name="Constant_2101" type="Const" version="opset1">
			<data element_type="i64" shape="1" offset="67811324" size="8" />
			<output>
				<port id="0" precision="I64">
					<dim>1</dim>
				</port>
			</output>
		</layer>
		<layer id="394" name="Constant_2103" type="Const" version="opset1">
			<data element_type="i64" shape="1" offset="67811304" size="8" />
			<output>
				<port id="0" precision="I64">
					<dim>1</dim>
				</port>
			</output>
		</layer>
		<layer id="395" name="__module.model.layers.1.self_attn/aten::slice/Slice_3" type="Slice" version="opset8">
			<input>
				<port id="0" precision="FP32">
					<dim>-1</dim>
					<dim>4</dim>
					<dim>-1</dim>
					<dim>64</dim>
				</port>
				<port id="1" precision="I64">
					<dim>1</dim>
				</port>
				<port id="2" precision="I64">
					<dim>1</dim>
				</port>
				<port id="3" precision="I64">
					<dim>1</dim>
				</port>
				<port id="4" precision="I64">
					<dim>1</dim>
				</port>
			</input>
			<output>
				<port id="5" precision="FP32" names="517">
					<dim>-1</dim>
					<dim>4</dim>
					<dim>-1</dim>
					<dim>32</dim>
				</port>
			</output>
		</layer>
		<layer id="396" name="__module.model.layers.1.self_attn/aten::cat/Concat_1" type="Concat" version="opset1">
			<data axis="-1" />
			<input>
				<port id="0" precision="FP32">
					<dim>-1</dim>
					<dim>4</dim>
					<dim>-1</dim>
					<dim>32</dim>
				</port>
				<port id="1" precision="FP32">
					<dim>-1</dim>
					<dim>4</dim>
					<dim>-1</dim>
					<dim>32</dim>
				</port>
			</input>
			<output>
				<port id="2" precision="FP32" names="525">
					<dim>-1</dim>
					<dim>4</dim>
					<dim>-1</dim>
					<dim>64</dim>
				</port>
			</output>
		</layer>
…
		<edge from-layer="3497" from-port="0" to-layer="3499" to-port="2" />
		<edge from-layer="3498" from-port="0" to-layer="3499" to-port="3" />
		<edge from-layer="3499" from-port="4" to-layer="3500" to-port="1" />
		<edge from-layer="3500" from-port="2" to-layer="3501" to-port="0" />
		<edge from-layer="3501" from-port="1" to-layer="3503" to-port="0" />
		<edge from-layer="3502" from-port="0" to-layer="3503" to-port="2" />
		<edge from-layer="3503" from-port="3" to-layer="3516" to-port="0" />
		<edge from-layer="3504" from-port="0" to-layer="3505" to-port="0" />
		<edge from-layer="3505" from-port="1" to-layer="3507" to-port="0" />
		<edge from-layer="3506" from-port="0" to-layer="3507" to-port="1" />
		<edge from-layer="3507" from-port="2" to-layer="3509" to-port="0" />
		<edge from-layer="3508" from-port="0" to-layer="3509" to-port="1" />
		<edge from-layer="3509" from-port="2" to-layer="3510" to-port="0" />
		<edge from-layer="3510" from-port="1" to-layer="3511" to-port="1" />
		<edge from-layer="3511" from-port="2" to-layer="3513" to-port="0" />
		<edge from-layer="3512" from-port="0" to-layer="3513" to-port="1" />
		<edge from-layer="3513" from-port="2" to-layer="3515" to-port="0" />
		<edge from-layer="3514" from-port="0" to-layer="3515" to-port="1" />
		<edge from-layer="3515" from-port="2" to-layer="3516" to-port="1" />
		<edge from-layer="3516" from-port="2" to-layer="4008" to-port="0" />
		<edge from-layer="3516" from-port="2" to-layer="3517" to-port="0" />
		<edge from-layer="3517" from-port="2" to-layer="3522" to-port="0" />
		<edge from-layer="3518" from-port="0" to-layer="3521" to-port="1" />
		<edge from-layer="3519" from-port="0" to-layer="3521" to-port="2" />
		<edge from-layer="3520" from-port="0" to-layer="3521" to-port="4" />
		<edge from-layer="3521" from-port="5" to-layer="3522" to-port="1" />
		<edge from-layer="3522" from-port="2" to-layer="3524" to-port="0" />
		<edge from-layer="3523" from-port="0" to-layer="3524" to-port="1" />
		<edge from-layer="3524" from-port="2" to-layer="3528" to-port="2" />
		<edge from-layer="3525" from-port="0" to-layer="3527" to-port="1" />
		<edge from-layer="3526" from-port="0" to-layer="3527" to-port="3" />
		<edge from-layer="3527" from-port="5" to-layer="3528" to-port="3" />
		<edge from-layer="3528" from-port="4" to-layer="3530" to-port="0" />
		<edge from-layer="3529" from-port="0" to-layer="3530" to-port="1" />
		<edge from-layer="3530" from-port="2" to-layer="3531" to-port="0" />
		<edge from-layer="3531" from-port="2" to-layer="3539" to-port="0" />
		<edge from-layer="3532" from-port="0" to-layer="3533" to-port="0" />
		<edge from-layer="3533" from-port="1" to-layer="3535" to-port="0" />
		<edge from-layer="3534" from-port="0" to-layer="3535" to-port="1" />
		<edge from-layer="3535" from-port="2" to-layer="3537" to-port="0" />
		<edge from-layer="3536" from-port="0" to-layer="3537" to-port="1" />
		<edge from-layer="3537" from-port="2" to-layer="3538" to-port="0" />
		<edge from-layer="3538" from-port="1" to-layer="3539" to-port="1" />
		<edge from-layer="3539" from-port="2" to-layer="3540" to-port="1" />
		<edge from-layer="3540" from-port="2" to-layer="3544" to-port="0" />
		<edge from-layer="3540" from-port="2" to-layer="3579" to-port="0" />
		<edge from-layer="3540" from-port="2" to-layer="3551" to-port="0" />
		<edge from-layer="3541" from-port="0" to-layer="3552" to-port="0" />
		<edge from-layer="3542" from-port="0" to-layer="3550" to-port="0" />
		<edge from-layer="3543" from-port="0" to-layer="3544" to-port="1" />
		<edge from-layer="3544" from-port="2" to-layer="3546" to-port="0" />
		<edge from-layer="3545" from-port="0" to-layer="3546" to-port="1" />
		<edge from-layer="3546" from-port="2" to-layer="3548" to-port="0" />
		<edge from-layer="3547" from-port="0" to-layer="3548" to-port="1" />
		<edge from-layer="3548" from-port="2" to-layer="3549" to-port="0" />
		<edge from-layer="3549" from-port="1" to-layer="3550" to-port="1" />
		<edge from-layer="3550" from-port="2" to-layer="3551" to-port="1" />
		<edge from-layer="3551" from-port="2" to-layer="3552" to-port="1" />
		<edge from-layer="3552" from-port="2" to-layer="3560" to-port="0" />
		<edge from-layer="3552" from-port="2" to-layer="3569" to-port="0" />
		<edge from-layer="3553" from-port="0" to-layer="3554" to-port="0" />
		<edge from-layer="3554" from-port="1" to-layer="3556" to-port="0" />
		<edge from-layer="3555" from-port="0" to-layer="3556" to-port="1" />
		<edge from-layer="3556" from-port="2" to-layer="3558" to-port="0" />
		<edge from-layer="3557" from-port="0" to-layer="3558" to-port="1" />
		<edge from-layer="3558" from-port="2" to-layer="3559" to-port="0" />
		<edge from-layer="3559" from-port="1" to-layer="3560" to-port="1" />
		<edge from-layer="3560" from-port="2" to-layer="3561" to-port="0" />
		<edge from-layer="3561" from-port="1" to-layer="3570" to-port="0" />
		<edge from-layer="3562" from-port="0" to-layer="3563" to-port="0" />
		<edge from-layer="3563" from-port="1" to-layer="3565" to-port="0" />
		<edge from-layer="3564" from-port="0" to-layer="3565" to-port="1" />
		<edge from-layer="3565" from-port="2" to-layer="3567" to-port="0" />
		<edge from-layer="3566" from-port="0" to-layer="3567" to-port="1" />
		<edge from-layer="3567" from-port="2" to-layer="3568" to-port="0" />
		<edge from-layer="3568" from-port="1" to-layer="3569" to-port="1" />
		<edge from-layer="3569" from-port="2" to-layer="3570" to-port="1" />
		<edge from-layer="3570" from-port="2" to-layer="3578" to-port="0" />
		<edge from-layer="3571" from-port="0" to-layer="3572" to-port="0" />
		<edge from-layer="3572" from-port="1" to-layer="3574" to-port="0" />
		<edge from-layer="3573" from-port="0" to-layer="3574" to-port="1" />
		<edge from-layer="3574" from-port="2" to-layer="3576" to-port="0" />
		<edge from-layer="3575" from-port="0" to-layer="3576" to-port="1" />
		<edge from-layer="3576" from-port="2" to-layer="3577" to-port="0" />
		<edge from-layer="3577" from-port="1" to-layer="3578" to-port="1" />
		<edge from-layer="3578" from-port="2" to-layer="3579" to-port="1" />
		<edge from-layer="3579" from-port="2" to-layer="3583" to-port="0" />
		<edge from-layer="3579" from-port="2" to-layer="3590" to-port="0" />
		<edge from-layer="3579" from-port="2" to-layer="3720" to-port="0" />
		<edge from-layer="3580" from-port="0" to-layer="3591" to-port="0" />
		<edge from-layer="3581" from-port="0" to-layer="3589" to-port="0" />
		<edge from-layer="3582" from-port="0" to-layer="3583" to-port="1" />
		<edge from-layer="3583" from-port="2" to-layer="3585" to-port="0" />
		<edge from-layer="3584" from-port="0" to-layer="3585" to-port="1" />
		<edge from-layer="3585" from-port="2" to-layer="3587" to-port="0" />
		<edge from-layer="3586" from-port="0" to-layer="3587" to-port="1" />
		<edge from-layer="3587" from-port="2" to-layer="3588" to-port="0" />
		<edge from-layer="3588" from-port="1" to-layer="3589" to-port="1" />
		<edge from-layer="3589" from-port="2" to-layer="3590" to-port="1" />
		<edge from-layer="3590" from-port="2" to-layer="3591" to-port="1" />
		<edge from-layer="3591" from-port="2" to-layer="3599" to-port="0" />
		<edge from-layer="3591" from-port="2" to-layer="3634" to-port="0" />
		<edge from-layer="3591" from-port="2" to-layer="3691" to-port="0" />
		<edge from-layer="3592" from-port="0" to-layer="3593" to-port="0" />
		<edge from-layer="3593" from-port="1" to-layer="3595" to-port="0" />
		<edge from-layer="3594" from-port="0" to-layer="3595" to-port="1" />
		<edge from-layer="3595" from-port="2" to-layer="3597" to-port="0" />
		<edge from-layer="3596" from-port="0" to-layer="3597" to-port="1" />
		<edge from-layer="3597" from-port="2" to-layer="3598" to-port="0" />
		<edge from-layer="3598" from-port="1" to-layer="3599" to-port="1" />
		<edge from-layer="3599" from-port="2" to-layer="3601" to-port="0" />
		<edge from-layer="3600" from-port="0" to-layer="3601" to-port="1" />
		<edge from-layer="3601" from-port="2" to-layer="3603" to-port="0" />
		<edge from-layer="3602" from-port="0" to-layer="3603" to-port="1" />
		<edge from-layer="3603" from-port="2" to-layer="3604" to-port="0" />
		<edge from-layer="3603" from-port="2" to-layer="3608" to-port="0" />
		<edge from-layer="3603" from-port="2" to-layer="3614" to-port="0" />
		<edge from-layer="3604" from-port="2" to-layer="3617" to-port="0" />
		<edge from-layer="3605" from-port="0" to-layer="3608" to-port="1" />
		<edge from-layer="3606" from-port="0" to-layer="3608" to-port="2" />
		<edge from-layer="3607" from-port="0" to-layer="3608" to-port="3" />
		<edge from-layer="3608" from-port="5" to-layer="3610" to-port="0" />
		<edge from-layer="3609" from-port="0" to-layer="3610" to-port="1" />
		<edge from-layer="3610" from-port="2" to-layer="3615" to-port="0" />
		<edge from-layer="3611" from-port="0" to-layer="3614" to-port="1" />
		<edge from-layer="3612" from-port="0" to-layer="3614" to-port="2" />
		<edge from-layer="3613" from-port="0" to-layer="3614" to-port="3" />
		<edge from-layer="3614" from-port="5" to-layer="3615" to-port="1" />
		<edge from-layer="3615" from-port="2" to-layer="3616" to-port="0" />
		<edge from-layer="3616" from-port="2" to-layer="3617" to-port="1" />
		<edge from-layer="3617" from-port="2" to-layer="3708" to-port="0" />
		<edge from-layer="3618" from-port="0" to-layer="3623" to-port="0" />
		<edge from-layer="3619" from-port="0" to-layer="3622" to-port="1" />
		<edge from-layer="3620" from-port="0" to-layer="3622" to-port="2" />
		<edge from-layer="3621" from-port="0" to-layer="3622" to-port="3" />
		<edge from-layer="3622" from-port="4" to-layer="3623" to-port="1" />
		<edge from-layer="3623" from-port="2" to-layer="3624" to-port="0" />
		<edge from-layer="3624" from-port="1" to-layer="3626" to-port="0" />
		<edge from-layer="3625" from-port="0" to-layer="3626" to-port="2" />
		<edge from-layer="3626" from-port="3" to-layer="3661" to-port="0" />
		<edge from-layer="3626" from-port="3" to-layer="3653" to-port="0" />
		<edge from-layer="3627" from-port="0" to-layer="3628" to-port="0" />
		<edge from-layer="3628" from-port="1" to-layer="3630" to-port="0" />
		<edge from-layer="3629" from-port="0" to-layer="3630" to-port="1" />
		<edge from-layer="3630" from-port="2" to-layer="3632" to-port="0" />
		<edge from-layer="3631" from-port="0" to-layer="3632" to-port="1" />
		<edge from-layer="3632" from-port="2" to-layer="3633" to-port="0" />
		<edge from-layer="3633" from-port="1" to-layer="3634" to-port="1" />
		<edge from-layer="3634" from-port="2" to-layer="3636" to-port="0" />
		<edge from-layer="3635" from-port="0" to-layer="3636" to-port="1" />
		<edge from-layer="3636" from-port="2" to-layer="3638" to-port="0" />
		<edge from-layer="3637" from-port="0" to-layer="3638" to-port="1" />
		<edge from-layer="3638" from-port="2" to-layer="3639" to-port="0" />
		<edge from-layer="3638" from-port="2" to-layer="3643" to-port="0" />
		<edge from-layer="3638" from-port="2" to-layer="3649" to-port="0" />
		<edge from-layer="3639" from-port="2" to-layer="3652" to-port="0" />
		<edge from-layer="3640" from-port="0" to-layer="3643" to-port="1" />
		<edge from-layer="3641" from-port="0" to-layer="3643" to-port="2" />
		<edge from-layer="3642" from-port="0" to-layer="3643" to-port="3" />
		<edge from-layer="3643" from-port="5" to-layer="3645" to-port="0" />
		<edge from-layer="3644" from-port="0" to-layer="3645" to-port="1" />
		<edge from-layer="3645" from-port="2" to-layer="3650" to-port="0" />
		<edge from-layer="3646" from-port="0" to-layer="3649" to-port="1" />
		<edge from-layer="3647" from-port="0" to-layer="3649" to-port="2" />
		<edge from-layer="3648" from-port="0" to-layer="3649" to-port="3" />
		<edge from-layer="3649" from-port="5" to-layer="3650" to-port="1" />
		<edge from-layer="3650" from-port="2" to-layer="3651" to-port="0" />
		<edge from-layer="3651" from-port="2" to-layer="3652" to-port="1" />
		<edge from-layer="3652" from-port="2" to-layer="3665" to-port="0" />
		<edge from-layer="3652" from-port="2" to-layer="3653" to-port="1" />
		<edge from-layer="3653" from-port="2" to-layer="4007" to-port="0" />
		<edge from-layer="3653" from-port="2" to-layer="3654" to-port="0" />
		<edge from-layer="3653" from-port="2" to-layer="3655" to-port="0" />
		<edge from-layer="3654" from-port="2" to-layer="3672" to-port="0" />
		<edge from-layer="3655" from-port="1" to-layer="3658" to-port="0" />
		<edge from-layer="3656" from-port="0" to-layer="3658" to-port="1" />
		<edge from-layer="3657" from-port="0" to-layer="3658" to-port="2" />
		<edge from-layer="3658" from-port="3" to-layer="3671" to-port="0" />
		<edge from-layer="3659" from-port="0" to-layer="3671" to-port="1" />
		<edge from-layer="3660" from-port="0" to-layer="3671" to-port="2" />
		<edge from-layer="3661" from-port="1" to-layer="3664" to-port="0" />
		<edge from-layer="3662" from-port="0" to-layer="3664" to-port="1" />
		<edge from-layer="3663" from-port="0" to-layer="3664" to-port="2" />
		<edge from-layer="3664" from-port="3" to-layer="3669" to-port="0" />
		<edge from-layer="3665" from-port="1" to-layer="3668" to-port="0" />
		<edge from-layer="3666" from-port="0" to-layer="3668" to-port="1" />
		<edge from-layer="3667" from-port="0" to-layer="3668" to-port="2" />
		<edge from-layer="3668" from-port="3" to-layer="3669" to-port="1" />
		<edge from-layer="3669" from-port="2" to-layer="3671" to-port="3" />
		<edge from-layer="3669" from-port="2" to-layer="3701" to-port="3" />
		<edge from-layer="3669" from-port="2" to-layer="3707" to-port="2" />
		<edge from-layer="3670" from-port="0" to-layer="3671" to-port="4" />
		<edge from-layer="3671" from-port="5" to-layer="3672" to-port="1" />
		<edge from-layer="3672" from-port="2" to-layer="3674" to-port="0" />
		<edge from-layer="3673" from-port="0" to-layer="3674" to-port="1" />
		<edge from-layer="3674" from-port="2" to-layer="3708" to-port="1" />
		<edge from-layer="3675" from-port="0" to-layer="3680" to-port="0" />
		<edge from-layer="3676" from-port="0" to-layer="3679" to-port="1" />
		<edge from-layer="3677" from-port="0" to-layer="3679" to-port="2" />
		<edge from-layer="3678" from-port="0" to-layer="3679" to-port="3" />
		<edge from-layer="3679" from-port="4" to-layer="3680" to-port="1" />
		<edge from-layer="3680" from-port="2" to-layer="3681" to-port="0" />
		<edge from-layer="3681" from-port="1" to-layer="3683" to-port="0" />
		<edge from-layer="3682" from-port="0" to-layer="3683" to-port="2" />
		<edge from-layer="3683" from-port="3" to-layer="3696" to-port="0" />
		<edge from-layer="3684" from-port="0" to-layer="3685" to-port="0" />
		<edge from-layer="3685" from-port="1" to-layer="3687" to-port="0" />
		<edge from-layer="3686" from-port="0" to-layer="3687" to-port="1" />
		<edge from-layer="3687" from-port="2" to-layer="3689" to-port="0" />
		<edge from-layer="3688" from-port="0" to-layer="3689" to-port="1" />
		<edge from-layer="3689" from-port="2" to-layer="3690" to-port="0" />
		<edge from-layer="3690" from-port="1" to-layer="3691" to-port="1" />
		<edge from-layer="3691" from-port="2" to-layer="3693" to-port="0" />
		<edge from-layer="3692" from-port="0" to-layer="3693" to-port="1" />
		<edge from-layer="3693" from-port="2" to-layer="3695" to-port="0" />
		<edge from-layer="3694" from-port="0" to-layer="3695" to-port="1" />
		<edge from-layer="3695" from-port="2" to-layer="3696" to-port="1" />
		<edge from-layer="3696" from-port="2" to-layer="3697" to-port="0" />
		<edge from-layer="3696" from-port="2" to-layer="4006" to-port="0" />
		<edge from-layer="3697" from-port="2" to-layer="3702" to-port="0" />
		<edge from-layer="3698" from-port="0" to-layer="3701" to-port="1" />
		<edge from-layer="3699" from-port="0" to-layer="3701" to-port="2" />
		<edge from-layer="3700" from-port="0" to-layer="3701" to-port="4" />
		<edge from-layer="3701" from-port="5" to-layer="3702" to-port="1" />
		<edge from-layer="3702" from-port="2" to-layer="3704" to-port="0" />
		<edge from-layer="3703" from-port="0" to-layer="3704" to-port="1" />
		<edge from-layer="3704" from-port="2" to-layer="3708" to-port="2" />
		<edge from-layer="3705" from-port="0" to-layer="3707" to-port="1" />
		<edge from-layer="3706" from-port="0" to-layer="3707" to-port="3" />
		<edge from-layer="3707" from-port="5" to-layer="3708" to-port="3" />
		<edge from-layer="3708" from-port="4" to-layer="3710" to-port="0" />
		<edge from-layer="3709" from-port="0" to-layer="3710" to-port="1" />
		<edge from-layer="3710" from-port="2" to-layer="3711" to-port="0" />
		<edge from-layer="3711" from-port="2" to-layer="3719" to-port="0" />
		<edge from-layer="3712" from-port="0" to-layer="3713" to-port="0" />
		<edge from-layer="3713" from-port="1" to-layer="3715" to-port="0" />
		<edge from-layer="3714" from-port="0" to-layer="3715" to-port="1" />
		<edge from-layer="3715" from-port="2" to-layer="3717" to-port="0" />
		<edge from-layer="3716" from-port="0" to-layer="3717" to-port="1" />
		<edge from-layer="3717" from-port="2" to-layer="3718" to-port="0" />
		<edge from-layer="3718" from-port="1" to-layer="3719" to-port="1" />
		<edge from-layer="3719" from-port="2" to-layer="3720" to-port="1" />
		<edge from-layer="3720" from-port="2" to-layer="3724" to-port="0" />
		<edge from-layer="3720" from-port="2" to-layer="3759" to-port="0" />
		<edge from-layer="3720" from-port="2" to-layer="3731" to-port="0" />
		<edge from-layer="3721" from-port="0" to-layer="3732" to-port="0" />
		<edge from-layer="3722" from-port="0" to-layer="3730" to-port="0" />
		<edge from-layer="3723" from-port="0" to-layer="3724" to-port="1" />
		<edge from-layer="3724" from-port="2" to-layer="3726" to-port="0" />
		<edge from-layer="3725" from-port="0" to-layer="3726" to-port="1" />
		<edge from-layer="3726" from-port="2" to-layer="3728" to-port="0" />
		<edge from-layer="3727" from-port="0" to-layer="3728" to-port="1" />
		<edge from-layer="3728" from-port="2" to-layer="3729" to-port="0" />
		<edge from-layer="3729" from-port="1" to-layer="3730" to-port="1" />
		<edge from-layer="3730" from-port="2" to-layer="3731" to-port="1" />
		<edge from-layer="3731" from-port="2" to-layer="3732" to-port="1" />
		<edge from-layer="3732" from-port="2" to-layer="3740" to-port="0" />
		<edge from-layer="3732" from-port="2" to-layer="3749" to-port="0" />
		<edge from-layer="3733" from-port="0" to-layer="3734" to-port="0" />
		<edge from-layer="3734" from-port="1" to-layer="3736" to-port="0" />
		<edge from-layer="3735" from-port="0" to-layer="3736" to-port="1" />
		<edge from-layer="3736" from-port="2" to-layer="3738" to-port="0" />
		<edge from-layer="3737" from-port="0" to-layer="3738" to-port="1" />
		<edge from-layer="3738" from-port="2" to-layer="3739" to-port="0" />
		<edge from-layer="3739" from-port="1" to-layer="3740" to-port="1" />
		<edge from-layer="3740" from-port="2" to-layer="3741" to-port="0" />
		<edge from-layer="3741" from-port="1" to-layer="3750" to-port="0" />
		<edge from-layer="3742" from-port="0" to-layer="3743" to-port="0" />
		<edge from-layer="3743" from-port="1" to-layer="3745" to-port="0" />
		<edge from-layer="3744" from-port="0" to-layer="3745" to-port="1" />
		<edge from-layer="3745" from-port="2" to-layer="3747" to-port="0" />
		<edge from-layer="3746" from-port="0" to-layer="3747" to-port="1" />
		<edge from-layer="3747" from-port="2" to-layer="3748" to-port="0" />
		<edge from-layer="3748" from-port="1" to-layer="3749" to-port="1" />
		<edge from-layer="3749" from-port="2" to-layer="3750" to-port="1" />
		<edge from-layer="3750" from-port="2" to-layer="3758" to-port="0" />
		<edge from-layer="3751" from-port="0" to-layer="3752" to-port="0" />
		<edge from-layer="3752" from-port="1" to-layer="3754" to-port="0" />
		<edge from-layer="3753" from-port="0" to-layer="3754" to-port="1" />
		<edge from-layer="3754" from-port="2" to-layer="3756" to-port="0" />
		<edge from-layer="3755" from-port="0" to-layer="3756" to-port="1" />
		<edge from-layer="3756" from-port="2" to-layer="3757" to-port="0" />
		<edge from-layer="3757" from-port="1" to-layer="3758" to-port="1" />
		<edge from-layer="3758" from-port="2" to-layer="3759" to-port="1" />
		<edge from-layer="3759" from-port="2" to-layer="3770" to-port="0" />
		<edge from-layer="3759" from-port="2" to-layer="3900" to-port="0" />
		<edge from-layer="3759" from-port="2" to-layer="3763" to-port="0" />
		<edge from-layer="3760" from-port="0" to-layer="3771" to-port="0" />
		<edge from-layer="3761" from-port="0" to-layer="3769" to-port="0" />
		<edge from-layer="3762" from-port="0" to-layer="3763" to-port="1" />
		<edge from-layer="3763" from-port="2" to-layer="3765" to-port="0" />
		<edge from-layer="3764" from-port="0" to-layer="3765" to-port="1" />
		<edge from-layer="3765" from-port="2" to-layer="3767" to-port="0" />
		<edge from-layer="3766" from-port="0" to-layer="3767" to-port="1" />
		<edge from-layer="3767" from-port="2" to-layer="3768" to-port="0" />
		<edge from-layer="3768" from-port="1" to-layer="3769" to-port="1" />
		<edge from-layer="3769" from-port="2" to-layer="3770" to-port="1" />
		<edge from-layer="3770" from-port="2" to-layer="3771" to-port="1" />
		<edge from-layer="3771" from-port="2" to-layer="3871" to-port="0" />
		<edge from-layer="3771" from-port="2" to-layer="3779" to-port="0" />
		<edge from-layer="3771" from-port="2" to-layer="3814" to-port="0" />
		<edge from-layer="3772" from-port="0" to-layer="3773" to-port="0" />
		<edge from-layer="3773" from-port="1" to-layer="3775" to-port="0" />
		<edge from-layer="3774" from-port="0" to-layer="3775" to-port="1" />
		<edge from-layer="3775" from-port="2" to-layer="3777" to-port="0" />
		<edge from-layer="3776" from-port="0" to-layer="3777" to-port="1" />
		<edge from-layer="3777" from-port="2" to-layer="3778" to-port="0" />
		<edge from-layer="3778" from-port="1" to-layer="3779" to-port="1" />
		<edge from-layer="3779" from-port="2" to-layer="3781" to-port="0" />
		<edge from-layer="3780" from-port="0" to-layer="3781" to-port="1" />
		<edge from-layer="3781" from-port="2" to-layer="3783" to-port="0" />
		<edge from-layer="3782" from-port="0" to-layer="3783" to-port="1" />
		<edge from-layer="3783" from-port="2" to-layer="3794" to-port="0" />
		<edge from-layer="3783" from-port="2" to-layer="3788" to-port="0" />
		<edge from-layer="3783" from-port="2" to-layer="3784" to-port="0" />
		<edge from-layer="3784" from-port="2" to-layer="3797" to-port="0" />
		<edge from-layer="3785" from-port="0" to-layer="3788" to-port="1" />
		<edge from-layer="3786" from-port="0" to-layer="3788" to-port="2" />
		<edge from-layer="3787" from-port="0" to-layer="3788" to-port="3" />
		<edge from-layer="3788" from-port="5" to-layer="3790" to-port="0" />
		<edge from-layer="3789" from-port="0" to-layer="3790" to-port="1" />
		<edge from-layer="3790" from-port="2" to-layer="3795" to-port="0" />
		<edge from-layer="3791" from-port="0" to-layer="3794" to-port="1" />
		<edge from-layer="3792" from-port="0" to-layer="3794" to-port="2" />
		<edge from-layer="3793" from-port="0" to-layer="3794" to-port="3" />
		<edge from-layer="3794" from-port="5" to-layer="3795" to-port="1" />
		<edge from-layer="3795" from-port="2" to-layer="3796" to-port="0" />
		<edge from-layer="3796" from-port="2" to-layer="3797" to-port="1" />
		<edge from-layer="3797" from-port="2" to-layer="3888" to-port="0" />
		<edge from-layer="3798" from-port="0" to-layer="3803" to-port="0" />
		<edge from-layer="3799" from-port="0" to-layer="3802" to-port="1" />
		<edge from-layer="3800" from-port="0" to-layer="3802" to-port="2" />
		<edge from-layer="3801" from-port="0" to-layer="3802" to-port="3" />
		<edge from-layer="3802" from-port="4" to-layer="3803" to-port="1" />
		<edge from-layer="3803" from-port="2" to-layer="3804" to-port="0" />
		<edge from-layer="3804" from-port="1" to-layer="3806" to-port="0" />
		<edge from-layer="3805" from-port="0" to-layer="3806" to-port="2" />
		<edge from-layer="3806" from-port="3" to-layer="3833" to-port="0" />
		<edge from-layer="3806" from-port="3" to-layer="3841" to-port="0" />
		<edge from-layer="3807" from-port="0" to-layer="3808" to-port="0" />
		<edge from-layer="3808" from-port="1" to-layer="3810" to-port="0" />
		<edge from-layer="3809" from-port="0" to-layer="3810" to-port="1" />
		<edge from-layer="3810" from-port="2" to-layer="3812" to-port="0" />
		<edge from-layer="3811" from-port="0" to-layer="3812" to-port="1" />
		<edge from-layer="3812" from-port="2" to-layer="3813" to-port="0" />
		<edge from-layer="3813" from-port="1" to-layer="3814" to-port="1" />
		<edge from-layer="3814" from-port="2" to-layer="3816" to-port="0" />
		<edge from-layer="3815" from-port="0" to-layer="3816" to-port="1" />
		<edge from-layer="3816" from-port="2" to-layer="3818" to-port="0" />
		<edge from-layer="3817" from-port="0" to-layer="3818" to-port="1" />
		<edge from-layer="3818" from-port="2" to-layer="3819" to-port="0" />
		<edge from-layer="3818" from-port="2" to-layer="3829" to-port="0" />
		<edge from-layer="3818" from-port="2" to-layer="3823" to-port="0" />
		<edge from-layer="3819" from-port="2" to-layer="3832" to-port="0" />
		<edge from-layer="3820" from-port="0" to-layer="3823" to-port="1" />
		<edge from-layer="3821" from-port="0" to-layer="3823" to-port="2" />
		<edge from-layer="3822" from-port="0" to-layer="3823" to-port="3" />
		<edge from-layer="3823" from-port="5" to-layer="3825" to-port="0" />
		<edge from-layer="3824" from-port="0" to-layer="3825" to-port="1" />
		<edge from-layer="3825" from-port="2" to-layer="3830" to-port="0" />
		<edge from-layer="3826" from-port="0" to-layer="3829" to-port="1" />
		<edge from-layer="3827" from-port="0" to-layer="3829" to-port="2" />
		<edge from-layer="3828" from-port="0" to-layer="3829" to-port="3" />
		<edge from-layer="3829" from-port="5" to-layer="3830" to-port="1" />
		<edge from-layer="3830" from-port="2" to-layer="3831" to-port="0" />
		<edge from-layer="3831" from-port="2" to-layer="3832" to-port="1" />
		<edge from-layer="3832" from-port="2" to-layer="3845" to-port="0" />
		<edge from-layer="3832" from-port="2" to-layer="3833" to-port="1" />
		<edge from-layer="3833" from-port="2" to-layer="3835" to-port="0" />
		<edge from-layer="3833" from-port="2" to-layer="3834" to-port="0" />
		<edge from-layer="3833" from-port="2" to-layer="4003" to-port="0" />
		<edge from-layer="3834" from-port="2" to-layer="3852" to-port="0" />
		<edge from-layer="3835" from-port="1" to-layer="3838" to-port="0" />
		<edge from-layer="3836" from-port="0" to-layer="3838" to-port="1" />
		<edge from-layer="3837" from-port="0" to-layer="3838" to-port="2" />
		<edge from-layer="3838" from-port="3" to-layer="3851" to-port="0" />
		<edge from-layer="3839" from-port="0" to-layer="3851" to-port="1" />
		<edge from-layer="3840" from-port="0" to-layer="3851" to-port="2" />
		<edge from-layer="3841" from-port="1" to-layer="3844" to-port="0" />
		<edge from-layer="3842" from-port="0" to-layer="3844" to-port="1" />
		<edge from-layer="3843" from-port="0" to-layer="3844" to-port="2" />
		<edge from-layer="3844" from-port="3" to-layer="3849" to-port="0" />
		<edge from-layer="3845" from-port="1" to-layer="3848" to-port="0" />
		<edge from-layer="3846" from-port="0" to-layer="3848" to-port="1" />
		<edge from-layer="3847" from-port="0" to-layer="3848" to-port="2" />
		<edge from-layer="3848" from-port="3" to-layer="3849" to-port="1" />
		<edge from-layer="3849" from-port="2" to-layer="3851" to-port="3" />
		<edge from-layer="3849" from-port="2" to-layer="3887" to-port="2" />
		<edge from-layer="3849" from-port="2" to-layer="3881" to-port="3" />
		<edge from-layer="3850" from-port="0" to-layer="3851" to-port="4" />
		<edge from-layer="3851" from-port="5" to-layer="3852" to-port="1" />
		<edge from-layer="3852" from-port="2" to-layer="3854" to-port="0" />
		<edge from-layer="3853" from-port="0" to-layer="3854" to-port="1" />
		<edge from-layer="3854" from-port="2" to-layer="3888" to-port="1" />
		<edge from-layer="3855" from-port="0" to-layer="3860" to-port="0" />
		<edge from-layer="3856" from-port="0" to-layer="3859" to-port="1" />
		<edge from-layer="3857" from-port="0" to-layer="3859" to-port="2" />
		<edge from-layer="3858" from-port="0" to-layer="3859" to-port="3" />
		<edge from-layer="3859" from-port="4" to-layer="3860" to-port="1" />
		<edge from-layer="3860" from-port="2" to-layer="3861" to-port="0" />
		<edge from-layer="3861" from-port="1" to-layer="3863" to-port="0" />
		<edge from-layer="3862" from-port="0" to-layer="3863" to-port="2" />
		<edge from-layer="3863" from-port="3" to-layer="3876" to-port="0" />
		<edge from-layer="3864" from-port="0" to-layer="3865" to-port="0" />
		<edge from-layer="3865" from-port="1" to-layer="3867" to-port="0" />
		<edge from-layer="3866" from-port="0" to-layer="3867" to-port="1" />
		<edge from-layer="3867" from-port="2" to-layer="3869" to-port="0" />
		<edge from-layer="3868" from-port="0" to-layer="3869" to-port="1" />
		<edge from-layer="3869" from-port="2" to-layer="3870" to-port="0" />
		<edge from-layer="3870" from-port="1" to-layer="3871" to-port="1" />
		<edge from-layer="3871" from-port="2" to-layer="3873" to-port="0" />
		<edge from-layer="3872" from-port="0" to-layer="3873" to-port="1" />
		<edge from-layer="3873" from-port="2" to-layer="3875" to-port="0" />
		<edge from-layer="3874" from-port="0" to-layer="3875" to-port="1" />
		<edge from-layer="3875" from-port="2" to-layer="3876" to-port="1" />
		<edge from-layer="3876" from-port="2" to-layer="4002" to-port="0" />
		<edge from-layer="3876" from-port="2" to-layer="3877" to-port="0" />
		<edge from-layer="3877" from-port="2" to-layer="3882" to-port="0" />
		<edge from-layer="3878" from-port="0" to-layer="3881" to-port="1" />
		<edge from-layer="3879" from-port="0" to-layer="3881" to-port="2" />
		<edge from-layer="3880" from-port="0" to-layer="3881" to-port="4" />
		<edge from-layer="3881" from-port="5" to-layer="3882" to-port="1" />
		<edge from-layer="3882" from-port="2" to-layer="3884" to-port="0" />
		<edge from-layer="3883" from-port="0" to-layer="3884" to-port="1" />
		<edge from-layer="3884" from-port="2" to-layer="3888" to-port="2" />
		<edge from-layer="3885" from-port="0" to-layer="3887" to-port="1" />
		<edge from-layer="3886" from-port="0" to-layer="3887" to-port="3" />
		<edge from-layer="3887" from-port="5" to-layer="3888" to-port="3" />
		<edge from-layer="3888" from-port="4" to-layer="3890" to-port="0" />
		<edge from-layer="3889" from-port="0" to-layer="3890" to-port="1" />
		<edge from-layer="3890" from-port="2" to-layer="3891" to-port="0" />
		<edge from-layer="3891" from-port="2" to-layer="3899" to-port="0" />
		<edge from-layer="3892" from-port="0" to-layer="3893" to-port="0" />
		<edge from-layer="3893" from-port="1" to-layer="3895" to-port="0" />
		<edge from-layer="3894" from-port="0" to-layer="3895" to-port="1" />
		<edge from-layer="3895" from-port="2" to-layer="3897" to-port="0" />
		<edge from-layer="3896" from-port="0" to-layer="3897" to-port="1" />
		<edge from-layer="3897" from-port="2" to-layer="3898" to-port="0" />
		<edge from-layer="3898" from-port="1" to-layer="3899" to-port="1" />
		<edge from-layer="3899" from-port="2" to-layer="3900" to-port="1" />
		<edge from-layer="3900" from-port="2" to-layer="3939" to-port="0" />
		<edge from-layer="3900" from-port="2" to-layer="3904" to-port="0" />
		<edge from-layer="3900" from-port="2" to-layer="3911" to-port="0" />
		<edge from-layer="3901" from-port="0" to-layer="3912" to-port="0" />
		<edge from-layer="3902" from-port="0" to-layer="3910" to-port="0" />
		<edge from-layer="3903" from-port="0" to-layer="3904" to-port="1" />
		<edge from-layer="3904" from-port="2" to-layer="3906" to-port="0" />
		<edge from-layer="3905" from-port="0" to-layer="3906" to-port="1" />
		<edge from-layer="3906" from-port="2" to-layer="3908" to-port="0" />
		<edge from-layer="3907" from-port="0" to-layer="3908" to-port="1" />
		<edge from-layer="3908" from-port="2" to-layer="3909" to-port="0" />
		<edge from-layer="3909" from-port="1" to-layer="3910" to-port="1" />
		<edge from-layer="3910" from-port="2" to-layer="3911" to-port="1" />
		<edge from-layer="3911" from-port="2" to-layer="3912" to-port="1" />
		<edge from-layer="3912" from-port="2" to-layer="3920" to-port="0" />
		<edge from-layer="3912" from-port="2" to-layer="3929" to-port="0" />
		<edge from-layer="3913" from-port="0" to-layer="3914" to-port="0" />
		<edge from-layer="3914" from-port="1" to-layer="3916" to-port="0" />
		<edge from-layer="3915" from-port="0" to-layer="3916" to-port="1" />
		<edge from-layer="3916" from-port="2" to-layer="3918" to-port="0" />
		<edge from-layer="3917" from-port="0" to-layer="3918" to-port="1" />
		<edge from-layer="3918" from-port="2" to-layer="3919" to-port="0" />
		<edge from-layer="3919" from-port="1" to-layer="3920" to-port="1" />
		<edge from-layer="3920" from-port="2" to-layer="3921" to-port="0" />
		<edge from-layer="3921" from-port="1" to-layer="3930" to-port="0" />
		<edge from-layer="3922" from-port="0" to-layer="3923" to-port="0" />
		<edge from-layer="3923" from-port="1" to-layer="3925" to-port="0" />
		<edge from-layer="3924" from-port="0" to-layer="3925" to-port="1" />
		<edge from-layer="3925" from-port="2" to-layer="3927" to-port="0" />
		<edge from-layer="3926" from-port="0" to-layer="3927" to-port="1" />
		<edge from-layer="3927" from-port="2" to-layer="3928" to-port="0" />
		<edge from-layer="3928" from-port="1" to-layer="3929" to-port="1" />
		<edge from-layer="3929" from-port="2" to-layer="3930" to-port="1" />
		<edge from-layer="3930" from-port="2" to-layer="3938" to-port="0" />
		<edge from-layer="3931" from-port="0" to-layer="3932" to-port="0" />
		<edge from-layer="3932" from-port="1" to-layer="3934" to-port="0" />
		<edge from-layer="3933" from-port="0" to-layer="3934" to-port="1" />
		<edge from-layer="3934" from-port="2" to-layer="3936" to-port="0" />
		<edge from-layer="3935" from-port="0" to-layer="3936" to-port="1" />
		<edge from-layer="3936" from-port="2" to-layer="3937" to-port="0" />
		<edge from-layer="3937" from-port="1" to-layer="3938" to-port="1" />
		<edge from-layer="3938" from-port="2" to-layer="3939" to-port="1" />
		<edge from-layer="3939" from-port="2" to-layer="4101" to-port="0" />
		<edge from-layer="3939" from-port="2" to-layer="3942" to-port="0" />
		<edge from-layer="3939" from-port="2" to-layer="3949" to-port="0" />
		<edge from-layer="3940" from-port="0" to-layer="3948" to-port="0" />
		<edge from-layer="3941" from-port="0" to-layer="3942" to-port="1" />
		<edge from-layer="3942" from-port="2" to-layer="3944" to-port="0" />
		<edge from-layer="3943" from-port="0" to-layer="3944" to-port="1" />
		<edge from-layer="3944" from-port="2" to-layer="3946" to-port="0" />
		<edge from-layer="3945" from-port="0" to-layer="3946" to-port="1" />
		<edge from-layer="3946" from-port="2" to-layer="3947" to-port="0" />
		<edge from-layer="3947" from-port="1" to-layer="3948" to-port="1" />
		<edge from-layer="3948" from-port="2" to-layer="3949" to-port="1" />
		<edge from-layer="3949" from-port="2" to-layer="3950" to-port="1" />
		<edge from-layer="3950" from-port="2" to-layer="3958" to-port="0" />
		<edge from-layer="3950" from-port="2" to-layer="3981" to-port="0" />
		<edge from-layer="3950" from-port="2" to-layer="4038" to-port="0" />
		<edge from-layer="3951" from-port="0" to-layer="3952" to-port="0" />
		<edge from-layer="3952" from-port="1" to-layer="3954" to-port="0" />
		<edge from-layer="3953" from-port="0" to-layer="3954" to-port="1" />
		<edge from-layer="3954" from-port="2" to-layer="3956" to-port="0" />
		<edge from-layer="3955" from-port="0" to-layer="3956" to-port="1" />
		<edge from-layer="3956" from-port="2" to-layer="3957" to-port="0" />
		<edge from-layer="3957" from-port="1" to-layer="3958" to-port="1" />
		<edge from-layer="3958" from-port="2" to-layer="3960" to-port="0" />
		<edge from-layer="3959" from-port="0" to-layer="3960" to-port="1" />
		<edge from-layer="3960" from-port="2" to-layer="3962" to-port="0" />
		<edge from-layer="3961" from-port="0" to-layer="3962" to-port="1" />
		<edge from-layer="3962" from-port="2" to-layer="3963" to-port="1" />
		<edge from-layer="3963" from-port="2" to-layer="3964" to-port="0" />
		<edge from-layer="3963" from-port="2" to-layer="4078" to-port="0" />
		<edge from-layer="3965" from-port="0" to-layer="3970" to-port="0" />
		<edge from-layer="3966" from-port="0" to-layer="3969" to-port="1" />
		<edge from-layer="3967" from-port="0" to-layer="3969" to-port="2" />
		<edge from-layer="3968" from-port="0" to-layer="3969" to-port="3" />
		<edge from-layer="3969" from-port="4" to-layer="3970" to-port="1" />
		<edge from-layer="3970" from-port="2" to-layer="3971" to-port="0" />
		<edge from-layer="3971" from-port="1" to-layer="3973" to-port="0" />
		<edge from-layer="3972" from-port="0" to-layer="3973" to-port="2" />
		<edge from-layer="3973" from-port="3" to-layer="4000" to-port="0" />
		<edge from-layer="3973" from-port="3" to-layer="4064" to-port="0" />
		<edge from-layer="3974" from-port="0" to-layer="3975" to-port="0" />
		<edge from-layer="3975" from-port="1" to-layer="3977" to-port="0" />
		<edge from-layer="3976" from-port="0" to-layer="3977" to-port="1" />
		<edge from-layer="3977" from-port="2" to-layer="3979" to-port="0" />
		<edge from-layer="3978" from-port="0" to-layer="3979" to-port="1" />
		<edge from-layer="3979" from-port="2" to-layer="3980" to-port="0" />
		<edge from-layer="3980" from-port="1" to-layer="3981" to-port="1" />
		<edge from-layer="3981" from-port="2" to-layer="3983" to-port="0" />
		<edge from-layer="3982" from-port="0" to-layer="3983" to-port="1" />
		<edge from-layer="3983" from-port="2" to-layer="3985" to-port="0" />
		<edge from-layer="3984" from-port="0" to-layer="3985" to-port="1" />
		<edge from-layer="3985" from-port="2" to-layer="3996" to-port="0" />
		<edge from-layer="3985" from-port="2" to-layer="3990" to-port="0" />
		<edge from-layer="3985" from-port="2" to-layer="3986" to-port="0" />
		<edge from-layer="3986" from-port="2" to-layer="3999" to-port="0" />
		<edge from-layer="3987" from-port="0" to-layer="3990" to-port="1" />
		<edge from-layer="3988" from-port="0" to-layer="3990" to-port="2" />
		<edge from-layer="3989" from-port="0" to-layer="3990" to-port="3" />
		<edge from-layer="3990" from-port="5" to-layer="3992" to-port="0" />
		<edge from-layer="3991" from-port="0" to-layer="3992" to-port="1" />
		<edge from-layer="3992" from-port="2" to-layer="3997" to-port="0" />
		<edge from-layer="3993" from-port="0" to-layer="3996" to-port="1" />
		<edge from-layer="3994" from-port="0" to-layer="3996" to-port="2" />
		<edge from-layer="3995" from-port="0" to-layer="3996" to-port="3" />
		<edge from-layer="3996" from-port="5" to-layer="3997" to-port="1" />
		<edge from-layer="3997" from-port="2" to-layer="3998" to-port="0" />
		<edge from-layer="3998" from-port="2" to-layer="3999" to-port="1" />
		<edge from-layer="3999" from-port="2" to-layer="4068" to-port="0" />
		<edge from-layer="3999" from-port="2" to-layer="4000" to-port="1" />
		<edge from-layer="4000" from-port="2" to-layer="4057" to-port="0" />
		<edge from-layer="4000" from-port="2" to-layer="4058" to-port="0" />
		<edge from-layer="4000" from-port="2" to-layer="4001" to-port="0" />
		<edge from-layer="4030" from-port="0" to-layer="4151" to-port="0" />
		<edge from-layer="4031" from-port="0" to-layer="4032" to-port="0" />
		<edge from-layer="4032" from-port="1" to-layer="4034" to-port="0" />
		<edge from-layer="4033" from-port="0" to-layer="4034" to-port="1" />
		<edge from-layer="4034" from-port="2" to-layer="4036" to-port="0" />
		<edge from-layer="4035" from-port="0" to-layer="4036" to-port="1" />
		<edge from-layer="4036" from-port="2" to-layer="4037" to-port="0" />
		<edge from-layer="4037" from-port="1" to-layer="4038" to-port="1" />
		<edge from-layer="4038" from-port="2" to-layer="4040" to-port="0" />
		<edge from-layer="4039" from-port="0" to-layer="4040" to-port="1" />
		<edge from-layer="4040" from-port="2" to-layer="4042" to-port="0" />
		<edge from-layer="4041" from-port="0" to-layer="4042" to-port="1" />
		<edge from-layer="4042" from-port="2" to-layer="4047" to-port="0" />
		<edge from-layer="4042" from-port="2" to-layer="4043" to-port="0" />
		<edge from-layer="4042" from-port="2" to-layer="4053" to-port="0" />
		<edge from-layer="4043" from-port="2" to-layer="4056" to-port="0" />
		<edge from-layer="4044" from-port="0" to-layer="4047" to-port="1" />
		<edge from-layer="4045" from-port="0" to-layer="4047" to-port="2" />
		<edge from-layer="4046" from-port="0" to-layer="4047" to-port="3" />
		<edge from-layer="4047" from-port="5" to-layer="4049" to-port="0" />
		<edge from-layer="4048" from-port="0" to-layer="4049" to-port="1" />
		<edge from-layer="4049" from-port="2" to-layer="4054" to-port="0" />
		<edge from-layer="4050" from-port="0" to-layer="4053" to-port="1" />
		<edge from-layer="4051" from-port="0" to-layer="4053" to-port="2" />
		<edge from-layer="4052" from-port="0" to-layer="4053" to-port="3" />
		<edge from-layer="4053" from-port="5" to-layer="4054" to-port="1" />
		<edge from-layer="4054" from-port="2" to-layer="4055" to-port="0" />
		<edge from-layer="4055" from-port="2" to-layer="4056" to-port="1" />
		<edge from-layer="4056" from-port="2" to-layer="4089" to-port="0" />
		<edge from-layer="4057" from-port="2" to-layer="4075" to-port="0" />
		<edge from-layer="4058" from-port="1" to-layer="4061" to-port="0" />
		<edge from-layer="4059" from-port="0" to-layer="4061" to-port="1" />
		<edge from-layer="4060" from-port="0" to-layer="4061" to-port="2" />
		<edge from-layer="4061" from-port="3" to-layer="4074" to-port="0" />
		<edge from-layer="4062" from-port="0" to-layer="4074" to-port="1" />
		<edge from-layer="4063" from-port="0" to-layer="4074" to-port="2" />
		<edge from-layer="4064" from-port="1" to-layer="4067" to-port="0" />
		<edge from-layer="4065" from-port="0" to-layer="4067" to-port="1" />
		<edge from-layer="4066" from-port="0" to-layer="4067" to-port="2" />
		<edge from-layer="4067" from-port="3" to-layer="4072" to-port="0" />
		<edge from-layer="4068" from-port="1" to-layer="4071" to-port="0" />
		<edge from-layer="4069" from-port="0" to-layer="4071" to-port="1" />
		<edge from-layer="4070" from-port="0" to-layer="4071" to-port="2" />
		<edge from-layer="4071" from-port="3" to-layer="4072" to-port="1" />
		<edge from-layer="4072" from-port="2" to-layer="4074" to-port="3" />
		<edge from-layer="4072" from-port="2" to-layer="4082" to-port="3" />
		<edge from-layer="4072" from-port="2" to-layer="4088" to-port="2" />
		<edge from-layer="4073" from-port="0" to-layer="4074" to-port="4" />
		<edge from-layer="4074" from-port="5" to-layer="4075" to-port="1" />
		<edge from-layer="4075" from-port="2" to-layer="4077" to-port="0" />
		<edge from-layer="4076" from-port="0" to-layer="4077" to-port="1" />
		<edge from-layer="4077" from-port="2" to-layer="4089" to-port="1" />
		<edge from-layer="4078" from-port="2" to-layer="4083" to-port="0" />
		<edge from-layer="4079" from-port="0" to-layer="4082" to-port="1" />
		<edge from-layer="4080" from-port="0" to-layer="4082" to-port="2" />
		<edge from-layer="4081" from-port="0" to-layer="4082" to-port="4" />
		<edge from-layer="4082" from-port="5" to-layer="4083" to-port="1" />
		<edge from-layer="4083" from-port="2" to-layer="4085" to-port="0" />
		<edge from-layer="4084" from-port="0" to-layer="4085" to-port="1" />
		<edge from-layer="4085" from-port="2" to-layer="4089" to-port="2" />
		<edge from-layer="4086" from-port="0" to-layer="4088" to-port="1" />
		<edge from-layer="4087" from-port="0" to-layer="4088" to-port="3" />
		<edge from-layer="4088" from-port="5" to-layer="4089" to-port="3" />
		<edge from-layer="4089" from-port="4" to-layer="4091" to-port="0" />
		<edge from-layer="4090" from-port="0" to-layer="4091" to-port="1" />
		<edge from-layer="4091" from-port="2" to-layer="4092" to-port="0" />
		<edge from-layer="4092" from-port="2" to-layer="4100" to-port="0" />
		<edge from-layer="4093" from-port="0" to-layer="4094" to-port="0" />
		<edge from-layer="4094" from-port="1" to-layer="4096" to-port="0" />
		<edge from-layer="4095" from-port="0" to-layer="4096" to-port="1" />
		<edge from-layer="4096" from-port="2" to-layer="4098" to-port="0" />
		<edge from-layer="4097" from-port="0" to-layer="4098" to-port="1" />
		<edge from-layer="4098" from-port="2" to-layer="4099" to-port="0" />
		<edge from-layer="4099" from-port="1" to-layer="4100" to-port="1" />
		<edge from-layer="4100" from-port="2" to-layer="4101" to-port="1" />
		<edge from-layer="4101" from-port="2" to-layer="4105" to-port="0" />
		<edge from-layer="4101" from-port="2" to-layer="4112" to-port="0" />
		<edge from-layer="4101" from-port="2" to-layer="4140" to-port="0" />
		<edge from-layer="4102" from-port="0" to-layer="4113" to-port="0" />
		<edge from-layer="4103" from-port="0" to-layer="4111" to-port="0" />
		<edge from-layer="4104" from-port="0" to-layer="4105" to-port="1" />
		<edge from-layer="4105" from-port="2" to-layer="4107" to-port="0" />
		<edge from-layer="4106" from-port="0" to-layer="4107" to-port="1" />
		<edge from-layer="4107" from-port="2" to-layer="4109" to-port="0" />
		<edge from-layer="4108" from-port="0" to-layer="4109" to-port="1" />
		<edge from-layer="4109" from-port="2" to-layer="4110" to-port="0" />
		<edge from-layer="4110" from-port="1" to-layer="4111" to-port="1" />
		<edge from-layer="4111" from-port="2" to-layer="4112" to-port="1" />
		<edge from-layer="4112" from-port="2" to-layer="4113" to-port="1" />
		<edge from-layer="4113" from-port="2" to-layer="4121" to-port="0" />
		<edge from-layer="4113" from-port="2" to-layer="4130" to-port="0" />
		<edge from-layer="4114" from-port="0" to-layer="4115" to-port="0" />
		<edge from-layer="4115" from-port="1" to-layer="4117" to-port="0" />
		<edge from-layer="4116" from-port="0" to-layer="4117" to-port="1" />
		<edge from-layer="4117" from-port="2" to-layer="4119" to-port="0" />
		<edge from-layer="4118" from-port="0" to-layer="4119" to-port="1" />
		<edge from-layer="4119" from-port="2" to-layer="4120" to-port="0" />
		<edge from-layer="4120" from-port="1" to-layer="4121" to-port="1" />
		<edge from-layer="4121" from-port="2" to-layer="4122" to-port="0" />
		<edge from-layer="4122" from-port="1" to-layer="4131" to-port="0" />
		<edge from-layer="4123" from-port="0" to-layer="4124" to-port="0" />
		<edge from-layer="4124" from-port="1" to-layer="4126" to-port="0" />
		<edge from-layer="4125" from-port="0" to-layer="4126" to-port="1" />
		<edge from-layer="4126" from-port="2" to-layer="4128" to-port="0" />
		<edge from-layer="4127" from-port="0" to-layer="4128" to-port="1" />
		<edge from-layer="4128" from-port="2" to-layer="4129" to-port="0" />
		<edge from-layer="4129" from-port="1" to-layer="4130" to-port="1" />
		<edge from-layer="4130" from-port="2" to-layer="4131" to-port="1" />
		<edge from-layer="4131" from-port="2" to-layer="4139" to-port="0" />
		<edge from-layer="4132" from-port="0" to-layer="4133" to-port="0" />
		<edge from-layer="4133" from-port="1" to-layer="4135" to-port="0" />
		<edge from-layer="4134" from-port="0" to-layer="4135" to-port="1" />
		<edge from-layer="4135" from-port="2" to-layer="4137" to-port="0" />
		<edge from-layer="4136" from-port="0" to-layer="4137" to-port="1" />
		<edge from-layer="4137" from-port="2" to-layer="4138" to-port="0" />
		<edge from-layer="4138" from-port="1" to-layer="4139" to-port="1" />
		<edge from-layer="4139" from-port="2" to-layer="4140" to-port="1" />
		<edge from-layer="4140" from-port="2" to-layer="4150" to-port="0" />
		<edge from-layer="4140" from-port="2" to-layer="4143" to-port="0" />
		<edge from-layer="4141" from-port="0" to-layer="4149" to-port="0" />
		<edge from-layer="4142" from-port="0" to-layer="4143" to-port="1" />
		<edge from-layer="4143" from-port="2" to-layer="4145" to-port="0" />
		<edge from-layer="4144" from-port="0" to-layer="4145" to-port="1" />
		<edge from-layer="4145" from-port="2" to-layer="4147" to-port="0" />
		<edge from-layer="4146" from-port="0" to-layer="4147" to-port="1" />
		<edge from-layer="4147" from-port="2" to-layer="4148" to-port="0" />
		<edge from-layer="4148" from-port="1" to-layer="4149" to-port="1" />
		<edge from-layer="4149" from-port="2" to-layer="4150" to-port="1" />
		<edge from-layer="4150" from-port="2" to-layer="4151" to-port="1" />
		<edge from-layer="4151" from-port="2" to-layer="4160" to-port="0" />
		<edge from-layer="4152" from-port="0" to-layer="4153" to-port="0" />
		<edge from-layer="4153" from-port="1" to-layer="4156" to-port="0" />
		<edge from-layer="4154" from-port="0" to-layer="4155" to-port="0" />
		<edge from-layer="4155" from-port="1" to-layer="4156" to-port="1" />
		<edge from-layer="4156" from-port="2" to-layer="4158" to-port="0" />
		<edge from-layer="4157" from-port="0" to-layer="4158" to-port="1" />
		<edge from-layer="4158" from-port="2" to-layer="4159" to-port="0" />
		<edge from-layer="4159" from-port="1" to-layer="4160" to-port="1" />
		<edge from-layer="4160" from-port="2" to-layer="4161" to-port="0" />
	</edges>
	<rt_info>
		<Runtime_version value="2024.6.0-17404-4c0f47d2335-releases/2024/6" />
		<conversion_parameters>
			<framework value="pytorch" />
			<is_python_object value="True" />
		</conversion_parameters>
		<nncf>
			<friendly_names_were_updated value="True" />
			<weight_compression>
				<all_layers value="False" />
				<awq value="False" />
				<gptq value="False" />
				<group_size value="128" />
				<ignored_scope value="[]" />
				<mode value="int4_sym" />
				<ratio value="1.0" />
				<scale_estimation value="False" />
				<sensitivity_metric value="weight_quantization_error" />
			</weight_compression>
		</nncf>
		<optimum>
			<optimum_intel_version value="1.19.0" />
			<optimum_version value="1.25.3" />
			<pytorch_version value="2.7.0" />
			<transformers_version value="4.44.2" />
		</optimum>
	</rt_info>
</net>
